UQ/saved_models/Ux_coeffs.pt (torch, 8935 bytes, 6 tensors)

fc1.weight f4 [32, 2]
000000 b9 1d 86 be 31 ca 02 bf c8 0f 09 3f 1a 75 0f bf
       -0.26194552 -0.5108977 0.53539705 -0.5603806
000010 7f 03 02 3e 9d 43 0a 3f 0c d0 12 3c 03 a3 86 3d
       0.12696646 0.5400942 0.008960735 0.06574061
000020 0c 6b f8 be 52 d5 bf 3e d1 e0 0b 3f 8a 93 f5 bd
       -0.4851917 0.37467438 0.5463992 -0.119910315
000030 b5 6f 19 3e 92 9e ba 3e bc 78 c9 3e 66 d8 9c 3e
       0.14984019 0.36449105 0.39349926 0.3063385
000040 07 74 05 3f a0 a4 50 3e 5a 9c ab 3e 79 c5 dd be
       0.5213017 0.203753 0.33517724 -0.43314722
000050 5a 7d c9 3e d2 ba 9d 3e b2 53 c1 be a2 59 8a 3d
       0.39353448 0.30806595 -0.37759167 0.06755377
000060 6f 22 d5 3d 3c ce fb bd 79 44 01 bd f2 c0 ff 3e
       0.10406958 -0.122951955 -0.03155944 0.49951893
000070 22 b7 a5 3e 04 fd 14 be a2 52 f8 3d da 7b 55 3e
       0.32366282 -0.14549643 0.12125136 0.20848027
000080 64 01 d2 be 96 6d 09 bf 91 2b df 3d 6c c8 79 be
       -0.41016686 -0.5368284 0.108969815 -0.24392861
000090 6a f0 b3 3e 08 18 0f be 01 71 ef bd f2 51 a1 3e
       0.3514436 -0.13974011 -0.11691476 0.31507832
0000a0 58 1a ee 3e 43 d9 e0 bd 61 29 d5 bc c6 96 cb be
       0.46504474 -0.109789394 -0.026020708 -0.39763469
0000b0 da a7 eb be 90 4f f7 be 00 d3 86 bd 24 01 4b bd
       -0.46026498 -0.4830289 -0.06583214 -0.049561635
0000c0 33 7b 03 3f 22 e8 d3 3e 7b bd 10 3e 29 95 f0 3e
       0.5135986 0.4138804 0.14134781 0.469888
0000d0 de fa af be 61 55 c8 3e f0 09 2d 3e 69 67 37 be
       -0.34371084 0.3912764 0.16898322 -0.17910542
0000e0 26 b0 a7 be 87 62 0a 3f a4 af 3e be 82 a3 97 3e
       -0.32751578 0.5405659 -0.18621689 0.29616934
0000f0 3f e9 1f be 32 49 e0 3e 13 a8 f5 be 62 76 c5 3e
       -0.1561632 0.43805844 -0.47979793 0.3856688

fc1.bias f4 [32]
000000 57 50 1a 3d b3 12 5a be f0 60 3e 3e af 5e 2c 3e
       0.037674274 -0.21296196 0.18591666 0.16832994
000010 05 5c a3 3e 1f 0c 66 3c 2a 59 82 3d 22 2d f8 bd
       0.31906143 0.014040976 0.06364663 -0.121179834
000020 86 88 e2 3e a6 cf cd be f8 72 98 be bd 64 c4 be
       0.44244784 -0.40197486 -0.29775214 -0.38358107
000030 4a 8c 9b 3e d5 65 b1 be b9 da ff bd ab a8 0a 3e
       0.3038047 -0.34648004 -0.1249289 0.13540904
000040 26 d4 f4 3e 05 09 94 be 54 a8 ec 3d e1 e7 a4 be
       0.47818106 -0.2891313 0.115555435 -0.3220816
000050 92 2f 9e be cf 1d 3e be 2f 05 92 be f7 07 b1 b9
       -0.30895668 -0.18566059 -0.2851958 -0.00033766005
000060 0d 63 fc be 92 c8 9e 3e 20 ec e8 be 93 ba 0b be
       -0.4929432 0.31012398 -0.4549265 -0.13645391
000070 de cc 1f 3e b3 41 d0 be 5e a0 87 3e 0a ec d5 3e
       0.15605494 -0.40675125 0.26489538 0.41781646

fc2.weight f4 [32, 32]
000000 71 23 8d bd 2e ec ec 3d b1 65 f8 bd fb b0 19 3c
       -0.068915255 0.11568485 -0.12128771 0.009380574
000010 bc 7f 0c be 40 49 b2 3b 80 f7 24 bd 16 4a 99 3d
       -0.13720602 0.005440861 -0.040275097 0.07484834
000020 6a 42 c8 3c d0 2e 95 bc 4f 48 57 bd 17 14 65 3d
       0.024445731 -0.018210799 -0.052559193 0.055927362
000030 c0 b3 02 bd 94 74 0b be dd ab 8d 3d 40 83 2d 3c
       -0.031909704 -0.1361869 0.06917546 0.0105903745
000040 08 17 29 3d bc 29 ab bd 70 19 3d bb b8 2d 27 bd
       0.04128173 -0.083575696 -0.0028854273 -0.040815085
000050 78 ae 81 3c 76 11 bc 3d 7f 1a 00 3e 50 43 1f 3c
       0.015830263 0.09183018 0.12510107 0.009720638
000060 83 c7 0e 3e bb 0b 01 3e ba 0d 83 3d 5b dd 94 3d
       0.13943295 0.12602131 0.063991025 0.07268783
000070 8c 25 82 bd 38 4a b9 3c c2 fd 97 3d bf d4 20 b9
       -0.06354818 0.022618398 0.07421447 -0.00015338043
000080 9e c1 94 3d 0e 2c e1 bd b2 21 59 bd 9a 9e ab bd
       0.07263492 -0.10994731 -0.05301065 -0.0837986
000090 11 53 0a 3e b8 31 12 bd 38 2e 7f bd c4 ad 3c bd
       0.1350825 -0.035691947 -0.062299937 -0.046064153
0000a0 62 00 b2 3d 7a 18 83 3d 5b 76 62 bd a6 e9 cf bd
       0.08691479 0.06401153 -0.055288654 -0.10151987
0000b0 86 a1 a0 bd 18 57 45 bd c2 c0 3d bd 9b de 0a be
       -0.07843308 -0.048178762 -0.046326406 -0.1356148
0000c0 78 f9 92 3c 18 9d c2 bc e0 5c 45 3b 7f f0 34 3d
       0.017941222 -0.023756549 0.0030115172 0.044174667
0000d0 02 ba 79 bd ca 96 63 bd 82 9b ee 3d 0a fc b6 bd
       -0.060968406 -0.055563726 0.116507545 -0.089347914
0000e0 7e f1 da 3d 34 a1 9e bd 74 ec 26 3d cc 5e 3d bd
       0.10690592 -0.07745591 0.040752843 -0.046232983
0000f0 20 e2 6d bd 68 d5 ae 3c 8d 40 0b 3e c0 e6 7b 3a
       -0.058076978 0.021341994 0.13598843 0.00096092746
000100 b2 bc bd 3d b0 39 1f 3c 2a a2 fc 3d 64 43 7c 3d
       0.092645064 0.009718344 0.12335618 0.061587706
000110 9c 02 ac bd de 7b 9d 3c 1c 95 c8 3d 30 c4 56 bc
       -0.08398935 0.019224104 0.09794065 -0.013108298
000120 d0 99 06 3c cc a6 48 3d 74 f3 21 bd 10 e4 f6 bc
       0.008215383 0.048987195 -0.039538816 -0.030138046
000130 7b bf f4 3d ce c3 8b bd e9 cb 04 3d 30 d6 c1 bd
       0.119505845 -0.06824456 0.032421026 -0.09464681
000140 ff 84 0c 3e 3a f9 71 bd f2 08 58 bd 42 7b f6 bd
       0.13722609 -0.05907557 -0.052742906 -0.12035228
000150 85 ef f5 bb 18 54 df bc 84 4e 2e 3d e6 6b 94 3d
       -0.0075053596 -0.027261779 0.042555347 0.072471425
000160 28 f1 f6 bc 28 4e e8 3c 10 d8 a6 bd 90 9c 40 3c
       -0.03014429 0.02835758 -0.081466794 0.011756077
000170 20 0c 34 3b 2e 38 77 bd 5e 0b 0a be ce 46 f0 3d
       0.0027473047 -0.06035631 -0.13480899 0.11732255
000180 3a 27 d1 3d c1 db 9c bd 2b 1f bd bd 70 00 7a 3c
       0.1021256 -0.07659102 -0.092344604 0.015258893
000190 d0 49 28 bc 1f c3 aa bd d0 35 a8 3b 08 96 01 bd
       -0.0102715045 -0.08337998 0.005133368 -0.03163722
0001a0 8e 32 b4 3d b6 44 42 3d b7 fb b2 3d 15 60 7b 3d
       0.08798705 0.04742881 0.08739417 0.061370928
0001b0 ba d3 e5 bc 1c c3 4d 3d 80 59 7e bd 22 e8 cd 3d
       -0.02805506 0.0502349 -0.062097073 0.100540414
0001c0 a2 e8 07 bb cb cc 03 3e e0 bd e5 3c d0 52 38 3d
       -0.0020738025 0.12871091 0.028044641 0.04500085
0001d0 6d e9 93 bc cf 83 9f bd 15 df c0 bd 17 d8 b6 bd
       -0.018055642 -0.07788812 -0.094175495 -0.089279346
0001e0 03 05 ab bd ea d2 f4 3d 65 1f b0 bd 3e 72 ce bd
       -0.08350565 0.11954291 -0.08599738 -0.10080384
0001f0 e8 ae 07 bd d0 e3 74 3d 82 43 64 bd 28 83 1d bd
       -0.033125788 0.05978757 -0.055728443 -0.03845516
000200 e6 f1 08 be 00 c1 c5 bd 90 37 ad 3c d0 50 95 3c
       -0.13373527 -0.096559525 0.021144658 0.018227011
000210 a0 0d bf 3a 40 e2 40 bd 40 45 c7 3b 6c 2c d1 bd
       0.0014576204 -0.04709077 0.0060812533 -0.10213551
000220 b7 ca 6a 3d 23 17 68 bd 2e a5 bd bd d6 e0 16 bd
       0.05732223 -0.05666269 -0.09260021 -0.036835514
000230 0a 60 9d 3d 08 68 8a bd 00 e4 ee bd 38 00 66 3d
       0.076843336 -0.06758124 -0.11664581 0.056152552
000240 da 64 ef 3c b8 86 ec bd 2c 0c d4 3d bd 3e bf bd
       0.029222894 -0.11549133 0.10353884 -0.09338138
000250 d2 f0 f4 bd 9d 4a 65 bc fe ff c6 bd 50 21 01 3d
       -0.11959995 -0.01399484 -0.097167954 0.03152591
000260 c2 94 6e bd b1 41 0c 3e 8e 51 c7 bd 5d 55 0e 3e
       -0.058247335 0.13696934 -0.09732352 0.13899751
000270 78 c0 ff bd d4 09 4a 3d 12 eb bf 3d 4e e0 3b 3d
       -0.124878824 0.04932578 0.09371008 0.04586821
000280 f8 60 aa 3c a0 4f 06 3d 50 ce c6 3c e4 3d f6 3d
       0.020798191 0.03279078 0.0242683 0.120235234
000290 56 f1 ac bd d4 92 af bd e8 4e 99 bd 0e 77 01 be
       -0.08444469 -0.08572927 -0.07485753 -0.12643072
0002a0 a5 27 b2 ba f8 b1 bc bc 56 cd b8 bd 25 25 af bd
       -0.0013592137 -0.02303408 -0.0902354 -0.08552007
0002b0 5a 6d 7f bd d3 ee 89 3d 40 a6 87 3b e1 cc 93 bd
       -0.062360145 0.06735005 0.0041396916 -0.07216812
0002c0 70 84 10 3d 62 11 c1 bd bc fe 15 3d ac 47 1e bd
       0.035282552 -0.09427144 0.036619887 -0.03864257
0002d0 e6 ab 56 3d 2c cc 4d 3d fe e0 54 3b 50 4c cb bd
       0.05241003 0.05024354 0.0032482739 -0.09926665
0002e0 f6 36 ed 3d 30 28 28 3d 46 e4 97 3c 4e f5 b0 3d
       0.115827486 0.04105395 0.018541466 0.08640538
0002f0 58 63 81 3c 70 cf 40 3c 35 86 0b 3e 32 62 ca bd
       0.015794441 0.011768207 0.13625415 -0.098820105
000300 14 28 79 3d 5d 56 a0 bb c1 99 0d 3e c0 04 fc 39
       0.060829237 -0.004893108 0.13828184 0.00048068725
000310 bb c8 af bd c9 0e 43 3d 0c 01 09 be 59 7f fb bd
       -0.08583208 0.047621522 -0.13379306 -0.12280149
000320 93 7c bf bc d2 25 74 bd 58 42 d8 3c bc 1c 26 bd
       -0.023374831 -0.05960638 0.026398823 -0.040554747
000330 95 c0 0c be 7b e8 02 3e 40 25 50 3b fe 16 9a 3d
       -0.13745339 0.12783997 0.0031760484 0.07523917
000340 a5 6d f6 bd 07 f7 ed bc 0d 04 d7 3c 9a d2 c2 3d
       -0.12032632 -0.029048456 0.026247049 0.09512825
000350 a6 29 83 3d ae 5b fe 3d 70 59 d8 3d 89 97 b6 bd
       0.06404428 0.1241983 0.10563934 -0.08915622
000360 c0 15 89 3b f3 fe 96 bd 88 2d 94 3c 9f d0 00 3e
       0.004183501 -0.073728465 0.018088117 0.12579583
000370 0a 58 d2 bd 14 bd 0b bd da 4c ac 3d 90 fd a7 3a
       -0.10270698 -0.034115866 0.08413096 0.0012816656
000380 84 0a 01 be 00 58 80 bd 4e a2 c0 bd 18 db e4 bd
       -0.12601668 -0.06266785 -0.09405957 -0.11174601
000390 20 ce 08 bc dc a4 24 bd 3a f7 da bd c7 90 0c be
       -0.008349925 -0.040196285 -0.10691686 -0.13727103
0003a0 20 e5 8f 3c a8 f3 c8 3a 62 22 b6 bd b2 84 ee 3d
       0.01756531 0.0015331404 -0.08893277 0.11646403
0003b0 9a 7c 81 3d 34 10 16 bd f4 fc 61 3d be a5 b1 3d
       0.06322594 -0.036636546 0.055172876 0.08674191
0003c0 ce eb f7 3d 84 a6 d4 3d ce 85 c1 3d 2a e4 d2 3d
       0.12105523 0.10383323 0.09449349 0.10297425
0003d0 58 b9 33 3d 44 98 d3 3d a6 df a3 3d 38 fe 32 3d
       0.04387793 0.10331777 0.08001642 0.043699473
0003e0 c1 4e bf bd 4b 04 0a 3e c0 f3 e5 bd 7b 3e a2 bd
       -0.09341193 0.134782 -0.11228132 -0.079220735
0003f0 20 96 ef bc f0 b9 68 3c 82 75 f5 bc 78 52 c3 3c
       -0.02924639 0.014204487 -0.029963259 0.023843035

fc2.bias f4 [32]
000000 67 9c 06 00 41 b7 05 00 ab d0 03 80 7f 1d 06 00
       6.0712e-40 5.24917e-40 -3.50362e-40 5.61594e-40
000010 53 f5 00 00 a7 b4 03 80 a3 54 06 00 b1 c2 05 00
       8.8006e-41 -3.40312e-40 5.81375e-40 5.2902e-40
000020 d9 09 07 80 38 ac 05 00 0a 3c 06 00 71 05 06 00
       -6.46381e-40 5.20958e-40 5.72551e-40 5.52965e-40
000030 c4 31 06 00 73 b1 05 80 55 c8 05 80 7f 38 02 00
       5.68866e-40 -5.22834e-40 -5.31043e-40 2.03938e-40
000040 ec b4 05 00 f7 43 08 00 55 bb 05 00 77 b4 05 80
       5.2408e-40 7.59065e-40 5.2638e-40 -5.23916e-40
000050 5b ce 08 80 0d b9 05 80 b1 1c 06 80 e1 bb 05 00
       -8.0871e-40 -5.25561e-40 -5.61306e-40 5.26576e-40
000060 f5 c9 0f 37 ff f7 06 80 b8 ee 05 00 89 f9 05 00
       8.570486e-06 -6.39977e-40 5.44814e-40 5.48694e-40
000070 3a 43 06 00 e0 f6 05 80 f4 b9 05 00 13 08 01 80
       5.7513e-40 -5.4774e-40 5.25885e-40 -9.4732e-41

fc3.weight f4 [16, 32]
000000 a7 5e f9 3d 7b 07 f3 3d 4b e5 8c bd 3e e4 8f 3d
       0.121762566 0.11866661 -0.06879672 0.070259556
000010 30 5d ba bd 9f 8e 3a 3d bc b4 12 bd 47 f2 bd bd
       -0.09099805 0.04554617 -0.035816893 -0.09274726
000020 e4 23 fd 3c 94 c4 8d bd 3a aa 5a bb 58 16 e1 bc
       0.030900903 -0.0692226 -0.0033365623 -0.027476475
000030 a2 7a 7d bd 21 cc db bd 02 f3 08 3d a0 42 35 bc
       -0.06188453 -0.10732294 0.033434875 -0.011063248
000040 c7 ac d0 bc 10 b2 cf bd 5c 82 f8 3d 82 79 28 bd
       -0.025473012 -0.101413846 0.12134239 -0.041131504
000050 2c 78 21 3d 86 1e 5f bd 45 69 66 3c 9e 4f cc bd
       0.039421245 -0.05447247 0.014063184 -0.09976123
000060 06 d2 ef 3c 22 bf 8d bd 8a 72 ad 3d 0c 5d 7e 3d
       0.029274952 -0.06921221 0.08469112 0.062100455
000070 db fd 42 bc 44 e5 92 bd 0e 58 e5 bd ee 3b 4d 3d
       -0.011901344 -0.07172635 -0.11198436 0.05010598
000080 6c 17 7f bd 42 84 ad 3d 77 5a 0a bd a1 89 6c 3d
       -0.062278196 0.08472492 -0.03377768 0.05774844
000090 a8 8e 91 3c ed d7 50 bd 94 26 46 3d 6c 04 03 3d
       0.01776822 -0.050987173 0.048376635 0.03198664
0000a0 f9 3c 2c bc 25 3d 1b 3d 19 c9 35 bd a6 77 db 3c
       -0.010512584 0.03790011 -0.044381235 0.026790451
0000b0 9e b9 a9 bd 19 16 4a bc e7 d4 a1 3c 9d 63 a7 bd
       -0.08287357 -0.01233437 0.01975484 -0.081732966
0000c0 68 53 6e 3c ca bd 42 bd b6 21 e9 bd f6 3e 1e 3c
       0.014546253 -0.04754428 -0.11383383 0.009658566
0000d0 9c b0 b7 bd a8 c8 28 bd 90 99 d1 bd b9 dd 28 bd
       -0.089692324 -0.041206986 -0.10234368 -0.041227076
0000e0 e6 be a5 bd 57 38 37 3d 5b c4 8f bd ea 52 e8 3d
       -0.080930516 0.044731464 -0.07019874 0.113439396
0000f0 8c aa d0 bd 57 ce c9 3d 38 f0 c4 3b ac 97 07 3d
       -0.10188779 0.09853809 0.0060100816 0.03310363
000100 6e 84 ec 3d f8 48 82 bc b3 89 23 3d c8 93 ee bd
       0.115486965 -0.015903935 0.039926242 -0.11649281
000110 8b fa 84 bd d4 16 56 3d 29 33 87 bd ae a5 9e 3d
       -0.064931 0.052267864 -0.06601555 0.07746445
000120 29 78 30 bd 3d b8 b5 bd b8 20 29 bd 69 d5 3c bc
       -0.043083344 -0.08873031 -0.04129097 -0.01152549
000130 21 b3 36 bd 71 37 23 3d f1 74 ca 3d ca a9 69 3d
       -0.044604424 0.039847795 0.09885586 0.05704669
000140 15 ab e5 bd 4e 70 bc 3d 19 2a 42 bd 36 fd 31 bd
       -0.11214272 0.09201108 -0.04740343 -0.04345437
000150 18 39 01 3d 28 4a f6 bd b6 e4 d3 bd 07 aa 99 bd
       0.03154859 -0.12025863 -0.103463575 -0.07503133
000160 02 27 19 bd 18 92 a9 bc 09 09 9f bd db ca 8b bd
       -0.037390716 -0.020699546 -0.07765395 -0.06825801
000170 69 df 0a 3d c6 dd de bd 18 ca 95 3c ee 4f b9 3d
       0.033904467 -0.10882144 0.018284842 0.090484485
000180 2a d5 e5 bd 96 92 89 3d 8e 10 83 bd 4c ea 95 3d
       -0.112222984 0.06717412 -0.06399642 0.07320079
000190 0a 64 86 3d 4c 3e bd 3d 97 31 2b bc ca 37 bc 3d
       0.0656205 0.09240398 -0.010448835 0.091903284
0001a0 13 7f b6 3c 8c 26 42 3d 69 ea 0d 3d 22 53 83 3c
       0.02227739 0.047400042 0.03464738 0.016030852
0001b0 d4 7c 78 3d b7 3d 98 bd 4b fa ee 3d 7e e2 86 3d
       0.06066592 -0.07433646 0.11668833 0.06586169
0001c0 4a d9 17 bd 67 e4 30 3a 67 73 84 3c fa 2d 91 3d
       -0.037072457 0.0006747902 0.01616831 0.070888475
0001d0 e4 de ef 3a 5e c7 e0 bc 50 79 5d bd 26 e9 97 3d
       0.001830068 -0.027438816 -0.05407077 0.074175164
0001e0 f4 f6 b8 bd 9d 68 dc 3d 7a b9 4f bd de 49 b0 bd
       -0.090314776 0.10762141 -0.050713994 -0.08607839
0001f0 54 16 e4 3d 38 ab cf bd 30 ae bb bd 6f 2f 84 3d
       0.11137071 -0.10140079 -0.09164083 0.0645436
000200 6a 49 a3 3d ca 46 6d 3d ec d3 a4 bc 2b 6a 00 bc
       0.07972987 0.057928838 -0.020120583 -0.007837812
000210 50 01 b7 bd 63 16 11 bd 2f 4b c5 bd 22 74 f3 3d
       -0.08935797 -0.03542174 -0.09633481 0.11887385
000220 38 7b f2 3a 89 c8 d4 b9 4c 9e 0c 3d cc 95 9b 3c
       0.0018499857 -0.000405852 0.03433065 0.018992327
000230 2b 75 22 bd 50 17 3f bd 8e e1 f0 bd 3f ef 2d bd
       -0.03966252 -0.046653092 -0.11761771 -0.04246449
000240 1a dc ed bc 2c cd ff bb 72 59 22 bb 6c 38 26 3d
       -0.029035617 -0.007806441 -0.0024772552 0.04058115
000250 d0 26 f3 bd d3 2b e8 bd 4d 9f 9a bd 64 28 29 3d
       -0.11872637 -0.11336484 -0.075499155 0.041298285
000260 07 c4 a8 3d fc 73 d2 bd 5e 2c 61 bd dc 45 c3 bc
       0.08240514 -0.102760285 -0.054973952 -0.023837022
000270 4e 02 2d bd 1a 9e 5e 3b c9 8f 2a bd 95 25 81 bd
       -0.042238526 0.0033968748 -0.04164103 -0.06305996
000280 3d ea 90 3c 40 7d 06 bd cd e7 cf 3d 7e fd 9b 3d
       0.017689819 -0.03283429 0.10151634 0.07616709
000290 78 41 12 bd b7 3a 9a bd 49 94 d5 3d fb 0b a3 3c
       -0.035706967 -0.0753073 0.10428674 0.019903174
0002a0 80 02 4b bd ec 97 3d 3d e0 6c e0 b9 ca e6 8e 3d
       -0.04956293 0.046287462 -0.00042805728 0.06977613
0002b0 5f ce 9a 3c 8e c4 e5 3d 74 23 3e 3d 87 86 42 bd
       0.018897234 0.112191305 0.04642053 -0.047491577
0002c0 f8 57 a3 bc 0e 5e 8f 3d d5 a1 97 bd ee 70 82 bd
       -0.019939408 0.070003614 -0.07403914 -0.06369196
0002d0 93 06 2b bd b4 c9 d3 3d 8f 47 d1 3c 10 a3 18 3d
       -0.041754317 0.10341206 0.025546817 0.037264884
0002e0 d2 84 b2 bd 39 c9 ea bd 58 5e 87 bd 6a b6 7b bd
       -0.0871674 -0.114641614 -0.066097915 -0.06145326
0002f0 0a 9a b4 3d 99 9a ab 3c 3b ea cf 3d 64 8f 92 bd
       0.08818443 0.020947741 0.10152098 -0.07156256
000300 40 cc 62 bc 75 b9 86 bd 84 4c 5a 3d a0 9f 94 bd
       -0.013842642 -0.06578342 0.053295627 -0.072570086
000310 14 7d 3b 3d 66 36 1d 3d 3c d4 d9 bd 4c db c4 bc
       0.04577358 0.038381957 -0.106361836 -0.02403035
000320 7c fd f0 3c 4e 20 f6 3d b2 29 f2 bd 8c 61 a3 bd
       0.029417746 0.120178804 -0.11824359 -0.0797759
000330 7e 12 e6 3d b4 7a d0 bd de c8 e8 bc ea 4c aa 3d
       0.11233996 -0.10179654 -0.028416093 0.083154514
000340 30 64 8e 3d 45 00 a5 3c 87 24 33 3d 86 a4 2a bd
       0.06952703 0.02014173 0.043736007 -0.041660808
000350 c9 df 97 bd a2 a9 f2 b9 3f 94 f0 bd 2e b8 b1 3d
       -0.074157305 -0.00046284223 -0.11747026 0.086777076
000360 d4 98 49 3d 32 b0 da 3d 22 ce 44 bd 17 b1 7d bd
       0.049218014 0.10678138 -0.048048146 -0.061936464
000370 a5 6f 78 3c 88 39 d5 bd 16 fe b1 3d d9 9a 8a 3c
       0.015163337 -0.10411364 0.08691041 0.01691954
000380 ad 95 50 3d 62 17 a2 bd fd ff 8f 3d a0 38 d2 bd
       0.050923992 -0.07914616 0.07031248 -0.102647066
000390 c8 f9 ca bd 98 93 a5 bd 80 58 2b 3d 8c 41 06 bd
       -0.09910923 -0.08084792 0.041832447 -0.032777354
0003a0 6e 6c 7f 3d 94 68 51 3c 19 9f b5 bc a2 d2 0b 3d
       0.062359266 0.012781281 -0.02217059 0.034136422
0003b0 af ce 56 bd e0 e3 d0 bc 5f 95 bd 3d 72 6e e7 3d
       -0.052443203 -0.025499284 0.09257006 0.11300363
0003c0 3c 11 51 3d 08 eb 78 bc 02 3a a4 bd 65 06 b6 bb
       0.051041827 -0.015192755 -0.080188766 -0.0055549615
0003d0 f6 1c f1 bd da 67 c0 3d a8 73 ac bc 50 53 d2 3c
       -0.11773102 0.09394808 -0.021051243 0.025674492
0003e0 28 2d fe bc 09 11 0d 3d 16 5d 96 3d 1c 29 07 bd
       -0.031027392 0.034440074 0.073419735 -0.03299819
0003f0 d9 e3 ad 3d fc 3d cb bd 2c 64 77 3d b2 2c a9 3d
       0.08490724 -0.09923932 0.060398266 0.08260478

fc3.bias f4 [16]
000000 f8 f4 1e b6 f8 85 dd 03 0f c7 30 88 91 17 a9 06
       -2.3686425e-06 1.301997e-36 -5.3197066e-34 6.360536e-35
000010 67 71 25 03 fa 81 d2 02 59 84 ba 05 84 5e ba 05
       4.861932e-37 3.093133e-37 1.7539973e-35 1.7526075e-35
000020 43 19 c1 0b d4 3e c5 04 1f d8 24 89 66 6a d3 8b
       7.4378905e-32 4.6372176e-36 -1.9842402e-33 -8.1434334e-32
000030 31 92 4b 0b e9 6a 69 84 c9 0e 80 08 c5 d5 5f 1b
       3.920636e-32 -2.743811e-36 7.707196e-34 1.85152e-22
