UQ/saved_models/Ux_coeffs_mean.pt (torch, 9071 bytes, 6 tensors)

fc1.weight f4 [32, 2]
0	0x3f334525	0.7002738
1	0xbebbaadb	-0.3665379
2	0xbe963729	-0.2933896
3	0xbf0737f8	-0.52819777
4	0x3e15a854	0.14614993
5	0x3f1862f9	0.5952602
6	0xbf0a1254	-0.53934216
7	0xbea26dfa	-0.3172453
8	0xbec3de8b	-0.38255724
9	0xbd160040	-0.036621332
10	0xbf059fe0	-0.52197075
11	0xbf319c83	-0.6937944
12	0x3ed86782	0.4226647
13	0xbeda6305	-0.4265367
14	0x3e5b6eec	0.21429032
15	0x3df8a9b0	0.1214174
16	0x3e246a8c	0.1605627
17	0xbe510160	-0.20410681
18	0xbeb6bc5a	-0.35690576
19	0xbd6e5610	-0.058187544
20	0xbe756b80	-0.23966789
21	0xbee1a93b	-0.44074425
22	0xbe406360	-0.18787909
23	0xbdfe8068	-0.12426835
24	0x3f066761	0.52501494
25	0x3ed7b0ea	0.42127162
26	0xbf027de8	-0.5097337
27	0xbe0bcd30	-0.13652492
28	0xbdfabee0	-0.12243438
29	0xbec1f0e2	-0.37879092
30	0xbee27fa9	-0.44238022
31	0xbde92d40	-0.11385584
32	0x3f0012d5	0.50028735
33	0x3ccda780	0.025104284
34	0x3ee6e5ca	0.4509719
35	0x3e6260a8	0.22107184
36	0xbeece6c5	-0.46269813
37	0x3cc9a980	0.024616957
38	0xbb3ee300	-0.0029127002
39	0xbf319fc4	-0.6938441
40	0x3e7e8ea0	0.24859095
41	0xbe7662e0	-0.24061155
42	0xbdb86240	-0.09003115
43	0xbeec011d	-0.460946
44	0xbda2a6c8	-0.07941967
45	0xbf102d09	-0.5631872
46	0xbe2ea7dc	-0.17056221
47	0xbf0a80b3	-0.5410263
48	0xbeca3cfd	-0.39499655
49	0xbe20f208	-0.15717328
50	0xbd680e00	-0.056653976
51	0xbeb497e6	-0.3527214
52	0x3f226583	0.63436145
53	0x3ed3fe62	0.41405016
54	0x3f24c683	0.64365405
55	0xbf1ed921	-0.6205006
56	0x3f2d03a1	0.6758366
57	0x3ea5cd32	0.32383114
58	0x3e35a0c0	0.17737103
59	0x3ead11ae	0.3380255
60	0x3d93b7a0	0.07212758
61	0xbf2a6df8	-0.6657405
62	0xbe6cb998	-0.23117673
63	0x3c856660	0.016284168

fc1.bias f4 [32]
0	0xbec0b6eb	-0.37639555
1	0x3eafa5fe	0.3430633
2	0x3e7b9e44	0.24572092
3	0xbeb29ee5	-0.34886852
4	0x3e7e32e0	0.24824095
5	0xbe883dc7	-0.26609632
6	0xbf0feb12	-0.56218064
7	0x3dbccc60	0.09218669
8	0xbe4c9ac0	-0.19980907
9	0x3e522f24	0.20525795
10	0xbf105bb8	-0.5638995
11	0xbe9cebbb	-0.30648598
12	0x3e9432fc	0.28945148
13	0xbcf0a1c0	-0.029374003
14	0x3eb033de	0.34414572
15	0xbf00d2c4	-0.503216
16	0xbec65329	-0.3873532
17	0xbde43970	-0.11143768
18	0x3eb8a966	0.3606674
19	0x3decd4a8	0.115639985
20	0xbb4aeb00	-0.0030962825
21	0x3eec9822	0.46209818
22	0xbed7ba08	-0.42134118
23	0xbe5c6462	-0.21522668
24	0x3e054158	0.13013208
25	0x3eaa14de	0.33219045
26	0xbf009d82	-0.5024034
27	0x3f2a7c1f	0.66595644
28	0xbd6a0a80	-0.05713892
29	0x3d55c3e0	0.052188754
30	0xbed5ce7f	-0.41759107
31	0x3e8effb4	0.2792946

fc2.weight f4 [32, 32]
0	0x3cf09058	0.029365703
1	0xbe0e0100	-0.13867569
2	0xbe0f2200	-0.13977814
3	0x3e169929	0.14706863
4	0x3bb525e0	0.0055281967
5	0x3dd5fc52	0.10448517
6	0x3e201e07	0.15636455
7	0x3d137278	0.035997838
8	0xbda21bd5	-0.07915465
9	0x3e044bd9	0.12919559
10	0xbe268dbd	-0.16265006
11	0xbe1c4f6e	-0.15264675
12	0x3e02a1db	0.12757055
13	0x3c2e76e0	0.010648459
14	0x3d89e490	0.06733048
15	0xbd8c9b0a	-0.06865509
16	0xbda2fb8e	-0.079581365
17	0x3d672e84	0.056440845
18	0xbcdf2818	-0.027240798
19	0xbdc53c0d	-0.096305944
20	0xbdd7160a	-0.105022505
21	0xbe32e3a9	-0.17469658
22	0x3ceab1e0	0.02864927
23	0xbda5a6c3	-0.08088448
24	0x3df70bfa	0.12062831
25	0x3e086a75	0.1332186
26	0xbb4eb000	-0.003153801
27	0x3df77bfe	0.120841965
28	0x3df62ae6	0.12019901
29	0xbe2921d6	-0.16516814
30	0xbd0562a8	-0.03256479
31	0xbe0295d2	-0.12752464
32	0xbd8c9b83	-0.06865599
33	0x3d644f48	0.05573967
34	0xbd93f56c	-0.07224545
35	0xbd9ff19a	-0.07809754
36	0xbd5ee828	-0.05442062
37	0x3dfdf112	0.12399496
38	0xbd9b89b1	-0.07594622
39	0x3e2cd255	0.1687711
40	0xbdfa8726	-0.12232809
41	0x3dd210a2	0.10257079
42	0xbdd90a92	-0.10597719
43	0xbc9800c8	-0.01855506
44	0xbe10fed4	-0.14159709
45	0x3e0ac70d	0.13552494
46	0x3df1a05a	0.11798163
47	0x3de57c1e	0.11205314
48	0xbd98a63f	-0.07453584
49	0x3d9e49ba	0.07728906
50	0x3e0ae8a1	0.13565303
51	0x3dc57036	0.09640543
52	0x3dd33df6	0.103145525
53	0x3d8376e6	0.064191625
54	0x3dae6b5e	0.085165724
55	0x3bba49c0	0.005685061
56	0x3a892b80	0.0010465235
57	0xbd9755e2	-0.07389428
58	0xbd2afa70	-0.041742742
59	0xbcd26d60	-0.02568692
60	0x3e34a269	0.1764008
61	0x3daeaef6	0.08529465
62	0xbd52a3c4	-0.05142571
63	0x3db40aae	0.087910995
64	0xbe26d66c	-0.16292733
65	0x3bef9b00	0.0073121786
66	0x3e09ca59	0.13456096
67	0x3c8dbd48	0.01730217
68	0x3d4584d8	0.048222393
69	0x3e083f5f	0.13305424
70	0x3dd228ce	0.10261689
71	0xbcaefa60	-0.021359622
72	0xbdf3eb40	-0.11910105
73	0x3e30d87b	0.17270081
74	0x3e0f3edd	0.13988824
75	0xbcbd3550	-0.02309671
76	0xbcf941a8	-0.030426815
77	0xbdcb6fd4	-0.09933439
78	0x3d879190	0.06619561
79	0xbdf04dc5	-0.11733583
80	0xbd4e7cc4	-0.050411955
81	0x3da03856	0.07823245
82	0x3d79d140	0.060990572
83	0xbe2316b7	-0.15926634
84	0xbdc270ed	-0.09494195
85	0xbe03ac76	-0.12858757
86	0xbdfa980d	-0.12236033
87	0xbe28caac	-0.16483563
88	0xbd820e7f	-0.06350421
89	0x3e00338f	0.12519668
90	0x3dde829e	0.10864757
91	0x3d883fa0	0.066527605
92	0x3d9c6912	0.07637228
93	0xbdbbcc1a	-0.09169789
94	0x3e041107	0.1289712
95	0xbe0ef8dc	-0.1396212
96	0x3e158417	0.1460117
97	0xbd653fb8	-0.05596897
98	0x3e124e47	0.14287673
99	0x3e1428c5	0.14468677
100	0x3da19e72	0.07891549
101	0xbd436318	-0.047701925
102	0xbda7aea7	-0.08187609
103	0x3d6af520	0.057362676
104	0x3dcf4dce	0.10122262
105	0xbc0467f0	-0.008081421
106	0xbb1d32c0	-0.0023986548
107	0x3d18533c	0.037188753
108	0xbdfec29c	-0.124394625
109	0x3e19c29f	0.15015648
110	0x3d6e69b8	0.05820629
111	0x3da75946	0.081713244
112	0xbe18be4e	-0.14916345
113	0xbd9acb9c	-0.07558367
114	0x3e1a4827	0.15066586
115	0xbdba6298	-0.091008365
116	0x3e211b45	0.15733059
117	0x3e1ca315	0.15296586
118	0x3e348a33	0.17630844
119	0xbba8a000	-0.0051460266
120	0xbc04c4b0	-0.008103535
121	0xbe0a3cce	-0.13499758
122	0x3da62002	0.08111574
123	0xbdc8aa8e	-0.09798156
124	0x3daddd3a	0.08489461
125	0xbe0a15f0	-0.13484931
126	0xbdecdda4	-0.11565712
127	0x3caa6db0	0.020804256
128	0x3d3f688c	0.046730563
129	0xbe051e29	-0.12999786
130	0x3e06c5dd	0.13161416
131	0x3e0af9fb	0.13571922
132	0x3d830812	0.06398024
133	0xbd702f00	-0.058638573
134	0xbb37d780	-0.0028052032
135	0xbda29be2	-0.079398885
136	0x3debe73e	0.11518715
137	0x3e10364d	0.14083214
138	0xbd2cc768	-0.042182356
139	0x3ddf0bfe	0.10890959
140	0xbcb04150	-0.021515518
141	0x3df1cf66	0.11807136
142	0x3e1e1007	0.15435801
143	0xbe321f41	-0.17394735
144	0xbdb46be8	-0.08809644
145	0xbdc358b9	-0.09538407
146	0xbdd5f4b0	-0.10447061
147	0x3d7f1ee8	0.062285334
148	0xbdf19c7c	-0.11797425
149	0xbd6bc094	-0.057556704
150	0xbd3ef0a8	-0.046616226
151	0x3c597870	0.013273343
152	0x3d9d264e	0.07673322
153	0x3df7729a	0.120824054
154	0x3caf3fa8	0.021392658
155	0x3d475444	0.048664346
156	0x3dfdee7a	0.123990014
157	0xbd918d03	-0.07106974
158	0x3b8379a0	0.0040123016
159	0xbe2176b9	-0.15767945
160	0xbd991b9a	-0.07475968
161	0x3d840278	0.064457834
162	0x3e0db247	0.13837539
163	0x3d213410	0.03935629
164	0x3d92abca	0.071616724
165	0xbe31a5e3	-0.17348437
166	0xbd5c1a28	-0.053735882
167	0xbdbbc636	-0.09168665
168	0x3d9cda1e	0.0765879
169	0xbdaeb840	-0.08531237
170	0xbdfd0b60	-0.12355685
171	0x3e24e7ed	0.16104098
172	0xbe2d1d2c	-0.1690566
173	0xbc5a6970	-0.013330802
174	0x3d78fa40	0.060785532
175	0xbd20398c	-0.03911738
176	0x3d96194a	0.07329042
177	0x3e2ce1e1	0.16883041
178	0x3cda9828	0.026683882
179	0xbdca767f	-0.098858826
180	0x3dc99f16	0.09844796
181	0xbe125486	-0.14290056
182	0x3e200231	0.15625836
183	0xbe167039	-0.14691247
184	0xbd9ab356	-0.07553737
185	0x3de2e51a	0.11078854
186	0x3c739de0	0.014869183
187	0xbe19fbd9	-0.15037479
188	0x3dacc8ba	0.08436723
189	0x3e22f9e5	0.1591564
190	0x3e27334b	0.1632816
191	0xbdbfb56b	-0.093607746
192	0x39d64a00	0.00040872395
193	0xbe08b821	-0.1335149
194	0xbd84b631	-0.06480063
195	0x3e1b3eab	0.15160625
196	0x3e059bf9	0.1304778
197	0x3d2d5e34	0.042326167
198	0x3e103833	0.14083938
199	0x3d920d0e	0.07131396
200	0x3e109dd9	0.14122714
201	0xbd56ce64	-0.052442923
202	0x3e087d89	0.13329138
203	0x3defe53a	0.11713643
204	0xbd0b5fdc	-0.034026965
205	0x3cf6e8a0	0.030140221
206	0x3d4fdbd8	0.05074677
207	0xbd6bfb0c	-0.057612464
208	0xbce3bbd0	-0.027799517
209	0x3dea667a	0.11445327
210	0x3ddb5c96	0.10711019
211	0xbc13aa90	-0.009012833
212	0x3d536d60	0.05161798
213	0xbdbdc192	-0.09265436
214	0x3cab1ed0	0.020888716
215	0x3ddaee92	0.10690035
216	0x3cbad8a0	0.022808373
217	0xbdb3a18d	-0.08771048
218	0x3dd9f882	0.10643102
219	0x3d79a1dc	0.060945377
220	0x3d92c42a	0.071663216
221	0xbe108319	-0.1411251
222	0xbddf4793	-0.109023236
223	0x3cb5adb8	0.022177562
224	0x3d692b1c	0.056925878
225	0x3d9625ee	0.07331453
226	0xbdaad7ab	-0.08341917
227	0x3e11c0d1	0.1423371
228	0xbd4ef510	-0.05052668
229	0xbe1675b5	-0.14693339
230	0x3e348f0d	0.17632695
231	0xbd856ac8	-0.065145075
232	0x3e0e2521	0.13881351
233	0xbe014833	-0.12625198
234	0x3e2cc2cd	0.16871186
235	0x3dfa7a56	0.12230365
236	0xbe07cf06	-0.13262567
237	0xbd3bad4c	-0.045819566
238	0x3e174917	0.14773975
239	0x3d846fd4	0.06466642
240	0x3e2656cd	0.1624405
241	0x3d4f2ba8	0.050578743
242	0xbdb97db9	-0.09057183
243	0xbdc3db57	-0.0956332
244	0xbb98e120	-0.004665509
245	0x3dfcf5fe	0.12351607
246	0x3e168e1d	0.1470265
247	0xbd9b62f7	-0.075872354
248	0x3e125c63	0.14293055
249	0xbddd6f94	-0.108122975
250	0xbe23d934	-0.16000825
251	0xbe11fbbc	-0.14256185
252	0x3e26412f	0.16235803
253	0x3e00b4b7	0.12568937
254	0x3e34155b	0.17586271
255	0xbe156be3	-0.14591937

fc2.bias f4 [32]
0	0x3d10b3cc	0.035327718
1	0xbde214fd	-0.110391594
2	0x3d78ed68	0.060773283
3	0x3d568978	0.052377194
4	0x3cc6e578	0.024279341
5	0x3e14193f	0.14462756
6	0xbe294f6f	-0.16534208
7	0x3dc2b47e	0.095070824
8	0xbdbeb241	-0.09311343
9	0x3d97b786	0.07408051
10	0xbd323e70	-0.043516576
11	0x3d61ae0c	0.055097625
12	0xbcb675f8	-0.022273049
13	0xbdf771c0	-0.12082243
14	0x3d162bfc	0.03666304
15	0xbdfc1271	-0.12308205
16	0xbe26543c	-0.1624307
17	0x3e286501	0.1644478
18	0x3dd9687a	0.106156304
19	0x3e089c85	0.13340957
20	0xbe0c573a	-0.1370515
21	0xbe275065	-0.16339262
22	0xbdd66ee8	-0.104703724
23	0x3df6ce26	0.120510384
24	0x3e29ca27	0.16581021
25	0xbd533e70	-0.051573217
26	0xbd5c7d38	-0.053830355
27	0x3dd5f236	0.10446589
28	0xbd943e0e	-0.072383985
29	0xbc881300	-0.016610622
30	0x3db4d05a	0.088288024
31	0x3ded702a	0.11593659

fc3.weight f4 [16, 32]
0	0xbd5ca0f2	-0.053864427
1	0x3dfcd49a	0.12345238
2	0xbd25ceb0	-0.040480316
3	0xbdf7a81a	-0.1209261
4	0x3cfe0840	0.031009793
5	0x3dc2ec02	0.09517671
6	0xbcdf07e8	-0.02722545
7	0x3d491050	0.049087822
8	0xbda8a5cf	-0.082347505
9	0x3d70a9a4	0.058755532
10	0x3e093969	0.13400806
11	0xbd501940	-0.05080533
12	0xbdd96c08	-0.106163085
13	0x3dab72a2	0.08371474
14	0xbe271e04	-0.16320044
15	0x3d515a3c	0.051111445
16	0xbe1e2689	-0.15444387
17	0xbcc7abe8	-0.024373963
18	0xbe2bb1a0	-0.16766977
19	0xbe0c9c62	-0.1373153
20	0xbd22dbc0	-0.03976035
21	0x3ddd651a	0.10810299
22	0x3dfa69e6	0.1222723
23	0x3dc11b3e	0.09429024
24	0xbe1c6bf4	-0.15275556
25	0xbdc4ae20	-0.09603524
26	0xbe0c7050	-0.13714719
27	0xbe0108ad	-0.12600966
28	0xbd9c149b	-0.07621118
29	0xbe337ca3	-0.17528014
30	0xbe2d2e97	-0.16912304
31	0xbd2f9a38	-0.042871684
32	0x3dfd73ea	0.123756245
33	0xbe2a35d0	-0.1662209
34	0x3e2b0b0f	0.16703437
35	0xbd3b0244	-0.045656458
36	0xbe05526e	-0.13019726
37	0x3db46482	0.08808233
38	0x3d6e145c	0.058124885
39	0x3ae59780	0.0017516464
40	0x3e20f27d	0.15717502
41	0xbd398144	-0.045289293
42	0x3e1400af	0.14453386
43	0xbdfc2454	-0.123116165
44	0x3d92ebea	0.07173903
45	0xbdff1fe0	-0.124572515
46	0x3dd7a65a	0.10529776
47	0x3de769ca	0.112994745
48	0xbbbfb060	-0.005849883
49	0xbd0b1094	-0.033951357
50	0xbe0ce6ea	-0.13759962
51	0xbd7d368e	-0.061819606
52	0x3ddb0bea	0.10695632
53	0xbdf29108	-0.11844069
54	0x3d5cd8f0	0.053917825
55	0x3be97700	0.0071247816
56	0xbe070140	-0.1318407
57	0xbce36488	-0.027757898
58	0xbd6774ac	-0.05650775
59	0x3d8ab802	0.06773378
60	0x3c0161e0	0.00789687
61	0xbdd77336	-0.105200216
62	0xbd3a769c	-0.04552327
63	0xbc8aa438	-0.016924009
64	0xbc95a320	-0.01826626
65	0x3e2c61f9	0.16834249
66	0x3d630f50	0.055434525
67	0xbc3ea300	-0.011635542
68	0xbc4401b0	-0.011963293
69	0xbe00887e	-0.12552068
70	0xbdaa2a1c	-0.08308813
71	0x3db40c7e	0.08791445
72	0xbe199b1a	-0.15000573
73	0x3e0f6851	0.14004637
74	0xbe24bb25	-0.16087015
75	0xbd6d70e8	-0.057969004
76	0x3dc849c2	0.09779693
77	0xbd8af09f	-0.06784176
78	0x3c006210	0.00783588
79	0xbe0687a0	-0.13137674
80	0x3d90218c	0.070376486
81	0xbddf1202	-0.108921066
82	0x3def4b0a	0.116842344
83	0x3b784500	0.0037882924
84	0xbd40a9cc	-0.04703693
85	0xbd18a9d0	-0.03727132
86	0xbc1faf10	-0.009746328
87	0x3deba8c6	0.115068
88	0xbda8c3ce	-0.08240472
89	0x3daa324e	0.08310376
90	0xbe1d4b17	-0.15360676
91	0x3d10cd30	0.035351932
92	0xbdc182d4	-0.094487816
93	0xbdbc1a50	-0.09184706
94	0xbe12f97e	-0.14352986
95	0x3c7b1200	0.015324116
96	0xbd679c7e	-0.056545727
97	0xbce983a8	-0.028505161
98	0x3d54800c	0.051879928
99	0xbda52b59	-0.080649085
100	0x3da86bee	0.08223711
101	0xbe11481d	-0.14187665
102	0xbdcd34a1	-0.10019804
103	0x3d5db920	0.054131627
104	0xbe27ba39	-0.16379632
105	0xbde7aefd	-0.11312673
106	0x3e2bfa4b	0.16794698
107	0x3df2f2ee	0.118627414
108	0x3d043a8c	0.032282397
109	0xbe30c17b	-0.17261307
110	0x3e1be457	0.15223823
111	0xbe0056a4	-0.12533051
112	0xbe15b6a1	-0.14620449
113	0xbe13c258	-0.14429605
114	0xbe343352	-0.17597702
115	0x3d1cf5e0	0.038320422
116	0x3de50216	0.111820385
117	0xbc466480	-0.012108922
118	0x3dec2fe6	0.115325734
119	0x3d661bc8	0.056178838
120	0xbdce061f	-0.10059761
121	0x3d569510	0.05238825
122	0x3d9988ca	0.074967936
123	0xbd807f23	-0.062742494
124	0xbe309ad1	-0.17246558
125	0xbc2c90e0	-0.010532588
126	0xbd29fa10	-0.041498244
127	0xbdb8dae9	-0.09026129
128	0x3d45a210	0.048250258
129	0xbe136f17	-0.14397846
130	0xbd280f24	-0.041030064
131	0x3d3ba054	0.045807198
132	0xbdbd4cbc	-0.092431515
133	0xbe14b080	-0.14520454
134	0xbc84b9b0	-0.016201824
135	0x3e0f1ac3	0.13975053
136	0x3e1f9be9	0.15586819
137	0x3dccd2ca	0.10001142
138	0x3d7ce234	0.06173916
139	0xbd9e989d	-0.077439524
140	0x3db884d6	0.090097114
141	0x3e088e7d	0.13335605
142	0x3d74ea24	0.059793606
143	0x3dfa66fa	0.122266725
144	0x3d5ff66c	0.054678366
145	0xbda3754f	-0.07981359
146	0x3d766318	0.060153097
147	0x3dad8eda	0.084745124
148	0xbdd74f7b	-0.105132066
149	0xbdd0661a	-0.10175724
150	0xbd883aba	-0.06651826
151	0x3c7044c0	0.014664829
152	0x3dc3633a	0.0954041
153	0xbe1ec1d6	-0.1550363
154	0xbd1e637c	-0.038669094
155	0x3c9e4dc0	0.019324183
156	0xbd936b6a	-0.07198222
157	0x3d70c948	0.058785707
158	0x3cf2b638	0.029627904
159	0x3e08afdb	0.13348334
160	0xbdc333d5	-0.095313706
161	0x3db193ae	0.08670746
162	0x3e295a7b	0.16538422
163	0x3d806be2	0.06270577
164	0xbd4f6c28	-0.050640255
165	0x3d88dfd0	0.06683314
166	0x3dcf635a	0.10126372
167	0x3d623360	0.055224776
168	0x3daaffae	0.08349548
169	0xbdec6b2e	-0.115438804
170	0xbdb4a682	-0.08820821
171	0xbe2faac2	-0.17154983
172	0xbdf924e3	-0.12165239
173	0xbd367fc4	-0.04455544
174	0xbe175c6f	-0.14781354
175	0x3d8c62e6	0.06854801
176	0xbe0da050	-0.13830686
177	0xbda043f8	-0.07825464
178	0x3d8726ec	0.06599221
179	0xbdd045d7	-0.10169571
180	0x3dca2316	0.09869973
181	0xbd87f440	-0.06638384
182	0xbd550660	-0.052008033
183	0xbcdf6c98	-0.027273461
184	0x3c1461f0	0.009056553
185	0x3d3818f4	0.044945672
186	0xbb670400	-0.0035250187
187	0xbe17b871	-0.14816453
188	0xbdb3a0f4	-0.08770934
189	0xbe02c758	-0.12771356
190	0xbe0f2c3d	-0.1398172
191	0xbd91053d	-0.07081077
192	0xbde4adef	-0.11165988
193	0x3e298b8b	0.16557138
194	0xbdb8a649	-0.090160914
195	0xbd447b00	-0.047968864
196	0xbc164860	-0.009172529
197	0x3d87ae3c	0.066250294
198	0x3daf053a	0.08545919
199	0x3cb58690	0.022158891
200	0x3cca7368	0.024713233
201	0x3e0caa81	0.13736917
202	0x3dfbe9fa	0.12300487
203	0x3e0f7abb	0.14011662
204	0xbd4ebe5c	-0.05047451
205	0xbdc9ba87	-0.098500304
206	0xbd752342	-0.059848078
207	0xbe12620c	-0.14295214
208	0xbe1b0e27	-0.15142117
209	0x3d86ff0c	0.06591615
210	0xbdbc809d	-0.092042185
211	0x3d4ff874	0.050774053
212	0xbe317a10	-0.1733172
213	0xbd49ef14	-0.04930027
214	0x3e1766eb	0.14785354
215	0x3db5763a	0.088604406
216	0x3d2daf00	0.04240322
217	0xbdde4a13	-0.10853972
218	0xbdf7cea3	-0.1209996
219	0xbd02eb90	-0.03196293
220	0x3d1411c4	0.036149755
221	0x3da4df8e	0.08050452
222	0xbdc8f2ae	-0.098119125
223	0x3cee2360	0.029069602
224	0xbe19a446	-0.15004072
225	0xbd1e5bb8	-0.03866169
226	0x3d285f10	0.041106284
227	0xbe347341	-0.17622091
228	0x3cf1c220	0.029511511
229	0xbd9f213d	-0.077700116
230	0xbd74af5c	-0.05973755
231	0x3e00bca7	0.12571965
232	0x3e1ae54d	0.15126534
233	0xbd543326	-0.05180659
234	0xbe299898	-0.16562116
235	0xbd6ef248	-0.058336526
236	0x3d8e679e	0.06953357
237	0x3e1a6db9	0.15080918
238	0x3d75a51c	0.059971914
239	0xbe0011b6	-0.12506756
240	0x3c65f6e0	0.01403591
241	0x3c018120	0.007904321
242	0x3ddb8946	0.10719542
243	0xbda77e86	-0.08178429
244	0x3dd8cb32	0.105856314
245	0xbe238ac8	-0.1597091
246	0xbe305bce	-0.1722252
247	0xbd0b5150	-0.034013093
248	0x3d377d80	0.04479742
249	0x392d3800	0.00016519427
250	0xbdfac987	-0.122454695
251	0xbda0984b	-0.078415476
252	0xbdbb0f70	-0.09133804
253	0x3d787f98	0.060668558
254	0x3d268d5c	0.040662155
255	0xbe1afdd6	-0.15135893

fc3.bias f4 [16]
0	0x3dc7f15a	0.09762831
1	0xbe338031	-0.1752937
2	0x3cb5e578	0.022204146
3	0xbdacfb0f	-0.08446323
4	0x3e175ba7	0.14781056
5	0xbe137352	-0.1439946
6	0x3d074b98	0.033031076
7	0xbdbf4276	-0.09338848
8	0xbd312d74	-0.043256238
9	0xbe1a358a	-0.15059486
10	0x3e25a9ad	0.16178007
11	0xbe3497c2	-0.17636016
12	0xbdf6c494	-0.12049213
13	0x3dec56de	0.11540006
14	0x3e32a1fd	0.17444606
15	0x3e1d4025	0.153565
