UQ/saved_models/Ux_coeffs.pth (torch, 8935 bytes, 6 tensors)

fc1.weight f4 [32, 2]
1.2078151e-19 -2.2365558e-21 -4.8856484e-18 -1.36594154e-17 -1.0293105e-17 -3.291437e-16 -4.1025797e-18 -5.5981904e-19
-5.624454e-20 5.5263577e-21 9.392375e-18 7.466955e-19 -1.5497974e-21 -6.6906185e-18 -6.327832e-18 1.303542e-17
-1.2419858e-19 6.7939925e-13 -1.3502958e-17 -6.3931446e-17 -1.5531524e-21 -8.803921e-19 1.217591e-18 -1.2170056e-14
1.2969844e-19 -1.3834348e-18 1.1297077e-17 5.1306363e-19 2.6980093e-20 -1.7660585e-19 1.4936932e-16 -4.853877e-18
8.375617e-15 -2.9584732e-20 2.6022646e-14 1.2308246e-20 5.203897e-18 -5.763579e-19 -2.2228991e-20 1.1519163e-22
-4.4453733e-22 1.6619053e-17 8.562704e-20 -2.6448504e-07 -4.3890855e-19 9.623703e-21 6.8383134e-17 -1.6310354e-17
-1.6819255e-17 -8.081994e-20 1.5601674e-17 1.6894865e-17 -1.557624e-19 -6.215315e-20 1.4199585e-18 -3.045325e-19
-1.3306693e-17 2.860521e-19 5.3341507e-19 1.6662326e-17 -1.03507075e-19 1.4563382e-17 -2.500968e-20 1.3467686e-17
00000000: f997 0e20 48fd 289d a53f b4a2 c4f8 7ba3
00000010: d0df 3da3 09bd bda5 c55b 97a2 bb3a 25a1
00000020: bdcd 849f a7c7 d01d 3d42 2d23 b862 5c21
00000030: e232 ea9c 1bd7 f6a2 af74 e9a2 0876 7023
00000040: b8a0 12a0 e03b 3f2b eb15 79a3 776a 93a4
00000050: acb4 ea9c 46ec 81a1 4aaf b321 7a3c 5ba8
00000060: f31e 1920 b028 cca1 f064 5023 fe6d 1721
00000070: ddd1 fe1e d87f 50a0 0b36 2c25 9213 b3a2
00000080: b7e1 1628 bfb5 0b9f 2364 ea28 077f 681e
00000090: 6bfd bf22 5f1c 2aa1 67f2 d19e 1542 0b1b
000000a0: 695a 069c a148 9923 5f2e ca1f 8cfe 8db4
000000b0: fe8a 01a1 5fc9 351e 47ae 9d24 bc6f 96a3
000000c0: 5821 9ba3 a8d4 be9f 69e6 8f23 dfd3 9b23
000000d0: 4ce4 37a0 46c1 929f 848c d121 a6c3 b3a0
000000e0: 1577 75a3 f9da a820 b46f 1d21 ceae 9923
000000f0: 3066 f49f d052 8623 b235 ec9e 596f 7823

fc1.bias f4 [32]
-5.7084965e-24 8.340063e-25 2.6188537e-24 7.5585055e-24 -1.2017959e-22 -6.530358e-07 3.730694e-25 -5.0194517e-24
-4.074308e-24 -3.1156286e-25 4.7510122e-24 1.8350879e-24 1.2020685e-22 8.196867e-24 5.1631364e-24 -3.624915e-24
-8.87218e-24 -1.07368245e-23 -9.051838e-24 -1.0094547e-23 2.6981528e-24 -3.7345587e-25 9.63129e-25 9.682876e-24
-4.230209e-24 9.682876e-24 5.4939184e-24 5.805642e-22 4.4832638e-24 -3.6419842e-24 4.4771757e-24 2.6188537e-24
00000000: 36d6 dc98 650e 8117 be9f 4a18 e833 1219
00000010: c849 119b 474c 2fb5 35eb e616 3e2e c298
00000020: fe9d 9d98 1bd9 c096 bfcb b718 a9fb 0d18
00000030: 3852 111b eb8c 1e19 3abd c718 6b3b 8c98
00000040: e89c 2b99 2eae 4f99 8816 2f99 c741 4399
00000050: 6cc2 5018 7228 e796 7809 9517 484b 3b19
00000060: f6a5 a398 484b 3b19 2289 d418 fb76 2f1c
00000070: 1870 ad18 77e4 8c98 cd33 ad18 be9f 4a18

fc2.weight f4 [32, 32]
3.503611e-29 1.3856576e-27 -2.2147255e-27 2.6252732e-27 8.002901e-27 -2.502643e-27 -5.5913194e-27 1.5955425e-27
-5.4413318e-27 -2.8408992e-27 3.3527067e-29 -2.8217556e-28 -6.8900074e-27 -7.8137506e-28 -5.8213366e-27 6.2094165e-27
1.5678079e-27 -8.003793e-27 -2.6360644e-27 2.1039215e-27 -4.0117837e-27 -1.1851207e-26 2.8289898e-27 -1.3561331e-27
3.4044238e-28 -5.082411e-25 7.803294e-27 -2.0897999e-28 5.5918062e-27 5.7347118e-27 7.167419e-28 3.8653437e-27
-3.5785966e-27 -2.1022402e-28 -5.1999223e-28 -5.6272056e-27 -3.2739504e-28 -1.429354e-27 -4.065951e-28 -8.157218e-27
-4.2577424e-28 7.990162e-27 7.782137e-27 -3.6989998e-28 2.4203524e-27 -1.3748999e-27 -3.622329e-27 8.221186e-27
-2.065254e-28 -5.375703e-28 -8.005176e-27 1.1925087e-26 -2.0672306e-28 -3.8653437e-27 4.071603e-28 -7.814244e-28
-1.288204e-27 9.773025e-28 1.0404173e-27 8.251953e-28 6.7713856e-27 -2.898889e-27 6.7783305e-27 3.849535e-27
-1.4732396e-28 2.3577096e-27 -6.774665e-27 -2.0556868e-28 -1.1529386e-27 -8.675113e-28 2.7494335e-27 -2.6711412e-29
-6.444822e-13 6.170775e-28 1.7339174e-27 6.1109246e-29 1.4375207e-27 3.7817996e-28 -9.189935e-27 7.4587337e-29
4.323927e-27 -1.0380393e-27 -2.4449705e-29 2.0854147e-27 8.774451e-28 4.4166192e-27 -1.3529432e-25 2.639178e-27
1.23827034e-26 -1.56908e-27 -8.812077e-29 1.416515e-27 -2.4733617e-27 -5.113014e-25 4.6782726e-28 7.6313534e-28
-6.026226e-29 8.0043705e-27 5.4171474e-28 8.773263e-28 2.0834234e-27 5.3834046e-28 2.5233977e-27 -2.601565e-29
-7.2460283e-28 4.6782726e-28 2.215298e-28 -2.8806932e-27 3.8500018e-27 -5.6112824e-27 -4.9444693e-28 -1.4023538e-27
4.862989e-28 -3.6819906e-27 7.931702e-27 8.558429e-27 1.35587885e-27 2.073622e-27 -8.900767e-28 -1.5539922e-26
2.6688123e-29 2.2960853e-28 2.0480765e-27 -2.1039945e-27 -2.4013787e-28 9.269491e-27 -3.4791226e-28 -1.9217748e-27
-3.3538285e-29 -6.8890905e-29 -1.8436128e-27 6.7125616e-29 7.8778e-27 2.0615345e-26 -8.900767e-28 4.2236217e-28
4.379569e-28 -4.6305257e-27 5.7171023e-28 -8.079852e-27 6.0161676e-29 7.2464467e-28 5.4160443e-27 -3.5603134e-27
1.4731785e-27 -4.6359225e-27 1.0381764e-27 -1.63018e-27 1.585206e-26 3.61582e-27 -4.323927e-27 -3.6846826e-27
-2.0067487e-27 -2.2132119e-27 8.826074e-28 -1.0104447e-27 6.6268984e-27 -9.709957e-28 2.0906882e-28 1.047907e-27
-1.8722287e-27 -2.9112245e-27 -2.4737318e-27 4.2427794e-28 3.390435e-27 -9.275266e-27 9.992281e-28 3.6621985e-27
-6.0267856e-28 3.5950718e-27 3.0782862e-27 -1.980578e-28 5.7039203e-28 7.111574e-28 5.4653936e-27 -1.5116099e-27
1.4240787e-27 1.6861982e-28 -1.5752963e-27 1.3917734e-26 4.4404226e-28 -2.3574977e-27 4.6331076e-28 2.8259334e-28
8.53208e-28 -2.8061061e-27 2.917701e-27 2.9112245e-27 -2.3784353e-27 4.955848e-28 -3.7048532e-28 -4.6635034e-27
-1.3853794e-27 8.6649755e-28 -2.5224465e-27 3.7389556e-28 2.441111e-27 -9.6886265e-28 9.584785e-29 1.6122375e-27
2.1034498e-27 8.853941e-28 2.4570723e-27 1.0218237e-27 -4.4264237e-27 5.5855058e-27 4.3674602e-27 7.3040224e-28
-7.28156e-27 -4.848101e-28 -6.771423e-27 1.6652713e-28 7.322086e-27 5.1682094e-28 -1.0009574e-27 4.6782726e-28
-8.442259e-28 -5.3772267e-28 2.7191417e-27 -4.6297087e-27 1.2417055e-26 1.667297e-28 -7.3064374e-27 -4.632696e-28
-4.652382e-28 -6.898061e-29 -2.6335087e-27 -8.444793e-28 2.9185146e-27 -2.2385126e-27 2.089688e-28 -4.397264e-28
-7.9326674e-27 -7.1693156e-28 -1.6277154e-25 3.7527024e-28 -8.048967e-27 -9.710363e-28 5.7994273e-27 4.829806e-25
-3.7426854e-28 -5.617342e-27 5.4557304e-27 -2.8431352e-27 -2.053248e-28 -6.688208e-27 1.5276835e-28 -2.3069082e-27
-3.1459855e-29 -6.747842e-27 1.0380393e-27 1.6713303e-28 -5.465098e-27 2.9078364e-27 1.41670675e-27 8.563182e-28
00000000: 79a7 3110 f390 db12 f877 2f93 defe 4f13
00000010: 8783 1e14 a147 4693 b77e dd93 e5d2 fc12
00000020: a98d d793 4814 6193 9f00 2a10 9ad9 b291
00000030: 7d78 0894 ada0 7792 5e9b e693 f7fa f513
00000040: d86d f812 0d88 1e94 bdd9 5093 99b0 2613
00000050: 52ec 9e93 c2bc 6a94 bb22 6013 4be3 d692
00000060: efc7 d711 024b 1d97 678f 1a14 f174 8491
00000070: a783 dd13 e32c e313 0325 6312 3e1f 9913
00000080: 48c3 8d93 cc3e 8591 c8ca 2492 a5ea de93
00000090: e282 cf91 7d7d e292 eada 0092 0292 2194
000000a0: e9ee 0692 ef42 1e14 1f24 1a14 b473 ea91
000000b0: 94c2 3f13 91dc d992 c87e 8f93 5ed6 2214
000000c0: a9e6 8291 e25c 2a92 118f 1e94 6033 6c14
000000d0: bc06 8391 3e1f 9993 c508 0112 aea4 7792
000000e0: c31f cc92 19dc 9a12 57dc a412 e6c1 8212
000000f0: 011f 0614 74ac 6593 3842 0614 ec7e 9813
00000100: 5cc1 3a91 08cc 3a13 a22f 0694 6d4b 8291
00000110: bfb0 b692 7076 8992 23d5 5913 6571 0790
00000120: d667 35ab 468f 4312 0660 0913 2bee 9a10
00000130: c4c8 e312 35b3 ef11 8206 3694 f319 bd10
00000140: d449 ab13 e07b a492 10f3 f78f 3c39 2513
00000150: 6709 8b12 d7f5 ae13 7b7c 2796 e418 5113
00000160: c443 7514 72a1 f892 a669 df90 ad74 e012
00000170: bcf5 4393 783d 1e97 a842 1412 e5d8 7112
00000180: 71c8 9890 fb8a 1e14 1fad 2b12 9504 8b12
00000190: d910 2513 5e9b 2a12 96ec 4713 3fea 0390
000001a0: c4a2 6592 a842 1412 4469 8c11 663b 6493
000001b0: a883 9813 2a49 de93 4db2 1c92 3a36 de92
000001c0: 411d 1a12 d2db 9193 821a 1d14 6484 2914
000001d0: fbd8 d612 0d4a 2413 cd09 8d92 62e6 9994
000001e0: 2a53 0710 1d88 9111 ed43 2213 14b2 2693
000001f0: 9934 9891 e799 3714 fe83 dc91 3942 1893
00000200: 2f0f 2a90 c1a8 ae90 e910 1293 042f aa10
00000210: 3109 1c14 1c2a cc14 cd09 8d92 17da 0512
00000220: 49cb 0a12 1c6f b793 a52e 3512 b809 2094
00000230: 2987 9810 29a6 6512 378d d613 de09 8d93
00000240: 386f e912 d7a5 b793 7081 a412 fa27 0193
00000250: bffd 9c14 c53c 8f13 d449 ab93 1ff7 9193
00000260: b3fd 1e93 4559 2f93 cfda 8b12 821c a092
00000270: 5e42 0314 44dc 9992 5b83 8411 280c a612
00000280: 4f55 1493 a6a6 6693 3efd 4393 8475 0612
00000290: 184f 8613 30b7 3794 8255 9e12 1b13 9113
000002a0: 18ff 3e92 5c6a 8e13 10e3 7313 6e11 7b91
000002b0: b3c3 3412 f15f 6112 ad81 d813 2f86 ef92
000002c0: 7fa7 e112 43c0 5511 9c9d f992 a6d5 8914
000002d0: fdb8 0c12 bcc7 3a93 3cd4 1212 641d b311
000002e0: 3a32 8712 9852 5e93 022a 6713 a6a6 6613
000002f0: 6670 3c93 9e0e 1d12 aed2 ea91 8bbd b893
00000300: aa85 db92 514d 8912 4bd9 4793 06fc ec11
00000310: 9d67 4113 bd85 9992 d000 f310 1f78 ff12
00000320: 08a7 2613 da4b 8c12 59ab 4213 18ea a112
00000330: 4559 af93 c243 dd13 4f03 ad13 4579 6712
00000340: e539 1094 78a4 1992 321f 0694 2519 5311
00000350: 6307 1114 7fc9 2312 a89b 9e92 a842 1412
00000360: dfc5 8592 3f69 2a92 bf6e 5713 d366 b793
00000370: f3f1 7514 e25a 5311 0ab8 1094 e5d0 1292
00000380: 9b70 1392 fae2 ae90 e7a5 5093 26d0 8592
00000390: 823a 6713 6e5a 3193 2073 8411 d85a 0b92
000003a0: 671f 1d94 6634 6392 5c80 4996 14db ed11
000003b0: 1d6d 1f94 e9dd 9992 2ebd e513 aa79 1517
000003c0: 8b38 ed91 9e86 de93 ae1f d813 a241 6193
000003d0: db23 8291 3e79 0494 2aa8 4111 a8c5 3693
000003e0: 3a85 1f90 a0a7 0594 e07b a412 c5dd 5311
000003f0: ae7e d893 ee61 6613 747c e012 65b0 8712

fc2.bias f4 [32]
1.0912e-41 -4.790395e-08 -1.4006e-41 -2.8466e-41 3.1e-41 -9.58e-42 2.8582e-41 -7.0313e-41
-8.024e-42 -5.83e-42 9.52e-42 1.4304e-41 2.9017e-41 3.0987e-41 -2.262e-41 -3.32e-43
-2.5988e-41 8.283e-42 2.3976e-41 2.336e-41 7.13e-43 -1.22e-43 3.2195e-41 -3.0052e-41
-5.637e-42 -1.1798e-41 5.503e-42 -4.3911e-41 -1.1924e-41 2.5214e-41 1.4418e-41 2.5523e-41
00000000: 6b1e 0000 f3be 4db3 0b27 0080 5a4f 0080
00000010: 6a56 0000 b51a 0080 ad4f 0000 01c4 0080
00000020: 5e16 0080 4010 0080 8a1a 0000 e027 0000
00000030: e350 0000 6156 0000 0e3f 0080 ed00 0080
00000040: 7248 0080 1717 0000 d642 0000 1e41 0000
00000050: fd01 0000 5700 0080 bf59 0000 c653 0080
00000060: b70f 0080 e320 0080 570f 0000 687a 0080
00000070: 3d21 0080 4946 0000 3128 0000 2647 0000

fc3.weight f4 [16, 32]
1.5303159e-36 -6.111362e-37 3.609832e-33 -1.7526982e-36 -2.3110277e-36 -2.079335e-33 7.172295e-37 -2.8144712e-36
-7.638556e-36 2.094962e-36 2.2238982e-36 -4.0399754e-33 -2.1653327e-36 2.2446357e-36 -7.8061155e-36 -3.123028e-36
3.1229905e-36 -4.6475602e-36 -2.0355912e-36 2.6866754e-34 -2.002815e-36 -2.2231849e-36 2.1240853e-36 5.1801038e-34
1.8442627e-36 2.168902e-36 -1.4597208e-33 -2.1941385e-36 2.2157647e-36 6.9463497e-35 1.3666003e-34 -6.1301467e-37
-2.271896e-35 1.0652243e-35 2.2385202e-36 2.2824618e-35 2.0918762e-34 -1.8434263e-36 -2.1842782e-36 -2.0402251e-36
2.3586894e-36 -1.4119924e-32 6.617461e-35 1.2340437e-34 -9.630367e-35 6.125791e-33 -8.376773e-37 -1.527478e-36
2.1688308e-36 2.2379607e-36 -2.3299792e-36 -1.2299871e-35 -2.167693e-36 2.8377352e-35 -2.259404e-36 -1.461615e-35
-4.6911856e-35 -5.216439e-35 -8.100182e-33 1.6137801e-34 -2.1614135e-36 1.9508715e-36 -2.9155564e-36 -4.863452e-35
6.1304086e-37 -5.8949305e-36 -2.1653334e-36 -4.4209e-33 4.5204397e-34 -1.9508715e-36 1.3664855e-35 -1.9498735e-36
-2.0815561e-36 -1.7706085e-36 9.3685746e-33 9.846648e-33 -2.0096222e-36 8.578678e-36 7.026384e-33 1.978302e-36
-1.8684635e-35 2.279031e-30 2.1941385e-36 -3.6102447e-33 2.2597663e-36 -4.7464786e-35 -1.8442627e-36 -2.232477e-35
-2.259451e-36 4.7350665e-36 -2.1613486e-36 -1.527478e-36 2.259451e-36 -2.2379607e-36 -2.0259822e-35 -2.2174775e-36
-1.5303159e-36 3.312003e-36 -9.25239e-36 -1.06637326e-35 2.3727528e-33 -1.9303787e-36 -2.157042e-36 -8.131081e-35
-8.1180785e-36 1.5345986e-36 2.2157647e-36 -2.3299546e-36 1.49977e-34 -3.5541187e-36 3.848553e-33 -2.3520942e-33
2.1972025e-36 -1.8150281e-36 -2.1972025e-36 1.7526451e-36 -9.1828164e-36 -2.002815e-36 6.6039835e-35 2.2840237e-35
1.5345986e-36 -2.002815e-36 -1.6502872e-35 -7.4415596e-33 -3.8780505e-36 4.381421e-36 -2.168902e-36 -2.1908904e-36
-3.1229905e-36 1.4089677e-33 3.08168e-36 -7.903593e-37 -8.9189165e-35 2.3299546e-36 -6.111362e-37 1.2128348e-35
9.288841e-33 -1.6073664e-36 -1.8434263e-36 -3.3479947e-36 2.1653327e-36 2.1614135e-36 2.8469006e-36 -8.0420597e-35
1.0556759e-35 -2.525478e-34 2.2385202e-36 5.2472148e-36 6.3644736e-34 -8.340976e-37 -2.1652426e-36 2.1972482e-36
-8.936758e-34 1.9771962e-36 -4.6661533e-36 -1.9498735e-36 4.470439e-37 4.311137e-35 -2.3299546e-36 -1.9104416e-32
1.7011652e-36 -2.2499255e-36 -1.7011652e-36 1.9772218e-36 -2.1652426e-36 -1.9346e-35 -2.1613486e-36 1.8349017e-32
2.2165032e-36 1.7860175e-33 5.8949305e-36 4.6475512e-36 -1.5000968e-36 5.3922763e-37 1.5149935e-35 1.3918334e-07
-7.207916e-35 4.0456702e-35 -1.9488904e-36 -1.4753583e-35 -5.216537e-34 8.3863615e-36 -7.9836514e-36 2.121555e-36
3.2229878e-37 7.044608e-35 -2.2593903e-36 -4.4711945e-37 4.718352e-36 3.937813e-36 3.0851267e-36 -8.376773e-37
-4.71622e-36 5.64761e-36 2.1972025e-36 1.0493431e-33 1.3169248e-36 -2.1763158e-36 3.1229905e-36 1.16405215e-35
2.1941385e-36 5.260645e-36 -5.190018e-34 2.8293977e-35 1.7949244e-36 -2.8998542e-35 3.4522065e-35 1.08800346e-35
4.3404203e-36 2.259404e-36 -4.6475602e-36 7.1753293e-37 -5.2222223e-34 8.341793e-37 -2.1763158e-36 8.3153486e-33
-1.5000968e-36 2.0281477e-36 -7.335136e-35 -2.1652426e-36 -6.197745e-36 1.9557763e-34 1.1411852e-35 3.0851267e-36
-2.2499255e-36 -5.9766308e-36 -1.12944e-34 2.259451e-36 -3.0153298e-30 4.442589e-37 -6.876421e-36 -1.5102034e-32
-2.3110277e-36 -4.9463136e-37 -1.030628e-34 1.8801708e-35 -3.1331448e-36 4.6031947e-33 4.068457e-35 9.2929544e-36
8.103558e-34 -2.1614135e-36 -1.9508715e-36 3.6705814e-33 -1.7949244e-36 -6.0252975e-36 -1.5345986e-36 -6.083345e-36
1.7026113e-36 4.7348093e-36 -1.5000968e-36 -8.340976e-37 -2.2045041e-36 -2.167394e-36 3.0851267e-36 -9.242508e-34
00000000: 542f 0204 79f5 4f83 51f2 9509 631a 1584
00000010: ba99 4484 91be 2c89 800f 7403 c16d 6f84
00000020: 4174 2285 3b38 3204 3730 3d04 63d0 a789
00000030: c534 3884 d6f3 3e04 8904 2685 c3d6 8484
00000040: 5bd6 8404 73af c584 402b 2d84 6a8f b207
00000050: 7361 2a84 ae20 3d84 7bb2 3404 7323 2c08
00000060: 7ce4 1c04 8182 3804 a889 f288 1ba8 3a84
00000070: 157f 3c04 68aa b806 00a7 3507 1c99 5083
00000080: e496 f185 548c 6205 a76e 3e04 85b6 f205
00000090: 6e07 8b07 45d2 1c84 5ed1 3984 2b90 2d84
000000a0: b5a7 4804 32a1 928a 1bec af06 5508 2407
000000b0: 7102 0087 9574 fe09 fe85 8e83 86f1 0184
000000c0: f480 3804 7862 3e04 7436 4684 6fcb 8285
000000d0: 2c68 3884 40e1 1606 7635 4084 f26c 9b85
000000e0: 1c6d 7986 3fad 8a86 f43b 288a 1782 5607
000000f0: 6bdf 3784 38f6 2504 3207 7884 f04a 8186
00000100: 649b 5003 1cbe fa84 c934 3884 13a3 b789
00000110: a637 1608 38f6 2584 464f 9105 7ce0 2584
00000120: 4714 3184 70a0 1684 e393 420a c381 4c0a
00000130: b2f5 2a84 c472 3605 aaee 110a 9a4b 2804
00000140: 6ab0 c685 9fe5 380e 1ba8 3a04 b5f6 9589
00000150: 5a3d 4004 b85d 7c86 7ce4 1c84 ce65 ed85
00000160: 7c36 4084 4f68 c904 01de 3784 86f1 0184
00000170: 7c36 4004 7862 3e84 7b70 d785 62a4 3c84
00000180: 542f 0284 85e0 8c04 cdc6 4485 e2ca 6285
00000190: df1e 4509 ed37 2484 3780 3784 4529 d886
000001a0: 06a7 2c85 998c 0204 157f 3c04 eb35 4684
000001b0: 875a 4707 ed2c 9784 d6dc 9f09 8367 4389
000001c0: d5ea 3a04 d067 1a84 d5ea 3a84 3b19 1504
000001d0: 024c 4385 7361 2a84 6290 af06 0ae1 f205
000001e0: 998c 0204 7361 2a84 177d af85 1e8e 1a8a
000001f0: 3bf4 a484 735d ba04 8182 3884 5e61 3a84
00000200: 5bd6 8484 dc1a ea08 8614 8304 0179 8683
00000210: 001b ed86 eb35 4604 79f5 4f83 81f8 8005
00000220: f3eb 400a 57bd 0884 45d2 1c84 6f68 8e84
00000230: c534 3804 6bdf 3704 0130 7204 6ccb d586
00000240: 7784 6005 c8d8 a787 a76e 3e04 1c31 df04
00000250: f47e 5308 13ea 8d83 cf32 3884 d4eb 3a04
00000260: c47c 9488 8533 2804 e979 c684 7ce0 2584
00000270: 041f 1803 2838 6506 eb35 4684 4064 c68a
00000280: 19b8 1004 0a67 3f84 19b8 1084 1434 2804
00000290: cf32 3884 d2b8 cd85 01de 3784 0e8c be0a
000002a0: 2a8f 3c04 6460 1409 1cbe fa04 5aaf c504
000002b0: 6e3a ff83 5a7d 3703 0c1a a105 6d72 1534
000002c0: 899e bf86 cf1a 5706 13cb 2584 13e3 9c85
000002d0: 6459 2d88 b25b 3205 22cb 2985 607b 3404
000002e0: 5e58 db02 1e47 bb06 2a35 4084 9925 1883
000002f0: 4eb2 c804 fd7e a704 0e3a 8304 fe85 8e83
00000300: 179b c884 0739 f004 d5ea 3a04 1f5a ae08
00000310: 2a10 e003 f623 3984 5bd6 8404 0791 7705
00000320: 1ba8 3a04 5ac3 df04 ca77 2c88 c46f 1606
00000330: feb1 1804 c52e 1a86 008d 3706 8b64 6705
00000340: fe9e b804 7635 4004 73af c584 ef29 7403
00000350: c189 2d88 a2ed 8d03 f623 3984 fab3 2c0a
00000360: 6e3a ff83 2589 2c04 5900 c386 cf32 3884
00000370: bccf 0385 cffb 8107 08b4 7205 0e3a 8304
00000380: 0a67 3f84 bf37 fe84 da20 1687 7c36 4004
00000390: f3a1 748e 692c 1703 cc3e 1285 18d4 9c8a
000003a0: ba99 4484 7850 2883 74fe 0887 1eef c705
000003b0: ed44 8584 9035 bf09 f850 5806 a8a3 4505
000003c0: b9a4 8608 6bdf 3784 38f6 2584 5178 9809
000003d0: feb1 1884 d724 0085 998c 0284 e160 0185
000003e0: 97d7 1004 8265 c904 6e3a ff83 13ea 8d83
000003f0: d989 3b84 a961 3884 0e3a 8304 4891 9988

fc3.bias f4 [16]
-3.07167e-40 -3.06528e-40 -7.842371e-07 -2.11124e-40 -2.063636e-39 2.15895e-40 -5.09607e-40 -2.14742e-40
1.20233e-40 1.110467e-39 4.62918e-40 1.88539e-40 -4.04932e-40 1.032021e-39 -4.13994e-40 -1.110441e-39
00000000: 4258 0380 7a56 0380 5d84 52b5 874c 0280
00000010: 9478 1680 d459 0200 948c 0580 9d56 0280
00000020: 294f 0100 8817 0c00 6d0a 0500 920d 0200
00000030: c968 0480 db3c 0b00 0c82 0480 7517 0c80
