UQ/saved_models/Ux_coeffs_regul.pt (torch, 9047 bytes, 6 tensors)

fc1.weight f4 [32, 2]
0.10771683 1.1636921 0.28932527 -0.2675474 0.20937036 -0.13321352 0.27810097 0.2814703
0.08378808 0.7479872 0.47782546 0.34832153 0.18641433 -0.32083166 0.5030795 -0.4796082
-0.30884454 0.48453137 -0.03581954 0.13310696 0.07409785 0.10691592 -0.20609047 0.10552837
-0.47106332 0.5926266 0.04046706 0.19914979 0.020009551 0.07702854 0.42059365 0.980138
0.041679826 0.21088949 0.47339195 0.30544463 -0.39431608 0.32746503 -0.3270664 0.56125396
0.23573594 -0.4085214 0.065502405 -0.7379504 -0.003972035 -0.111287415 0.039349064 -0.11795277
-0.72868985 0.41942582 0.041374978 0.041374747 -0.6474101 0.47748986 0.103203796 -0.20048648
0.068137236 -0.15254578 0.18641903 0.044186804 -0.077969335 -0.23053506 0.19765222 -0.075501524
00000000: a49a dc3d ddf3 943f 7122 943e f9fb 88be
00000010: 2f65 563e 2069 08be 4063 8e3e e01c 903e
00000020: 1699 ab3d 177c 3f3f 8aa5 f43e 3357 b23e
00000030: 66e3 3e3e 0c44 a4be d1c9 003f 358f f5be
00000040: df20 9ebe 7f14 f83e 83b7 12bd 314d 083e
00000050: 9dc0 973d bcf6 da3d 6109 53be 421f d83d
00000060: 362f f1be 60b6 173f cac0 253d eced 4b3e
00000070: 12eb a33c 24c1 9d3d 0d58 d73e 53ea 7a3f
00000080: 77b8 2a3d 6af3 573e 6e60 f23e 3d63 9c3e
00000090: cce3 c9be 7fa9 a73e 3f75 a7be 57ae 0f3f
000000a0: c364 713e b829 d1be 2026 863d 51ea 3cbf
000000b0: d827 82bb a8ea e3bd 7c2c 213d 3991 f1bd
000000c0: 6b8b 3abf fbbe d63e cf78 293d 9178 293d
000000d0: abbc 25bf 8d79 f43e 835c d33d 544c 4dbe
000000e0: 898b 8b3d f634 1cbe a1e4 3e3e 39fd 343d
000000f0: 63ae 9fbd 6211 6cbe 5865 4a3e 8ba0 9abd

fc1.bias f4 [32]
1.3593639 0.6960697 -0.5991203 0.44763532 1.5449361 0.7717209 -0.06471094 0.36496413
0.16332728 0.29158947 1.7741088 0.4658106 0.4745368 2.2066815 1.0645882 0.7870025
-0.12941328 0.53844947 -0.01268936 -0.35015696 -0.19311471 0.7952236 -1.261521 -0.4848978
0.6004002 1.464319 0.06781648 0.71472573 -0.24497859 -0.46277386 -2.151537 0.7570201
00000000: a3ff ad3f a031 323f f35f 19bf 7530 e53e
00000010: 77c0 c53f 808f 453f 2b87 84bd 94dc ba3e
00000020: 443f 273e 374b 953e ff15 e33f ba7e ee3e
00000030: 7df6 f23e 453a 0d40 6d44 883f ff78 493f
00000040: ea84 04be d3d7 093f 09e7 4fbc c647 b3be
00000050: ddbf 45be c693 4b3f 8579 a1bf 8644 f8be
00000060: d4b3 193f ce6e bb3f 5ee3 8a3d 44f8 363f
00000070: abdb 7abe b2f0 ecbe c8b2 09c0 12cc 413f

fc2.weight f4 [32, 32]
0.1658425 -0.029498802 0.04731477 0.069219925 0.11028351 -0.026078789 0.019571269 -0.009063647
0.011976597 0.14048058 -0.04871427 0.0004711746 -0.043691207 0.034067735 -0.10334166 0.10396251
-0.025968771 0.088249154 0.047812507 0.012803833 0.019383976 -0.07628672 0.12227407 -0.03431494
-0.004094042 -0.01518662 -0.01873546 -0.003944559 -0.032102063 -0.037071347 0.11072986 -0.1689633
0.16613892 0.021552058 -0.0133435335 -0.012600202 0.047018982 -0.040436227 0.0010561055 -0.02245792
-0.026614105 0.027500357 -0.055549763 -0.034236457 -0.002708952 0.14014563 0.0025837051 0.012773998
-0.13361675 0.14011227 -0.005022012 0.030280959 0.011810561 0.010272778 -0.13924366 0.047459073
-0.031597026 -0.09375244 0.011692457 0.006553954 0.017477743 -0.19507322 0.029520744 -0.047120802
-0.10907538 0.06458647 -0.032871712 -0.12029238 0.035351288 -0.12564804 0.0075681345 0.06151802
-0.0032309014 -0.0685059 -0.11002632 0.011733505 -0.031081917 -0.09158414 -0.025520697 -0.08217699
0.14123556 0.035806946 -0.13907123 0.0005818075 0.00051082886 -0.020496212 0.0030769417 0.105034225
-0.01689216 0.1281947 0.031656142 0.07412373 0.09009555 0.09837742 -0.13484333 0.08922246
-0.15801916 -0.014845014 0.006721067 -0.044665053 -0.1353377 0.16471665 0.056206103 0.013302482
0.0009602788 0.040315334 0.10771476 0.11817712 -0.017732888 0.03543918 -0.0269753 0.12985553
0.06165594 -0.09630909 -0.033863015 -0.0004447192 0.0027878333 -0.11296332 -0.03484708 -0.011355386
-0.03266369 0.053783547 0.040620204 0.0053695193 -0.04980066 -0.06292987 0.063615076 -0.021192608
0.078543074 0.0075466875 0.10832328 -0.08710109 0.073625155 -0.13052078 0.006076152 0.030501908
-0.0076332144 0.09418174 -0.06565662 0.16454154 -0.031911816 0.11301562 0.103912726 -0.04486962
0.0579956 -0.07414116 -0.0035929254 -0.008905186 0.029617516 -0.113078825 0.036566157 0.11536793
-0.0044957153 -0.0073741395 0.027788075 -0.00036107234 0.032091215 0.11319198 0.090822004 0.09425607
-0.10295134 0.022586215 0.036354255 0.092602275 -0.08971725 0.018863518 -0.0146950055 -0.009840883
-0.035083998 -0.004119516 -0.10124035 -0.14295138 -0.012452726 0.0091407085 -0.02051246 0.046723623
-0.09166944 -0.08428052 -0.020169806 0.024913471 -0.013973128 0.046160474 -0.031728204 -0.011151231
0.03763213 0.043451805 0.030382864 0.0035091767 0.025772396 -0.0070661474 0.076335415 0.13911276
0.16693418 0.04622578 -0.059968445 -0.12788936 0.18878804 0.051335014 0.023471402 -0.010143785
0.054211717 -0.015667165 -0.10292162 -0.011109635 -0.014966962 0.017104162 -0.1354781 -0.04568621
-0.13382156 -0.03646842 0.054824628 -0.023752395 -0.022036422 -0.0009727491 -0.049952615 -0.10142466
-0.053013965 -0.10853389 0.01985184 0.0055700606 -0.009338569 0.05135664 -0.133325 -0.043639183
-0.11377975 -0.06552916 -0.08641829 0.13689323 0.04251923 0.15648979 -0.0021511563 0.03715553
-0.0038224813 0.16961867 0.11106231 -0.0061418307 0.033819556 0.057826616 0.03950867 -0.124046184
0.0593893 -0.08409648 -0.04592214 0.01116483 0.0429728 0.05102193 -0.09869083 0.11130289
-0.022142304 0.017529942 -0.05483065 0.005661208 0.008021903 -0.14018355 -0.08297169 -0.14459136
00000000: 9ed2 293e 79a7 f1bc 22cd 413d 2dc3 8d3d
00000010: 52dc e13d 2fa3 d5bc ed53 a03c b17f 14bc
00000020: 7d39 443c 24da 0f3e 9d88 47bd fc07 f739
00000030: 8df5 32bd 9c8a 0b3d cba4 d3bd 4cea d43d
00000040: 76bc d4bc f9bb b43d 0cd7 433d 2bc7 513c
00000050: 25cb 9e3c 363c 9cbd d46a fa3d d38d 0cbd
00000060: 5027 86bb 4dd1 78bc 1b7b 99bc 5c41 81bb
00000070: 747d 03bd 20d8 17bd 56c6 e23d b704 2dbe
00000080: 5220 2a3e f18d b03c d69e 5abc 1471 4ebc
00000090: fa96 403d 75a0 25bd 056d 8a3a acf9 b7bc
000000a0: d305 dabc 6e48 e13c 2688 63bd 873b 0cbd
000000b0: ac88 31bb 5682 0f3e 6153 293b 084a 513c
000000c0: d4d2 08be 9779 0f3e b18f a4bb c60f f83c
000000d0: 1581 413c 274f 283c e495 0ebe 7264 423d
000000e0: e26b 01bd 4701 c0bd b891 3f3c 8dc2 d63b
000000f0: 7c2d 8f3c 46c1 47be 7dd5 f13c be01 41bd
00000100: ea62 dfbd e945 843d 7da4 06bd da5b f6bd
00000110: 83cc 103d e1a9 00be 1dfe f73b 52fa 7b3d
00000120: 88bd 53bb d24c 8cbd 7b55 e1bd e33d 403c
00000130: 819f febc 7790 bbbd c810 d1bc 694c a8bd
00000140: 0ea0 103e 4eaa 123d b068 0ebe 7184 183a
00000150: 25e9 053a ace7 a7bc 84a6 493b 2f1c d73d
00000160: 6d61 8abc 7945 033e dfa9 013d 2fce 973d
00000170: 0484 b83d 1a7a c93d 5f14 0abe 44ba b63d
00000180: c6cf 21be 8038 73bc 653c dc3b b4f2 36bd
00000190: f795 0abe 7bab 283e 5f38 663d a7f2 593c
000001a0: 38bb 7b3a b121 253d 8e99 dc3d d906 f23d
000001b0: 9044 91bc ac28 113d 4efb dcbc d9f8 043e
000001c0: f08a 7c3d b33d c5bd f2b3 0abd 3329 e9b9
000001d0: 15b4 363b 5059 e7bd d0bb 0ebd f10b 3abc
000001e0: 5dca 05bd 234c 5c3d 5f61 263d cbf2 af3b
000001f0: c7fb 4bbd 60e1 80bd 9f48 823d 1f9c adbc
00000200: 31db a03d 344a f73b 99d8 dd3d 0e62 b2bd
00000210: c9c8 963d 3da7 05be 751a c73b 23df f93c
00000220: 0b20 fabb 5be2 c03d fa76 86bd 947d 283e
00000230: f7b5 02bd bc74 e73d 32d0 d43d 35c9 37bd
00000240: cb8c 6d3d 52d7 97bd 4977 6bbb 0fe7 11bc
00000250: 6fa0 f23c df95 e7bd 65c6 153d 0546 ec3d
00000260: cb50 93bb c4a2 f1bb d1a3 e33c 4f4e bdb9
00000270: 1472 033d 32d1 e73d e300 ba3d 5409 c13d
00000280: 27d8 d2bd ba06 b93c 33e8 143d 43a6 bd3d
00000290: adbd b7bd aa87 9a3c 52c3 70bc a83b 21bc
000002a0: 3db4 0fbd 01fd 86bb 1a57 cfbd d961 12be
000002b0: 8506 4cbc e9c2 153c bf09 a8bc 4561 3f3d
000002c0: 30bd bbbd 449b acbd 263b a5bc 5617 cc3c
000002d0: 8cef 64bc c412 3d3d 6ff5 01bd a7b3 36bc
000002e0: 2624 1a3d 85fa 313d 7ce5 f83c 37fa 653b
000002f0: a220 d33c 248b e7bb be55 9c3d 9373 0e3e
00000300: cbf0 2a3e 3e57 3d3d 79a1 75bd 6ef5 02be
00000310: a751 413e aa44 523d 1947 c03c 1e32 26bc
00000320: 1b0d 5e3d 6d58 80bc 92c8 d2bd 3005 36bc
00000330: fd37 75bc 071e 8c3c c5ba 0abe 7721 3bbd
00000340: 8508 09be e95f 15bd ca8f 603d 6294 c2bc
00000350: ba85 b4bc 1600 7fba 1d9b 4cbd bbb7 cfbd
00000360: 2c25 59bd 0447 debd 53a0 a23c 0e85 b63b
00000370: cc00 19bc 575b 523d 5986 08be 00bf 32bd
00000380: 5c05 e9bd 2734 86bd 13fc b0bd bd2d 0c3e
00000390: a528 2e3d dc3e 203e 6afa 0cbb 6630 183d
000003a0: 9882 7abb 84b0 2d3e a374 e33d 6941 c9bb
000003b0: 6086 0a3d 9adb 6c3d d8d3 213d ed0b febd
000003c0: 3242 733d c63a acbd db18 3cbd b1ec 363c
000003d0: 3f04 303d 5ffc 503d 6b1e cabd c5f2 e33d
000003e0: c763 b5bc f49a 8f3c 1b96 60bd a881 b93b
000003f0: 4d6e 033c 478c 0fbe 10ed a9bd c20f 14be

fc2.bias f4 [32]
-0.0827463 -0.090965 -0.13581768 0.028427336 -0.077565715 0.086912535 0.06904294 -0.1868548
-0.13995668 0.08213431 -0.09640092 0.07294551 -0.12770593 0.094724655 0.14346598 0.018885463
-0.051182676 -0.16534697 -0.14043541 -0.0778496 -0.12275881 0.055488404 -0.08935054 0.15160328
-0.030862717 0.12736996 0.036817536 0.094853915 0.10563844 -0.17060007 -0.0015407392 0.08427468
00000000: e476 a9bd dc4b babd ca13 0bbe 72e0 e83c
00000010: c6da 9ebd 33ff b13d 6366 8d3d dd56 3fbe
00000020: ce50 0fbe 0836 a83d d86d c5bd 7564 953d
00000030: 58c5 02be 00ff c13d bfe8 123e b0b5 9a3c
00000040: eda4 51bd b750 29be 4dce 0fbe 9c6f 9fbd
00000050: f968 fbbd cf47 633d 6afd b6bd e43d 1b3e
00000060: cfd3 fcbc 456d 023e fccd 163d c542 c23d
00000070: f758 d83d c9b1 2ebe a1f2 c9ba 3498 ac3d

fc3.weight f4 [16, 32]
-0.005439476 0.0049769552 0.004378624 -0.018855818 -0.016699592 0.026488982 -0.005372315 -0.00262195
-0.0038973785 -0.009678947 0.0035501807 0.035701815 0.012302384 0.06013214 -0.0055918694 0.009119997
0.0043361215 0.0060371165 -0.004751599 -0.01613174 -8.9950685e-05 -0.0207311 0.018723909 -0.011127293
-0.1308718 0.023493309 -0.11585909 -0.023173453 0.003352973 -0.006001138 0.05245533 0.08184205
0.025909442 0.005779278 -0.010122928 0.008305026 0.010792689 -0.041487355 0.009208085 -0.0048815175
-0.020396002 0.0025061332 0.021718435 -0.028181892 -0.025319522 -0.041699264 0.024526136 -0.025627645
0.0054168236 -0.04838186 -0.012097764 -0.011358547 -0.0042998483 0.03721716 -0.011761446 0.027058944
0.09832308 1.9192938e-05 0.10270064 0.023244908 -0.003360602 -0.012261939 -0.039910134 -0.084829755
-0.0037663595 0.0040904577 0.0050473767 0.010253272 0.0027271493 -0.002892221 -0.01375671 -0.014024328
0.022975076 -0.0051811417 -0.0012640534 -0.016850462 0.008200648 -0.08920209 -0.012949778 0.014740433
0.0008095016 0.020206435 0.039325934 0.01779402 -0.0034339093 0.0020303319 -0.017368387 -0.004463448
0.12602012 -0.011250893 0.07958398 -0.0066972533 0.002118315 0.02429844 -0.018775536 -0.10146556
-0.020794136 0.007245914 0.051719733 -0.009570225 -0.0043438105 0.018241173 0.0064949584 -0.004915702
0.042676818 0.0023587695 0.009055501 0.019431675 0.014769683 -0.07909645 -0.04782581 0.008821095
0.019134734 0.03579716 0.007994359 0.024113934 0.011027146 -0.023950493 0.018351208 -0.008263721
0.038167708 0.007431934 -0.012852168 -0.00614744 0.015046387 0.008990083 0.007959695 0.031351637
0.0067579085 -0.016017675 0.017681902 0.019966738 0.019155864 -0.015449573 0.0027143583 0.0030741224
0.018751457 0.006735604 -0.0094405785 -0.044110496 -0.031491064 0.06293095 -0.010303202 0.008341428
-0.017562676 0.0039922744 0.001735312 0.020154348 -0.008484533 0.024909467 -0.014626671 0.009831184
0.0444495 -0.022715764 0.11609727 0.047251772 -0.02054151 -0.019412026 -0.07237488 -0.015135093
0.004707993 0.0046764873 -0.0006754803 0.002842139 0.007930807 0.0044769105 -0.012474702 0.006274127
0.005053763 -0.0057505327 -0.012112062 -0.0006909437 0.0072597084 -0.10606283 0.0015265476 0.00041044565
-0.0026513655 -0.004934763 -0.0058707157 -0.0060892594 0.009614811 0.007453732 -0.004933111 -0.0014105567
-0.04166251 -0.003064686 -0.05853973 0.015248363 -0.00027881016 -0.018431867 0.017686827 0.051278
-0.0028224573 0.013458039 0.011934862 -0.021872157 0.013523786 0.0311784 -0.010523641 -0.003576803
0.021704907 0.0055173365 0.003317783 0.020373138 0.029440742 0.039420027 -0.012085748 0.016575139
0.011237241 0.014679027 -0.007291286 0.018543819 -0.013772807 -0.031887963 0.009747887 -0.001830455
0.07740632 -0.0016426123 0.0061991913 -0.007955371 0.018518219 0.011272035 0.016006047 -0.017322494
-0.011685252 0.010279624 0.029413948 -0.0071539446 0.024189822 -0.0065843016 -0.02892872 -0.008029978
0.04284243 0.004454774 -0.0009784169 -0.017437471 0.006771808 -0.09482401 -0.023501443 0.042724907
-0.014444481 0.03142669 0.013123489 0.027174545 0.0031063312 0.0044435244 -0.016251203 0.012044291
-0.03175372 -0.023894766 0.004565378 0.027565619 0.0051517403 -0.010037201 -0.03862779 0.059150696
00000000: a23d b2bb ba15 a33b 8f7a 8f3b 8477 9abc
00000010: 95cd 88bc 6cff d83c 3f0a b0bb 06d5 2bbb
00000020: 296b 7fbb 7294 1ebc 26aa 683b 113c 123d
00000030: f08f 493c 1e4d 763d 003c b7bb 0a6c 153c
00000040: 0616 8e3b 01d3 c53b 4db3 9bbb b626 84bc
00000050: e8a3 bcb8 45d4 a9bc e262 993c 404f 36bc
00000060: 4203 06be 0a75 c03c 8847 edbd 41d6 bdbc
00000070: 8dbd 5b3b 32a5 c4bb 66db 563d ce9c a73d
00000080: 0a40 d43c 1960 bd3b a3da 25bc ce11 083c
00000090: d2d3 303c a5ee 29bd 82dd 163c 23f5 9fbb
000000a0: 8415 a7bc f03d 243b dcea b13c b6dd e6bc
000000b0: e36a cfbc d9cc 2abd 09eb c83c 11f1 d1bc
000000c0: 9c7f b13b 0f2c 46bd b335 46bc 3319 3abc
000000d0: bee5 8cbb 0571 183d 14b3 40bc b8aa dd3c
000000e0: 9c5d c93d 8500 a137 b754 d23d 1b6c be3c
000000f0: 8c3d 5cbb 4de6 48bc cf78 23bd 39bb adbd
00000100: 07d5 76bb 3f09 863b 7764 a53b 57fd 273c
00000110: f9b9 323b 6b8b 3dbb d363 61bc 4cc6 65bc
00000120: 3a36 bc3c 91c6 a9bb 98ae a5ba fb09 8abc
00000130: 035c 063c 96af b6bd 4e2b 54bc db81 713c
00000140: bc34 543a f787 a53c 3b14 213d c4c4 913c
00000150: 700b 61bb 510f 053b 2648 8ebc 1e42 92bb
00000160: 6b0b 013e aa55 38bc edfc a23d a274 dbbb
00000170: 6ed3 0a3b 860d c73c 27cf 99bc 2dcd cfbd
00000180: 7758 aabc 226f ed3b 12d8 533d 6fcc 1cbc
00000190: 8656 8ebb 836e 953c a9d3 d43b e613 a1bb
000001a0: e3cd 2e3d 9695 1a3b 865d 143c 2d2f 9f3c
000001b0: 8afc 713c 52fd a1bd ffe4 43bd 5b86 103c
000001c0: 72c0 9c3c 0ba0 123d c6fa 023c 968a c53c
000001d0: 34ab 343c d333 c4bc 4655 963c 8f64 07bc
000001e0: be55 1c3d 9587 f33b e691 52bc 7770 c9bb
000001f0: 1f85 763c 244b 133c 6169 023c 936a 003d
00000200: 7271 dd3b 8037 83bc a3d9 903c 4991 a33c
00000210: c2ec 9c3c 3520 7dbc 60e3 313b 3777 493b
00000220: a89c 993c 57b6 dc3b a8ac 1abc 35ad 34bd
00000230: c6fc 00bd f1e1 803d c3ce 28bc 7caa 083c
00000240: 9adf 8fbc a0d1 823b 6973 e33a bb1a a53c
00000250: b602 0bbc f00e cc3c b4a4 6fbc f912 213c
00000260: ae10 363d 6916 babc 68c4 ed3d 138b 413d
00000270: ab46 a8bc f805 9fbc 4839 94bd 2ef9 77bc
00000280: 8245 9a3b 383d 993b b712 31ba 2e43 3a3b
00000290: 37f0 013c 0cb3 923b b162 4cbc 3197 cd3b
000002a0: 099a a53b f76e bcbb ac71 46bc 7220 35ba
000002b0: d9e2 ed3b 7837 d9bd 7016 c83a 1531 d739
000002c0: 88c2 2dbb cbb3 a1bb 225f c0bb 6988 c7bb
000002d0: 7187 1d3c 703e f43b efa5 a1bb 6ee2 b8ba
000002e0: 4fa6 2abd e6d8 48bb 5bc7 6fbd 45d4 793c
000002f0: 442d 92b9 6dfe 96bc f7e3 903c e108 523d
00000300: faf8 38bb 1b7f 5c3c 708a 433c 3d2d b3bc
00000310: df92 5d3c d869 ff3c 596b 2cbc cc68 6abb
00000320: 7dce b13c c6ca b43b 296f 593b 91e5 a63c
00000330: b62d f13c e576 213d 4d03 46bc 96c8 873c
00000340: 681c 383c 4d80 703c bdeb eebb 35e9 973c
00000350: 57a7 61bc f49c 02bd 9ab5 1f3c e1eb efba
00000360: 3487 9e3d ec4c d7ba 9622 cb3b 3f57 02bc
00000370: 85b3 973c 57ae 383c 1d1f 833c e7e7 8dbc
00000380: 8073 3fbc de6b 283c 85f5 f03c a36b eabb
00000390: bc29 c63c 20c1 d7bb ecfb ecbc 2b90 03bc
000003a0: 8b7b 2f3d 5af9 913b 393e 80ba 07d9 8ebc
000003b0: 0be6 dd3b 1733 c2bd 1986 c0bc 5000 2f3d
000003c0: 8ba8 6cbc 46b9 003d e703 573c 279d de3c
000003d0: 9793 4b3b fc9a 913b 3e21 85bc 6b55 453c
000003e0: 3010 02bd f5be c3bc 2b99 953b 4bd1 e13c
000003f0: eecf a83b 1373 24bc 2c38 1ebd 0048 723d

fc3.bias f4 [16]
-0.011618894 0.04000626 0.01503661 -0.07442043 0.018503346 -0.14947478 0.071426004 -0.18152788
-0.05464532 -0.06642725 0.118119955 0.102569826 0.0031110672 0.0026925916 -0.08494418 0.15347405
00000000: 2c5d 3ebc 9bdd 233d 1d5c 763c bd69 98bd
00000010: 5494 973c eb0f 19be cc47 923d 72e2 39be
00000020: c5d3 5fbd 030b 88bd e0e8 f13d 2110 d23d
00000030: 0ce3 4b3b 3176 303b 37f7 adbd 4d28 1d3e
