UQ/saved_models/Ux_mean_regul.pt (torch, 13255 bytes, 5 tensors)

fc1.weight f4 [50, 2]
-1.2671895e-06 -5.7623493e-09 -4.685269e-08 -6.053526e-10 9.990257e-09 3.7623106e-06 3.0450703e-06 9.093387e-09
6.473957e-07 -1.8796477e-10 -6.9773376e-10 6.5363236e-07 1.5167521e-06 -1.8839728e-10 -7.8081375e-06 6.235946e-10
-9.131439e-08 -4.3945974e-07 4.6114154e-10 3.198283e-08 -6.038525e-06 -5.181992e-09 -2.4710682e-06 -2.1618192e-05
3.1565555e-09 -1.0138527e-06 1.8822672e-09 -1.0578032e-09 -1.1352417e-07 1.5412478e-06 2.0263045e-08 -1.325388e-05
-9.797524e-07 -5.2894967e-07 2.5311083e-05 6.0924003e-06 1.1232885e-06 5.152837e-08 -7.944501e-09 1.0926155e-08
4.2131808e-07 -4.509829e-07 9.961954e-08 -2.8103997e-07 -1.2066241e-06 3.0879103e-06 -9.7207575e-09 1.3624539e-10
1.238431e-06 1.6964301e-09 -1.3243384e-06 -1.6801874e-10 3.3461137e-07 1.6051754e-08 -2.1628676e-07 3.1593075e-07
-7.528294e-09 1.1820725e-07 1.2815104e-08 -4.0703846e-10 -6.556713e-11 -4.252939e-08 -1.6547841e-05 1.5346072e-06
7.582595e-08 -1.6903702e-08 1.4468569e-07 -1.2010645e-06 -1.9672e-09 -1.5158878e-06 -1.2122066e-09 -4.625097e-06
7.5302682e-06 2.1848835e-05 2.4061644e-09 -7.642446e-07 -5.7268076e-06 -4.5475854e-08 -1.3709704e-05 -2.793006e-07
-1.4932727e-06 -1.860575e-10 2.204693e-10 1.7200016e-07 1.4055514e-07 -3.1789885e-08 1.2512642e-08 8.217278e-06
2.435508e-06 -8.191358e-09 -5.5303226e-06 -2.030956e-08 -1.9048395e-05 -2.703372e-06 -3.2848678e-07 -8.377285e-10
7.077795e-06 -3.5388932e-06 2.2197614e-06 -3.118908e-07
00000000: 4d14 aab5 29fe c5b1 143b 49b3 e765 26b0
00000010: 9da1 2b32 017c 7c36 e959 4c36 2439 1c32
00000020: b2c8 2d35 61ab 4eaf a6ca 3fb0 4675 2f35
00000030: 3593 cb35 1f25 4faf b2ff 02b7 9269 2b30
00000040: 9e18 c4b3 e3ee ebb4 e783 fd2f 7e5d 0933
00000050: 899e cab6 490d b2b1 a1d4 25b6 b758 b5b7
00000060: b6ea 5831 b713 88b5 3259 0131 2462 91b0
00000070: 93ca f3b3 dfdc ce35 e80e ae32 fb5c 5eb7
00000080: 0980 83b5 25fd 0db5 2353 d437 526d cc36
00000090: e6c3 9635 0b50 5d33 497c 08b2 bdb5 3b32
000000a0: 8431 e234 9e1e f2b4 6cee d533 d7e1 96b4
000000b0: 4af3 a1b5 e539 4f36 5800 27b2 abcd 152f
000000c0: 2a38 a635 d427 e930 ecbf b1b5 12bd 38af
000000d0: a3a4 b334 2ee2 8932 743c 68b4 319d a934
000000e0: ca55 01b2 1fd9 fd33 6c29 5c32 92c5 dfaf
000000f0: 032f 90ae 8fa9 36b3 38d0 8ab7 b4f8 cd35
00000100: c2d5 a233 a233 91b2 e65a 1b34 4334 a1b5
00000110: 592f 07b1 8275 cbb5 ba9a a6b0 4831 9bb6
00000120: 83ac fc36 0448 b737 b159 2531 7d26 4db5
00000130: e728 c0b6 3b51 43b3 bb02 66b7 c8f2 95b4
00000140: 766c c8b5 8892 4caf 9768 722f 0baf 3834
00000150: 81eb 1634 5989 08b3 2ef7 5632 f1dc 0937
00000160: b571 2336 f9b9 0cb2 1c91 b9b6 3275 aeb2
00000170: 1eca 9fb7 946b 35b6 e15a b0b4 e745 66b0
00000180: cc7d ed36 b97d 6db6 36f7 1436 f271 a7b4

fc1.bias f4 [50]
2.6259937e-07 -7.4852875e-07 -8.3643914e-10 -3.7217823e-08 -2.2624624e-07 5.651562e-07 2.1236167e-11 -1.033891e-06
1.3921024e-07 8.8294055e-06 -1.3791769e-05 -8.2544653e-07 6.179788e-07 -1.4362032e-06 -3.8348706e-11 -7.233495e-06
3.4746304e-08 3.691805e-06 1.2685856e-06 -1.257084e-07 -5.002505e-13 -5.8244814e-06 9.347856e-07 -4.397443e-06
-2.4730608e-07 -1.4712368e-08 3.9634362e-09 -1.464413e-06 -2.336328e-06 4.269625e-07 1.393158e-07 -2.8070414e-08
-5.24964e-09 2.6450334e-07 1.6808952e-09 -2.0219204e-05 3.7673024e-07 1.8237777e-09 7.6066414e-10 -7.70984e-08
3.591129e-07 -9.402363e-09 8.174433e-08 -3.3229348e-09 3.3814467e-07 1.339965e-06 2.282809e-06 7.6313006e-07
4.078161e-11 -3.0271268e-09
00000000: 62fb 8c34 81ee 48b5 2ceb 65b0 6ed9 1fb3
00000010: 18ee 72b4 3db5 1735 99cb ba2d 39c4 8ab5
00000020: d279 1534 0222 1437 3263 67b7 4194 5db5
00000030: 2ee3 2535 91c3 c0b5 cea8 28ae 40b7 f2b6
00000040: f73b 1533 bac0 7736 4544 aa35 76fa 06b4
00000050: d9ce 0cab ea6f c3b6 faed 7a35 bf8d 93b6
00000060: 7dc5 84b4 aec1 7cb2 c12e 8831 d98c c4b5
00000070: cfc9 1cb6 4739 e534 d696 1534 7e1f f1b2
00000080: 5260 b4b1 1001 8e34 3e05 e730 699c a9b7
00000090: 6941 ca34 79a8 fa30 fb16 5130 4b91 a5b3
000000a0: 1acc c034 0888 21b2 6c8b af33 b059 64b1
000000b0: 408a b534 d9d8 b335 5c32 1936 e6d9 4c35
000000c0: 035c 332e c705 50b1

fc2.weight f4 [50, 50]
2.9988809e-12 -5.093142e-13 -2.9131076e-07 -1.0464071e-08 9.723682e-12 1.7862393e-06 -5.3387556e-08 -3.7621012e-07
-8.50505e-10 4.6153685e-09 -4.596801e-08 -4.3088193e-08 2.5899603e-06 3.1394066e-07 -5.7824618e-08 1.8444243e-06
-1.0301658e-10 -6.6831087e-09 5.227996e-09 4.0829777e-06 -9.129867e-12 1.4051132e-06 -6.369034e-11 8.163318e-07
-6.778777e-13 -1.8920142e-06 5.3895103e-08 4.568468e-07 4.4237787e-09 4.1273965e-10 2.3748977e-05 -4.301439e-06
-3.7517918e-08 -2.1081848e-07 5.284537e-10 -3.5734544e-11 -2.7475182e-06 7.13024e-06 -1.2236521e-09 5.004925e-07
-1.7353912e-07 4.956414e-06 3.7597807e-11 1.1427686e-06 -3.7218108e-08 -1.1876007e-09 -5.130298e-06 6.2666544e-10
8.547454e-09 -1.0693708e-05 9.989281e-08 -1.2074021e-07 -2.7446192e-06 -2.3264214e-13 -1.5388314e-10 1.1077267e-10
-3.516561e-06 4.0447517e-08 -1.03378476e-07 -2.3294214e-07 1.4817558e-06 4.9809046e-07 -5.088301e-10 -2.7722e-07
-5.996532e-06 -1.0488696e-07 4.6723805e-11 -7.3906267e-07 -1.2413248e-09 -1.4623606e-06 2.2521355e-12 -1.5528663e-05
-6.09308e-08 -2.0595936e-08 6.003468e-10 4.5730476e-06 -2.0243443e-10 2.1505177e-06 2.6456465e-08 9.110962e-11
-1.4247637e-06 -4.0316138e-07 7.6227235e-07 2.0609768e-10 9.3923006e-08 -1.3221863e-07 -4.3029645e-06 1.2410044e-07
1.3096924e-07 4.4691214e-07 2.394305e-06 1.7981625e-05 1.9551018e-10 -2.4345277e-06 1.301031e-08 -1.468692e-08
2.9625006e-08 6.1332285e-06 -1.0766811e-10 6.12644e-09 -1.0446154e-06 -4.33196e-07 3.364088e-07 -4.8825218e-11
-1.7147048e-06 4.1509173e-07 1.7126381e-06 2.3155724e-07 2.042255e-07 2.8651178e-07 5.3946305e-06 1.5922434e-10
-5.7745506e-08 -2.7168262e-10 -7.728599e-09 1.217863e-06 -3.6368284e-08 -2.7881893e-11 -7.1391064e-08 -1.818648e-08
-1.1235261e-08 -7.8662926e-10 -3.8301145e-08 2.214378e-07 -1.1867398e-08 1.5589535e-08 1.5351299e-08 -3.8646643e-08
-9.028239e-09 -3.7364935e-05 -1.2509905e-08 -9.8507925e-08 3.8492644e-08 -3.2665419e-06 2.434068e-13 3.4162784e-09
-1.8513338e-08 -2.1710053e-07 -9.696569e-07 -2.9494704e-06 1.3850442e-08 2.137061e-08 1.5293018e-09 2.663555e-07
-4.307573e-07 -6.177351e-08 -7.1586265e-07 1.447137e-07 -1.9117428e-08 -1.0186864e-07 -4.949236e-06 1.2196937e-08
6.282474e-13 1.8769071e-05 8.005523e-09 -8.627338e-08 -8.3811926e-07 4.663543e-07 -3.1248467e-07 3.0285094e-07
2.9579022e-07 1.4320777e-11 -7.138054e-10 1.02197774e-07 -6.54964e-07 -7.8540216e-07 5.666795e-06 -2.5002626e-07
8.1185964e-10 5.086157e-07 5.095402e-07 -6.0746927e-09 8.397399e-10 -8.455802e-07 -2.12943e-09 -7.7729805e-09
6.9109936e-13 1.3258752e-09 -7.4032333e-13 1.8951167e-07 -5.1024996e-12 6.957845e-10 -2.7247977e-09 -4.2280095e-07
-1.2858702e-07 7.402107e-11 -6.0418576e-13 -1.7863636e-06 8.1835383e-10 -3.2128712e-06 -1.827643e-11 1.2769468e-09
-3.5103206e-08 -3.920286e-08 1.5337447e-07 -5.1577007e-07 8.7330113e-07 -5.7324905e-07 1.0573297e-08 1.9363717e-09
1.8479238e-07 -1.2548243e-08 4.1452193e-09 8.539908e-06 -2.026724e-06 -1.3893006e-10 -6.7155803e-10 1.5935237e-08
-4.695677e-08 -8.421738e-07 2.3422633e-07 -1.4348842e-08 -9.415772e-09 6.743505e-06 -4.747435e-10 4.340424e-07
2.7100705e-07 2.9383182e-08 2.6577783e-07 -6.223374e-09 3.5454082e-06 -6.341675e-08 5.7320677e-09 -1.5461373e-08
-1.06952e-08 -3.7604905e-13 -4.828233e-06 2.8664365e-07 4.060825e-06 3.5172625e-06 -7.862996e-07 9.608976e-11
-9.135687e-09 -6.3662856e-06 6.5391568e-09 5.4984346e-12 -4.5881624e-08 -7.1305746e-11 -9.686557e-08 1.0216086e-09
1.4505863e-08 2.4704308e-08 6.9729983e-10 -7.071251e-10 -1.6753364e-06 -3.284646e-11 -1.8612472e-09 8.327539e-09
-5.574988e-07 1.4958796e-06 -1.1823622e-08 7.7410635e-07 4.617527e-07 -1.855713e-07 3.3798592e-08 -7.8138584e-08
00000000: 0907 532c f55b 0fab 7265 9cb4 79c5 33b2
00000010: 920f 2b2d b7be ef35 3d4c 65b3 edf9 c9b4
00000020: f8c8 69b0 3695 9e31 5d6e 45b3 f80f 39b3
00000030: 2ecf 2d36 ad8b a834 d75a 78b3 f08d f735
00000040: 2e89 e2ae 3fa1 e5b1 f0a1 b331 8300 8936
00000050: 449d 20ad 5297 bc35 790e 8cae e521 5b35
00000060: 3cce 3eab 1df1 fdb5 4b7a 6733 8c44 f534
00000070: f8ff 9731 f1e7 e22f 8a38 c737 1455 90b6
00000080: 6323 21b3 585d 62b4 a042 1130 8529 1dae
00000090: 0162 38b6 4c40 ef36 6e2d a8b0 9559 0635
000000a0: 1256 3ab4 464f a636 5e5b 252e 3b61 9935
000000b0: bed9 1fb3 fc38 a3b0 ed24 acb6 a941 2c30
000000c0: 1ad8 1232 2069 33b7 a784 d633 d1a4 01b4
000000d0: 3330 38b6 44f7 82aa 4132 29af 7897 f32e
000000e0: 0ffe 6bb6 84b8 2d33 eb00 deb3 a61e 7ab4
000000f0: bee0 c635 84b4 0535 bcdd 0bb0 d4d4 94b4
00000100: d135 c9b6 373e e1b3 547e 4d2e 0064 46b5
00000110: 3c9b aab0 5446 c4b5 de7a 1e2c 8d43 82b7
00000120: 10d9 82b3 f1ea b0b2 a605 2530 2e72 9936
00000130: 3a94 5eaf 9d51 1036 6242 e332 285a c82e
00000140: 823a bfb5 1472 d8b4 f59e 4c35 579b 622f
00000150: b8b2 c933 fbf7 0db4 2f62 90b6 7840 0534
00000160: 8da0 0c34 23ef ef34 d9ad 2036 3fd7 9637
00000170: 39f7 562f de60 23b6 f383 5f32 c251 7cb2
00000180: 147a fe32 08cc cd36 c2c3 ecae bc80 d231
00000190: b634 8cb5 0192 e8b4 ac9b b434 4fbc 56ae
000001a0: cf24 e6b5 c6d9 de34 ccdd e535 f8a1 7834
000001b0: 1449 5b34 e1d1 9934 8603 b536 ab11 2f2f
000001c0: db03 78b3 ee5b 95af bdc6 04b2 7475 a335
000001d0: 5a33 1cb3 7140 f5ad a74f 99b3 7e38 9cb2
000001e0: 3305 41b2 1d3a 58b0 8e80 24b3 5cc4 6d34
000001f0: 5ee1 4bb2 c0e9 8532 dddd 8332 6ffc 25b3
00000200: 9d1a 1bb2 4bb8 1cb8 25eb 56b2 4e8b d3b3
00000210: 1c53 2533 c336 5bb6 9e06 892a cec3 6a31
00000220: 4307 9fb2 241c 69b4 2825 82b5 84ef 45b6
00000230: e3f2 6d32 7892 b732 862f d230 9fff 8e34
00000240: d542 e7b4 59a8 84b3 b529 40b5 9962 1b34
00000250: ab37 a4b2 e1c2 dab3 9d11 a6b6 b28a 5132
00000260: ffd5 302b 4672 9d37 aa88 0932 4b45 b9b3
00000270: 1efb 60b5 3f5f fa34 91c3 a7b4 8497 a234
00000280: 19cd 9e34 0cef 7b2d 9735 44b0 d277 db33
00000290: c9d0 2fb5 6dd4 52b5 6625 be36 593b 86b4
000002a0: 8b29 5f30 ce87 0835 56c7 0835 90b9 d0b1
000002b0: 71d3 6630 d4fb 62b5 5455 12b1 ee89 05b2
000002c0: f586 422b 163a b630 eb61 50ab 927c 4b34
000002d0: 3b87 b3ac 7b41 3f30 263f 3bb1 52fd e2b4
000002e0: bb11 0ab4 28c6 a22e 2c10 2aab fcc2 efb5
000002f0: 88f2 6030 b59c 57b6 ddc2 a0ad 9280 af30
00000300: 62c4 16b3 0060 28b3 41af 2434 7373 0ab5
00000310: cc6c 6a35 60e1 19b5 daa5 3532 0311 0531
00000320: 586b 4634 c293 57b2 bc6d 8e31 a046 0f37
00000330: da02 08b6 56c1 18af b298 38b0 f5e1 8832
00000340: 84ad 49b3 be11 62b5 a57f 7b34 e082 76b2
00000350: 01c3 21b2 4446 e236 1b7f 02b0 5506 e934
00000360: ed7e 9134 4d66 fc32 3ab0 8e34 60d5 d5b1
00000370: a6ed 6d36 ba2f 88b3 cdf3 c431 ebcf 84b2
00000380: fdbd 37b2 61b2 d3aa 3502 a2b6 01e4 9934
00000390: 3942 8836 1c0a 6c36 1912 53b5 ba4d d32e
000003a0: 2df3 1cb2 fa9d d5b6 08af e031 7f75 c12c
000003b0: 610f 45b3 91cd 9cae 6904 d0b3 a868 8c30
000003c0: 7635 7932 5935 d432 1dac 3f30 815f 42b0
000003d0: 1fdc e0b5 d475 10ae d0ce ffb0 e710 0f32
000003e0: 07a7 15b5 08c6 c835 d720 4bb2 2fcc 4f35
000003f0: cfe6 f734 7341 47b4 f229 1133 24cd a7b3

fc2.bias f4 [50]
-2.2570345e-07 -2.8860258e-08 -1.5562101e-08 -3.0955558e-05 -1.3672063e-06 8.9538327e-07 3.4898892e-06 5.0449756e-07
1.6761428e-06 3.5844117e-08 -5.6411444e-09 -3.635768e-08 -2.081763e-09 2.0185245e-09 -4.254564e-10 7.240937e-07
-1.980278e-07 -1.6382502e-06 -2.852965e-08 -1.3590924e-08 -3.6953058e-08 -1.1062694e-08 -3.396212e-07 1.9958935e-09
-1.4967263e-06 3.6307964e-07 3.1228993e-07 -3.3533132e-07 -2.1577551e-07 2.849706e-07 -1.1033305e-07 -7.210527e-07
3.666846e-07 1.5743447e-08 -2.7182322e-08 -2.602826e-06 -5.2145452e-09 -2.407711e-07 -4.7599852e-07 -1.8508062e-07
3.9268002e-07 -2.8751721e-08 2.1575195e-08 1.151332e-07 -3.971708e-06 -2.979954e-07 -8.394483e-09 -7.2157472e-06
4.904014e-07 -4.851301e-06
00000000: e458 72b4 61e8 f7b2 6cad 85b2 47d6 01b8
00000010: da80 b7b5 455a 7035 d733 6a36 cf6c 0735
00000020: d4f7 e035 06f3 1933 08d4 c1b1 b127 1cb3
00000030: c30e 0fb1 42b6 0a31 aae5 e9af 575f 4235
00000040: 78a1 54b4 d9e1 dbb5 5d11 f5b2 847d 69b2
00000050: 51b6 1eb3 3e0e 3eb2 2f55 b6b4 2128 0931
00000060: 20e3 c8b5 49ed c234 cda8 a734 9607 b4b4
00000070: ecaf 67b4 10fe 9834 3cf0 ecb3 5d8e 41b5
00000080: bfdc c434 353c 8732 8f7e e9b2 36ac 2eb6
00000090: a02b b3b1 5443 81b4 bd8c ffb4 93ba 46b4
000000a0: 88d1 d234 b4f9 f6b2 5b54 b932 253f f733
000000b0: b644 85b6 2dfc 9fb4 5437 10b2 cc1e f2b6
000000c0: 21a4 0335 5cc8 a2b6

fc3.weight f4 [1, 50]
-3.1458504e-07 -1.0699471e-10 -5.7652306e-07 1.12810916e-07 8.881187e-08 8.8426395e-06 -2.2801721e-07 2.3841178e-06
2.6041485e-07 -3.2645343e-07 2.3062378e-06 1.5359818e-05 -3.3341819e-06 9.8589666e-08 4.898309e-06 3.7092395e-08
3.506239e-06 -1.6998075e-07 -5.215788e-08 -1.8545656e-09 -4.7368694e-08 5.1219727e-06 4.96567e-07 3.4018783e-09
3.0116336e-09 -3.1428156e-06 -1.4895352e-07 -7.0107106e-08 -8.569988e-07 1.5632053e-09 -1.94917e-07 1.9395634e-08
-2.293911e-05 3.0212427e-06 7.0748524e-07 -4.4796416e-06 4.920909e-09 -2.4847392e-05 8.3012246e-08 4.7549142e-09
1.5476816e-06 -1.2116597e-06 -1.2673566e-09 -1.1946858e-08 2.4571344e-07 -6.3781354e-06 -5.9521197e-09 2.1595552e-06
9.902628e-06 1.833473e-08
00000000: 3de4 a8b4 ab48 ebae 5dc2 1ab5 7542 f233
00000010: d8b8 be33 d95a 1437 e5d4 74b4 d5fe 1f36
00000020: 25cf 8b34 6b43 afb4 ddc4 1a36 f5d8 8037
00000030: cfc0 5fb6 3eb8 d333 275c a436 854f 1f33
00000040: ba4c 6b36 f483 36b4 3204 60b3 bae3 feb0
00000050: 6e72 4bb3 69dd ab36 d34b 0535 7ac6 6931
00000060: 38f5 4e31 29e9 52b6 08f0 1fb4 ca8d 96b3
00000070: 820c 66b5 66d8 d630 614a 51b4 739b a632
00000080: 5d6d c0b7 8ec0 4a36 04ea 3d35 d44f 96b6
00000090: c614 a931 5e6f d0b7 7744 b233 ab60 a331
000000a0: efb9 cf35 4fa0 a2b5 252f aeb0 d63e 4db2
000000b0: 99ea 8334 c403 d6b6 6683 ccb1 e0ec 1036
000000c0: 7723 2637 7f7e 9d32
