UQ/saved_models/Ux_mean.pt (torch, 44055 bytes, 5 tensors)

fc1.weight f4 [100, 2]
00000000: e62c 2abf 0ff3 c23e e37e bf3d deed 8c3e
00000010: 7aee 0dbf 9192 4c3e 0f2c b7be f535 333f
00000020: 8c10 54be a75f 91be 6d1d 9c3c bfbf 733e
00000030: a16a 90be 5ab3 263f fe28 12bf d08c 933c
00000040: 6d1f 663e ce12 30bf d0dc 15bf e717 da3e
00000050: 9f56 d33d f0f3 463f d31e cabe 602d 323e
00000060: d351 37bf 3ded b73d 07a2 0dbf 9e0b ccbe
00000070: 973f 033f 1fff 2b3f ca6a 63be 0681 fe3e
00000080: 37ef 28bf 7705 643d 378b 8b3e 4f21 dfbe
00000090: 8e75 fb3e 47e1 bf3e de50 f63c f2dc 523f
000000a0: c075 c83e c1f9 573d 7606 ea3e 24a4 0e3d
000000b0: 78ad 2d3b 57aa 023e d8ca 2a3f 4e29 15bf
000000c0: ece6 613e 2a4f 1e3e e6df d5be 858b 943e
000000d0: 3588 e43c 5449 69be 016c b93f 1c4f 07bd
000000e0: 099e 0ebf 56b1 193f da33 94be a7d1 ea3e
000000f0: 168b d23e 938f 0ebe b667 203f f4b9 e5bc
00000100: 72dd 8c3e e96f 063f 33d9 dabe 678b fe3e
00000110: dd03 59be 3098 cbbd 2410 163f 338c 0b3d
00000120: be67 d93e 6937 1f3f 075f 203d 2275 2a3f
00000130: b3a8 c9be 812c 17bf 1b67 f6bd c2f0 6bbf
00000140: 26cb 09bc 2643 61bf e5c8 0bbf 84db 923c
00000150: 82ac 1ebe 8b76 cfbb ca34 7dbe 1610 f8bd
00000160: 24b7 433f 5c93 6cbc 8746 82bd a891 aabc
00000170: 7665 133f 2fb6 0cbf faef 4c3f 95c6 0c3f
00000180: 0030 00bd 674c 4dbf 0bcb 0f3f 4e78 2d3f
00000190: 28c8 a1bd 56f5 0e3f 33a1 61bd 89b6 00bf
000001a0: 4957 ca3e be08 083f 2541 21be 1be6 4cbe
000001b0: 67c5 2f3e 953d 593f abeb 253f 8e5a ccbe
000001c0: 39f3 033f bf56 a5be 6045 7dbe ea47 e13d
000001d0: 431b f73e 38a5 debe 6fdd 923d 1848 eabe
000001e0: 29df 7bbe 9e0f 6ebf 56b3 d0be c592 97be
000001f0: 39f1 a7be 7095 b4bd bf9d 123e 1318 27be
00000200: b753 843d 8c91 babe 7de9 16bf d8de a7be
00000210: 8111 0bbf 50e2 f83e 771e 11bf d1b8 263f
00000220: 13de 0abf db55 683e 7951 d03e f977 fabe
00000230: 5218 db3c 5514 4c3e 7b33 3d3f e2f6 16bf
00000240: cd1b f73c 5936 1d3f 441d 97be 1598 a93e
00000250: 915f 8ebe b243 0e3f d918 e93e a93c 8dbe
00000260: 8f7c 873e de06 183e 8dca 98bd d827 d83e
00000270: 3101 523e a907 07be fd97 50be 9a2a 1b3f
00000280: 50ac b4be 3077 85bf 3d00 1dbe e0b5 57bf
00000290: 57f4 a73e 3a47 253d 75b6 3e3e 1247 01bf
000002a0: 86bf f43e af01 443f 61c6 7fbd 9ce9 2d3f
000002b0: 5723 c43e e44f 0dbf 67fe 01bd 9a41 44bf
000002c0: 0d1c 623c 1e0f 113f 18c3 0fbf 9d1f 353f
000002d0: 6f95 60be d564 88bf 4580 8a3c a517 9e3e
000002e0: 0d61 a33e e6e1 d43e d85a bf3d a273 23bf
000002f0: 509e 0cbf 6dd6 c43e 2b9d f6be cfd7 07bf
00000300: 9b23 733e a84b 0cbf 4ba0 893e 6b07 c33e
00000310: b2ed 843e ed84 523f a2ca 08bf a036 823e
-0.6647476 0.38076064 0.093503736 0.27525228 -0.5544201 0.19977786 -0.35775802 0.70004207
-0.20709437 -0.2839329 0.019057 0.23803614 -0.2820635 0.6511742 -0.570938 0.01801148
0.22472925 -0.68778694 -0.5854006 0.4259636 0.10319256 0.7771597 -0.39476642 0.17400122
-0.7160923 0.089807965 -0.5532536 -0.39852613 0.51268905 0.6718616 -0.22208706 0.49707812
-0.6599001 0.055669274 0.2725465 -0.435801 0.49113125 0.3747656 0.030067857 0.82368386
0.39152336 0.05272842 0.45708054 0.034824505 0.00265011 0.12760292 0.66715765 -0.5826615
0.22060746 0.15459886 -0.41772383 0.29012695 0.02789698 -0.22781879 1.4486085 -0.03303443
-0.5570989 0.6003622 -0.2894581 0.45863077 0.4112174 -0.13921957 0.6265825 -0.02804277
0.275127 0.5251451 -0.42743835 0.4971573 -0.2119288 -0.09941137 0.5861838 0.03406925
0.42461962 0.62193924 0.039153125 0.6658498 -0.3938652 -0.5905228 -0.120313846 -0.9216424
-0.008410251 -0.87993085 -0.54603416 0.017926939 -0.15495494 -0.00633127 -0.24727169 -0.12112443
0.76451325 -0.01443943 -0.06361108 -0.020821407 0.5757669 -0.5496549 0.80053675 0.5499051
-0.031295776 -0.80194706 0.56169194 0.67761695 -0.07899505 0.558431 -0.055085372 -0.50278527
0.39519718 0.5313834 -0.15747507 -0.20009653 0.17165147 0.8485959 0.64812726 -0.39912838
0.51543003 -0.32292745 -0.24733496 0.11000045 0.48262987 -0.43485427 0.07171141 -0.45758128
-0.24596848 -0.9299258 -0.40761822 -0.29604164 -0.32801226 -0.088175654 0.14317988 -0.16317777
0.0646128 -0.36439168 -0.58950025 -0.32787204 -0.54323584 0.48610163 -0.5668711 0.6512576
-0.5424511 0.22689001 0.4068716 -0.48919657 0.026744995 0.19929631 0.7390668 -0.58970463
0.030164624 0.6141105 -0.29514515 0.33123842 -0.27807286 0.55572045 0.4552677 -0.27585343
0.26462218 0.1484637 -0.074605085 0.42217898 0.20508267 -0.13186516 -0.20370479 0.6061188
-0.35287714 -1.0426998 -0.15332122 -0.84261894 0.32803604 0.04035113 0.1862429 -0.5049907
0.4780237 0.7656507 -0.06244505 0.67934585 0.38308212 -0.5520003 -0.031736758 -0.766626
0.013800633 0.5666369 -0.56157064 0.70751363 -0.21932004 -1.0655771 0.016906867 0.30877414
0.3190998 0.41578597 0.09343499 -0.63848317 -0.54929066 0.38444844 -0.48166785 -0.5306367
0.23744051 -0.5480294 0.26880106 0.38091597 0.25962597 0.8223408 -0.53434193 0.254323

fc1.bias f4 [100]
00000000: 5d45 1c3f db70 2b3e d955 c53e 66db 1abf
00000010: 731e 3bbe c76b 273f 410b 3ebe 9bf0 d23e
00000020: 010e 8c3e b75d ab3d a9f1 ad3e 6c4d 623e
00000030: 83be 25bf 48da ccbe eacd 20bf 30d9 d83e
00000040: c3dc bbbe bfd7 a8be 2487 bfbd 5032 17be
00000050: a454 d2be 7c1a 81be 48f5 0d3d e6a9 c03e
00000060: 17f6 913e 28da 8ebe 79fa 19bf 1be3 9e3d
00000070: 5d47 a8be ab9b 243f 3dcf cdbe 8838 93bd
00000080: 5ffe f5be 56b6 afbe 019f 1e3f a5b7 093c
00000090: ee80 7bbf a132 ee3c aa68 3e3f 8a26 0cbe
000000a0: cfd5 1abf 0ae1 d7be 1602 53bc a3e1 563f
000000b0: 0fad 3ebd 2fce b03f 99fb 03bf a36e a0bc
000000c0: 28ea 28bd 5b25 7abf 8066 753c 3915 783f
000000d0: a7c7 1cbf 5362 01bf 2534 083f 051f 1c3f
000000e0: 467f 83bd c69e dd3e 19ce 90be 5ea5 123f
000000f0: 181a 05bf b455 1fbf ee33 28bf 501a e83e
00000100: 4a2c a03d f595 373f 2edc 1f3f 601f 153f
00000110: c1af 06bf 81bf 33be 960b 49be 9060 013f
00000120: 98e6 aebc 08c2 27bf b7cb b43e 80f1 a23e
00000130: e146 463f 2372 80be 3f98 5a3e 40e3 25bf
00000140: 841f debe 1f6e d7be 3792 343e 4540 e0be
00000150: 644b 77bf 35ee 21be ae55 ceba 3602 6a3f
00000160: 6dee 273f 73c3 9e3e 2637 e33d 9ee4 4c3e
00000170: 3785 573f f856 ccbe bf50 03be fc47 0ebd
00000180: cd86 983d b69c 37bf 74b7 5f3e f9c4 0c3f
0.6104334 0.1674227 0.3854206 -0.60491025 -0.18273334 0.6539883 -0.1855898 0.41199192
0.27354434 0.08367484 0.33973435 0.22099847 -0.6474382 -0.40010285 -0.628142 0.423532
-0.36691865 -0.329771 -0.09351948 -0.14765286 -0.410802 -0.25215518 0.034657747 0.37629622
0.28508064 -0.27900815 -0.60147816 0.07758161 -0.32866946 0.6430003 -0.40197173 -0.07188517
-0.48045632 -0.343188 0.6196137 0.008405601 -0.98243606 0.029076876 0.74378455 -0.13686576
-0.60482496 -0.4216388 -0.012878915 0.83938044 -0.04655176 1.3812922 -0.5155578 -0.019584006
-0.041238934 -0.9771325 0.014978051 0.96907383 -0.61242145 -0.50540656 0.53204566 0.6098483
-0.0642076 0.43285197 -0.2828224 0.5728358 -0.5199294 -0.6224015 -0.6570424 0.45332575
0.078209475 0.7171319 0.6244534 0.58251 -0.5261193 -0.17553522 -0.19633326 0.5053797
-0.02135019 -0.65530443 0.35311672 0.31824875 0.774519 -0.2508708 0.2134714 -0.6479988
-0.4338342 -0.42076203 0.17633902 -0.43799034 -0.9659941 -0.15813525 -0.0015742087 0.91409624
0.65598184 0.3100849 0.11094503 0.20009086 0.84187645 -0.39910102 -0.12823771 -0.03473662
0.07447586 -0.71723497 0.21847326 0.54988056

fc2.weight f4 [100, 100]
00000000: 9006 f4bc 5a60 f13d 9a11 f63c c2c9 41bd
00000010: b685 02b9 5236 b53d dfd8 77bd a12b 083c
00000020: 0837 a5bb f623 62bc 24f6 7dbd 1fa9 a2bd
00000030: 4d50 d63c 31df babd 92b8 1abd 18b3 33bd
00000040: d90c babb ff07 2e3a 2789 71bc 484b c83c
00000050: 54ac e83d e8a7 903a 9cc3 1d3d ac7e a6bd
00000060: 8584 ac3c 1cc0 8d3d aac4 e9bc 7d83 97bd
00000070: 42d1 82bc c1a6 b4bc eeb3 c8bb 67b6 df3d
00000080: 7143 c23d daf4 adbd 355e 3f3d 13ac 343d
00000090: fd87 8cbd 595f 943d 6b1e b5bd 8d79 54bd
000000a0: 8abe a9bb 5659 9dbc 069a a8bd ceea c5bc
000000b0: bd65 f63d 2e2f 0a3c 18bb 963d 8437 6abd
000000c0: 63d4 8a3d 030a 453c d633 703d d79d f3bd
000000d0: a81e c13d ffb5 f2bb d694 1abb 11b2 cd3d
000000e0: 038e 9e3d 53f9 383c 734e 90ba 4e4e 133b
000000f0: c56f cabd a862 6fbd 3a55 debd 6fea de3d
00000100: 66bc 013d 9113 79bd 37a7 873d e6c7 383d
00000110: df5c d1bd 0962 e9bc 97fa d83d 5adb 02bd
00000120: 5028 443d f1da 70bc a3e3 32bc 3e61 4e3d
00000130: e5b3 393d 542d 453d d0cc 9e3a 9f4e 75bd
00000140: eb9c 0ebd c252 97bd 0d57 b43d 228e 0ebc
00000150: 945c 79bd 6126 b93d 34f7 05bd 720f 0a3d
00000160: bdb8 9ebd c63c 193d 3991 113b dc3c 2ebd
00000170: b549 4d3d ce76 aabc f7ac d7bb 8187 d43b
00000180: 3be5 fabc fb0b b6bc a1f9 e3bc 8415 a13d
00000190: e75a 06bd a985 7abd 8a31 bd3c d388 863d
000001a0: bd6e b63d acbe 323d fdf2 8bbd 265b 063c
000001b0: 78de b23d fc0b 323d 3c5e 33bd eaf0 86bc
000001c0: 0fe5 8f3d 52e2 c73d ab37 8c3d 621c 8c3c
000001d0: 3fbd 6e3d f3e7 803d 73cf 1a3d ea50 31bd
000001e0: 3b43 ff3c 84ed d2bc e157 733d e70e a03d
000001f0: eacc 4d3d 46bf babd d476 f43d 55ce ddbd
00000200: 906e 873c f2f9 3cbd 8035 c7bc d98d b03d
00000210: 009f 8dbd b874 e038 966a 993d 8d3c 903d
00000220: 58fe 883c 9451 6a3d 69c0 733d bb14 4d3d
00000230: 3ffe 8bbd 38c3 063d eb3c 90bd 8f56 b53d
00000240: 3c51 0a3c b99a 59bd 26ba 383d 2c1b c83c
00000250: c06c febc b8f0 a8bc 66ff b63d 60f3 5bbd
00000260: b554 1ebd c103 81bc 132b a2bd 0427 b53d
00000270: 282f 93bd be40 363d b5cc 77bb 7c61 5ebd
00000280: a4fa 9b3d f6f3 68bd 0fe9 44bc fd70 833d
00000290: a673 893d b8ca d03d 24ee 563d 9501 263d
000002a0: 7ca6 9fbd fb25 fabc 0625 d6bc 001b edbc
000002b0: 99a5 9abb 6033 063d fdc2 01bd e2eb 2d3c
000002c0: 6564 683c 0ecc 72bc 01cf 3d3d 7f56 8abd
000002d0: cc7e d0bc 6538 1dbc 7f3d a3bc a0aa 7bbd
000002e0: dba6 65bc 7358 5c3d ce48 813d 219d 1e3d
000002f0: 9975 a4bd f7e2 b73d ae20 a6bd 4043 b13c
00000300: a8af b63d bf48 e6bc 799f d0bb 5771 63bc
00000310: f5bf b0bd e0be ae3d 7ec5 0c3d 2a81 193d
00000320: d559 afbc 5c98 9a3d 7c3e efbc eca5 4a3d
00000330: cedf 97bd 1da9 47bd 4665 073d 864e 3c3c
00000340: 3a99 9abd e1ea 2b3d 9667 d1bd 775d 233d
00000350: b216 223d 4b1f 4e3d 3ced 5a3d f262 bc3d
00000360: 9b3d 913d 9f9b 563d 3765 51bd 77e9 7e3d
00000370: 08f2 a5bd 653c a53c cab4 873c 64e7 9a3d
00000380: 27f6 be3d c5bf b13d d580 13be 555c 95bd
00000390: 92ec 8abd 3e18 ba3d 183f bfbd c91d babd
000003a0: 5a83 0ebc 9393 eb3c c907 31bc 452c 96bd
000003b0: 4512 b43d 2360 5d3d dabb 2f3d 6931 dbbb
000003c0: e5e1 8fbd 7c55 a8bc 3268 be3d 4139 e33c
000003d0: 3cba a63d 96d8 613d 2009 ba3d 3286 883d
000003e0: 98b6 743d f167 1bbb 33b3 663d af55 aabd
000003f0: 3d33 a93d bc30 a0bd 20fe a9bd 35a6 d23c
-0.029788285 0.11785956 0.03003769 -0.047311552 -0.00012447577 0.088482514 -0.06050956 0.008311183
-0.0050419606 -0.013802519 -0.062002316 -0.079424135 0.026161337 -0.09124602 -0.037773676 -0.04387197
-0.005677801 0.0006638765 -0.014742172 0.02444996 0.11360994 0.0011036368 0.038516626 -0.081296295
0.021059284 0.069214076 -0.02853616 -0.07398126 -0.015968923 -0.02205217 -0.006124965 0.10923462
0.0948552 -0.08493967 0.046720702 0.044109415 -0.06861875 0.072447486 -0.088436924 -0.051873732
-0.0051801847 -0.019207638 -0.08232503 -0.024159815 0.12031124 0.0084341 0.07359904 -0.05718185
0.06778791 0.012026313 0.058643185 -0.1189534 0.09429675 -0.0074069495 -0.0023587248 0.10043729
0.0774193 0.011289912 -0.0011009708 0.0022477093 -0.098845996 -0.058443695 -0.108560994 0.108845584
0.03167381 -0.060809676 0.066236906 0.045112513 -0.10222792 -0.02848913 0.10594671 -0.03194747
0.047890007 -0.014700637 -0.010918531 0.050385706 0.045337576 0.04813893 0.0012115482 -0.059889432
-0.034817617 -0.07388832 0.08805666 -0.008700879 -0.060879305 0.09040523 -0.032706454 0.033706136
-0.0775008 0.037411474 0.0022211804 -0.04253851 0.05011912 -0.020808604 -0.0065818983 0.00648588
-0.030626884 -0.02222251 -0.027828993 0.07865432 -0.032801535 -0.061162625 0.023094911 0.06569066
0.089078404 0.04363887 -0.06833456 0.008200442 0.08733839 0.04346846 -0.04379104 -0.016472299
0.07026111 0.09759964 0.06846555 0.017103378 0.058285948 0.06294241 0.037795495 -0.043290056
0.031159988 -0.025748022 0.05940998 0.078153424 0.05024425 -0.09118514 0.11936727 -0.1083037
0.016532212 -0.046136804 -0.024317503 0.08620805 -0.069150925 0.00010702893 0.07491033 0.07042799
0.016722843 0.057206705 0.05950967 0.0500686 -0.06835603 0.03290102 -0.07042869 0.088544
0.008442219 -0.05312607 0.0450994 0.024427019 -0.031057715 -0.020622596 0.08935432 -0.053698897
-0.038655 -0.01574886 -0.07918372 0.08845332 -0.07186729 0.044495337 -0.0037811224 -0.054292187
0.07616165 -0.056873284 -0.012018456 0.06418035 0.06711511 0.101949155 0.052473202 0.040528852
-0.07795426 -0.030535689 -0.026140701 -0.028943539 -0.004719448 0.03276384 -0.031680096 0.010615321
0.014184092 -0.014819158 0.046339992 -0.06754779 -0.025451086 -0.009595965 -0.019926785 -0.061442018
-0.014016832 0.05379529 0.063127145 0.03872407 -0.080302425 0.08978837 -0.08111702 0.021638513
0.089202225 -0.02811086 -0.006366667 -0.013882003 -0.08630363 0.085325 0.03436803 0.037476696
-0.02140514 0.075485915 -0.0292046 0.04947464 -0.07415734 -0.048745263 0.033055566 0.011493331
-0.07548757 0.041972045 -0.102248356 0.039884057 0.039572425 0.050322812 0.0534489 0.0919856
0.070918284 0.052394506 -0.051121917 0.06223437 -0.081028044 0.0201704 0.0165657 0.075636655
0.093242936 0.08679155 -0.14404614 -0.072930016 -0.067834035 0.09086655 -0.09338206 -0.09087712
-0.008698309 0.028756892 -0.010805079 -0.073326625 0.08792547 0.05404676 0.04290376 -0.0066892398
-0.07025508 -0.020548575 0.092972174 0.027737262 0.0814099 0.055138193 0.09083772 0.06666221
0.059744447 -0.0023713077 0.05632324 -0.08317124 0.08261726 -0.07821795 -0.083004236 0.02571402

fc2.bias f4 [100]
00000000: 857f 613d 25ef c93b 49cc 3a3d 9844 a6bd
00000010: ac06 8b3d 54a5 f4bd de3a c73d dcd5 f1bd
00000020: 0d33 9cbd 3e1d 683d e1a1 95bc 9083 14bd
00000030: 8771 e63c 4c0e 87bc d1e5 8ebc 2721 9dbd
00000040: f0d1 a0bd df14 df3d f9fa 5fbc 79a7 453b
00000050: 5b3d 23bd 7005 1cbd 8162 b83d a609 86bd
00000060: 22a3 d63d a681 d2bc dedf dbbd 6f83 5abd
00000070: cf0b c8bd 771a 043c a0e6 86bc 6426 d53d
00000080: 8ddb c43c 6d4b 6a3d 437f 26bd 9c4c 7dbd
00000090: 76c7 393d c137 83bd c4dd a83c 318a a2bd
000000a0: 3e54 c3bc 2f60 e1bc c445 ca3a 6e94 9e3b
000000b0: 3a7e c2bb 013a efbc c3ec 65bd 688a ac3c
000000c0: 49c4 debd fc4b 27bd 1842 193d 1aea b33d
000000d0: c90e d5bd d404 133c 77f1 f23c a08b d03b
000000e0: 1fc9 fb3c b81e dfbd 12ac c0bd c47c 72bd
000000f0: 7fd8 ecbd 527e 99bd ddea 8dbd 7781 14bd
00000100: eb2c c03d 20a3 9ebd 18e2 3abd a8eb 02bd
00000110: 550c bdbc d109 68bd 1d7b 603c 9793 6bbd
00000120: cd1f 54bd b114 a8bc 49c7 9abd 6a76 953d
00000130: db79 e23c 30d6 0bbd 1499 2cbd 9a55 da3d
00000140: fa4c 94bd 10fb c83b a79f cdbb 6cc7 773c
00000150: 1cb1 a6bd bda9 15bd 6a8a a33d 04cc 8bbd
00000160: b57a b83a 0469 843d 035c cdbd 2998 363d
00000170: 5939 eb3d 5a00 11bc 8d16 94bd f68c 42bd
00000180: 56c4 b23d e3eb 973d 7734 e7bc 3df8 e3bd
0.055053253 0.0061625415 0.045604978 -0.08118552 0.06788382 -0.11945596 0.09728025 -0.118083686
-0.07626925 0.056668513 -0.018265666 -0.03625828 0.028130306 -0.01648631 -0.01744357 -0.07672339
-0.078525424 0.10892653 -0.013670676 0.0030159636 -0.039853435 -0.038091123 0.09003163 -0.06544809
0.10480334 -0.025696587 -0.10736059 -0.053348 -0.09767877 0.00806295 -0.016467392 0.10407713
0.024030471 0.057200838 -0.04064871 -0.06184064 0.045356236 -0.064071186 0.020613559 -0.07936514
-0.02384388 -0.027511684 0.0015432169 0.0048394715 -0.0059354575 -0.029202463 -0.056133997 0.021062091
-0.10877282 -0.04084395 0.037416548 0.08784886 -0.10403211 0.008973319 0.029656155 0.006364301
0.03073555 -0.10894531 -0.0940782 -0.059201017 -0.11564731 -0.07494797 -0.06929562 -0.03625628
0.093835674 -0.077459574 -0.045625776 -0.03196302 -0.02307717 -0.056649987 0.0137012275 -0.0575138
-0.05178814 -0.020517679 -0.07557542 0.07297976 0.027645996 -0.034139812 -0.042138174 0.106608585
-0.072412446 0.0061334446 -0.0062751356 0.0151232295 -0.0813925 -0.03653883 0.07985385 -0.06826022
0.0014074655 0.06465343 -0.100273155 0.044578705 0.114855476 -0.0088501815 -0.07230864 -0.047497712
0.08728854 0.07418039 -0.02822326 -0.11131332

fc3.weight f4 [1, 100]
00000000: 1d7d 603d 0a8f 62ba 9251 d7b9 20e9 dd3c
00000010: 5d20 92ba 7d02 573d cd7e 6fbd 89dc 8cbd
00000020: 55bb f93c 8fa5 8c3d 45f6 d9bb e3f0 0c3d
00000030: d27e c1ba 12c2 5bbc 042d 7ebd bed0 203a
00000040: 540c 603d 1bc2 483c 2db6 643d a9c7 543d
00000050: 5a2c 6d3d a556 3a39 2a20 8abc 4db8 75bd
00000060: 06a7 533d a7f4 91bd ea04 abbc cfa5 513d
00000070: 2cae 9bb9 2fa6 4339 cf78 d23c a833 763d
00000080: df35 9d3b be1c 5dba 4cf5 043d 83d8 60bc
00000090: dad0 b5bc a31a 5f3d 152f 6ebb 9708 27ba
000000a0: e7f7 70bc 2885 633c 0e5e 463a f251 6fba
000000b0: 7471 22bc 1be2 373c 7714 463d 457e 3bba
000000c0: cf7a 97bc 0dd7 6a3d 9b82 123c 3493 2e3a
000000d0: 8632 04bd 002f 52bd c325 873d 8a74 bdb9
000000e0: 4dca 923c e708 a93d f26c 8139 2aa5 4d3d
000000f0: 9061 343d b378 933d 0495 0dbd 4810 5b3d
00000100: 0120 8d3d 557b 57bb 5e0b fd38 59c1 a23c
00000110: d882 40bc b2bf 533d c37c 41bd 9d93 e939
00000120: 892a 86bc db6a 9c3d 4060 f03b b3fb 1cbc
00000130: 1773 f0bc 63f2 ec3a aa58 d03c 42e8 51bd
00000140: 741a bcb8 1f9b 8e3d c362 adba 9c9d f8bc
00000150: b1bf 6a3c 309e a2b9 77af 33b8 5709 5739
00000160: 3d70 403d eed3 e138 c184 ab3c c9bc 0ebd
00000170: 5caf 6dbd 01b7 43b8 0bc0 583d 3afb 473d
00000180: 9ca8 babd 72d7 b3ba 4cff 36bd 5832 84bd
0.054806817 -0.00086425303 -0.0004106877 0.027088702 -0.0011148561 0.052492607 -0.058470536 -0.06878001
0.030484835 0.06867515 -0.006651672 0.034409415 -0.0014762527 -0.013412969 -0.06205465 0.00061346206
0.054699257 0.01225331 0.0558378 0.051948223 0.057903625 0.0001777062 -0.01686104 -0.059990216
0.051672958 -0.07126742 -0.020876367 0.051183518 -0.00029693672 0.00018658557 0.025692372 0.060107857
0.0047976817 -0.0008434764 0.032460496 -0.013723495 -0.022194315 0.054468762 -0.003634398 -0.00063718244
-0.014707542 0.013886727 0.0007567116 -0.0009129337 -0.009914745 0.011223341 0.04835936 -0.00071522995
-0.018491177 0.057333995 0.008942272 0.0006659508 -0.032274745 -0.051314354 0.06598999 -0.00036135718
0.01791873 0.08253651 0.00024685968 0.05020634 0.044038355 0.07200756 -0.03456594 0.053482324
0.0689087 -0.0032879908 0.000120660974 0.019867586 -0.011749946 0.051696487 -0.047238123 0.00044551204
-0.016377704 0.076375686 0.0073356926 -0.009581494 -0.029351754 0.0018077608 0.025432903 -0.05124689
-8.969466e-05 0.06963181 -0.0013228286 -0.030348592 0.014327929 -0.00031016907 -4.284034e-05 0.00020507477
0.04698204 0.00010768311 0.020937325 -0.03484801 -0.058028564 -4.666206e-05 0.05291752 0.048823573
-0.09114191 -0.0013720824 -0.044677064 -0.06454915
