UQ/saved_models/Ux_mean_regul.pt (torch, 44231 bytes, 5 tensors)

fc1.weight f4 [100, 2]
-2.1917135e-06 -1.942205e-08 6.71062e-10 1.4830578e-09 1.36821145e-05 -9.971391e-07 -2.4312934e-08 -1.6903401e-08
-5.55208e-07 -8.44418e-06 -2.1586045e-05 -5.866042e-09 2.3977321e-07 1.791425e-06 2.1373522e-05 0.00017701076
1.4207321e-06 -1.7463428e-08 5.315443e-08 1.461301e-08 -1.8270434e-07 -3.6602577e-07 3.866308e-06 -2.2580673e-06
-3.2615066e-08 -3.1249826e-08 0.00012584896 5.581717e-05 1.4705953e-09 -2.187099e-08 -0.00017232886 -1.0797994e-09
-1.1892591e-05 -1.1386728e-09 3.6245908e-06 -7.0191857e-09 -5.237188e-07 -6.540099e-10 1.5296547e-07 6.2100975e-07
-2.1622104e-07 0.00010572129 4.3789678e-05 1.4099257e-09 -2.3269646e-08 -9.332554e-06 7.960578e-09 -2.8381999e-06
-1.2980027e-08 6.1498393e-09 5.7470792e-05 2.1243273e-05 -9.872252e-06 7.096006e-10 -5.056976e-06 -9.5098915e-09
1.0577637e-05 1.3881074e-06 3.6667373e-08 -4.7103003e-06 1.0474089e-07 -8.958289e-06 -3.050196e-08 8.90563e-06
-1.655718e-05 -2.1442675e-08 1.8282024e-05 3.1139803e-05 -9.9274324e-08 -0.00013953954 -2.096414e-09 7.8663044e-07
5.9077333e-06 -4.1974406e-09 1.4077995e-06 -5.6025732e-05 -4.9307233e-05 1.131294e-09 -5.096387e-05 -5.1110335e-05
-6.4491225e-08 -8.065048e-06 -1.0170399e-08 5.976149e-08 4.904353e-05 9.58364e-09 -1.1473535e-06 2.7764968e-09
-4.624643e-09 1.2919063e-06 4.8243808e-05 2.2815694e-08 8.15421e-09 -4.7409765e-07 0.0001709175 1.8270921e-06
-1.6350574e-05 -9.390646e-06 -9.063661e-09 1.3572168e-07 -4.784841e-08 -5.4696295e-05 7.738169e-06 4.1542685e-09
1.2198155e-06 -1.5249825e-06 3.139247e-05 2.4525534e-05 -7.12571e-08 1.9750734e-09 -8.750819e-06 1.8207177e-07
-3.625395e-07 0.000117817195 1.7283352e-05 -4.9551744e-07 1.4296372e-06 -9.818787e-06 -9.148307e-06 -4.384379e-09
-2.9076533e-08 -2.8564633e-09 -6.4576656e-05 7.602353e-06 -9.9109275e-06 -2.5770348e-07 -6.420551e-05 1.2643379e-07
2.0938387e-06 -3.3760428e-09 7.313035e-06 8.4871035e-09 -1.5215308e-08 -3.0767167e-06 -4.236388e-06 -7.6042115e-09
1.0765741e-07 9.065215e-08 2.0630443e-08 -6.40575e-07 -8.040179e-08 -5.6926824e-10 -2.3257707e-07 1.03949056e-07
2.738611e-06 3.4166425e-10 -7.0617543e-06 -6.999141e-05 -1.7058756e-08 8.304078e-07 -1.823271e-06 -1.3872548e-09
1.7898272e-07 5.585887e-06 -2.0466096e-06 5.0286366e-09 9.617288e-08 1.29712e-07 -5.734044e-06 -8.3268425e-08
7.112479e-05 1.202923e-06 -7.1028094e-06 7.23371e-05 1.0168409e-07 -4.568939e-08 -2.3722784e-07 6.9130474e-05
-1.4930023e-06 -5.600052e-09 -6.5114236e-08 6.181199e-05 -5.463325e-07 3.1942704e-06 -1.5428353e-05 3.541899e-05
4.7759283e-07 3.187236e-08 1.0959256e-05 6.142044e-08 3.1056334e-05 5.2334184e-05 -1.6957816e-07 4.6990014e-08
-4.815786e-08 -9.927043e-07 -8.296948e-06 9.214927e-06 5.7741175e-08 7.052526e-10 6.7454544e-06 1.330952e-09
8.1388125e-06 -7.1383646e-08 -5.309298e-05 -8.687352e-09 -4.3818446e-07 -2.9319136e-10 1.8891287e-08 0.00013203212
00000000: 5a15 13b6 8ad5 a6b2 ca75 3830 75d4 cb30
00000010: 3c8c 6537 70d5 85b5 b5d8 d0b2 f932 91b2
00000020: 9a09 15b5 7aab 0db7 ae13 b5b7 408e c9b1
00000030: 2eba 8034 e570 f035 4a4b b337 f79b 3939
00000040: fcaf be35 7c02 96b2 ea4b 6433 b30c 7b32
00000050: 632d 44b4 3382 c4b4 55bb 8136 4d89 17b6
00000060: a514 0cb3 8c37 06b3 53f6 0339 3b1d 6a38
00000070: f91d ca30 d1de bbb2 2db3 34b9 1068 94b0
00000080: 4a86 47b7 7d7f 9cb0 ff3d 7336 692d f1b1
00000090: af95 0cb5 dbc5 33b0 d43e 2434 77b3 2635
000000a0: 632a 68b4 afb6 dd38 cfaa 3738 5ac7 c130
000000b0: 7ee2 c7b2 0493 1cb7 fec2 0832 e777 3eb6
000000c0: c3fe 5eb2 8f4e d331 cb0c 7138 9533 b237
000000d0: 00a1 25b7 b40d 4330 18af a9b6 f260 23b2
000000e0: 9b76 3137 024f ba35 347c 1d33 2c0d 9eb6
000000f0: eaed e033 8f4b 16b7 4201 03b3 6469 1537
00000100: 46e4 8ab7 f130 b8b2 595c 9937 1c9c 0238
00000110: a330 d5b3 5c51 12b9 8110 10b1 d528 5335
00000120: 0b3b c636 1439 90b1 9ff3 bc35 2cfd 6ab8
00000130: 3dcf 4eb8 de7b 9b30 0ac2 55b8 4e5f 56b8
00000140: 6d7e 8ab3 1e4f 07b7 e3b9 2eb2 3a56 8033
00000150: 17b4 4d38 4ba5 2432 c4fe 99b5 a6cc 3e31
00000160: cae6 9eb1 9065 ad35 6559 4a38 3efc c332
00000170: 9816 0c32 7c87 feb4 5138 3339 683a f535
00000180: 9728 89b7 848c 1db7 67b6 1bb2 e4ba 1134
00000190: e281 4db3 b369 65b8 2fd3 0137 55bd 8e31
000001a0: 8bb8 a335 00ae ccb5 68ab 0338 2fbc cd37
000001b0: 0106 99b3 dcb9 0731 7bd0 12b7 827f 4334
000001c0: 0da3 c2b4 a014 f738 b7fb 9037 b303 05b5
000001d0: f6e1 bf35 5ebb 24b7 ae7b 19b7 68a5 96b1
000001e0: f9c3 f9b2 6f4b 44b1 546d 87b8 b717 ff36
000001f0: 1c47 26b7 7f5a 8ab4 12a6 86b8 dbc1 0734
00000200: e083 0c36 f9ff 67b1 7e62 f536 adce 1132
00000210: d1b2 82b2 9779 4eb6 4c26 8eb6 ada3 02b2
00000220: 4931 e733 8cac c233 d336 b132 fbf3 2bb5
00000230: 5aa9 acb3 b17a 1cb0 4cba 79b4 993a df33
00000240: fbc8 3736 f8d4 bb2f 02f4 ecb6 5ac8 92b8
00000250: 9a88 92b2 31e9 5e35 1db7 f4b5 b0a9 beb0
00000260: 652e 4034 676e bb36 7c58 09b6 5bc8 ac31
00000270: 9a87 ce33 f746 0b34 1067 c0b6 4dd1 b2b3
00000280: d528 9538 1f74 a135 ab54 eeb6 afb3 9738
00000290: 6b5d da33 043c 44b3 b1b8 7eb4 24fa 9038
000002a0: 2b63 c8b5 946a c0b1 eed4 8bb3 0fa1 8138
000002b0: afa7 12b5 265d 5636 236c 81b7 da8e 1438
000002c0: ee33 0035 08e4 0833 a5dd 3737 3ee6 8333
000002d0: 7c42 0238 6781 5b38 4a15 36b4 11d2 4933
000002e0: 21d6 4eb3 0f3d 85b5 1f33 0bb7 cf99 1a37
000002f0: 18ff 7733 bddb 4130 0357 e236 b6ec b630
00000300: ef8b 0837 934b 99b3 27b0 5eb8 613f 15b2
00000310: 9d3f ebb4 042f a1af 6146 a232 1a72 0a39

fc1.bias f4 [100]
-8.315419e-10 5.615691e-11 5.0634735e-10 1.977231e-06 -9.551168e-06 8.4348576e-05 6.1113845e-08 -6.860685e-11
0.000104549894 1.329783e-09 3.5881452e-08 9.241552e-10 -2.6586592e-06 -1.6972967e-07 -2.3883442e-05 3.595889e-11
-1.0439965e-08 7.001036e-11 5.3502004e-05 -1.0511453e-09 2.2001637e-05 0.00040126735 5.1119477e-11 -1.5619183e-06
-5.5324086e-11 2.2591323e-08 -3.6521185e-11 1.258729e-05 3.5167175e-11 1.7393511e-09 1.5879133e-11 -5.999508e-11
3.3020958e-06 3.922117e-09 0.0001323171 -1.4868402e-05 1.2885579e-06 -2.3277165e-08 -6.522136e-10 1.2515093e-10
1.0385373e-08 1.8493706e-08 -1.8801108e-11 -2.8100205e-08 -7.71548e-05 -1.8070512e-11 1.7094333e-09 -3.5427459e-09
8.994136e-08 -6.4599426e-08 2.0035033e-10 2.8603813e-06 -1.9496574e-06 2.8901064e-05 3.0254093e-08 3.9240575e-05
1.0656701e-07 -2.0477782e-09 1.3208905e-05 -1.4342008e-06 -4.9484686e-07 2.446676e-11 6.765927e-06 1.1081279e-06
2.767232e-07 8.980041e-07 -6.7575465e-06 -6.182307e-07 7.513039e-07 1.8969605e-07 -3.4492623e-06 -1.13849254e-07
1.9135203e-07 -8.608495e-05 1.3202509e-10 -3.2915397e-09 -3.516092e-08 -3.37575e-10 -1.0204559e-05 1.9301937e-07
-2.9375292e-07 1.3538431e-06 3.9324905e-07 -1.3496758e-05 -1.5837666e-05 -4.2484653e-06 0.000174919 -6.498357e-05
-1.9510459e-10 1.1691575e-06 2.0628208e-06 1.5938045e-06 1.738615e-10 -1.0395527e-05 -7.1782864e-07 -3.964483e-10
0.00017069041 6.8371556e-08 2.2327329e-06 -1.7369397e-08
00000000: 8f92 64b0 0ffb 762e 072f 0b30 92b0 0436
00000010: f43d 20b7 4ce4 b038 b13d 8333 39de 96ae
00000020: cc41 db38 94c3 b630 131c 1a33 a407 7e30
00000030: 6b6b 32b6 f03e 36b4 4d59 c8b7 1c26 1e2e
00000040: 745b 33b2 54f4 992e 5767 6038 e377 90b0
00000050: 2890 b837 3161 d239 6ad3 602e 1ba3 d1b5
00000060: 6251 73ae d80e c232 339f 20ae 002e 5337
00000070: b8aa 1a2e fa0d ef30 a1ac 8b2d 3aee 83ae
00000080: 9399 5d36 4ec3 8631 9abe 0a39 4d73 79b7
00000090: 83f2 ac35 07f3 c7b2 7447 33b0 db9a 092f
000000a0: 5a6b 3232 17dc 9e32 5560 a5ad 0161 f1b2
000000b0: 2bce a1b8 2df3 9ead 56f1 ea30 a574 73b1
000000c0: c925 c133 e9b9 8ab3 9b49 5c2f faf4 3f36
000000d0: dcd6 02b6 9070 f237 baf0 0133 3f96 2438
000000e0: d5d9 e433 e5b8 0cb1 d19b 5d37 c47e c0b5
000000f0: 9ed5 04b5 3f36 d72d df06 e336 fcba 9435
00000100: 8c90 9434 5f0e 7135 e2be e2b6 7df4 25b5
00000110: 36ad 4935 41af 4b34 e079 67b6 4a7d f4b3
00000120: 7276 4d34 8188 b4b8 c229 112f 6131 62b1
00000130: d703 17b3 7595 b9af 3f34 2bb7 c340 4f34
00000140: 18b5 9db4 b2b5 b535 bd1f d334 2270 62b7
00000150: 21db 84b7 0a8e 8eb6 766a 3739 ca47 88b8
00000160: 0f85 56af f2eb 9c35 fe6e 0a36 b5ea d535
00000170: a929 3f2f 7368 2eb7 cfb0 40b5 23f3 d9af
00000180: 5cfb 3239 a9d3 9233 0fd6 1536 b533 95b2

fc2.weight f4 [100, 100]
4.967103e-06 -1.233318e-07 2.71759e-09 -9.844685e-08 1.8843793e-05 -4.3111115e-09 0.00012160364 1.6252911e-09
0.00022721724 1.2655827e-05 1.8669381e-07 6.855097e-07 -1.3970134e-11 2.2212647e-09 -6.846808e-06 -0.0001980306
-1.2508853e-05 -5.8650643e-05 -3.426973e-08 -6.9074144e-07 8.565412e-06 -7.3699766e-07 -5.961829e-05 1.3382157e-07
-6.2437e-08 3.5364948e-07 6.285716e-06 7.576648e-05 2.7644037e-10 3.276921e-10 7.097533e-07 1.1682323e-10
1.5938247e-06 -4.3654336e-10 -1.323084e-09 9.494057e-10 -9.7742895e-06 1.2222993e-09 -3.838454e-10 7.987881e-06
4.0003252e-12 -8.021024e-13 -2.0407507e-09 -4.0626117e-07 1.7379431e-11 -0.0001456068 -1.0963884e-10 2.2226714e-06
6.1465038e-09 1.7252906e-12 1.2470048e-06 3.5511195e-05 -0.00023468937 -7.499149e-10 -2.0466317e-08 3.6583277e-08
-2.0814329e-07 7.319276e-09 -2.4809096e-05 0.00030973981 2.0596583e-07 -1.5622145e-08 -7.0584594e-11 -1.3816532e-09
-2.1043872e-10 -4.2206796e-08 1.3104688e-10 -5.498671e-06 -1.7236805e-10 -2.6128006e-05 4.4236077e-11 4.468967e-06
-7.147436e-11 1.7597716e-07 2.767139e-09 7.143971e-06 -4.760167e-06 -5.5468518e-06 -5.245965e-09 2.4682444e-05
2.5445812e-07 -7.155355e-05 -9.377531e-09 -3.610583e-09 -7.6323914e-08 -6.181022e-10 -1.7902383e-07 -7.318907e-08
-2.6440477e-11 7.585422e-10 -2.7274918e-05 1.6841199e-05 1.221491e-11 2.4155364e-08 1.44605265e-11 -2.7560373e-10
-6.5831203e-09 -5.5749177e-05 -5.084944e-06 3.2407584e-07 4.5589847e-09 0.00014325835 2.7104065e-07 3.0548014e-10
1.0626844e-09 3.008148e-06 -1.843108e-11 -1.1638203e-07 -1.6185443e-07 -3.780508e-08 -1.2972392e-05 -9.274832e-06
1.1738115e-05 -1.6069104e-06 -8.657362e-10 1.3218332e-05 4.7333065e-10 -5.4553817e-07 2.621825e-06 2.3154551e-07
-1.21162175e-05 -0.00015677305 -6.3661666e-08 1.0927605e-07 -1.8843679e-08 -4.0938744e-08 -8.583274e-06 -3.0878007e-05
2.503521e-07 8.7246146e-05 -1.0827599e-09 -3.389415e-11 -1.2864137e-05 -1.506219e-06 -8.3131816e-08 -2.000872e-09
-1.1168058e-11 6.545065e-11 -1.9895884e-10 -1.3729393e-10 -5.703846e-06 -1.0007125e-07 -5.2777773e-09 -2.2482867e-05
4.214984e-11 2.0442612e-06 1.5583663e-07 -9.6710716e-11 4.4686851e-10 -4.5704483e-13 9.612972e-05 -2.3815468e-07
-5.422925e-06 5.8586414e-07 -1.857133e-13 -9.1090115e-08 1.3440738e-06 5.0530065e-09 4.9069215e-10 8.248346e-07
1.5883365e-05 -9.1870876e-05 -1.6551324e-09 -2.0337811e-05 1.2725931e-12 2.612008e-07 -3.9669153e-08 4.679859e-09
5.184342e-06 6.1983695e-07 1.4202503e-09 -3.5710113e-07 5.6150748e-05 -1.4618386e-10 5.998879e-10 1.70215e-11
-1.02140305e-08 4.9503495e-13 -1.74026e-10 -4.515717e-10 3.4329508e-07 -3.8263923e-05 -7.5005596e-06 -2.7640497e-09
-1.2040728e-06 1.3527662e-05 2.05709e-08 1.7915261e-07 1.0961033e-09 2.1245282e-06 -3.871754e-07 -4.614095e-10
3.91337e-07 -2.0057862e-09 3.7072426e-05 0.00014975994 -4.83596e-10 2.2263582e-06 1.0021217e-09 -2.25963e-09
3.8120427e-09 -1.2702174e-05 -8.351517e-11 -3.155523e-08 4.0869363e-08 -6.2539716e-11 3.7029604e-06 2.2433216e-05
3.2511542e-07 -2.3544939e-07 -1.0144812e-06 -4.5776187e-12 9.374007e-10 -1.7856236e-08 4.8327256e-05 1.1180814e-10
-1.4225655e-10 -3.1309484e-09 3.0108602e-06 -1.4229438e-08 -8.622574e-07 1.2795624e-11 5.0094145e-10 2.425225e-10
-1.2395941e-12 -6.775588e-06 7.171925e-11 -1.7980352e-07 8.017321e-09 -5.4486264e-08 -1.0218582e-07 1.0356224e-05
8.869979e-10 -3.7163845e-09 8.81805e-05 -4.417495e-06 1.0700141e-05 -1.7305236e-07 1.119674e-11 -4.5477364e-09
1.0013387e-06 8.816479e-11 -1.7873645e-11 -1.9424743e-08 5.2252353e-06 8.722719e-09 -1.6352612e-08 -5.1930197e-06
1.2477395e-08 1.76794e-05 -0.00020420685 -3.7166523e-09 1.6891043e-07 -5.1497727e-06 2.1768715e-06 1.1202206e-07
00000000: 17ab a636 306d 04b4 59c0 3a31 ba69 d3b3
00000010: bd12 9e37 f020 94b1 7505 ff38 d960 df30
00000020: 2a41 6e39 5d54 5437 0176 4834 de03 3835
00000030: e4c3 75ad e7a4 1831 a2bd e5b6 6fa6 4fb9
00000040: 1ddd 51b7 a6ff 75b8 f72f 13b3 646b 39b5
00000050: 2ab4 0f37 18d6 45b5 a70e 7ab8 98b0 0f34
00000060: 1b15 86b3 37dd bd34 e4e9 d236 d2e4 9e38
00000070: 86f9 972f 9026 b42f e085 3e35 d172 002f
00000080: 66eb d535 04fe efaf e1d7 b5b0 3e7c 8230
00000090: 41fc 23b7 d5fd a730 7005 d3af b003 0637
000000a0: babf 8c2c 92c5 61ab 443d 0cb1 1c1c dab4
000000b0: 00df 982d 07ae 18b9 2e19 f1ae 3429 1536
000000c0: 3831 d331 25d0 f22b c25e a735 dbf1 1438
000000d0: f316 76b9 9222 4eb0 e8cd afb2 bd1f 1d33
000000e0: fe7d 5fb4 087d fb31 211d d0b7 9364 a239
000000f0: 7527 5d34 7631 86b2 9837 9bae 9ae4 bdb0
00000100: 3c61 67af dd46 35b3 6b16 102f 3981 b8b6
00000110: 4b85 3daf 772d dbb7 658d 422e 22f4 9536
00000120: 7d2c 9dae 3cf4 3c34 0628 3e31 3eb6 ef36
00000130: 86b9 9fb6 181f bab6 ff3f b4b1 250d cf37
00000140: 759c 8834 050f 96b8 d11a 21b2 0c1e 78b1
00000150: 84e7 a3b3 13e7 29b0 b239 40b4 1e2c 9db3
00000160: a992 e8ad a981 5030 71cc e4b7 3346 8d37
00000170: 10e3 562d 357e cf32 6c64 7e2d c783 97af
00000180: bd31 e2b1 39d4 69b8 569f aab6 a5fc ad34
00000190: 41a5 9c31 9f37 1639 8b83 9134 82f0 a72f
000001a0: e20d 9230 97df 4936 1a1f a2ad b3ed f9b3
000001b0: 35ca 2db4 205f 22b3 00a4 59b7 1a9b 1bb7
000001c0: d2ee 4437 05ad d7b5 c5f8 6db0 4ec4 5d37
000001d0: af1b 0230 1971 12b5 9cf2 2f36 bf9e 7834
000001e0: c246 4bb7 7263 24b9 5fb6 88b3 25ab ea33
000001f0: b0dd a1b2 a0d4 2fb3 e200 10b7 0283 01b8
00000200: 2168 8634 ebf7 b638 3ad0 94b0 6c11 15ae
00000210: 0cd3 57b7 4a29 cab5 3386 b2b3 b67f 09b1
00000220: 7678 44ad 71ed 8f2e efc1 5aaf cef4 16af
00000230: aa63 bfb6 c0e6 d6b3 d257 b5b1 9799 bcb7
00000240: 8060 392e 2430 0936 0c54 2734 4bab d4ae
00000250: 27ab f52f 8da5 00ab 4099 c938 76b7 7fb4
00000260: 92f6 b5b6 4744 1d35 3718 51aa 529d c3b3
00000270: 0666 b435 b79e ad31 64e1 0630 346a 5d35
00000280: 443d 8537 cdaa c0b8 cb7a e3b0 1e9b aab7
00000290: 001a b32b 2a3b 8c34 b260 2ab3 7acc a031
000002a0: 29f5 ad36 df62 2635 9d32 c330 9bb7 bfb4
000002b0: 6883 6b38 19bb 20af 5ce5 2430 03b9 952d
000002c0: c879 2fb2 0757 0b2b f757 3faf 1141 f8af
000002d0: 1e4e b834 937d 20b8 51ad fbb6 adf1 3db1
000002e0: a09b a1b5 def4 6237 e3b3 b032 185d 4034
000002f0: b5a5 9630 1e93 0e36 fbdc cfb4 9da9 fdaf
00000300: f318 d234 2ad6 09b1 377e 1b38 e108 1d39
00000310: 0bee 04b0 8b68 1536 06bb 8930 d547 1bb1
00000320: 15fb 8231 6c1b 55b7 dca6 b7ae 5887 07b3
00000330: 5788 2f33 bb86 89ae 6080 7836 f72e bc37
00000340: 868b ae34 d6cf 7cb4 4f29 88b5 860f a1ac
00000350: dbd5 8030 4762 99b2 ffb2 4a38 63de f52e
00000360: a969 1caf 3a28 57b1 2f0e 4a36 bb75 74b2
00000370: e175 67b5 5e1a 612d 9fb2 0930 0254 852f
00000380: 1675 aeab dc59 e3b6 59b6 9d2e 0410 41b4
00000390: 8dbc 0932 4804 6ab3 4071 dbb3 a5bf 2d37
000003a0: eed0 7330 5463 7fb1 8ced b838 fe39 94b6
000003b0: c184 3337 45d0 39b4 a2f9 442d 5042 9cb1
000003c0: bc65 8635 5de0 c12e df37 9dad 76db a6b2
000003d0: 6e54 af36 edda 1532 c677 8cb2 b33f aeb6
000003e0: 2a5c 5632 394e 9437 5c20 56b9 0a68 7fb1
000003f0: bf5d 3534 36cc acb6 5e16 1236 c790 f033

fc2.bias f4 [100]
-1.611658e-05 5.4560405e-07 0.000119307355 -2.0645164e-05 7.5315775e-08 -3.282555e-05 -4.0958057e-08 -3.6734236e-05
7.012129e-10 7.3565913e-09 -9.096342e-07 5.6129822e-05 4.1800893e-05 7.26821e-09 -1.9580193e-08 6.1929817e-09
-2.3015223e-06 2.6024722e-07 -3.798946e-05 -1.9003425e-08 1.2684624e-09 1.5677562e-06 -3.8862927e-06 1.1107162e-05
2.250359e-05 -5.5547876e-08 -2.9254247e-06 1.6547158e-08 3.861729e-05 1.8077837e-06 -3.5070448e-07 3.4301105e-05
-6.37477e-08 2.7514396e-10 6.1412003e-10 -6.814857e-08 3.371503e-06 -3.7081477e-08 6.4231693e-07 2.4365536e-07
5.946574e-06 8.8548563e-07 2.2726643e-09 1.6729022e-07 5.9341204e-08 -2.1887625e-09 -8.732482e-05 2.3177051e-06
-1.0326705e-05 1.9095954e-05 -1.2095575e-05 2.3947813e-08 1.0626756e-07 3.4810826e-06 -5.281868e-08 -7.1745315e-05
1.3957793e-07 5.066208e-05 8.188448e-06 -1.3411642e-05 -5.2554764e-08 -8.843411e-06 -2.530924e-10 1.7599581e-09
1.8529129e-06 -1.4721218e-07 -1.0646837e-05 1.3404441e-05 4.143637e-07 6.0531806e-05 5.3894894e-07 1.5713196e-07
-4.4995213e-07 -3.9042544e-11 1.2833111e-06 -1.1122262e-09 6.966888e-10 -3.2815015e-07 4.5464865e-05 6.5212262e-09
2.2634786e-05 -5.483871e-09 0.0001888722 -2.836323e-05 -4.5690944e-05 -1.6897516e-07 5.5530003e-09 -2.2627444e-06
2.5734e-05 1.0134578e-09 4.7021185e-06 -2.3664262e-08 9.536325e-09 -6.152588e-08 7.9092235e-05 1.2691774e-08
2.1055443e-05 6.5665918e-06 -2.682542e-07 1.3495413e-05
00000000: 1832 87b7 a075 1235 a634 fa38 272f adb7
00000010: 49bd a133 2aae 09b8 dce9 2fb3 1613 1ab8
00000020: 79bf 4030 43c5 fc31 962d 74b5 f06c 6b38
00000030: 5e53 2f38 dabb f931 4d31 a8b2 0bca d431
00000040: da73 1ab6 1bb8 8b34 df56 1fb8 f93c a3b2
00000050: 0e56 ae30 b16b d235 0067 82b6 e658 3a37
00000060: 17c6 bc37 8993 6eb3 6a52 44b6 9623 8e32
00000070: 00f9 2138 faa2 f235 7548 bcb4 88de 0f38
00000080: abe5 88b3 1243 972f dbce 2830 1359 92b3
00000090: fb41 6236 8443 1fb3 af6b 2c35 bdcf 8234
000000a0: af88 c736 1cb2 6d35 222d 1c31 63a0 3334
000000b0: 58de 7e33 1e69 16b1 2822 b7b8 df89 1b36
000000c0: dc40 2db7 4030 a037 19ee 4ab7 ccb5 cd32
000000d0: 3535 e433 8b9c 6936 c1da 62b3 f975 96b8
000000e0: e4de 1534 ff7d 5438 1e61 0937 9002 61b7
000000f0: 93b8 61b3 295e 14b7 9723 8baf 05e3 f130
00000100: 9ab1 f835 6011 1eb4 d19f 32b7 a3e3 6037
00000110: b775 de34 88e3 7d38 4aac 1035 1bb8 2834
00000120: f390 f1b4 ffb5 2bae 3c3e ac35 fbdc 98b0
00000130: 1e81 3f30 9d2c b0b4 87b1 3e38 5011 e031
00000140: d5df bd37 a46c bcb1 ff0b 4639 93ed edb7
00000150: 47a4 3fb8 8a6f 35b4 b5cc be31 a7d9 17b6
00000160: 58df d737 e049 8b30 e4c6 9d36 4346 cbb2
00000170: 33d5 2332 3620 84b3 52de a538 030b 5a32
00000180: 38a0 b037 9856 dc36 9404 90b4 5c6a 6237

fc3.weight f4 [1, 100]
-9.063002e-06 -2.0863773e-07 -3.0058922e-07 -1.5431637e-05 1.7782513e-06 -2.5096386e-05 1.241753e-05 6.660037e-06
1.9027231e-08 5.1456072e-06 -6.4402e-05 5.604958e-06 -1.8827694e-07 -1.7092991e-06 2.4217604e-08 -1.0516045e-08
-6.974664e-07 -9.033781e-08 -5.0479102e-06 -5.5923733e-06 6.230413e-07 2.1109884e-06 -3.0854362e-06 1.2408532e-05
3.5527344e-07 -3.0426234e-05 -2.7346978e-06 5.9940344e-06 5.8575242e-05 2.1455804e-08 -3.866167e-07 5.5166944e-05
-4.5536235e-11 3.5362155e-09 4.2596923e-07 7.268506e-07 -4.040817e-06 2.2485567e-08 -3.7126636e-05 -2.2249209e-05
2.339305e-08 -3.1863572e-05 -2.9207683e-06 2.9139326e-08 -1.2500807e-05 2.638871e-07 -8.4955644e-07 9.884113e-07
-9.177963e-08 -1.0648768e-08 -1.332438e-06 -8.0444283e-07 -0.0001677091 -8.179189e-07 1.2265964e-06 -5.0572646e-07
-1.4304659e-05 -3.22943e-08 1.7668589e-06 -3.9043163e-05 2.9041031e-08 -1.2687599e-06 2.1086803e-08 4.4856442e-08
-3.7215343e-06 2.5912024e-09 2.0272028e-06 1.5639234e-06 3.6744839e-06 5.694224e-07 1.494648e-05 8.446048e-06
-0.00022221943 -1.9094363e-08 8.7092707e-07 9.424682e-08 -7.544291e-09 0.0002110103 -2.3220799e-05 2.483273e-08
-2.735754e-07 6.005886e-08 7.799247e-06 1.2053013e-07 -6.3437146e-06 -2.279167e-05 -4.339166e-10 4.0641282e-08
-6.077152e-07 4.6465683e-08 -1.0902497e-06 -6.8871515e-08 -4.850332e-09 -6.6992734e-06 -1.2096226e-06 -9.20463e-06
-1.1601815e-06 -1.1881864e-06 -2.3942686e-05 -4.236254e-08
00000000: 4c0d 18b7 e705 60b4 ab60 a1b4 3073 81b7
00000010: 40ac ee35 1486 d2b7 e354 5037 4879 df36
00000020: 5371 a332 6ea8 ac36 8f0f 87b8 3912 bc36
00000030: 2c29 4ab4 126b e5b5 1307 d032 0eaa 34b2
00000040: 8739 3bb5 bcff c1b3 3861 a9b6 1fa6 bbb6
00000050: 123f 2735 81aa 0d36 640f 4fb6 3d2e 5037
00000060: 69bc be34 d73b ffb7 c085 37b6 5d20 c936
00000070: b0ae 7538 d04d b832 3290 cfb4 0e63 6738
00000080: 3e45 48ae c301 7331 c4b0 e434 cb1c 4335
00000090: 5b96 87b6 4926 c132 6cb8 1bb8 d0a3 bab7
000000a0: dcf1 c832 40a5 05b8 6b02 44b6 0e4e fa32
000000b0: 8fba 51b7 5eac 8d34 130d 64b5 8ea9 8435
000000c0: 6318 c5b3 c7f1 36b2 39d6 b2b5 e4f0 57b5
000000d0: 12db 2fb9 f58e 5bb5 88a1 a435 42c1 07b5
000000e0: 0bfe 6fb7 f5b3 0ab3 cf24 ed35 47c2 23b8
000000f0: e775 f932 424a aab5 5f22 b532 2ea8 4033
00000100: 79bf 79b6 ea10 3231 140b 0836 00e8 d135
00000110: 2797 7636 69da 1835 a5c2 7a37 80b3 0d37
00000120: 9303 69b9 f304 a4b2 a7c9 6935 bd64 ca33
00000130: 259c 01b2 a542 5d39 49ca c2b7 c04f d532
00000140: ebdf 92b4 b5f9 8033 83d9 0237 126b 0134
00000150: 18dc d4b6 bd30 bfb7 558c eeaf 908d 2e33
00000160: df21 23b5 8f91 4733 b254 92b5 84e6 93b3
00000170: f9a7 a6b1 52ca e0b6 515a a2b5 966d 1ab7
00000180: 88b7 9bb5 c679 9fb5 87d8 c8b7 1bf2 35b3
