UQ/saved_models/Ux_mean.pth (torch, 2199 bytes, 5 tensors)

fc1.weight f4 [4, 2]
0	0xbc874afd	-0.01651525
1	0x3c05d3be	0.008168159
2	0xbb8d0e91	-0.004304715
3	0xbac60b1e	-0.0015109514
4	0xbc07e82d	-0.008295101
5	0xbc351a45	-0.011053626
6	0x3c0145a5	0.00789014
7	0x3c2daba2	0.0106000025

fc1.bias f4 [4]
0	0x3e9597b0	0.2921729
1	0x3e01e9ee	0.12686893
2	0x3e9634cf	0.29337165
3	0xbe4bd511	-0.19905497

fc2.weight f4 [4, 4]
0	0x3c47e079	0.012199515
1	0xbdcc419c	-0.099734515
2	0x3c9a2364	0.018815704
3	0xbd126bba	-0.035747267
4	0xbd04b6d1	-0.03240091
5	0x3dd35ca0	0.10320401
6	0x39bf80db	0.00036526364
7	0x3bed20de	0.007236584
8	0x3d061f35	0.032744605
9	0xbdd19547	-0.102335505
10	0x3b803ca0	0.003913477
11	0xbc46d4bc	-0.012135681
12	0x3cbb3077	0.022850258
13	0xbdc5c329	-0.096563645
14	0x3c738a56	0.014864525
15	0xbc8d2559	-0.017229723

fc2.bias f4 [4]
0	0x3b13cd4c	0.0022552786
1	0x3c5031b9	0.012707167
2	0xbc65c4ba	-0.014023954
3	0xbbbbe60f	-0.005734212

fc3.weight f4 [1, 4]
0	0x3ef388de	0.4756536
1	0xbe5330f6	-0.20624146
2	0x3edd1ad1	0.43184522
3	0x3edd4149	0.4321387
