UQ/saved_models/Uy_coeffs.pt (torch, 8935 bytes, 6 tensors)

fc1.weight f4 [32, 2]
000000 6a 23 57 be 02 4d cf 3e a9 a9 34 bc b0 0f bb 3d
       -0.21009603 0.4048844 -0.011026778 0.091338515
000010 ea d3 dc 3e fb 60 c7 be f1 b2 93 3e a4 90 1a 3e
       0.43130428 -0.38941178 0.2884746 0.15094239
000020 36 31 a8 be 40 0a e5 3e 4d 34 93 3b 62 bd ff be
       -0.32850045 0.44734383 0.0044923187 -0.49949175
000030 6a a8 84 3e 59 5e 4e be 62 8a de bd cc 49 08 3f
       0.2590974 -0.20153178 -0.10866238 0.53237605
000040 56 48 ae 3e 2a be ce be 0a 57 b4 3e 5f 54 42 3d
       0.34039563 -0.4037946 0.35222656 0.047443744
000050 7c 02 77 be 0d 01 2b be 5e 9f f8 bd 51 8d d3 3e
       -0.24122041 -0.1669962 -0.12139772 0.41318753
000060 f0 e0 5f 3e 4e 12 c8 3e 46 4c 0e bf 8a 9d f1 3e
       0.2186315 0.39076465 -0.55585134 0.47190505
000070 b5 d0 0f 3f 79 da ed 3e a6 fc 91 3e 8d 0f 5d 3e
       0.56177837 0.46455744 0.28513068 0.21587963
000080 ce be a6 3e 0e 4a 9a 3e bb 52 a9 3e 5b d6 fc bc
       0.32567447 0.30134624 0.3307093 -0.030863931
000090 8d 8b ad bd 5f d0 2a 3d 92 c9 a2 3e 2d f3 23 be
       -0.08473883 0.041702624 0.3179441 -0.16010733
0000a0 d4 16 05 bf 5e 1e 99 3e 0e cf ff 3e 3f 17 01 3f
       -0.5198796 0.2990598 0.49962658 0.50426096
0000b0 1c 71 23 3e be bb c8 be d9 6e e1 3e 91 f5 79 3e
       0.15961117 -0.39205736 0.44029883 0.24410082
0000c0 76 d9 bf be a1 b8 f7 3e a0 14 c1 be ed ea 25 be
       -0.37470597 0.48383048 -0.37711048 -0.16202898
0000d0 a3 15 27 3e 13 df 66 be 8d ac 51 3e f7 2f da be
       0.16316848 -0.22546034 0.20475979 -0.4261472
0000e0 fa 9b f8 3e fd 71 0d 3f 64 3d 5c be 4a e9 ec 3e
       0.485565 0.5525206 -0.21507794 0.46271735
0000f0 a2 42 48 be 6a 7e dc 3e 30 8c fd be e5 1f 0f 3f
       -0.19556668 0.43065196 -0.49521017 0.5590804

fc1.bias f4 [32]
000000 82 d4 bf bd 2e d0 ba be 5f 8c c8 3e d2 ff 0d 3e
       -0.093667045 -0.36486953 0.39169595 0.13867119
000010 36 6e a4 3e a0 ce 7c be 5d 58 59 be ae 82 10 be
       0.32115334 -0.24688196 -0.21225114 -0.1411235
000020 3b c6 92 bd 4d cb d9 3d b6 a8 93 3e d2 00 37 3e
       -0.07166716 0.1063448 0.28839654 0.17871407
000030 3a f1 c8 be dc b5 68 be d2 4a 1d 3e f2 83 c9 3e
       -0.3924654 -0.22725624 0.15360573 0.3935848
000040 cc 97 7d 3e d4 85 26 3e 1c 85 8b 3d 69 c5 dd be
       0.24764937 0.16261989 0.06812498 -0.43314674
000050 15 7b 35 be 08 47 b0 3e 04 3b 62 3d a7 a6 3d 3c
       -0.17722733 0.34429193 0.055232063 0.011575378
000060 7a 50 94 be 14 c3 10 3e 85 97 ea bd 3d ae 27 3e
       -0.2896765 0.14136916 -0.11454681 0.1637506
000070 e9 a2 0e 3e db f3 98 be bc e7 29 be 01 ac df 3e
       0.13929333 -0.29873547 -0.16592306 0.43685916

fc2.weight f4 [32, 32]
000000 52 f6 8d 3d ee 1e 7b bd ec 29 72 3d 1a 6f 38 bd
       0.069317475 -0.061308794 0.05912201 -0.04502783
000010 9c c0 ef bc 54 46 e1 bd 9a 6f 9d bc ff 90 21 bd
       -0.029266648 -0.10999742 -0.019218255 -0.03944492
000020 b6 96 ba 3d 15 ca 0b bc a4 4e fd bd 50 de d2 3c
       0.09110777 -0.008532067 -0.12368515 0.025740772
000030 5e 25 92 3d c5 8b 8f bd ce 7c 35 bd 2c a4 bb bd
       0.071360335 -0.07009081 -0.044308476 -0.09162173
000040 10 db c5 bd 2d f6 e5 bd 02 b1 d6 3d 01 1d ce 3c
       -0.096609235 -0.11228595 0.1048298 0.025160315
000050 e0 51 cd bb 82 eb a9 3d 65 b6 7d 3c ba 54 42 3d
       -0.006265864 0.08296873 0.015485381 0.047444083
000060 8e 9f fe bd 8d 70 bf 3d fe cc f8 bd 7a 5b ed 3d
       -0.124327764 0.09347639 -0.12148474 0.115897134
000070 54 58 07 bd 7e 7f 95 3d 20 c7 26 3d 70 89 fe 3c
       -0.03304322 0.07299708 0.040717244 0.031071395
000080 b4 24 01 bd a0 e0 89 bc c6 14 f3 3d 54 89 f4 bd
       -0.031529143 -0.016830742 0.118691966 -0.11940256
000090 b0 ff d5 bc 09 5c c8 3c 45 e4 96 bd 26 53 89 3d
       -0.026122898 0.024457948 -0.07367758 0.067053124
0000a0 86 2f 29 bd bb f7 9e bc 0e b2 b6 3d 75 2e c9 3d
       -0.041305088 -0.019405236 0.0892068 0.09823314
0000b0 46 61 d6 3d 86 e4 76 bc e8 66 ad 3c 14 cc d4 bd
       0.10467772 -0.015069133 0.021167234 -0.10390487
0000c0 cc cc fb bd 68 f4 d8 bd 94 4d 06 be ca c4 54 3d
       -0.12294921 -0.10593492 -0.13115531 0.051945485
0000d0 10 2d dd bc 15 34 04 be 01 4d af 3c 59 c5 f9 bd
       -0.026999027 -0.12910493 0.021399023 -0.12195844
0000e0 10 6a 3d 3c 76 32 9f 3c d4 4a 33 3d 31 72 9d 3c
       0.011560932 0.019433241 0.043772534 0.01921949
0000f0 79 1a a0 bd 76 48 56 bd d3 9b 0a be 48 a6 07 39
       -0.07817549 -0.052315198 -0.13536005 0.00012936548
000100 29 af 07 bc d6 3f f7 bd c5 ba 4c 3d bf c0 da 3d
       -0.0082815075 -0.120727226 0.049982805 0.10681295
000110 b1 54 04 3e c7 61 0b 3e 80 f0 03 bc e9 d4 c3 bd
       0.12922932 0.13611518 -0.008052945 -0.09562094
000120 4b ff be bd a4 a7 11 3d b4 aa 79 bd 48 eb 42 3c
       -0.09326037 0.035560265 -0.06095381 0.011896916
000130 d0 ce 05 be 88 ed dc 3c 08 ca 89 bc b8 99 b9 bd
       -0.13067174 0.026968732 -0.016819969 -0.09062523
000140 78 16 90 bc 9c 6d 20 bd a0 8b a7 3c 03 a3 0b be
       -0.017588839 -0.03916703 0.02045232 -0.13636403
000150 1d 83 68 ba 97 90 e6 3d ec 75 47 bd 1a e1 6d bd
       -0.0008869635 0.11258047 -0.048696443 -0.058076
000160 00 be af bc 20 86 b4 bb 53 83 d5 bd 28 a8 e5 bd
       -0.021452904 -0.005509153 -0.10425439 -0.11213714
000170 3f dc da 3d 6a 25 08 be e8 45 3a bd 16 7f 30 bd
       0.1068654 -0.13295522 -0.045476824 -0.04308995
000180 bd 28 e8 3c 92 a6 91 3d 7c 56 9c bd 89 bb 94 3c
       0.028339738 0.07111849 -0.07633683 0.01815583
000190 b1 71 aa bd 42 a8 89 bd 60 ba 1b bd e2 94 86 bd
       -0.08322466 -0.06721546 -0.038019538 -0.06571366
0001a0 29 f4 b5 3c 16 01 a1 3d 20 c1 1b bd ca a7 be 3d
       0.022211151 0.07861535 -0.038025975 0.09309347
0001b0 f0 48 29 bd 34 fe d3 3d f3 16 d7 3d 05 93 ba 3d
       -0.041329324 0.1035122 0.10502424 0.09110073
0001c0 d6 c2 ff bd 90 9a 00 3e 34 12 60 bc d4 aa af bd
       -0.12488334 0.12558961 -0.013676215 -0.08577505
0001d0 85 0b af 3d 48 54 00 be 98 60 bb 3c 03 a7 9f 39
       0.08547119 -0.12532151 0.022873208 0.00030451277
0001e0 da 55 fc 3c 09 a5 03 3e e9 ee a1 bd d4 0e a2 bd
       0.030802656 0.12855925 -0.079068966 -0.079129845
0001f0 20 d0 37 3c 28 76 0a 3d a0 30 da bd 3f 01 a3 3d
       0.011219054 0.03380409 -0.10653806 0.07959222
000200 2c 79 fa bc f7 4e c8 bd 6f e9 9c bc a0 70 e3 bd
       -0.030575357 -0.09780686 -0.019154279 -0.11105466
000210 86 59 86 3d e2 19 f3 bd 4f 31 3c 3d 24 05 96 bd
       0.06560044 -0.11870171 0.04594546 -0.07325199
000220 aa ce 84 3d 9e d5 cc 3d f4 43 76 bc 7a 5d 9a 3d
       0.064847305 0.10001682 -0.01503085 0.075373605
000230 37 47 dc 3d 17 91 08 3e 2e ab f5 3d 28 89 b6 bc
       0.10755771 0.13336597 0.119955406 -0.022282198
000240 7e 18 fd bd 7e 54 80 3d 60 5d 3c bb 28 5b 91 bc
       -0.12358187 0.062661156 -0.002874218 -0.017743662
000250 1c e3 5a 3d e2 32 b1 3d 08 ef ed bd f0 61 6e bc
       0.053439245 0.08652283 -0.11617857 -0.014549717
000260 fc ca bd bd e6 ec fe 3d 60 10 0b be e8 36 86 3c
       -0.09267232 0.124475285 -0.13580465 0.016383603
000270 42 81 a0 3d ee de f7 bd 0a 18 75 3d d8 cc 68 3d
       0.07837154 -0.12103067 0.05983738 0.05683598
000280 50 85 d0 3c d2 3f 0b 3c c1 23 03 be a4 62 75 3d
       0.025454193 0.008499103 -0.12806608 0.059908524
000290 04 0b fb 3d af 2a 46 3d 7c 98 93 bd c8 40 be 3c
       0.122579604 0.04838055 -0.072068185 0.02322425
0002a0 da df 39 bd 1b c4 02 be 2e 4b 32 3c 8f ee 06 3e
       -0.045379497 -0.12770121 0.010882182 0.1317694
0002b0 7d be 8f bd 4e 9f 8e bd 78 84 b6 bd 14 b5 27 bd
       -0.07018755 -0.06963979 -0.08911985 -0.040944174
0002c0 a3 0d 08 3e aa 48 65 3d 50 93 31 3d 32 b3 fe 3d
       0.13286452 0.0559775 0.04335338 0.124365225
0002d0 28 19 87 3d 60 1b f2 bc e1 2a ec bd f5 7c cf 3d
       0.06596595 -0.029554069 -0.11531616 0.101312555
0002e0 c0 78 46 bd 77 3e 02 3e c3 56 2d 3d 74 0e 67 bd
       -0.048455 0.12719141 0.04231907 -0.056410268
0002f0 af c6 06 3e cb 0c 85 3d 5a 77 bc 3d 46 0d fb bd
       0.1316173 0.06496581 0.09202452 -0.12258391
000300 f1 7a 7a bd ba 07 9d 3d c4 71 0c 3d 73 db 00 3e
       -0.061152402 0.07667489 0.034288183 0.12583713
000310 38 5e 88 3d 58 9e 2a 3d 4f 82 ce 3d 32 8a 90 3d
       0.06658596 0.041654915 0.10083448 0.07057609
000320 d8 cc 68 3d 89 43 0b 3e 2c 3b 57 3d ce 34 c3 3d
       0.05683598 0.13599981 0.052546665 0.09531556
000330 c6 5a eb bd d0 5a 11 3d 66 2f 95 3b 50 17 af 3b
       -0.11491923 0.035486996 0.0045527695 0.0053433552
000340 c9 ae 03 be ba f2 b8 bd 42 28 82 3d c8 c5 ca 3d
       -0.12859644 -0.090306714 0.06355335 0.09901005
000350 80 96 25 bd bb 5a d0 3d 1c e5 64 3d e2 87 c4 3d
       -0.04042673 0.101735555 0.05588256 0.0959623
000360 63 a2 0c be e8 c5 75 bd a7 10 d2 3c cf 75 ce 3d
       -0.1373382 -0.06000319 0.025642706 0.10081064
000370 dd 77 a1 3d b5 b2 d9 bd b5 b2 b1 bd 6c 75 96 bd
       0.0788419 -0.10629789 -0.08676664 -0.07346615
000380 f0 14 2b bd 20 8c 43 3c 97 0d b6 bd 22 da be 3d
       -0.041768014 0.011935264 -0.08889311 0.09318949
000390 6e 0a cc 3d c0 16 3b 3d 94 77 96 bd fa 6f 78 3c
       0.09962927 0.045675993 -0.073470265 0.015163416
0003a0 ac 83 83 3d 50 92 32 3b c0 05 f9 3b 3a be ab bd
       0.06421599 0.0027247854 0.0075995624 -0.08385892
0003b0 c0 c8 ac 3a 13 64 07 be dd 62 93 bd 97 a4 82 bd
       0.0013182387 -0.13221769 -0.07196591 -0.06379049
0003c0 30 b9 81 3d df 73 04 be 6c fe 20 3d 47 5b 06 3e
       0.0633415 -0.12934826 0.039305136 0.13120757
0003d0 44 86 83 bd 88 fb e7 3c 56 24 8c bd 90 77 97 3c
       -0.064220935 0.028318182 -0.06842868 0.018489629
0003e0 18 6d 27 3d d0 bd 40 3d fa af 89 bd 00 36 7e 3c
       0.040875524 0.04705602 -0.06723018 0.015515804
0003f0 40 9e 8a bd 0e 8f c2 3d b0 0b f6 3a 35 d1 f7 bc
       -0.06768465 0.09499942 0.0018771794 -0.030251125

fc2.bias f4 [32]
000000 c9 95 06 80 b8 87 04 00 0d 35 05 80 cb 85 07 80
       -6.04746e-40 4.16029e-40 -4.78209e-40 -6.90844e-40
000010 94 da 05 80 98 50 07 00 16 7f 09 80 da bc 08 00
       -5.37589e-40 6.7176e-40 -8.7211e-40 8.02431e-40
000020 f3 71 07 80 96 d8 08 80 fb 35 05 80 aa b5 08 00
       -6.83726e-40 -8.1238e-40 -4.78542e-40 7.99853e-40
000030 10 34 0e 00 8c 22 05 00 f5 50 07 80 7c cc 18 37
       1.304373e-39 4.7157e-40 -6.7189e-40 9.107516e-06
000040 28 4a 05 00 a4 cf 05 80 dd dd 08 00 2a 0b 09 00
       4.8578e-40 -5.33665e-40 8.14274e-40 8.30524e-40
000050 27 68 05 00 10 b2 08 00 b6 92 01 00 3f 9d 06 80
       4.9654e-40 7.98561e-40 1.44465e-40 -6.07422e-40
000060 73 16 09 00 af b9 08 00 31 fe 08 00 dd b1 08 00
       8.34573e-40 8.01295e-40 8.2587e-40 7.98489e-40
000070 34 e6 05 80 34 32 05 00 66 49 05 00 bb 73 01 00
       -5.41759e-40 4.77187e-40 4.85508e-40 1.33352e-40

fc3.weight f4 [16, 32]
000000 b2 57 63 bd 48 a5 c2 bd d8 b3 c9 3c 9d 6c bd bc
       -0.055503555 -0.09504181 0.024621889 -0.02312308
000010 fc 54 36 bd 09 95 dd bd 8a 29 8c 3d 2a ca 84 3d
       -0.04451464 -0.10819442 0.068438604 0.06483872
000020 f6 92 99 bd 48 e1 8c 3d 92 68 f2 bd 4d fd d3 3d
       -0.07498734 0.068789065 -0.118363515 0.10351048
000030 7a e1 d9 3d 7a 31 a4 3d d6 81 b1 3c 32 37 b4 bd
       0.10638709 0.080172494 0.021668356 -0.0879959
000040 3c 94 b7 3d 5e af eb bd 40 26 f9 bd 26 bf 9f 3d
       0.0896382 -0.11508058 -0.12165499 0.078001305
000050 9e 9d 84 bd 22 d3 56 3d ac 25 d6 bd 6c 66 0f bd
       -0.064753756 0.052447446 -0.10456404 -0.035009786
000060 cc 78 f0 bd 71 e8 a2 bc 0a 67 8a 3d 51 09 7f bd
       -0.1174179 -0.019886227 0.067579344 -0.062264744
000070 d6 78 86 3d 84 bc 04 bd 13 44 ce 3d e7 51 c3 bd
       0.065660164 -0.032406345 0.10071578 -0.09537106
000080 44 eb c6 bd 0c 91 eb bd 80 a4 00 3c 34 b9 e3 bd
       -0.09712842 -0.11502275 0.00785172 -0.11119309
000090 13 f0 d2 3d a9 13 5a bd 3a 20 03 ba 2c bc 8a bc
       0.10299697 -0.053241406 -0.00050020555 -0.01693543
0000a0 cb c9 b5 3d 0f 29 55 3d f5 41 1f bd 2e 04 f0 3d
       0.088763796 0.05204111 -0.03888126 0.11719547
0000b0 c9 f4 a4 3d 72 66 6c bd 16 09 7e bd 2a 09 8c 3d
       0.080545016 -0.057714887 -0.062020384 0.068376854
0000c0 7d 74 ec 3d d6 be d9 bd 74 89 bd bd ce e8 f3 3d
       0.11545656 -0.10632102 -0.09254733 0.11909638
0000d0 22 37 ec 3d a8 27 01 3d df ce 73 bc 76 d3 5b 3d
       0.11533953 0.03153196 -0.014880865 0.05366846
0000e0 77 a8 d0 bd e9 b5 8c 3d 71 c0 30 3d 70 65 a5 bd
       -0.10188382 0.06870634 0.043152276 -0.08075988
0000f0 4a f9 49 3d c6 5b cc 3d 48 7e fe 3c 37 49 a4 3d
       0.049310006 0.09978442 0.031066075 0.08021777
000100 1c b3 b5 bd 8e b6 21 bd 31 25 77 3d 9f 81 c7 3b
       -0.08872053 -0.03948074 0.060338203 0.00608845
000110 57 7d bc bd ac f5 0b 3d f8 75 ec bd e1 85 41 bb
       -0.09203594 0.034169838 -0.11545938 -0.002952926
000120 18 d1 d0 bd a8 13 5f 3d a8 dc 9b bc 60 3a b6 bc
       -0.101961315 0.054462105 -0.019026116 -0.022244632
000130 1b 32 ad 3d 2b 82 fb bd 36 77 ac bc 07 75 f8 bd
       0.084568225 -0.12280687 -0.021052938 -0.12131696
000140 af cb 07 bd 7a 06 0d 3d 5a e2 b2 3d 3a 0f 8a bd
       -0.033153232 0.034430005 0.087345794 -0.067411855
000150 a7 1f 33 bc 1e 9c da 3c 1b 90 52 3c 18 f0 b6 bd
       -0.0109328395 0.02668577 0.01285174 -0.08932513
000160 6e f4 cd bd 02 dc ab 3d fd e7 de bd 80 c2 c9 bd
       -0.10056387 0.083915725 -0.10884092 -0.09851551
000170 75 53 35 3d 34 2a 91 3d 0c ca 7d 3d 4b b9 be bd
       0.044269044 0.07088128 0.061960265 -0.093126856
000180 a3 d9 9c 3b 50 78 77 bc 84 11 aa bd 62 55 f5 bd
       0.0047866865 -0.015104368 -0.08304122 -0.11979176
000190 7c 17 5c bd 0c 87 be bd d8 c8 ce bd 9f 0f bb bd
       -0.053733334 -0.09303102 -0.10096902 -0.09133839
0001a0 b0 cd 77 bd 83 b4 cf 3d 69 1c 96 bd 27 22 58 bd
       -0.060498893 0.10141852 -0.073296376 -0.052766945
0001b0 1a 2d af bd 0f c8 5f bd 62 3e ac bd 13 d2 0f 3b
       -0.08553524 -0.05463415 -0.08410336 0.0021945282
0001c0 20 87 ad bc 3d f9 0d 3d e8 5a 8c 3b f0 1c c8 bc
       -0.021182597 0.03466152 0.004283298 -0.024427861
0001d0 3a 01 d0 3c 00 e8 d6 3d 3c e0 18 3d ff fc 4a 3c
       0.02539121 0.10493469 0.03732322 0.0123894205
0001e0 41 4c 33 3d 1e e4 bb bd 35 ea d5 bd 4e 56 cb 3d
       0.043773893 -0.09174369 -0.10445062 0.09928571
0001f0 80 66 f3 3d 7c 43 69 bd 3f 29 c3 3d 00 0c 07 bc
       0.11884785 -0.056949124 0.095293514 -0.008242607
000200 7c fc 90 3d d4 05 ed 3c 6a d9 df 3d e0 38 8b bc
       0.070794076 0.028933443 0.1093014 -0.016994894
000210 cd 2a f5 3c b2 29 6e 3c 40 f9 b2 bc bd 4a c6 bd
       0.029927636 0.014536308 -0.021847367 -0.09682224
000220 0e 2e a2 3d a6 3a a0 3d 51 9c d6 bc e2 d4 cb bd
       0.079189405 0.07823686 -0.026197584 -0.099527135
000230 ec 85 0f 3d 8e a6 cd 3d 72 ea aa 3d 1c f3 f9 bd
       0.035039827 0.100415334 0.08345498 -0.122045726
000240 92 5b bf 3d da 22 2c 3c 6b 3d 69 3d 1e 3a c1 3d
       0.093436375 0.010506356 0.05694334 0.09434913
000250 3e 1a b3 3c 32 11 b5 bc 47 fb 64 bd 69 f9 ea bc
       0.0218631 -0.022102926 -0.0559037 -0.028683381
000260 c2 0e e0 3d e6 af c1 3c 10 08 43 3d 5b 66 5d bd
       0.10940315 0.023643445 0.04761511 -0.054052692
000270 85 0c 60 3d ed e5 c5 bc 29 79 19 bc 80 07 db 3c
       0.05469944 -0.024157489 -0.009367266 0.026736975
000280 a9 06 c9 bd 06 88 6f bd fd 0f ea 3d e8 b3 0b 3c
       -0.098157234 -0.05847933 0.11428831 0.00852678
000290 fd 14 df 3d c6 86 dd bd 20 01 c1 bd 52 bb 1f bd
       0.10892675 -0.108167216 -0.09424043 -0.038997002
0002a0 83 d8 36 bd 9a 07 c6 3d 30 21 a4 3d 7d fa b2 bd
       -0.044640075 0.09669419 0.080141425 -0.08739183
0002b0 f5 49 4c bd c8 08 22 3d b4 6c ba 3d 83 41 b7 3d
       -0.04987522 0.039559156 0.09102765 0.08948042
0002c0 8c e3 5a 3d 28 f6 ba bd a8 c5 ae bd 1e 36 ab 3d
       0.05343966 -0.09128982 -0.08533794 0.083599314
0002d0 d2 f0 fa 3d 4e 8e a1 3d 4c da 6e bc 9c be 07 3d
       0.12252964 0.078884706 -0.014578413 0.033140764
0002e0 3e 6a b9 bd 93 c6 e1 3d cc a6 b1 bd a8 02 00 3d
       -0.09053467 0.11024203 -0.08674392 0.031252533
0002f0 c2 5d 41 3d 4a a5 a9 3d 00 00 45 bd ac e9 bd bd
       0.047208555 0.082834795 -0.048095703 -0.09273085
000300 be fd f2 3d 4e 89 c6 bd 27 15 7d bd a0 de 14 3c
       0.11864804 -0.096941575 -0.06178775 0.009086281
000310 7a 49 bc bd 0d d0 54 3d 35 e4 80 bd 6b 23 d7 bd
       -0.09193702 0.051956225 -0.06293527 -0.10504802
000320 82 5a c8 bd a8 ab 2e bd 36 31 f7 bd 6f c5 fc 3b
       -0.09782888 -0.042644173 -0.12069933 0.0077139656
000330 1e dc 0a bd 4c 40 fd bb b8 84 81 bd c4 0c ea bd
       -0.033901326 -0.007728612 -0.06324142 -0.11428216
000340 3e 0c 98 3d 76 16 7c 3d ae 11 1f 3d 07 64 a8 bc
       0.0742421 0.061544858 0.03883522 -0.02055551
000350 e2 56 e1 3d 72 25 d4 bc b3 62 4c bc 0d 6a 22 bd
       0.110029 -0.025896762 -0.012474704 -0.03965192
000360 3e 00 66 3d 87 3d 6b 3d b6 24 c4 3d 88 24 ed bb
       0.056152575 0.057431724 0.095773146 -0.007237021
000370 d4 22 30 bd c6 18 17 bd 76 df e9 bd 53 31 a4 bd
       -0.043001965 -0.03688886 -0.11419575 -0.0801722
000380 ef 72 6c 3b 2c a5 a2 3d e9 bd 64 3c e4 24 53 bc
       0.0036079248 0.0794166 0.013961294 -0.012887213
000390 b3 7a 35 3d 74 16 a7 bc 2c c6 93 bd e0 7a b1 bc
       0.04430647 -0.020396449 -0.07215533 -0.021665037
0003a0 5b 88 86 bd 53 f0 2a 3d 4a be a4 3d 4e 12 92 3d
       -0.065689765 0.041733097 0.08044107 0.071323976
0003b0 9f 5d 58 bb 73 de 69 3c 28 b0 74 bc 39 68 eb 3d
       -0.0033014787 0.014274227 -0.014934577 0.11494488
0003c0 ae d3 b1 3d ac cc ff bb aa 35 cf bd 6a d1 f2 bd
       0.08682953 -0.007806381 -0.101176575 -0.11856349
0003d0 62 d2 97 3d 62 33 d0 3d 36 19 b7 bd 48 68 9a bc
       0.07413174 0.101660505 -0.089403555 -0.018848553
0003e0 78 4d b4 3d 93 c1 c4 bd ae 68 a1 3d fd 9b 06 bd
       0.088038385 -0.09607234 0.07881294 -0.032863606
0003f0 5c 27 00 3d 62 30 66 bd f4 c9 12 bd 2e 24 c4 3d
       0.031287536 -0.056198485 -0.03583713 0.09577213

fc3.bias f4 [16]
000000 36 3d 02 00 c5 66 bb 80 07 f1 d9 02 e4 eb 27 86
       2.0563e-40 -1.7210105e-38 3.2023627e-37 -3.1582514e-35
000010 fe a7 20 00 e9 6a b1 89 26 42 c8 85 d6 f3 a6 10
       2.999e-39 -4.2711738e-33 -1.8832209e-35 6.5851144e-29
000020 16 89 55 8f 9f e5 fc 8e fa c0 c4 85 05 8c da 04
       -1.05281126e-29 -6.2343913e-30 -1.850264e-35 5.138014e-36
000030 40 4a 60 87 28 6b 2d 80 d9 f2 1e b6 aa 0a 51 06
       -1.6873707e-34 -4.171038e-39 -2.368519e-06 3.9316366e-35
