UQ/saved_models/Uy_coeffs_mean.pt (torch, 9039 bytes, 6 tensors)

fc1.weight f4 [32, 2]
0.6977716 -0.67060906 -0.6204629 0.6140838 0.52652425 -0.035359204 -0.15907079 -0.6419712
-0.6804568 0.6308817 -0.46155196 -0.0748415 -0.22957572 0.5233404 0.18447918 -0.43435252
-0.16899616 0.4943344 0.30479413 0.0017751455 0.4353605 0.4157037 -0.41639525 -0.42231056
-0.606235 -0.6364703 0.37493032 -0.024697125 -0.5639788 -0.31936166 0.31261808 -0.37654147
-0.285073 0.2978776 -0.18833452 0.028110266 0.4878803 -0.24343413 -0.1399442 0.20272219
-0.19957113 0.6811349 -0.5743551 -0.45053616 -0.39117292 -0.10945445 0.53707975 -0.5449252
0.026004076 0.61308664 -0.40862608 -0.6120409 -0.66525793 -0.012092173 -0.32198027 0.43828028
0.48977548 0.51467186 -0.3948374 0.466417 -0.10888082 0.6492742 -0.30770943 -0.29020837
00000000: 29a1 323f 09ad 2bbf a8d6 1ebf 9934 1d3f
00000010: 4bca 063f d0d4 10bd 74e3 22be 3958 24bf
00000020: 6b32 2ebf 7781 213f 8a50 ecbe 8046 99bd
00000030: e615 6bbe a3f9 053f 1ce8 3c3e 7463 debe
00000040: 540d 2dbe 6619 fd3e fa0d 9c3e 00ac e83a
00000050: 92e7 de3e 1ed7 d43e c231 d5be 1739 d8be
00000060: 3832 1bbf b8ef 22bf def6 bf3e a051 cabc
00000070: ea60 10bf 5f83 a3be 7a0f a03e 0bca c0be
00000080: 17f5 91be 6a83 983e c4da 40be 8047 e63c
00000090: 72cb f93e cc46 79be 884d 0fbe 6896 4f3e
000000a0: 605c 4cbe db5e 2e3f f008 13bf adac e6be
000000b0: d147 c8be a829 e0bd 0f7e 093f 3880 0bbf
000000c0: 8006 d53c 3ff3 1c3f 7037 d1be b6ae 1cbf
000000d0: 584e 2abf 401e 46bc 99da a4be 4666 e03e
000000e0: dac3 fa3e 89c1 033f 2128 cabe 36ce ee3e
000000f0: e8fc debd d536 263f 178c 9dbe 3196 94be

fc1.bias f4 [32]
0.014129579 0.20467967 0.08823824 0.23009998 0.06292093 -0.20302176 0.07751393 0.049351335
0.21307898 -0.70595413 -0.4040099 -0.44498008 -0.306724 0.09276056 0.143781 0.13484776
0.6385719 -0.14251256 0.4512183 0.30314285 0.6480966 -0.06675166 0.5167019 -0.12942642
0.41289812 -0.24576256 0.2411164 0.70072514 0.13684845 0.4571442 0.13804692 -0.0027709007
00000000: c07f 673c 8c97 513e 40b6 b43d 549f 6b3e
00000010: b0dc 803d f0e4 4fbe a0bf 9e3d a024 4a3d
00000020: 6031 5a3e 69b9 34bf 63da cebe 6ed4 e3be
00000030: ee0a 9dbe 40f9 bd3d 543b 133e 8815 0a3e
00000040: 7379 233f d0ee 11be 1606 e73e 8a35 9b3e
00000050: a9e9 253f 18b5 88bd 9346 043f 5c88 04be
00000060: 6267 d33e 2ea9 7bbe 38e7 763e b962 333f
00000070: 0022 0c3e ce0e ea3e 2c5c 0d3e 0098 35bb

fc2.weight f4 [32, 32]
0.11769633 -0.17453617 0.1482458 -0.07210375 -0.1244515 -0.13470124 0.04580012 -0.15782163
-0.15827064 -0.0016240478 0.17020531 0.119753376 -0.13215153 -0.06830651 -0.12880549 0.16070114
-0.07102382 -0.13011523 0.09910707 -0.0046345294 -0.0063318014 0.08036168 0.12966003 -0.16182339
-0.17184934 -0.16118583 0.046274036 0.17175291 -0.16759983 -0.0029877424 0.12553863 -0.07785844
0.17446022 -0.086902566 -0.08417512 0.033457622 -0.16047738 0.0077114254 -0.10633367 0.07254693
-0.15602337 -0.024293229 0.038623497 0.095696196 -0.05431637 -0.1609585 -0.12545973 -0.16686626
0.122363105 0.15442006 0.16614722 0.018883869 -0.09556134 -0.11042653 0.073197946 0.024194509
-0.090703495 -0.102421455 0.07196997 -0.057354547 0.07172245 -0.039997652 0.082304135 -0.04727772
-0.052075528 0.048178554 -0.074005246 -0.16706964 -0.15151773 -0.0748574 -0.09664477 0.1610135
0.13069616 -0.0543503 -0.079922855 0.039834753 0.016030133 0.030838072 -0.15551077 0.036690786
0.06184618 -0.02654685 -0.010473028 -0.009370059 0.065135166 0.09836106 0.1312065 -0.16406214
0.056580797 0.15035139 0.021130234 0.077381834 -0.007140413 0.10507031 0.101416185 -0.12141767
0.012107462 -0.16135788 -0.0673306 0.10650985 0.0029975325 0.009307072 -0.07205164 0.14628272
0.09601878 0.01501067 0.07009864 0.08574803 0.10224359 0.07255025 -0.045888722 -0.05096945
-0.12023085 -0.13944793 -0.15437095 0.046578333 -0.16887759 0.025584176 -0.1199618 0.09901728
0.11626272 0.0025662184 -0.10658609 0.059556797 -0.11327481 0.12296112 -0.023948789 -0.06712052
-0.12676476 0.14038114 -0.11186835 -0.014749244 -0.042654723 0.0043231845 -0.06642585 -0.15403187
-0.12836382 0.074025884 0.1343389 0.09477539 -0.0022686422 -0.042999074 0.022630438 0.12058036
0.12667708 0.08505191 -0.106050424 0.17592059 0.13843481 0.17065726 0.006231025 0.13963564
-0.09458298 0.06603274 -0.05307748 0.098571286 -0.06444578 -0.10703723 0.12609638 0.005977094
0.16822268 -0.08091025 -0.11241159 0.07910435 0.06966564 -0.06904349 -0.06330686 0.104166225
-0.07663416 -0.0030812323 0.1737913 0.17252119 0.06064537 0.07306144 -0.030315012 0.076505795
-0.04703793 0.09127881 0.088459626 -0.13273743 0.088539645 0.08823301 0.14051946 0.01456961
0.06067711 -0.043310106 -0.081348896 0.12777843 0.03417252 0.006282538 0.021973655 0.14805536
-0.13828146 -0.059399135 0.12956916 0.1201805 -0.012083128 -0.16354991 -0.0027236342 -0.069614604
0.08283533 -0.13678621 0.081548944 0.03510642 -0.020742461 0.17137028 -0.06284824 0.006743133
0.048778445 0.15830149 -0.0161684 -0.022282869 0.16351642 -0.16712074 0.055752352 0.05443175
-0.11091786 0.14496557 0.11478852 -0.007087946 0.05092384 -0.1463277 -0.031032935 -0.035067856
-0.15762325 0.094586596 -0.020618707 -0.13359451 -0.10810795 0.14792497 -0.11975479 -0.15241693
-0.112023965 -0.04850109 -0.10841208 0.11780591 0.01108776 0.105464295 0.1447381 -0.01805611
0.1684017 -0.10724485 0.110979274 -0.1675952 0.07861517 0.15277259 0.1497596 0.049442112
-0.09618187 -0.028590277 0.112350926 -0.11849188 0.048976764 -0.033307344 0.024189278 0.046672806
00000000: c60a f13d 9cb9 32be bfcd 173e 22ab 93bd
00000010: 6ee0 febd 1fef 09be e898 3b3d fe9b 21be
00000020: b311 22be 00de d4ba 4d4a 2e3e 4241 f53d
00000030: bb52 07be 49e4 8bbd 96e5 03be d78e 243e
00000040: f074 91bd ed3c 05be a6f8 ca3d 40dd 97bb
00000050: 007b cfbb aa94 a43d 99c5 043e 08b5 25be
00000060: 46f9 2fbe e60d 25be d889 3d3d ffdf 2f3e
00000070: 4a9f 2bbe 00ce 43bb 338d 003e 3f74 9fbd
00000080: b3a5 323e f9f9 b1bd 0164 acbd dc0a 093d
00000090: 2f54 24be 20b0 fc3b 78c5 d9bd 7c93 943d
000000a0: 97c4 1fbe 9802 c7bc ac33 1e3d 5efc c33d
000000b0: d87a 5ebd 4ed2 24be 8478 00be fdde 2abe
000000c0: 8299 fa3d 4b20 1e3e 7f22 2a3e 58b2 9a3c
000000d0: aab5 c3bd 4e27 e2bd cee8 953d 9033 c63c
000000e0: c1c2 b9bd 57c2 d1bd fe64 933d 9aec 6abd
000000f0: 38e3 923d 94d4 23bd 128f a83d 48a6 41bd
00000100: 264d 55bd e056 453d 1090 97bd 4e14 2bbe
00000110: 7727 1bbe d64e 99bd b1ed c5bd b9e0 243e
00000120: 37d5 053e 6c9e 5ebd 98ae a3bd c429 233d
00000130: a051 833c 20a0 fc3c 373e 1fbe 1449 163d
00000140: 6c52 7d3d c878 d9bc 1097 2bbc e084 19bc
00000150: 9665 853d 8671 c93d ff5a 063e e8ff 27be
00000160: 44c1 673d b7f5 193e 5019 ad3c 5e7a 9e3d
00000170: 20fa e9bb 1a2f d73d 4ab3 cf3d d4a9 f8bd
00000180: 605e 463c 003b 25be a0e4 89bd d621 da3d
00000190: 4072 443b b07c 183c cf8f 93bd 23cb 153e
000001a0: 7ea5 c43d 50ef 753c e08f 8f3d aa9c af3d
000001b0: 1665 d13d 3a95 943d d0f5 3bbd 58c5 50bd
000001c0: 983b f6bd 70cb 0ebe 6b13 1ebe ecc8 3e3d
000001d0: 3fee 2cbe e895 d13c 88ae f5bd 92c9 ca3d
000001e0: 261b ee3d 002e 283b cf49 dabd d4f1 733d
000001f0: a0fc e7bd 0ad3 fb3d 4030 c4bc 7c76 89bd
00000200: 9fce 01be 13c0 0f3e 3c1b e5bd d0a6 71bc
00000210: b8b6 2ebd 80a9 8d3b 470a 88bd 88ba 1dbe
00000220: ce71 03be e29a 973d 2390 093e 9a19 c23d
00000230: 80ad 14bb cc1f 30bd 7863 b93c d6f2 f63d
00000240: a3b7 013e b22f ae3d f730 d9bd 8724 343e
00000250: dbc1 0d3e c7c0 2e3e a02d cc3b a5fc 0e3e
00000260: b9b4 c1bd 2c3c 873d c667 59bd bedf c93d
00000270: 26fc 83bd 5636 dbbd 691f 013e 80db c33b
00000280: 9142 2c3e 46b4 a5bd 0c38 e6bd 7601 a23d
00000290: dcac 8e3d ac66 8dbd 07a7 81bd 1a55 d53d
000002a0: 5ff2 9cbd 80ee 49bb 59f6 313e 65a9 303e
000002b0: 4867 783d 3ca1 953d 3057 f8bc 12af 9c3d
000002c0: d8aa 40bd 62f0 ba3d 522a b53d 52ec 07be
000002d0: 4654 b53d 82b3 b43d 55e4 0f3e 60b5 6e3c
000002e0: 9088 783d f065 31bd 409a a6bd 59d8 023e
000002f0: 7cf8 0b3d c0dd cd3b 1802 b43c d39b 173e
00000300: a899 0dbe 824c 73bd c7ad 043e 3221 f63d
00000310: 50f8 45bc a179 27be 007f 32bb 1a92 8ebd
00000320: 92a5 a93d af11 0cbe 2203 a73d c0cb 0f3d
00000330: 18ec a9bc b17b 2f3e 94b6 80bd 80f5 dc3b
00000340: e8cb 473d c919 223e 9873 84bc 908a b6bc
00000350: d970 273e b321 2bbe 945c 643d d4f3 5e3d
00000360: e728 e3bd db71 143e 3e16 eb3d 0042 e8bb
00000370: 8495 503d eed6 15be c838 febc 50a3 0fbd
00000380: fd67 21be 9eb6 c13d 90e8 a8bc 00cd 08be
00000390: b367 ddbd a579 173e 0042 f5bd 2f13 1cbe
000003a0: d26c e5bd 14a9 46bd 2707 debd 3a44 f13d
000003b0: 70a9 353c aafd d73d 3936 143e 68ea 93bc
000003c0: 7f71 2c3e 30a3 dbbd 1a49 e33d 139e 2bbe
000003d0: fe00 a13d 6b70 1c3e 955a 193e d083 4a3d
000003e0: 00fb c4bd 2836 eabc 3e18 e63d dfab f2bd
000003f0: dc9b 483d 486d 08bd 9828 c63c fc2b 3f3d

fc2.bias f4 [32]
-0.07989799 0.12748142 0.08161734 0.0815032 0.12689178 -0.05982574 0.042246655 -0.0021817386
-0.11942577 0.0445095 -0.119789094 -0.05638724 0.035006896 0.07174009 0.1472532 0.14859693
-0.048657984 0.14974399 0.07949956 -0.051954716 -0.037055403 0.16556956 0.14620866 -0.071988225
0.10570656 -0.030315474 -0.16253637 -0.14834991 0.041637212 -0.03335324 0.044021964 -0.011098459
00000000: 8fa1 a3bd 7d8a 023e fe26 a73d 26eb a63d
00000010: ebef 013e d60b 75bd d40a 2d3d 80fb 0ebb
00000020: 8095 f4bd 984f 363d fc53 f5bd 4ef6 66bd
00000030: 6463 0f3d 78ec 923d 8bc9 163e cb29 183e
00000040: 984d 47bd 7d56 193e aad0 a23d 78ce 54bd
00000050: 68c7 17bd 118b 293e b9b7 153e 906e 93bd
00000060: ae7c d83d 2858 f8bc ef6f 26be 0ae9 17be
00000070: c88b 2a3d 689d 08bd 6050 343d 50d6 35bc

fc3.weight f4 [16, 32]
-0.037956208 0.078969225 0.105777785 -0.11469521 -0.09089907 -0.12968625 -0.029538527 -0.08176054
-0.075897224 -0.17038572 0.030665398 0.032030657 0.09218334 -0.08404969 0.05017759 0.10685469
-0.024245098 0.04621595 0.011366904 -0.025145039 -0.09904806 -0.17227006 -0.060837522 0.029239222
-0.09042408 -0.06126923 -0.049679056 -0.02124478 -0.082934126 0.014726192 0.11541425 0.12298234
-0.116210364 0.13007881 -0.076707765 -0.12452628 0.087794736 -0.016948149 -0.001252979 -0.1450752
0.12852286 0.12780629 -0.08933121 0.056464866 -0.06904288 -0.10291685 0.07599257 0.028768241
0.1158195 0.1550975 0.13421284 0.014756069 0.08775316 0.0330943 -0.17646606 -0.09454151
-0.17077081 -0.097469516 -0.12879114 -0.13975945 -0.165523 -0.018569604 -0.036230803 0.15694965
-0.16883281 -0.028624013 -0.14827666 0.094686106 -0.14399505 0.051844478 0.0009338856 0.00642851
-0.16476685 -0.08496151 -0.14213571 0.15912779 -0.08685262 -0.086413495 -0.11239205 0.037859306
0.1659865 -0.0023801029 0.14529245 0.12686796 -0.0317052 0.10086276 0.010028228 0.1274425
0.12546073 -0.10983041 -0.037285462 -0.09016039 0.15318437 -0.06849948 -0.104671314 0.029444814
-0.08760545 0.12904526 0.117613 -0.023476273 -0.140113 0.13253613 0.015929759 0.1203063
0.06267658 -0.081145644 0.0019643456 -0.059576765 -0.094292216 -0.035174638 0.10115121 -0.17293477
0.15063782 -0.14486349 0.06439398 0.01707302 -0.0480147 0.030367628 -0.034332693 -0.03735584
0.15760542 -0.12115972 0.07784985 -0.10988874 0.036132365 -0.105506755 0.1600853 0.053615674
0.06612508 -0.08961552 -0.0016699582 0.07845704 0.06571855 0.07742794 0.14531006 0.06898071
0.03579153 -0.082237475 0.055999175 -0.120468214 0.027230725 0.07882635 0.07320225 0.052981243
0.15492205 0.14599802 0.043148786 0.17301838 -0.112193815 0.1444984 0.12837167 0.039603263
-0.048261553 0.14877306 0.049028695 0.13676752 0.11048816 -0.09827791 -0.039667115 0.045889065
0.06391536 0.10290481 0.05589463 0.020342425 -0.038233623 0.15723203 0.071245015 0.15477954
-0.17510466 -0.10339882 0.15376349 0.10646178 -0.15060073 -0.10970131 0.09614472 -0.0072288513
-0.021263763 -0.10520751 0.043251216 -0.06866183 0.0074249655 0.14546154 0.08924286 -0.039991662
0.06698015 -0.09879333 0.08467533 0.09728001 0.07521294 0.020959958 0.15060745 -0.013495013
0.14569138 0.03680432 -0.14256674 0.07922466 0.1737235 0.17464782 -0.15653022 0.113163844
0.0036292821 0.16676871 -0.16876955 0.074277624 0.16710831 0.01119855 0.12359615 0.12697639
0.13350557 0.08753671 0.033025533 -0.09358128 -0.13769186 -0.15652178 0.056411907 -0.066405036
-0.13409539 -0.10887892 -0.17038594 -0.061069876 0.038813204 -0.08467363 0.06842163 0.090095386
-0.05687985 0.1426733 -0.1551189 -0.019874558 -0.04712157 0.1727096 0.09176703 -0.06492766
0.030844688 -0.07684127 0.08298983 -0.013129309 0.11110364 0.13664822 -0.08858519 0.15592606
-0.071596935 0.13493986 -0.0048618466 0.09409459 0.15849154 0.0768363 0.14602043 -0.1494636
-0.09538293 -0.12666047 0.06020844 -0.1253664 -0.17151554 0.15692873 -0.1630373 -0.099023685
00000000: f877 1bbd 9eba a13d 06a2 d83d 52e5 eabd
00000010: 4b29 babd 79cc 04be c8fa f1bc 1272 a7bd
00000020: 0170 9bbd 9879 2ebe 0036 fb3c 9432 033d
00000030: 9eca bc3d 3e22 acbd 0487 4d3d a2d6 da3d
00000040: a89d c6bc f04c 3d3d 403c 3a3c f8fc cdbc
00000050: b6d9 cabd 9067 30be c430 79bd 1887 ef3c
00000060: 4330 b9bd 72f5 7abd 447c 4bbd 8809 aebc
00000070: 5ed9 a9bd 2046 713c 4e5e ec3d 2ade fb3d
00000080: b3ff edbd 6133 053e f618 9dbd a207 ffbd
00000090: bacd b33d d8d6 8abc 003b a4ba 988e 14be
000000a0: 7f9b 033e a7df 023e 48f3 b6bd b447 673d
000000b0: 5a66 8dbd 12c6 d2bd fea1 9b3d 60ab eb3c
000000c0: c632 ed3d e1d1 1e3e 176f 093e 70c3 713c
000000d0: eeb7 b33d e48d 073d 85b3 34be fb9e c1bd
000000e0: 8bde 2ebe 199e c7bd d3e1 03be 1a1d 0fbe
000000f0: dc7e 29be 481f 98bc c066 14bd 69b7 203e
00000100: 82e2 2cbe e87c eabc d6d5 17be caea c13d
00000110: 7073 13be e05a 543d 00d0 743a 40a6 d23b
00000120: a4b8 28be 4d00 aebd 068c 11be 65f2 223e
00000130: c9df b1bd 8ff9 b0bd ce2d e6bd 5c12 1b3d
00000140: 5df8 293e 80fb 1bbb 8bc7 143e ade9 013e
00000150: 50dd 01bd 2291 ce3d 704d 243c 4980 023e
00000160: c778 003e c4ee e0bd a4b8 18bd 03a6 b8bd
00000170: 5ddc 1c3e 7549 8cbd ea5d d6bd 4036 f13c
00000180: 7c6a b3bd 7124 043e 16df f03d 5051 c0bc
00000190: c879 0fbe 8db7 073e 207f 823c 2663 f63d
000001a0: 945c 803d b02f a6bd 40bc 003b c406 74bd
000001b0: 471c c1bd 4813 10bd 5e28 cf3d d015 31be
000001c0: cd40 1a3e 1857 14be fee0 833d b8dc 8b3c
000001d0: 10ab 44bd 88c5 f83c 70a0 0cbd 7002 19bd
000001e0: 5163 213e 9622 f8bd be6f 9f3d 590d e1bd
000001f0: 88ff 133d ed13 d8bd 67ed 233e 1c9c 5b3d
00000200: 966c 873d 5788 b7bd 80e2 daba 16ae a03d
00000210: 7297 863d 8a92 9e3d 29cc 143e c245 8d3d
00000220: 249a 123d 1f6c a8bd 645f 653d 0ab8 f6bd
00000230: f812 df3c b66f a13d 10eb 953d dc02 593d
00000240: e3a3 1e3e 8180 153e c8bc 303d bb2b 313e
00000250: dfc5 e5bd 63f7 133e dd73 033e 0837 223d
00000260: e8ad 45bd f757 183e 50d2 483d c90c 0c3e
00000270: 9e47 e23d ee45 c9bd fc79 22bd 2cf6 3b3d
00000280: 0ee6 823d c2bf d23d c4f1 643d 28a5 a63c
00000290: dc9a 1cbd 6f01 213e e8e8 913d 877e 1e3e
000002a0: a34e 33be c3c2 d3bd 2d74 1d3e a208 da3d
000002b0: 1437 1abe 15ab e0bd 86e7 c43d 00e0 ecbb
000002c0: 5831 aebc 0977 d7bd 3028 313d 939e 8cbd
000002d0: 204d f33b dff3 143e f6c4 b63d 4cce 23bd
000002e0: e42c 893d 2854 cabd 426a ad3d be3a c73d
000002f0: 3e09 9a3d 38b4 ab3c d738 1a3e 301a 5dbc
00000300: 1f30 153e 20c0 163d 04fd 11be 8a40 a23d
00000310: 93e4 313e e1d6 323e 7549 20be 72c2 e73d
00000320: 40d9 6d3b 6bc5 2a3e edd1 2cbe de1e 983d
00000330: 711e 2b3e 207a 373c fa1f fd3d 1906 023e
00000340: afb5 083e 7246 b33d c845 073d 8ba7 bfbd
00000350: 18ff 0cbe 3f47 20be 2c10 673d 5dff 87bd
00000360: 4d50 09be e9fb debd a779 2ebe 6824 7abd
00000370: 98fa 1e3d 5e69 adbd a420 8c3d ee83 b83d
00000380: d8fa 68bd f318 123e 7dd7 1ebe f8cf a2bc
00000390: 8c02 41bd c9da 303e 5af0 bb3d cbf8 84bd
000003a0: 00ae fc3c f55e 9dbd 92f6 a93d 501c 57bc
000003b0: 4e8a e33d 83ed 0b3e 276c b5bd 15ab 1f3e
000003c0: 6aa1 92bd ad2d 0a3e 2050 9fbb aab4 c03d
000003d0: 9b4b 223e 5a5c 9d3d 6186 153e fc0c 19be
000003e0: 2058 c3bd 48b3 01be 209d 763d 0d60 00be
000003f0: c5a1 2fbe edb1 203e 40f3 26be eecc cabd

fc3.bias f4 [16]
0.12621136 -0.11319961 0.14280187 -0.10757692 0.11740212 0.10063483 -0.15972096 -0.16261399
0.016677484 0.026802674 -0.059285 -0.107639275 0.05727455 -0.15343855 -0.0042788386 -0.025679082
00000000: 8d3d 013e 32d5 e7bd a73a 123e 4a51 dcbd
00000010: 8670 f03d a219 ce3d e48d 23be 4884 26be
00000020: 389f 883c 4891 db3c d4d4 72bd fb71 dcbd
00000030: b898 6a3d ff1e 1dbe 8035 8cbb f05c d2bc
