UQ/saved_models/Uy_coeffs.pth (torch, 8935 bytes, 6 tensors)

fc1.weight f4 [32, 2]
3.27874e-40 5.89774e-40 4.131e-41 1.92512e-40 4.9585e-41 4.46201e-40 1.28028e-40 -4.25195e-40
1.17681e-40 -5.5249e-41 -5.27341e-40 -7.95709e-40 -4.31208e-40 -4.07175e-40 -7.81897e-40 -4.72053e-40
-2.05367e-40 -2.89039e-40 -5.59564e-40 5.84838e-40 4.67857e-40 4.17535e-40 5.74298e-40 -7.25581e-40
8.07085e-40 -4.68626e-40 3.09767e-40 -5.527e-42 1.34193e-40 -6.7861e-40 -6.78893e-40 1.00037e-40
-3.73679e-40 1.17691e-40 -2.88944e-40 -3.59859e-40 9.3607e-41 -4.07325e-40 -4.83923e-40 1.32766e-40
2.2134e-40 7.59699e-40 4.3851418e-07 4.13767e-40 3.00671e-40 3.03503e-40 8.81572e-40 1.34079e-40
-4.07872e-40 -6.98577e-40 1.34195e-40 -5.3803e-40 -2.2928e-41 -2.25035e-40 -6.02938e-40 -6.98615e-40
-2.80972e-40 -7.85466e-40 -4.9932e-41 4.17737e-40 6.112e-42 -1.13437e-40 6.51891e-40 1.8253e-41
00000000: fb91 0300 0d6c 0600 2873 0000 a518 0200
00000010: 398a 0000 d4db 0400 e464 0100 45a1 0480
00000020: 0c48 0100 039a 0080 03be 0580 1daa 0880
00000030: 08b2 0480 0a6f 0480 9c83 0880 e423 0580
00000040: 7b3c 0280 b925 0380 d617 0680 4a5e 0600
00000050: 3218 0500 eb8b 0400 e940 0600 a0e6 0780
00000060: d3c9 0800 571a 0580 815f 0300 680f 0080
00000070: 1376 0100 b063 0780 7a64 0780 dd16 0100
00000080: aa11 0480 1348 0100 7525 0380 24eb 0380
00000090: f004 0100 756f 0480 fb44 0580 1972 0100
000000a0: 0269 0200 bb45 0800 ee6c eb34 6a81 0400
000000b0: 2646 0300 0b4e 0300 7799 0900 c275 0100
000000c0: fb70 0480 599b 0780 1576 0100 cfdb 0580
000000d0: ea3f 0080 4e73 0280 bf90 0680 749b 0780
000000e0: 3c0f 0380 8f8d 0880 318b 0080 7b8c 0400
000000f0: 0a11 0000 373c 0180 3519 0700 e232 0000

fc1.bias f4 [32]
-1.9384766e-19 1.4562731e-20 -6.280923e-21 -1.3477014e-20 -8.5345006e-21 6.0320236e-21 4.052613e-20 -3.5735718e-07
-2.0063329e-20 -1.6120408e-20 8.962625e-20 -1.8436103e-20 1.9048294e-20 -1.713187e-19 -3.2433562e-23 1.2199235e-20
-1.9078837e-20 -1.6999234e-25 2.0966767e-19 -4.1032488e-19 -9.022182e-21 -1.6822497e-19 5.4105412e-20 -1.7513801e-20
-1.25621415e-20 -1.9115008e-20 -1.7128874e-19 4.4979206e-20 1.8380236e-20 1.2941797e-20 -1.1348396e-19 -1.6281196e-21
00000000: dcda 64a0 868a 891e 5c49 ed9d d792 7e9e
00000010: 5036 219e 27e2 e31d 1661 3f1f ccda bfb4
00000020: 277e bd9e c140 989e be9f d31f c31f ae9e
00000030: f3e7 b31e e641 4aa0 ced6 1c9a e16f 661e
00000040: cc31 b49e b970 5296 2a88 7720 8b36 f2a0
00000050: 986c 2a9e e19a 46a0 6e81 7f1f c669 a59e
00000060: ca4a 6d9e 4189 b49e d838 4aa0 8668 541f
00000070: af98 ad1e b176 741e 6cfa 05a0 d408 f69c

fc2.weight f4 [32, 32]
4.509153e-34 6.519294e-35 -4.269469e-35 -1.9286617e-38 -1.1559325e-33 7.685506e-35 -1.129247e-37 -2.3161866e-35
1.3692095e-33 -3.9921223e-35 6.2748778e-37 -3.0703282e-33 -1.0963489e-33 4.0810455e-35 5.3093623e-36 2.1236288e-33
-4.517645e-33 4.626492e-33 3.6496683e-35 -2.2143039e-35 -7.5119347e-34 5.9615554e-34 5.611192e-34 -4.790717e-35
-1.5588499e-33 1.2777582e-36 1.3175565e-34 3.627638e-33 4.6683142e-35 1.4138157e-33 -3.1691085e-33 3.313665e-33
-1.346306e-39 4.5309448e-33 -8.1021574e-35 1.3247942e-33 8.374322e-34 1.3656158e-37 -1.3112823e-34 -2.4167693e-34
-1.1188907e-34 -3.0550746e-33 4.180343e-33 -4.0703652e-33 -3.0891213e-33 5.341288e-35 8.1900216e-36 -2.179819e-33
3.453668e-34 -4.4426215e-33 1.1666234e-34 5.382409e-35 -4.1135073e-35 2.4115524e-37 4.200374e-37 -1.0419708e-34
9.576922e-38 -1.6310704e-33 1.1529323e-34 5.7934547e-34 -5.6411274e-35 5.7715035e-37 1.5610806e-33 1.2042649e-33
-2.365816e-33 -4.578565e-37 -1.7550428e-35 -4.622022e-33 -4.6198328e-33 -1.5911324e-33 -9.9572205e-34 -1.5658512e-33
-1.2149939e-37 6.324603e-37 3.84683e-40 1.418148e-34 -4.238985e-38 -2.408863e-37 -1.3406476e-34 4.627469e-33
-1.8216181e-34 3.160414e-33 -4.9438727e-35 -3.0803132e-37 1.6199377e-33 2.8337337e-33 -4.203439e-34 -2.9986468e-35
2.1063015e-33 -3.910132e-35 2.234851e-39 -4.540366e-33 -1.3793602e-33 -2.0997178e-33 1.78553e-40 -4.060102e-33
5.6870763e-36 -1.41472435e-33 -1.2416894e-34 -1.2493298e-35 -4.1542973e-33 -6.37666e-40 -7.5510176e-35 1.7535681e-33
-3.1028741e-34 2.5019818e-35 2.684561e-33 -6.4696645e-37 -1.3623876e-36 -3.3368637e-35 -4.629709e-33 2.3114756e-34
3.5226877e-37 -1.37327835e-33 1.8591334e-34 1.5179313e-37 -1.227393e-35 -8.2184567e-35 2.7665354e-35 -7.919163e-36
-2.1150623e-35 -5.8958806e-34 4.1169346e-33 2.855819e-38 -4.321016e-33 -1.5577607e-33 4.616175e-33 -3.8489935e-33
-1.408971e-33 1.9331227e-34 2.6852001e-36 -6.225173e-37 -3.6281345e-36 -2.6115943e-33 -2.4584403e-37 -5.622233e-34
2.2383146e-35 -5.645544e-35 1.5794302e-35 -2.178052e-33 -4.965484e-37 1.6056604e-33 -4.799374e-37 -2.3313875e-33
3.491257e-33 -1.0491727e-34 3.8174107e-35 3.6713753e-37 6.8987496e-35 -4.466893e-37 -1.7695305e-36 9.037565e-36
-1.4936151e-35 -1.5523481e-36 3.3722494e-38 3.0893858e-33 4.1501806e-36 -4.7059608e-34 8.118485e-36 -4.029925e-34
-3.400275e-33 1.9766695e-35 3.677594e-34 -4.2314916e-36 -7.2476396e-35 -4.5156303e-34 1.2740216e-35 -9.199964e-34
1.6608207e-33 -2.1098953e-38 2.795556e-37 2.8309294e-37 -2.00707e-40 -1.9070944e-35 6.450212e-36 -1.0001248e-34
-2.8831185e-34 9.221148e-34 -1.2584204e-35 4.3751574e-34 4.114652e-33 -2.1900075e-34 2.374441e-37 5.2359606e-35
-2.13056e-40 2.9385382e-34 -3.2154105e-33 -1.626193e-33 -4.099306e-38 -6.1065136e-34 3.544e-42 -6.138251e-37
-7.3374445e-36 -1.6182432e-33 3.709854e-34 -3.458349e-33 5.3320394e-33 -7.187851e-36 -4.2015362e-35 -4.1245132e-35
1.9211607e-34 -2.335033e-35 -6.8016404e-38 -1.797765e-35 -5.9295723e-35 4.2056128e-33 -3.9154045e-33 8.954044e-35
-1.8253969e-33 1.692814e-34 -1.1100503e-35 1.861475e-33 -4.3565536e-33 2.1882682e-36 -8.365385e-34 4.6231212e-33
6.473312e-35 4.489814e-34 9.673021e-35 9.351439e-39 7.07381e-40 -3.7588314e-35 -6.403235e-35 3.9500886e-33
3.408528e-35 3.1633912e-33 4.533044e-33 -7.528493e-37 -5.1197656e-38 -2.2117564e-34 -1.6815557e-37 5.050035e-36
-6.9676344e-34 2.3729525e-36 1.03636275e-33 2.761764e-39 2.1526155e-37 -1.8208099e-35 -1.6767428e-33 2.4496319e-36
-1.0400058e-33 -4.4082008e-33 6.610523e-34 3.0051697e-34 -3.191976e-35 -1.4506523e-37 3.3744178e-36 1.5010659e-34
2.4732083e-35 2.6594894e-35 7.5190645e-35 -1.9223019e-36 -7.8646156e-38 5.7088236e-37 4.9684987e-34 4.6089605e-33
00000000: a2d7 1508 0450 ad06 0001 6386 3e03 d280
00000010: ee0f c088 d850 cc06 84b4 1982 994c f685
00000020: bb7f e308 f441 5486 e585 5503 a912 7f89
00000030: 8629 b688 50fc 5806 d6d5 e104 976c 3009
00000040: d7a7 bb89 4d2d c009 b60c 4206 1677 eb85
00000050: 79a0 7988 4e1b 4608 be76 3a08 dcb7 7e86
00000060: 1281 0189 3866 d903 2022 2f07 aaaf 9609
00000070: cd35 7806 12e9 ea08 bea3 8389 eea4 8909
00000080: f4a8 0e80 4535 bc09 6d64 d786 831e dc08
00000090: 6d24 8b08 c4e0 3902 a04c 2e87 339f a087
000000a0: e1b9 1487 40ce 7d89 08a5 ad09 8c13 a989
000000b0: 2c51 8089 ecfe 8d06 b82e 2e05 a017 3589
000000c0: 1e89 e507 0e8a b889 2312 1b07 c716 8f06
000000d0: 29b6 5a86 2b1f a402 6bee 0e03 6e80 0a87
000000e0: b45a 0202 0881 0789 4140 1907 4385 4008
000000f0: 86f7 9586 e364 4403 83b0 0109 c417 c808
00000100: 578b 4489 edcc 1b83 cfa0 ba85 c5fd bf89
00000110: 7de6 bf89 a52f 0489 5571 a588 f915 0289
00000120: 5c60 2582 1037 5703 5730 0400 1381 3c07
00000130: d4ca 6681 50f0 a382 e033 3287 b137 c009
00000140: 7422 7287 4947 8309 416e 8386 a0a2 d182
00000150: 4494 0609 da6a 6b09 e8ae 0b88 776f 1f86
00000160: 14fc 2e09 f5e5 4f86 db55 1800 7499 bc89
00000170: 7f2f e588 0f70 2e89 bcf1 0100 69a6 a889
00000180: c7e6 f104 b80f eb88 800c 2587 fed9 8485
00000190: 1190 ac89 8ef1 0680 90bd c886 45ae 1109
000001a0: ab38 ce87 3607 0506 4c06 5f09 ba26 5c83
000001b0: 59cc e783 096b 3186 834f c089 b89f 9907
000001c0: e0bd ef02 cd2c e488 081f 7707 309c 4e02
000001d0: d184 8285 eb7b da86 2118 1306 066c 2885
000001e0: 79e9 e085 9bec 4388 c202 ab09 4f7c 1b01
000001f0: ec7c b389 e869 0189 98bf bf09 85e1 9f89
00000200: 001b ea88 617a 8007 7b6e 6404 e8d4 5383
00000210: e352 9a84 78f6 5889 1250 a782 abd4 3a88
00000220: b804 ee05 9515 9686 2ef4 a705 0bf2 3489
00000230: 77f7 2883 9f64 0509 7250 2383 21af 4189
00000240: 6a05 9109 7f75 0b87 e7f7 4a06 61dc f902
00000250: 7566 b706 2000 1883 f688 1684 2f35 4005
00000260: 12d4 9e85 260f 0484 4c9a 3701 fc53 8009
00000270: 7787 b004 e361 1c88 3da9 2c05 cfea 0588
00000280: ed3d 8d89 1032 d205 056b f407 ddfc b384
00000290: e1ac c086 bc0e 1688 2b7a 8705 52dc 9888
000002a0: c0f9 0909 4cbf e580 7441 be02 bfa9 c002
000002b0: 7d2f 0280 0ccc ca85 4b2e 0905 7cf0 0487
000002c0: b89d bf87 6d36 9908 76d1 8585 b963 1108
000002d0: 7cea aa09 0c8d 9187 9998 a102 1a32 8b06
000002e0: ea51 0280 a34c c307 1c90 8589 4d19 0789
000002f0: fd2f 5f81 79ec 4a88 e109 0000 b5df 5083
00000300: d90c 1c85 3a70 0689 e58f f607 79a7 8f89
00000310: f87b dd09 62de 1885 5964 5f86 f74b 5b86
00000320: b65d 7f07 a54d f885 8428 b981 d12b bf85
00000330: 94a2 9d86 bfb1 ae09 b9a3 a289 110a ee06
00000340: e6a5 1789 7a03 6107 e314 6c85 32a5 1a09
00000350: d3f6 b489 4328 3a04 6afe 8a88 7509 c009
00000360: 1417 ac06 1d33 1508 9693 0007 02d4 6500
00000370: e4b3 0700 90da 4786 293a aa86 8c14 a409
00000380: 7b3a 3506 f266 8309 984b bc09 3617 8083
00000390: 8f5f 8b81 16ff 9287 aae1 6482 03ce d604
000003a0: 148a 6788 54de 4904 ff31 ac08 ad12 1e00
000003b0: da7f 9202 299f c185 604c 0b89 4264 5004
000003c0: f4cc ac88 081c b789 1cac 5b08 50ba c707
000003d0: edb6 2986 db73 4582 2888 8f04 a086 4707
000003e0: 917f 0306 1867 0d06 1ae4 c706 0788 2384
000003f0: 5f18 d681 de42 4203 501b 2508 e072 bf09

fc2.bias f4 [32]
1.1925322e-18 -3.9491302e-18 -1.160007e-18 1.4370522e-18 -1.1714764e-19 -3.9067616e-18 -2.4480237e-20 1.1877878e-18
-1.7903423e-18 -1.9181049e-18 -3.0728895e-18 1.9083882e-18 -1.8045057e-18 -6.7244454e-19 1.160007e-18 -1.06560586e-19
2.3076654e-19 6.9845926e-19 1.8224161e-19 -1.4852615e-19 -3.162947e-20 2.0188257e-18 -3.8400367e-18 -2.1257589e-19
-1.960619e-19 1.9083882e-18 -3.0824166e-18 -2.4285992e-18 -2.4095516e-07 -5.23644e-19 1.1681664e-18 -2.8293827e-18
00000000: 98fc af21 7bb2 91a2 d32f aba1 4c12 d421
00000010: b44d 0aa0 5222 90a2 9535 e79e 5b49 af21
00000020: 9c1a 04a2 fa87 0da2 3ebd 62a2 6fd0 0c22
00000030: 2626 05a2 7978 46a1 d32f ab21 ec9b fb9f
00000040: 7438 8820 1726 4e21 2627 5720 4659 2fa0
00000050: af5d 159f 8af6 1422 1fac 8da2 1ff7 7aa0
00000060: 1378 67a0 6fd0 0c22 3471 63a2 f132 33a2
00000070: a05c 81b4 6c8d 1aa1 1464 ac21 87c5 50a2

fc3.weight f4 [16, 32]
1.0967644e-12 -1.7010005e-11 -2.8051114e-12 -3.2424228e-12 -2.0227243e-11 -4.719332e-12 -9.1094484e-12 3.5290288e-11
4.859681e-12 -9.02717e-14 -1.6892726e-13 -2.8051114e-12 -1.6977671e-11 1.5936462e-12 -4.5853868e-12 -2.1098412e-12
-1.8851455e-11 -1.4205557e-12 3.8118545e-12 -1.4977608e-12 2.0001147e-11 -5.003429e-12 -4.7666385e-12 -7.101221e-12
9.794249e-12 -2.0212352e-12 7.102748e-12 3.7297236e-12 1.0161171e-12 -7.101221e-12 -7.186118e-13 2.7760396e-12
2.770813e-12 2.6709303e-12 -1.4979942e-12 9.497025e-12 -9.0294884e-14 3.480143e-12 8.963946e-15 8.954914e-12
-3.6051307e-12 3.3814598e-12 1.6977671e-11 -4.196404e-12 -1.2114725e-11 -1.9164854e-12 1.409713e-12 -1.7010005e-11
-4.76594e-12 -1.4101523e-12 3.7051508e-12 1.0161171e-12 -1.4979942e-12 -1.7010005e-11 4.6048846e-12 7.101221e-12
1.8188821e-12 1.8188821e-12 -1.4253986e-11 -1.1113026e-12 -4.590932e-12 -3.2350021e-12 -1.0161171e-12 -4.8811927e-12
2.0100198e-12 4.859681e-12 1.7010005e-11 2.561808e-12 -1.3058985e-12 -1.32398e-14 2.55639e-12 2.7999053e-12
1.7260605e-12 3.7298515e-12 -8.5992696e-14 -4.867075e-12 -3.830028e-12 -2.7756896e-12 1.5063163e-11 -3.599265e-12
4.8398603e-12 7.101221e-12 -1.6977558e-11 -8.158146e-12 2.2233378e-11 9.602303e-12 -4.867075e-12 -1.7010005e-11
4.7117614e-12 4.2025498e-12 2.0212352e-12 1.9282778e-11 -1.1113026e-12 -7.102748e-12 7.101293e-12 3.5058558e-12
1.8948332e-12 1.9059213e-11 -7.1021535e-12 1.3058645e-12 8.5992696e-14 -2.0152367e-12 1.7010005e-11 4.990578e-12
-4.0997128e-12 1.4254506e-11 3.1336019e-12 4.719332e-12 1.8188821e-12 -7.138072e-13 4.834105e-12 2.1098412e-12
-5.0037812e-12 2.0215075e-12 1.7010005e-11 -1.2958982e-12 -4.5853868e-12 1.2953694e-12 1.7449694e-11 -1.3995991e-12
-1.5936462e-12 2.0201592e-11 1.5936462e-12 1.656612e-11 4.739616e-12 4.7666385e-12 -3.5986455e-12 2.55639e-12
1.2958494e-12 9.497033e-12 -2.7760396e-12 -2.0100566e-12 -4.866293e-12 -4.7666385e-12 -7.101293e-12 3.1440581e-12
2.6709303e-12 -9.61954e-12 9.794374e-12 7.101221e-12 -1.950372e-11 1.3061266e-12 8.733497e-15 -1.6977671e-11
-8.622382e-14 -2.7878986e-12 2.0204589e-12 2.7946933e-12 -2.7756896e-12 2.8114744e-12 -3.705428e-12 -1.6889701e-13
1.9082387e-11 -2.2221131e-11 1.6977671e-11 -1.9273383e-12 -4.9962976e-12 5.12724e-12 4.739616e-12 -2.6709303e-12
3.854848e-12 -2.0100198e-12 4.604824e-12 -4.7527472e-12 4.7322684e-12 8.622211e-14 5.12724e-12 1.3058645e-12
9.802323e-12 -2.2221131e-11 1.9221536e-12 -4.8599705e-12 -3.605136e-12 -2.77022e-12 -4.859681e-12 4.859294e-12
1.4979942e-12 -1.5936561e-12 4.853336e-12 1.2958982e-12 1.7260495e-12 2.0001147e-11 -2.7760522e-12 -3.7366334e-12
-7.1083742e-12 2.0227243e-11 -1.0917305e-12 1.5936462e-12 8.328927e-12 -2.7878986e-12 -2.7879238e-12 4.859681e-12
4.8663473e-12 -1.9219262e-12 4.7666385e-12 1.32643115e-11 -2.7757976e-12 -2.6709303e-12 1.1017543e-12 -1.2113543e-11
1.8135347e-12 -1.1012411e-12 -2.0001147e-11 4.866458e-12 4.866458e-12 -2.319073e-16 -1.9164854e-12 4.8599705e-12
2.7760218e-12 -4.590932e-12 8.328927e-12 2.0100566e-12 -4.859294e-12 -1.6099926e-12 -3.854848e-12 7.101221e-12
6.9628856e-12 1.3058645e-12 -5.003429e-12 -2.7757976e-12 3.5058558e-12 9.27171e-12 1.5949735e-11 -7.866749e-12
-1.2144108e-11 -9.635468e-12 -4.8532792e-12 2.8940884e-12 1.6977671e-11 -1.5936462e-12 4.8475325e-12 2.0152367e-12
-4.2025498e-12 8.019731e-12 -1.1113026e-12 1.26729955e-11 3.7366334e-12 2.0001147e-11 -1.1113026e-12 -1.2495598e-11
-1.3007351e-12 -4.8475325e-12 3.4804173e-12 -2.0215075e-12 -1.1070147e-12 5.258639e-12 -4.859681e-12 2.6325802e-07
2.55639e-12 2.0001147e-11 -1.6568025e-11 2.0227243e-11 1.5876387e-12 -4.596631e-12 -3.86205e-12 1.9318202e-11
00000000: 1a5b 9a2b 209f 95ad 6564 45ac 4c2a 64ac
00000010: b4eb b1ad f70b a6ac 4f41 20ad 5535 1b2e
00000020: 1dfc aa2c 1846 cba9 f831 3eaa 6564 45ac
00000030: 5156 95ad 2849 e02b 7e55 a1ac 8577 14ac
00000040: b4d1 a5ad eaec c7ab 221e 862c 85ca d2ab
00000050: 94ee af2d e20a b0ac 10b6 a7ac 1dda f9ac
00000060: 604d 2c2d 563b 0eac dee7 f92c 5d3a 832c
00000070: 7a01 8f2b 1dda f9ac 7045 4aab af58 432c
00000080: 88fa 422c 34f3 3b2c eed2 d2ab cc12 272d
00000090: 7553 cba9 afe4 742c e87a 2128 5989 1d2d
000000a0: 43b0 7dac f7f2 6d2c 5156 952d d9a5 93ac
000000b0: df1f 55ad 55dc 06ac 4366 c62b 209f 95ad
000000c0: c5af a7ac 1776 c6ab 085d 822c 7a01 8f2b
000000d0: eed2 d2ab 209f 95ad 1d05 a22c 1dda f92c
000000e0: 22fc ff2b 22fc ff2b 3fc2 7aad e566 9cab
000000f0: 7087 a1ac 9ea4 63ac 7a01 8fab e0bd abac
00000100: 4c71 0d2c 1dfc aa2c 209f 952d 6e45 342c
00000110: f4c9 b7ab cd81 6ea8 d4e3 332c 9c06 452c
00000120: e2eb f22b 843b 832c 6aa3 c1a9 b73e abac
00000130: d3c1 86ac 6152 43ac 3a7f 842d 9846 7dac
00000140: 9649 aa2c 1dda f92c 1056 95ad 0685 0fad
00000150: 1e91 c32d eeec 282d b73e abac 209f 95ad
00000160: c6c7 a52c 34dd 932c 563b 0e2c f59c a92d
00000170: e566 9cab dee7 f9ac c3da f92c e2b3 762c
00000180: 4856 052c 88a5 a72d 83e2 f9ac bac8 b72b
00000190: 6aa3 c129 47cf 0dac 209f 952d 2197 af2c
000001a0: ee3e 90ac 97c4 7a2d f481 5c2c f70b a62c
000001b0: 22fc ff2b 3beb 48ab bf15 aa2c 8577 142c
000001c0: 0e0e b0ac 3e40 0e2c 209f 952d a761 b6ab
000001d0: 7e55 a1ac 9a4e b62b 387d 992d dff9 c4ab
000001e0: 2849 e0ab f1b1 b12d 2849 e02b 96b7 912d
000001f0: aac2 a62c 10b6 a72c 6f3b 7dac d4e3 332c
00000200: e55f b62b d612 272d af58 43ac f671 0dac
00000210: ac37 abac 10b6 a7ac c3da f9ac 513e 5d2c
00000220: 34f3 3b2c 8f3a 29ad f04d 2c2d 1dda f92c
00000230: 798e abad 2cd2 b72b 2554 1d28 5156 95ad
00000240: a628 c2a9 512e 44ac 5a2d 0e2c b8a8 442c
00000250: 6152 43ac 05d7 452c 875f 82ac 4029 3eaa
00000260: b7d9 a72d 8a75 c3ad 5156 952d d79f 07ac
00000270: a6ca afac 1366 b42c aac2 a62c 34f3 3bac
00000280: 62a1 872c 4c71 0dac 9104 a22c f138 a7ac
00000290: 7c80 a62c aa27 c229 1366 b42c bac8 b72b
000002a0: bd71 2c2d 8a75 c3ad 7142 072c b9fe aaac
000002b0: 5bb0 7dac d9ef 42ac 1dfc aaac a1f8 aa2c
000002c0: eed2 d22b 8349 e0ab f7c2 aa2c a761 b62b
000002d0: 7deb f22b 94ee af2d e958 43ac 9a78 83ac
000002e0: 8b1a faac b4eb b12d bda5 99ab 2849 e02b
000002f0: 2786 122d 512e 44ac c52e 44ac 1dfc aa2c
00000300: 2938 ab2c 583e 07ac 10b6 a72c 2659 692d
00000310: 5354 43ac 34f3 3bac e20e 9b2b 8c1a 55ad
00000320: 793b ff2b 64fc 9aab 94ee afad 2839 ab2c
00000330: 2839 ab2c 7aaf 85a5 55dc 06ac b9fe aa2c
00000340: 5d58 432c 7087 a1ac 2786 122d f671 0d2c
00000350: a1f8 aaac 1996 e2ab 62a1 87ac 1dda f92c
00000360: 19fc f42c bac8 b72b e20a b0ac 5354 43ac
00000370: e2b3 762c 121c 232d 9c4b 8c2d b064 0aad
00000380: 33a4 55ad 4a82 29ad 74c2 aaac 43a7 4b2c
00000390: 5156 952d 2849 e0ab b18e aa2c 47cf 0d2c
000003a0: 34dd 93ac a815 0d2d e566 9cab 19f2 5e2d
000003b0: 9a78 832c 94ee af2d e566 9cab 2cd3 5bad
000003c0: ec0f b7ab b18e aaac a0e9 742c 3e40 0eac
000003d0: 68cc 9bab 9c05 b92c 1dfc aaac e855 8d34
000003e0: d4e3 332c 94ee af2d e0bb 91ad b4eb b12d
000003f0: b670 df2b c5ba a1ac 41e2 87ac b9ec a92d

fc3.bias f4 [16]
-6.760768e-17 -5.144911e-16 7.051275e-18 1.3954857e-15 5.960336e-16 2.309058e-16 1.4176338e-15 1.2749574e-17
-1.20332636e-17 -5.1971194e-16 -1.1564225e-15 -1.6736201e-17 1.2694648e-12 6.8723796e-16 -3.901525e-16 -1.12557e-06
00000000: 88e4 9ba4 be4a 14a6 b412 0223 561c c926
00000010: 84cb 2b26 ae1b 8525 754d cc26 2930 6b23
00000020: 7bf9 5da3 f9cb 15a6 76a8 a6a6 3d5d 9aa3
00000030: 4aa9 b22b 3615 4626 59e8 e0a5 4a12 97b5
