UQ/saved_models/Uy_coeffs_regul.pt (torch, 9047 bytes, 6 tensors)

fc1.weight f4 [32, 2]
-0.34379357 0.6573546 -0.26526803 -0.07753243 -0.19279121 -0.5295464 0.3172238 0.09314569
0.2123347 -0.16493471 0.079642266 -0.8078382 0.28779346 -0.13888764 0.27659655 -0.30420893
0.16753133 0.7582662 0.19792327 -0.9305568 -0.17764165 -0.83380896 0.31244552 0.25117457
-0.07134551 -0.4855365 -0.15868503 0.06558657 -0.472061 -0.12115936 0.39743316 0.1805824
-0.22373997 0.05460781 0.38130596 -0.6922447 0.36141568 -0.11881139 -0.21100798 0.45379108
-0.3408636 0.20484903 -0.39675632 0.6906226 -0.09609736 0.9855134 -0.001922785 0.13404946
-0.5831471 0.48744592 0.0011979806 0.3968364 -0.26608714 0.31501853 -0.1855542 -0.0821914
-0.2997218 -0.11024945 -0.31149748 0.43990737 -0.1979827 -0.08736489 -0.02325595 -0.08379711
00000000: b605 b0be 6448 283f 36d1 87be 53c9 9ebd
00000010: 0f6b 45be 5a90 07bf 286b a23e 2bc3 be3d
00000020: 456e 593e a5e4 28be 7c1b a33d 7cce 4ebf
00000030: aa59 933e 9038 0ebe 109e 8d3e 46c1 9bbe
00000040: 558d 2b3e bc1d 423f 66ac 4a3e f838 6ebf
00000050: b1e7 35be 8174 55bf dcf8 9f3e f499 803e
00000060: 981d 92bd 3d98 f8be 547e 22be 4052 863d
00000070: fbb1 f1be 6622 f8bd 5c7c cb3e 98ea 383e
00000080: 171c 65be 70ac 5f3d 893a c33e f336 31bf
00000090: 7a0b b93e 6353 f3bd 7a12 58be 4e57 e83e
000000a0: ac85 aebe f2c3 513e a523 cbbe a5cc 303f
000000b0: b1ce c4bd 9b4a 7c3f f505 fcba 4344 093e
000000c0: 2149 15bf 8392 f93e 8f05 9d3a 242e cb3e
000000d0: 933c 88be 1c4a a13e ec01 3ebe f753 a8bd
000000e0: 2375 99be 77ca e1bd 997c 9fbe 8a3b e13e
000000f0: fabb 4abe 5dec b2bd 4383 bebc d29d abbd

fc1.bias f4 [32]
0.67129815 -0.84885466 -0.73895776 -0.33782384 0.11915348 -0.42914397 -0.42370856 -0.527396
1.231981 -0.14692797 -0.12132911 2.4852133 -0.7941724 0.8447359 -1.1286266 1.523109
-0.22565903 -0.21427278 -0.14562833 -0.46826798 -0.120862424 -0.25491348 0.25701013 0.8248399
-0.14814486 0.7168708 0.39624825 -2.2881212 -1.2425641 -0.07722244 -0.0013733956 0.109769724
00000000: 32da 2b3f 8a4e 59bf 562c 3dbf 3ff7 acbe
00000010: bd06 f43d c2b8 dbbe 54f0 d8be 6d03 07bf
00000020: 8eb1 9d3f 4974 16be 657b f8bd bc0d 1f40
00000030: e24e 4bbf 9d40 583f d676 90bf 3cf5 c23f
00000040: 2913 67be 536a 5bbe 981f 15be d2c0 efbe
00000050: b886 f7bd 0584 82be d596 833e b528 533f
00000060: 49b3 17be d884 373f 0de1 ca3e 9470 12c0
00000070: 570c 9fbf cc26 9ebd 8203 b4ba f3ce e03d

fc2.weight f4 [32, 32]
0.0644169 0.09781248 -0.031496592 0.067766234 0.08132882 -0.029211834 0.048380673 0.15823461
0.1770323 -0.043166745 0.037494186 0.09735601 -0.13402902 0.100980945 -0.05492169 -0.017666062
-0.09433262 0.070713565 -0.08627983 -0.0066451156 0.059873078 -0.14276388 0.058089353 -0.11049501
0.013870561 0.17822295 -0.074412756 -0.16868654 0.016542653 0.06394093 0.12532073 -0.0038639854
-0.006813359 -0.17098586 -0.12731276 0.10042024 0.015883718 -0.11772251 0.0017822654 0.009568917
-0.13166884 0.08382879 0.07816326 0.095457695 0.010949678 -0.032654293 0.1757517 -0.019222489
-0.06347552 -0.047976993 -0.0022515676 -0.04039793 0.0073819757 -0.033997927 -0.11953388 -0.13019672
-0.03153866 -0.09343447 -0.006166439 -0.07407369 0.16976976 0.081925556 -0.12513481 -0.1476856
-0.0829171 -0.043113224 0.032198083 0.017977284 -0.0011267086 -0.121146604 0.03015122 -0.009205268
-0.1812029 -0.060512245 -0.13449861 -0.132044 -0.032237504 0.039020054 0.111647524 -0.049467
0.009192721 0.013636003 -0.042097494 0.0010167961 0.004992886 0.09702396 -0.18162422 0.08953489
0.008988218 0.1367285 0.015108435 -0.06865803 0.18261084 0.11100523 -0.08905692 0.026082836
0.08127002 -0.0692064 0.079100035 0.104519285 -0.0032212436 0.15369402 -0.04946443 -0.010680052
0.022497743 0.025188066 -0.100843556 0.114199184 0.10396132 -0.05790237 0.017041823 -0.16608591
0.050603457 0.016592238 0.06078329 -0.06193245 0.010798759 -0.034998674 0.10774893 -0.15185021
-0.018157257 -0.094814554 -0.010784522 -0.07152655 -0.03715979 0.0035863225 -0.060016625 -0.106293045
-0.004084832 -0.13555975 0.07520027 -0.044376113 -0.008688625 0.101916865 0.03487414 -0.18690135
-0.07756047 -0.009371575 0.09073239 0.10297227 -0.028475957 -0.0018147961 0.12197989 0.1381801
0.043268245 -0.030168178 -0.04012131 0.0010881382 0.0074522523 0.054299746 0.12625808 0.0117270015
0.015825314 -0.05410039 0.029412217 0.029732952 -0.13248216 0.018637037 -0.100144885 0.0670509
0.00020996055 -0.17504126 -0.06451524 0.11464492 -0.0073756664 -0.15899295 -0.016460555 0.040492002
0.10211658 -0.051703412 0.08083848 -0.081794314 -0.0280889 -0.09464491 0.044968948 -0.13120754
0.06219114 0.0028205707 -0.017036928 -0.048435587 0.00044233716 0.016561268 -0.049045116 -0.025329556
0.0059174327 0.013682747 -0.0135213295 -0.06566753 0.018399943 -0.036769107 0.1092532 -0.09670196
-0.032899555 -0.12275874 -0.1189354 -0.103086926 -0.037561074 0.09440192 0.016567223 -0.06219154
-0.22276893 0.08219922 -0.058109775 -0.18085985 -0.097338356 0.094434075 -0.04049222 0.029460195
0.20237611 -0.030013746 0.0032564846 0.01104503 0.037658103 0.10720748 0.028161583 0.05281315
0.06787505 -0.012942956 -0.033183202 0.17988631 -0.070048094 -0.051713467 0.05322751 -0.0064371806
0.10357372 -0.13254324 0.053760473 0.021539623 0.03257891 -0.13198602 0.09406619 0.07668284
0.079144694 -0.10154721 0.04868494 0.072619185 0.11888815 -0.045061283 -0.18589984 -0.1330378
-0.0062324577 0.11967658 0.046597324 -0.14019153 -0.06127569 0.0136613045 0.059997775 0.056503408
-0.019942857 -0.13298959 -0.015420512 0.082141235 0.08036819 -0.12559843 -0.17643794 -0.10475174
00000000: 02ed 833d e951 c83d 9202 01bd 06c9 8a3d
00000010: b98f a63d a84d efbc d02a 463d 4108 223e
00000020: f547 353e 9dcf 30bd 8193 193d 9662 c73d
00000030: e73e 09be 19cf ce3d 91f5 60bd 6bb8 90bc
00000040: 7631 c1bd 46d2 903d 7bb3 b0bd 45bf d9bb
00000050: 793d 753d b230 12be 1aef 6d3d 354b e2bd
00000060: 5941 633c 1480 363e b765 98bd 2abc 2cbe
00000070: 7584 873c 76f3 823d 1454 003e eb3a 7dbb
00000080: 9942 dfbb eb16 2fbe 475e 02be 20a9 cd3d
00000090: 921e 823c 8018 f1bd e79a e93a f2c6 1c3c
000000a0: 32d4 06be 6eae ab3d 0f14 a03d 537f c33d
000000b0: 4766 333c 82c0 05bd 41f8 333e 7b78 9dbc
000000c0: 74ff 81bd 8683 44bd 098f 13bb 4d78 25bd
000000d0: 80e4 f13b 6941 0bbd 2ece f4bd 4a52 05be
000000e0: af2e 01bd 925a bfbd d70f cabb f2b3 97bd
000000f0: 20d8 2d3e 96c8 a73d 5723 00be e53a 17be
00000100: 71d0 a9bd 7e97 30bd 23e2 033d 1945 933c
00000110: 11ae 93ba b61b f8bd b1ff f63c b1d1 16bc
00000120: 418d 39be b0db 77bd 01ba 09be 8b36 07be
00000130: 790b 04bd 7ed3 1f3d 75a7 e43d e99d 4abd
00000140: 119d 163c 8b69 5f3c 6c6e 2cbd 0446 853a
00000150: 5d9b a33b 7fb4 c63d b3fb 39be 125e b73d
00000160: 5243 133c 8e02 0c3e 5f89 773c 959c 8cbd
00000170: 56fe 3a3e b656 e33d 7963 b6bd acab d53c
00000180: e570 a63d 16bc 8dbd 33ff a13d 350e d63d
00000190: 801b 53bb f761 1d3e 379b 4abd 63fb 2ebc
000001a0: 304d b83c 3457 ce3c 1187 cebd 43e1 e93d
000001b0: ace9 d43d 092b 6dbd 4b9b 8b3c 6d12 2abe
000001c0: 9245 4f3d 72ec 873c e6f7 783d e1ac 7dbd
000001d0: 47ed 303c c55a 0fbd 79ab dc3d 9f7e 1bbe
000001e0: 87be 94bc 222e c2bd 90b1 30bc 837c 92bd
000001f0: dd34 18bd 8208 6b3b fed3 75bd 2bb0 d9bd
00000200: 0eda 85bb 2dd0 0abe 9902 9a3d bac3 35bd
00000210: bc5a 0ebc cab9 d03d 30d8 0e3d 1163 3fbe
00000220: 06d8 9ebd 3c8b 19bc e7d1 b93d 20e3 d23d
00000230: 6946 e9bc 74de edba 98d0 f93d 167f 0d3e
00000240: 0b3a 313d 4123 f7bc 3e56 24bd dc9f 8e3a
00000250: 0632 f43b 6969 5e3d cc49 013e 9c22 403c
00000260: 17a4 813c 5f98 5dbd e4f1 f03c 8592 f33c
00000270: 67a9 07be b3ac 983c c318 cdbd fb51 893d
00000280: db28 5c39 043e 33be 9120 84bd f5ca ea3d
00000290: 93af f1bb 0ccf 22be 49d8 86bc f1da 253d
000002a0: 7f22 d13d f5c6 53bd a58e a53d c783 a7bd
000002b0: b11a e6bc 31d5 c1bd 5c31 383d 455b 06be
000002c0: 23bc 7e3d 53d9 383b 0791 8bbc 6564 46bd
000002d0: 7de9 e739 7fab 873c 88e3 48bd ee7f cfbc
000002e0: 06e7 c13b 9a2d 603c 9188 5dbc b37c 86bd
000002f0: 7abb 963c 349b 16bd 24c0 df3d ad0b c6bd
00000300: afc1 06bd ef68 fbbd 6794 f3bd 3d1f d3bd
00000310: a4d9 19bd cb55 c13d fcb7 873c 8ebc 7ebd
00000320: 8a1d 64be 1158 a83d 8404 6ebd 5333 39be
00000330: 5559 c7bd a766 c13d 2cdb 25bd 8256 f13c
00000340: af3b 4f3e 63df f5bc bf6a 553b 37f6 343c
00000350: 623f 1a3d 988f db3d 1fb3 e63c 9a52 583d
00000360: 1302 8b3d b10e 54bc 1ceb 07bd 1e34 383e
00000370: 6075 8fbd 80d1 53bd 1705 5a3d fcee d2bb
00000380: 751e d43d 6ab9 07be f133 5c3d dd73 b03c
00000390: 7771 053d 5827 07be c6a5 c03d e50b 9d3d
000003a0: 9d16 a23d fcf7 cfbd dc69 473d 5eb9 943d
000003b0: a17b f33d 2e92 38bd 875c 3ebe 103b 08be
000003c0: a539 ccbb ff18 f53d d6dc 3e3d 5e8e 0fbe
000003d0: 38fc 7abd aad3 5f3c 3ac0 753d 1e70 673d
000003e0: 345f a3bc 6c2e 08be 51a6 7cbc aa39 a83d
000003f0: 1498 a43d e09c 00be 26ac 34be 1588 d6bd

fc2.bias f4 [32]
0.028008247 0.076691054 -0.07583916 -0.017575203 0.1496547 -0.085467115 0.037513442 0.030419907
0.06841065 0.134389 -0.024568768 -0.13745482 0.21377108 0.14136344 0.010202949 -0.012652352
0.16915274 0.07762601 0.17748956 0.060529597 0.089649245 -0.037133828 0.13792263 -0.007990236
0.0037989824 0.1404153 -0.16322203 -0.18653926 -0.019935302 -0.035200674 0.063522466 -0.054032054
00000000: 8d71 e53c 3310 9d3d 9051 9bbd dff9 8fbc
00000010: 153f 193e 6209 afbd b2a7 193d 2b33 f93c
00000020: e21a 8c3d 459d 093e 7144 c9bc f5c0 0cbe
00000030: cee6 5a3e 94c1 103e 452a 273c d04b 4fbc
00000040: 6036 2d3e 63fa 9e3d d3bf 353e e2ed 773d
00000050: 069a b73d a419 18bd 973b 0d3e 7be9 02bc
00000060: 59f8 783b 07c9 0f3e ad23 27be 2604 3fbe
00000070: 5c4f a3bc 952e 10bd 1118 823d b750 5dbd

fc3.weight f4 [16, 32]
-0.036856312 0.0004842786 0.011812575 -0.00063580234 0.14304247 0.0045037405 0.024262188 0.0026365106
-0.0056921514 -0.007879928 0.02671301 0.010476832 -0.02973114 -0.010863528 0.0030766074 0.0025155835
0.0046528955 0.071665004 0.009913041 0.006471721 0.020601258 0.023077786 -0.020133225 -0.0045197364
-0.02907793 0.0008922181 0.0030600226 -0.006975095 -0.0037528956 0.018937562 -0.0031664306 0.018771313
0.06674971 -0.0041375305 -0.01384756 0.00336113 -0.23110667 -0.0036834679 -0.015012529 0.011710067
-0.024524637 0.018950798 -0.012083937 -0.017307293 0.029197361 -0.0033840772 -0.009999332 0.003363813
0.0014406317 -0.091431715 -1.3946429e-05 -0.0016050925 -0.03447968 -0.0134563325 0.0073929005 0.04140746
-0.015263569 -0.035001032 0.0060316934 -0.009256111 0.004731077 -0.004537391 0.009009078 -0.011475264
-0.013700529 0.004926954 0.02252183 -0.005645646 -0.06029412 -0.006750097 -0.0001369765 -0.024801143
0.014941121 -0.029354434 -0.0020800764 -0.008364763 0.056953587 0.0024102181 0.0018222004 0.027459994
-0.0194626 0.022720054 -0.00605225 -0.00018980358 0.008600394 -0.014638675 0.016214956 -0.019759513
0.035663676 0.026794646 -0.02303385 0.03485165 0.009597004 -0.021011718 0.011913504 -0.008999888
-0.04401354 -0.0006261781 0.03980148 0.01204905 0.12420305 -0.02983616 0.010475053 -0.03177073
-0.00062794564 -0.033005744 0.008817653 0.018707532 0.082650304 -0.0064168414 0.003938303 0.026541432
-0.020025887 0.0634693 -0.0012509868 -0.0031385233 0.0125419265 0.0018304193 -0.009530017 -0.026488332
0.014341792 0.036501616 -0.019615848 0.035225462 0.00488649 -0.014346293 0.0016026747 0.02287666
0.038426507 0.0003431504 -0.031694658 0.0077730343 -0.027319087 0.004574133 -0.030774534 -0.013320781
-0.023701359 0.00019264215 -0.012737801 -0.0046719825 0.008339986 0.0013527701 0.010420312 0.0069489214
-0.0017232071 -0.07026245 0.0027373552 0.0040848935 -0.024414143 -0.023393266 0.00534296 0.024935426
0.0123427 -0.0013873827 -0.0026586703 0.0072017643 0.010501147 -0.018632231 0.020272546 -0.002684845
-0.03285761 0.005741754 0.0002053586 -0.010587269 -0.028351402 -0.013000584 0.009368669 -0.0027833427
-0.0044309413 0.0082503725 -0.002375031 -0.005987198 0.00422642 0.0061718444 -0.0036493451 -0.007663822
-0.0015225642 0.051406223 -0.009615289 -0.023464259 0.0036279748 0.00021983923 -0.0042472524 -0.02966341
-0.0034647842 -0.0029661343 -0.009097706 0.01312867 0.005685245 0.008320784 0.014450186 0.022716492
-0.03317978 0.009736008 0.021304023 0.012131615 0.058199283 -0.017970966 0.019799482 0.0076076663
0.0007443342 -0.01582697 -0.0008471021 0.014797756 -0.0052778614 -0.006432752 0.005363565 0.008822627
-0.010929644 -0.04013142 -0.0030048445 0.008675897 0.009021826 -0.0016941698 -0.0003189234 -0.05661386
-0.00064879074 0.004179867 0.004610017 0.014370563 -0.0047373995 0.02188674 -0.022796305 0.0030388136
-0.029479966 0.02998837 0.011351809 0.012497388 0.06709052 -0.012408101 0.016646516 -0.03283958
-0.020089969 -0.021183794 0.0033271315 0.013915895 0.070633434 -0.019608606 0.0072173676 0.03169221
-0.032463588 0.06772232 -0.0026816714 -0.020043002 0.0057206894 -0.024122514 -0.0031683696 -0.012127186
0.013088966 0.039611388 -0.014481559 0.04541008 0.023850856 0.005231425 0.025277676 0.01798275
00000000: a5f6 16bd c6e6 fd39 8889 413c f9ab 26ba
00000010: ba79 123e 1d94 933b 7fc1 c63c 4fc9 2c3b
00000020: 3a85 babb d01a 01bc 3ed5 da3c 05a7 2b3c
00000030: b88e f3bc f0fc 31bc e8a0 493b 7ddc 243b
00000040: 5177 983b 1ac5 923d 4f6a 223c bb10 d43b
00000050: f8c3 a83c a00d bd3c 6fee a4bc 4c1a 94bb
00000060: d734 eebc bee3 693a a98a 483b 568f e4bb
00000070: 24f3 75bb f222 9b3c e483 4fbb 4cc6 993c
00000080: 12b4 883d 1f94 87bb e0e0 62bc 6746 5c3b
00000090: 3aa7 6cbe 5666 71bb 1cf7 75bc 95db 3f3c
000000a0: e4e7 c8bc b43e 9b3c b5fb 45bc 06c8 8dbc
000000b0: 4e2f ef3c 65c7 5dbb 3dd4 23bc 6b73 5c3b
000000c0: 94d3 bc3a 8d40 bbbd 75fb 69b7 f861 d2ba
000000d0: 913a 0dbd f377 5cbc 2540 f23b de9a 293d
000000e0: 0c14 7abc 3e5d 0fbd 83a5 c53b f2a6 17bc
000000f0: 2607 9b3b 65ae 94bb d09a 133c bf02 3cbc
00000100: 2f78 60bc 4972 a13b b37f b83c 1cff b8bb
00000110: f8f6 76bd eb2f ddbb 59a1 0fb9 c42b cbbc
00000120: 9bcb 743c b678 f0bc e451 08bb 5c0c 09bc
00000130: 2a48 693d c0f4 1d3b e6d6 ee3a c8f3 e03c
00000140: 0870 9fbc 681f ba3c f451 c6bb 0306 47b9
00000150: abe8 0c3c 0ed7 6fbc 3ad5 843c b4de a1bc
00000160: 1314 123d 7280 db3c 7cb1 bcbc 9bc0 0e3d
00000170: c13c 1d3c c420 acbc dc30 433c 4474 13bc
00000180: 8b47 34bd 1a26 24ba e006 233d 6169 453c
00000190: 2b5e fe3d f66a f4bc 8f9f 2b3c 0622 02bd
000001a0: b89c 24ba 0831 07bd eb77 103c 8a40 993c
000001b0: 9044 a93d 5e44 d2bb e10c 813b 6b6d d93c
000001c0: 540d a4bc 31fc 813d 27f8 a3ba afaf 4dbb
000001d0: a77c 4d3c aeea ef3a ca23 1cbc 0ffe d8bc
000001e0: d6f9 6a3c b882 153d 6ab1 a0bc 9348 103d
000001f0: d91e a03b b70c 6bbc d710 d23a d567 bb3c
00000200: 1d65 1d3d dee8 b339 42d2 01bd f0b4 fe3b
00000210: 47cc dfbc 9ce2 953b e01a fcbc 683f 5abc
00000220: 5a29 c2bc fcff 4939 36b2 50bc 6e17 99bb
00000230: 70a4 083c 6f4f b13a f5b9 2a3c c7b3 e33b
00000240: 3cdd e1ba c2e5 8fbd 3365 333b 92da 853b
00000250: 2b00 c8bc 3ca3 bfbc ff13 af3b 6145 cc3c
00000260: 0939 4a3c d7d8 b5ba 163d 2ebb c7fc eb3b
00000270: 010d 2c3c 9fa2 98bc 9c12 a63c 39f4 2fbb
00000280: b495 06bd 5325 bc3b 8855 5739 3a76 2dbc
00000290: 3341 e8bc 6700 55bc 0c7f 193c be68 36bb
000002a0: 6e31 91bb 922c 073c 68a6 1bbb 4230 c4bb
000002b0: c87d 8a3b 2f3d ca3b da29 6fbb cc20 fbbb
000002c0: c790 c7ba 558f 523d 7289 1dbc 1e38 c0bc
000002d0: 51c3 6d3b a584 6639 892c 8bbb ae00 f3bc
000002e0: 6f11 63bb 7a63 42bb 8b0e 15bc a219 573c
000002f0: 4b4b ba3b e653 083c 79c0 6c3c f017 ba3c
00000300: 85e7 07bd c783 1f3c c685 ae3c aec3 463c
00000310: 5f62 6e3d d937 93bc 8632 a23c bb49 f93b
00000320: 6c1f 433a 90a7 81bc 0f10 5eba 4a72 723c
00000330: e9f1 acbb d6c9 d2bb d8c0 af3b c88c 103c
00000340: 4012 33bc d860 24bd edec 44bb 5925 0e3c
00000350: 48d0 133c e80e deba 2d35 a7b9 efe3 67bd
00000360: 9c13 2aba 44f7 883b a00f 973b 8372 6b3c
00000370: 303c 9bbb d24b b33c 51bf babc d526 473b
00000380: f87f f1bc 2caa f53c f0fc 393c d8c1 4c3c
00000390: c166 893d 594b 4bbc 465e 883c cc82 06bd
000003a0: b893 a4bc a389 adbc 010c 5a3b 7eff 633c
000003b0: 43a8 903d 3aa2 a0bc ab7f ec3b b1cf 013d
000003c0: 8af8 04bd 00b2 8a3d fbbe 2fbb 3931 a4bc
000003d0: 9f74 bb3b 949c c5bc 6ca4 4fbb 1bb1 46bc
000003e0: 1a73 563c 8d3f 223d 1044 6dbc ecff 393d
000003f0: df62 c33c 606c ab3b 2113 cf3c 8f50 933c

fc3.bias f4 [16]
0.08358576 -0.077051334 -0.03233642 -0.033135325 -0.12592834 0.10183287 0.0024874024 -0.023815865
0.15343052 -0.046461415 -0.05989712 0.04653524 0.10127033 -0.042550784 -0.027373662 0.14017053
00000000: 032f ab3d 17cd 9dbd 3273 04bd e8b8 07bd
00000010: 5cf3 00be c08d d03d b003 233b 7d19 c3bc
00000020: e41c 1d3e 534e 3ebd af56 75bd bc9b 3e3d
00000030: d266 cf3d bb49 2ebd bb3e e0bc dd88 0f3e
