UQ/saved_models/Uy_coeffs_regul.pt (torch, 9047 bytes, 6 tensors)

fc1.weight f4 [32, 2]
00000000: b709 223f 58b7 debd a57e 223f f0fb 653e
00000010: 18aa f2be acf1 7a3e 31bf 303f 44d9 59be
00000020: a000 09bf bd3f 8bbe d61b 18bf ba22 19bf
00000030: 5c1b 513e 7eab c53e e264 03bf 4a09 af3e
00000040: 89d8 313f aa86 d8be 1d19 dfbe b6f5 d93e
00000050: cd61 123f 6087 3cbd a392 26bf 116e 97be
00000060: 43f2 0c3f 8002 6f3d 24d4 7bbe 9025 213e
00000070: d45c 24be 4437 63be 332b 193f 022c 8b3e
00000080: 28f3 eebd 9608 e43e ce3f 0dbf 5692 d63e
00000090: 902c 5c3e 711e 0c3f 4066 a4bd 5a96 be3e
000000a0: 8c67 393e b8af bfbd b058 33bd 464f bc3e
000000b0: 705c f5be 4841 853e eca4 4f3e 700a 26be
000000c0: c074 663e 6ae8 9d3e 55e9 9abe 601f 3b3d
000000d0: 634d 153f edb9 f6be 0ecb c93e d774 0a3f
000000e0: 29d3 1a3f b411 0abf fc80 3cbe d08a eebe
000000f0: f01d b43d f860 6ebe 075a 2cbf fb88 1d3f
0.63296074 -0.10874814 0.63474494 0.22459388 -0.47395396 0.24506253 0.69041735 -0.21274287
-0.5351658 -0.27197066 -0.59417474 -0.59818614 0.20420593 0.386074 -0.5132581 0.34186774
0.6947103 -0.4229024 -0.43573847 0.42570275 0.5718048 -0.04602754 -0.650675 -0.29576162
0.5505716 0.058351994 -0.24592644 0.15736985 -0.16051036 -0.22189051 0.5983154 0.27182013
-0.11667472 0.445378 -0.55175483 0.4190852 0.21501374 0.5473395 -0.08027315 0.37224084
0.18105906 -0.093596876 -0.04378575 0.3677923 -0.47922087 0.26026368 0.20277756 -0.16214919
0.22505474 0.3084138 -0.30256143 0.04568422 0.5832121 -0.48188725 0.3941273 0.54084533
0.60478455 -0.5393326 -0.18408579 -0.4659028 0.087947726 -0.23279178 -0.6732487 0.6153714

fc1.bias f4 [32]
00000000: 02e4 b5be cb77 e2be efb4 123f 8ec4 a13e
00000010: 522e c73e 301f 70bd da9b c93e 9cb1 823e
00000020: e878 23be 8f7c 1e3f c8a8 d83d 286d b1be
00000030: 5399 34bf 34ed 07bf 7475 34be 3665 973e
00000040: 4e24 f8be 7a15 89be cfae 0cbf 11f2 1b3f
00000050: a697 d5be b580 1abf d2cf babe ce53 6dbe
00000060: 180a 0bbf 60fe 88be 0289 d73e e5e5 083f
00000070: 7d59 0fbf 2686 94be 6f86 14bf 913c 1abf
-0.3552552 -0.4423202 0.5730733 0.31595272 0.38902527 -0.058623493 0.39376718 0.2552613
-0.15964091 0.6190881 0.105790675 -0.34653592 -0.70546454 -0.5309632 -0.1762293 0.29569405
-0.48465198 -0.26774198 -0.54954237 0.6091624 -0.4171726 -0.6035264 -0.3648668 -0.231765
-0.54312277 -0.26756573 0.42096716 0.5347579 -0.55995923 -0.29008597 -0.5801763 -0.60248667

fc2.weight f4 [32, 32]
00000000: 8dff 253e 8c88 43bd 39d3 113e 921d 03be
00000010: 5495 2abe 4956 2cbe 49ac 20be 614e 0a3e
00000020: 03fe 12be f0ed 663c 70aa 13bc f6b4 18be
00000030: 4479 3bbd 4b71 91bd 13c4 223e 7e93 e53d
00000040: b97b 1a3e c338 293e 231f 91bd a69d 993d
00000050: 1899 22bd 0033 b7bd 5038 c83c f492 0f3d
00000060: 2897 ae3c 38f6 bebc a450 1abd 7f7a 97bd
00000070: a654 f43d 4be9 9dbd 9849 c2bd 4c3d 00be
00000080: c888 2c3d 9097 e8bc 00dd 9a3c 20a0 543d
00000090: 7870 183d 50fd fabd 6cae 09bd 72aa b23d
000000a0: 03c9 cfbd 6079 acbc 383f 9f3c 154c 313e
000000b0: 0433 11bd 7e3e 913d ce5c d1bd a197 073e
000000c0: 44d0 4ebd ec54 74bd a61a eb3d 0a32 c03d
000000d0: 899c 34be 18ac 2bbd 8059 c9bd db9a b5bd
000000e0: 1042 4d3c 00e4 033c cac6 a43d 6433 32bd
000000f0: 008c 1ebc 74fe 0abd 1499 ecbd 565a a83d
00000100: c694 fcbd f850 d3bc 4230 993d b217 ea3d
00000110: e0d3 06bd ba3a fc3d 4053 7fbb 68ac 833c
00000120: b0b3 1c3d 4ac0 db3d 898a c4bd d080 adbc
00000130: 52bd a93d c086 ecbc a6f7 f23d 6eb5 803d
00000140: 50e3 493d 17f8 233e 47c6 a8bd 608e 6fbc
00000150: 00c8 0db9 a5f4 d7bd ae98 b63d 2cdd b0bd
00000160: 14e7 5c3d 7670 f63d b47c 3b3d ecd6 a5bd
00000170: 3faa 10be ccfb 6f3d c06c 21bb 2014 1cbe
00000180: 48d3 373d e092 03be c78e 1d3e 3d14 85bd
00000190: d088 59bd c2c8 813d 0433 ebbd f2e7 993d
000001a0: 0eb8 92bd 6ed3 31be 3999 2c3e 7df2 243e
000001b0: b5af 0c3e 9051 3f3c 57e6 163e 1ec2 23be
000001c0: e8cd c2bc 8335 173e 2d98 1cbe 44e0 bdbd
000001d0: 6cf0 4e3d 4fc4 0b3e 10df efbc 694b 04be
000001e0: 2cf2 4f3d 6bf2 053e 9868 30be 9970 02be
000001f0: e0af 8dbb d6a3 e03d 5c1c 77bd f6ba adbd
00000200: 8456 09be 47d1 203e 72d9 f73d 70f9 0abc
00000210: 5074 7cbc 906b 153d a0bb 2dbc 708d 28bc
00000220: 5004 f2bc e239 1ebe 4652 9d3d f87a c1bc
00000230: 35f9 323e d28f 02be 802d 74bd 1e15 963d
00000240: 101e 26be 60e4 0bbd 8cf4 14bd f972 04be
00000250: 66a8 e73d d9d4 1cbe 0b79 2abe 3c37 10bd
00000260: 94e3 5e3d 3ec1 b73d 286a afbc c52d 1a3e
00000270: 4837 c0bc 3ded 9bbd 8a95 2bbe 4040 6a3c
00000280: 24b5 afbd 2b50 b3bd 2cb6 5f3d 350d 333e
00000290: e68f dc3d 0459 2dbe 373b 2b3e b553 103e
000002a0: 6fc7 023e 33ba 2dbe d331 043e 6078 16be
000002b0: 9771 1c3e 1889 ad3c 2bd7 303e c698 efbd
000002c0: 0043 f03a 2e1a 23be 3390 1bbe 986d 21bd
000002d0: be09 a7bd 6e67 0cbe a55d 163e 775e 103e
000002e0: a719 283e b6f3 ef3d 28aa e23c d148 193e
000002f0: 3824 eebc 1872 82bc 9a30 c23d 6499 143d
00000300: 6b3e 1c3e 008e cfbb e587 0c3e f49b 793d
00000310: b01f 57bc 78cf bbbd 8038 1abc 92b7 20be
00000320: b0de 823c 6f97 d4bd d0b9 00bd ad97 213e
00000330: e317 8bbd 0160 1bbe 9e96 dabd 17e8 063e
00000340: 6e85 26be 17f3 063e d3fb 1d3e 2f5d 143e
00000350: 68ac e13c 4a02 30be 7c90 653d ab30 89bd
00000360: 78af 05be 9074 463d 0022 75bd e886 17be
00000370: 80bb f63b 474e 273e 0cac 11be e49b 92bd
00000380: 52f9 e23d 9b35 263e 74a0 0b3d 982e c1bd
00000390: 49bc 19be ae32 d63d 5a08 b53d e56f f5bd
000003a0: a657 8d3d 3028 f43c d8da 90bc 2082 5d3d
000003b0: b2e1 c43d 753e 273e d836 babc 68d7 40bd
000003c0: 2c42 043d fc37 7a3d 9037 133c 1e72 bc3d
000003d0: 8010 3abb b142 313e 3988 1f3e e882 f4bc
000003e0: bc9b 13bd 29f0 1a3e 7e2c e53d 3443 2bbd
000003f0: 26a5 d43d 177a 0abe 2272 bdbd f06e 13be
0.16210766 -0.047737643 0.14240731 -0.12804249 -0.16658527 -0.1682979 -0.15690722 0.13506462
-0.1435471 0.014094815 -0.009012803 -0.14912781 -0.045769945 -0.07101687 0.15895109 0.112097725
0.15086259 0.16525559 -0.07086017 0.07500772 -0.039696783 -0.08945274 0.024440914 0.035052255
0.021312311 -0.023310766 -0.03767456 -0.07396411 0.11930208 -0.07710513 -0.09486693 -0.12523383
0.042122632 -0.028392583 0.01890421 0.05191052 0.037216634 -0.12255347 -0.033613607 0.08723916
-0.10145762 -0.02105397 0.019439325 0.17314179 -0.035449043 0.070919976 -0.10222779 0.13241436
-0.050491586 -0.0596513 0.11479692 0.09384544 -0.17637838 -0.04191217 -0.09831524 -0.08867427
0.012527958 0.008049965 0.080457285 -0.04350604 -0.009676933 -0.03393407 -0.11552635 0.08220355
-0.12333064 -0.025795445 0.074799076 0.11430301 -0.032916903 0.12315889 -0.0038959533 0.01607342
0.0382573 0.107300356 -0.09596736 -0.021179587 0.08288063 -0.028872848 0.118636414 0.06284605
0.049289048 0.16012608 -0.082409434 -0.014621347 -0.00013521314 -0.10544709 0.0891584 -0.08635935
0.05393131 0.12033169 0.045773223 -0.08097634 -0.14127444 0.05858974 -0.002463147 -0.15242052
0.044879228 -0.12848997 0.15386496 -0.06498001 -0.05310899 0.0633712 -0.1148434 0.07514943
-0.07164012 -0.1736581 0.16855325 0.16108127 0.13738902 0.011677161 0.14736305 -0.15992019
-0.023779824 0.14766507 -0.15292425 -0.09271291 0.050522253 0.13649105 -0.02928117 -0.12919392
0.050768062 0.13080756 -0.172274 -0.12738265 -0.0043239444 0.10968749 -0.06032978 -0.084829256
-0.1341191 0.15704833 0.12102021 -0.008482322 -0.01540859 0.036479533 -0.010603815 -0.010287628
-0.029543072 -0.15451768 0.07681708 -0.023618206 0.17477877 -0.12750176 -0.059613705 0.073282465
-0.16222405 -0.034153342 -0.03636603 -0.12934484 0.11311416 -0.1531557 -0.16647737 -0.035208926
0.054416254 0.08972405 -0.021412924 0.15056522 -0.02346386 -0.07613609 -0.16756263 0.014297545
-0.08579472 -0.08755525 0.054617092 0.17485507 0.10769634 -0.16928488 0.16721807 0.14094432
0.1277139 -0.1696556 0.12909631 -0.14694357 0.15277706 0.021183535 0.1726958 -0.11699061
0.0018330514 -0.15927956 -0.15191726 -0.039411157 -0.08156155 -0.1371133 0.1468416 0.14098535
0.16416036 0.11716406 0.027669027 0.14969184 -0.029070005 -0.015923545 0.09481926 0.036279097
0.15258186 -0.0063340664 0.13723715 0.060939744 -0.0131301135 -0.09170431 -0.009412885 -0.15695027
0.015975326 -0.10380446 -0.031427205 0.15780516 -0.067916654 -0.15173341 -0.10673259 0.13174473
-0.16261837 0.13178669 0.15428095 0.14488672 0.02754803 -0.17188373 0.056045994 -0.06698736
-0.13055217 0.048451006 -0.059846878 -0.14797556 0.007529676 0.16338454 -0.14225787 -0.0715864
0.1108271 0.16231386 0.034088567 -0.09432715 -0.15013231 0.10458885 0.088394836 -0.11984233
0.06901483 0.02980432 -0.017682478 0.054079175 0.096133605 0.16332419 -0.02273123 -0.047080427
0.03228967 0.061088547 0.008985415 0.092014536 -0.0028391182 0.17310597 0.15579309 -0.029847577
-0.03603719 0.15130676 0.11190127 -0.041812137 0.10383062 -0.13523136 -0.09250285 -0.14397788

fc2.bias f4 [32]
00000000: cd9c 203e e60c c53d 4a20 fe3d 668b 21be
00000010: a804 69bd 9358 083e 64fd 12bd 68de 21be
00000020: c82c 573d ca3a 13be c03c 51bb 8948 183e
00000030: ff6e e5bd 5cac 4f3d b68d a13d b7c4 17be
00000040: 25c1 143e 009a 7dbb 208d cabc 02db 88bd
00000050: 4789 0abe 5aa9 b7bd 2027 a0bc 3c62 03be
00000060: a516 e2bd d045 f03c 6027 f33c e650 b5bd
00000070: 1a0e a53d c07b 1abd 3ed2 f73d 25d6 e7bd
0.15684815 0.09621601 0.124085024 -0.15775833 -0.056889206 0.13315038 -0.035886183 -0.15807498
0.05253294 -0.14377895 -0.003192708 0.1487142 -0.112028114 0.050701484 0.07888357 -0.14821135
0.14526804 -0.0038696527 -0.024725497 -0.066823974 -0.1352893 -0.08967848 -0.019549906 -0.12830442
-0.11039475 0.029330164 0.029681861 -0.08853321 0.0805933 -0.037715673 0.121006474 -0.11320142

fc3.weight f4 [16, 32]
00000000: 08b0 893d 6e91 bf3d 0033 efbc cfd5 013e
00000010: 7c5b 11be 5796 0c3e c87b d63c b0d0 f43c
00000020: 14c4 0abe 20b0 08bc d0b0 1abd 99f8 23be
00000030: eadf c9bd aed4 d23d 77b9 113e 9d29 173e
00000040: c8e0 173d 2047 bebc 8011 6c3d fcfa 13bd
00000050: 669b d53d 0851 afbc 8247 82bd 0a65 03be
00000060: 28df d3bd 7110 ddbd 77bb 133e 98fd ff3c
00000070: a68b f63d cd25 18be 10b7 f43c 2e9a 61bd
00000080: c7f2 81bd c9a9 84bd b5e7 283e 76d8 d3bd
00000090: 9794 2ebe c247 83bd a0cc 0fbc 7e3d f83d
000000a0: 0e11 bf3d 0ff1 c3bd 8cee 403d eb6a 1a3e
000000b0: 7936 073e 8020 8fbc 0057 c4bc de18 b63d
000000c0: a69a ee3d 360d ae3d c545 053e 6074 8f3d
000000d0: da41 ff3d 1ea9 9b3d 0b95 21be e4fe 0ebd
000000e0: 26d3 863d 6893 213d 5c07 5f3d ac8a 14be
000000f0: 6626 f63d c022 4e3b d0a1 cdbd 6601 dd3d
00000100: 32d0 ae3d 4e7a c53d 98fd abbd 1220 c03d
00000110: ad42 1d3e ce4d ad3d 3d93 083e d0d2 6c3c
00000120: 8203 f03d 29c6 08be aaa9 903d d876 5a3d
00000130: 90e1 19bc 156a 003e 9891 18be f8a5 2c3d
00000140: ba00 fd3d 3221 d03d 46dc 1fbe c52e 153e
00000150: b5b2 01be 909a 823c 5e10 fe3d 58e7 a7bc
00000160: ac2c 60bd 1e73 d73d 7660 59bd d972 07be
00000170: 10f6 7d3d 9e34 ff3d 514d 83bd 38b4 aabc
00000180: 8e87 e5bd c219 fd3d d3ad 043e 1c4d 2ebe
00000190: a513 33be 3051 fabc de43 a83d 700d 14be
000001a0: 60de 903c b06c 4f3d 811c 0c3e c090 f93b
000001b0: cc80 53bd 3e5f ec3d b4cf 433d d505 ecbd
000001c0: 8087 343c 004a f93a 384a 02bd 4688 7dbd
000001d0: ac94 233d e09d c83c 42fc eebd b997 97bd
000001e0: 87cd 223e c081 2e3d c0b9 6f3d 3c87 4dbd
000001f0: 7218 edbd af5a 003e d1ec aabd b977 043e
00000200: 556d 0a3e 1cd6 34bd fa82 df3d e6a9 0abe
00000210: 10cf 2cbe 483a e13c e203 09be 8334 d7bd
00000220: 0b53 2bbe 5f7b 2e3e 3bc7 2f3e bf93 86bd
00000230: 475a 163e 64f5 f4bd a061 e63b 1091 bebd
00000240: 688e 873c 0b94 05be 78d4 f9bd 50e8 96bd
00000250: 0063 c03b f622 d73d 00e6 93bd a66b cb3d
00000260: 23ec a7bd 003a 0dbe 6425 95bd 4056 97bc
00000270: 0c9b 29be 3dd9 97bd d150 243e 92e0 d43d
00000280: c07a 35bd 703d b1bc 70c5 1f3c b23b e43d
00000290: a962 afbd f6ae 92bd 5673 ecbd ea2e b23d
000002a0: b5de bbbd 8b28 25be 2294 1bbe 460a 9d3d
000002b0: 205b d03b 4269 d9bd 3be5 22be 275e 01be
000002c0: 6011 1b3d f237 a23d b028 8d3c 60c7 acbc
000002d0: 98ed 6abd e75b a2bd 001b dc3b c84c dd3c
000002e0: b851 1b3d add9 2fbe c53f 05be 2ca3 15bd
000002f0: d8c7 d1bc 8ab3 25be eb08 153e 9a38 fabd
00000300: 50cc 16bc 9103 08be 84ef 2bbd 3c97 773d
00000310: 9e29 df3d 904b 6ebd bfb5 81bd 56c4 f43d
00000320: d0d1 6a3c 9d30 1cbe 1d77 e1bd 3e65 c33d
00000330: 4b90 113e 9613 5dbd b93c 27be fa7b 15be
00000340: 794c 2f3e c01e 313b c081 abbd 3ecc af3d
00000350: 5076 6b3c 100c 24bc 2db3 1e3e 4ab7 9fbd
00000360: 9e24 2bbe 1f80 c1bd e68f 02be 226e e23d
00000370: 551d 2abe c076 a33b 6cc6 bfbd afa6 10be
00000380: 3668 ff3d a80b 9b3c 3ca4 303d 2039 debd
00000390: b342 9abd e046 7a3c 1843 5f3d ede1 0cbe
000003a0: 8e4e 34be 06f8 21be bf07 2cbe d847 e2bd
000003b0: fed6 a2bd b088 713c 4481 3a3d c0c4 26bd
000003c0: 3873 1b3d f5dc 1f3e 4890 0fbe c0cf 3abb
000003d0: 6708 023e 3724 113e 78aa 513d 8f8f 30be
000003e0: d0d6 59bd 97bf 343e d49f 34be 8c6b 41bd
000003f0: f8b6 babc d810 febc e0e8 3ebd a5fc 103e
0.067230284 0.093539104 -0.029199123 0.12679218 -0.14195055 0.13729225 0.02618207 0.029884666
-0.1355136 -0.008342773 -0.037766278 -0.16012801 -0.09857161 0.10294472 0.14230905 0.14761968
0.037079602 -0.023227274 0.057633877 -0.03612803 0.104300305 -0.021400943 -0.06361295 -0.12831512
-0.10345298 -0.107941516 0.14426981 0.031248853 0.120383546 -0.1485817 0.029872447 -0.055078678
-0.06345134 -0.064776964 0.16494639 -0.10344021 -0.1704887 -0.06410171 -0.008776814 0.12121104
0.09329425 -0.09567463 0.047102496 0.15079848 0.13204373 -0.017471552 -0.023967266 0.08891462
0.116505906 0.084986135 0.13014896 0.07004619 0.12463732 0.07600616 -0.15779512 -0.03491105
0.06583242 0.03944722 0.054450378 -0.14506024 0.12019043 0.0031453818 -0.10040629 0.10791282
0.08535804 0.096424684 -0.083979785 0.09381117 0.15357466 0.08462106 0.13337417 0.0144545585
0.11719419 -0.13356842 0.07063611 0.053335994 -0.009392157 0.12540467 -0.1489929 0.042150468
0.12353654 0.101625815 -0.15611371 0.14568622 -0.12665828 0.015942842 0.124054655 -0.020496055
-0.054730102 0.10520004 -0.053070508 -0.13227405 0.06200224 0.12461208 -0.06411231 -0.020837888
-0.11207496 0.123584285 0.12956934 -0.17021602 -0.17487963 -0.030556291 0.0821607 -0.14458251
0.017684162 0.05064076 0.13682748 0.0076161325 -0.051636502 0.115416035 0.047805503 -0.1152455
0.011018634 0.0019019246 -0.03180906 -0.06189754 0.039936706 0.024489343 -0.11669208 -0.07401986
0.15898715 0.042604208 0.058526754 -0.050177798 -0.11576928 0.12534593 -0.083459504 0.12936296
0.1351827 -0.044149503 0.10913654 -0.13541374 -0.16875863 0.027493611 -0.13380387 -0.10508063
-0.16730897 0.1703925 0.17165844 -0.06571149 0.14682876 -0.11960867 0.007030681 -0.09305012
0.016547397 -0.13044755 -0.12198728 -0.07368529 0.0058711767 0.10504715 -0.072216034 0.09932642
-0.081993364 -0.13791656 -0.07282522 -0.018473744 -0.16563052 -0.07414482 0.16046454 0.10394396
-0.044306517 -0.021635741 0.009751663 0.111441985 -0.0856374 -0.071622774 -0.11545436 0.087003544
-0.09173337 -0.16128747 -0.15193227 0.07667975 0.006358519 -0.106157795 -0.15907757 -0.12633573
0.037858367 0.07920827 0.017231315 -0.021091163 -0.057355493 -0.07927685 0.006717086 0.027014151
0.03791973 -0.1717288 -0.13012607 -0.036532566 -0.025607988 -0.1618177 0.14554183 -0.12217827
-0.009203985 -0.1328261 -0.041976467 0.060446963 0.1089661 -0.05817753 -0.063334934 0.119515106
0.01433225 -0.1525292 -0.11009047 0.09540795 0.142152 -0.053973757 -0.16331758 -0.14598075
0.17119016 0.0027026385 -0.08374357 0.08583878 0.01437147 -0.010012642 0.15498038 -0.077986315
-0.16713187 -0.09448265 -0.12750205 0.110561624 -0.16612752 0.0049885213 -0.09364018 -0.14126085
0.124710485 0.018926457 0.043125376 -0.108507395 -0.07532253 0.015275687 0.054507345 -0.13758059
-0.17608091 -0.1581727 -0.1679983 -0.11048859 -0.07951163 0.0147420615 0.045533434 -0.04071498
0.037951678 0.15611632 -0.14019883 -0.0028505176 0.12698518 0.14173971 0.051187962 -0.17242263
-0.053183377 0.1765121 -0.17639095 -0.047221705 -0.022792324 -0.031013891 -0.046608806 0.14158876

fc3.bias f4 [16]
00000000: cad2 a63d 6809 793d 3d59 203e 729f 9e3d
00000010: 1e5f ba3d fe90 9bbd 2d1a 133e c9ac 2e3e
00000020: a8f4 febc c070 c13c 7e5e f83d 9404 313d
00000030: 08b2 a93c 181e 31be e84e dbbd 305d a43c
0.081456736 0.060799986 0.15659042 0.077452555 0.091001734 -0.075960144 0.14365454 0.170581
-0.03112252 0.023613334 0.12127398 0.043217257 0.020714775 -0.17296636 -0.107084095 0.020063967
