UQ/saved_models/Uy_mean_mean.pt (torch, 44159 bytes, 5 tensors)

fc1.weight f4 [100, 2]
-1.9420961e-11 3.7607334e-11 1.4698309e-13 1.7508435e-12 6.2587584e-09 -1.1036453e-12 1.7519196e-12 1.3052017e-11
9.663531e-14 2.6773405e-11 -6.7786428e-12 1.2501861e-11 1.6025847e-11 3.1576386e-12 3.040803e-06 6.248715e-11
-1.9275315e-13 2.8313397e-11 3.1906042e-12 1.1935652e-10 1.6737958e-12 1.1118266e-10 1.9960835e-11 -8.3735546e-11
-1.7625894e-10 -1.4403973e-12 -1.9407752e-12 -2.2333729e-11 -2.9465015e-12 1.7298356e-12 -1.0981588e-12 -1.547147e-11
1.9691438e-13 -7.3712404e-11 -1.2226279e-12 1.1548044e-10 5.51964e-12 -1.1879255e-10 1.1099276e-09 -1.3160139e-12
-1.3252438e-13 4.685928e-12 -2.668624e-12 7.773798e-11 5.453621e-10 -1.0589866e-12 -5.0107392e-12 1.6016676e-11
8.7451666e-13 5.8679233e-12 1.1391941e-11 1.9041897e-11 -4.1141188e-12 4.095225e-10 -2.304635e-13 3.767377e-11
4.8418014e-12 2.8962893e-10 -1.8927936e-12 -2.0420943e-11 2.7381575e-13 -2.99203e-11 1.00288925e-13 1.4074289e-11
-3.109356e-12 8.888215e-11 3.4654075e-11 -1.4371065e-10 -3.1746248e-12 -2.2200779e-10 9.24273e-13 -6.080594e-11
-1.1129825e-11 8.55153e-11 -4.446064e-13 -1.4025192e-11 7.428523e-12 -8.770651e-12 -2.5365316e-13 3.879848e-11
6.01277e-11 -1.7985431e-12 1.5482657e-11 -2.2766349e-10 9.131271e-12 7.9185444e-14 -8.4118514e-13 6.9030254e-11
4.634634e-11 4.1832575e-12 -2.733543e-12 4.6021756e-11 1.890653e-09 1.2345401e-12 -9.3673117e-07 1.30832515e-11
-1.8282045e-12 -6.9606586e-12 1.4700037e-13 3.613341e-11 -6.101775e-10 5.585753e-13 1.8539768e-13 9.244241e-11
-4.7881013e-13 3.3889096e-11 2.2499731e-13 -7.77595e-13 1.5450802e-11 -8.208478e-11 -2.7189392e-12 -2.0944507e-10
-2.4766237e-08 -1.9084799e-12 4.4976362e-14 -7.98775e-11 1.8645977e-11 -8.04919e-11 -2.3387542e-13 -3.3283445e-11
4.0522035e-09 5.6279916e-12 -7.5380475e-09 -2.8366228e-11 1.1941713e-11 -5.840521e-11 -1.168099e-10 -1.5864328e-12
-5.5234316e-13 7.972701e-12 -5.344079e-12 -5.9532007e-13 -6.989967e-13 -7.112019e-11 2.479843e-05 5.4084813e-11
-2.3919353e-15 2.5907557e-11 -5.2134725e-15 -4.7243416e-12 -5.472185e-12 2.0825798e-11 -1.4390541e-13 -3.082978e-10
-1.90652e-11 6.250393e-11 2.2934393e-10 -2.5217191e-11 -1.7750874e-13 -7.583037e-11 -1.05131156e-11 1.2468509e-11
-2.927068e-13 1.6187062e-11 3.3127767e-10 2.37099e-12 -1.7575097e-08 -1.1514633e-12 8.9631774e-13 3.7808962e-10
1.566726e-11 -5.4841732e-11 -5.042198e-13 5.1040743e-12 3.652888e-12 -6.8415676e-11 -2.745655e-07 3.8388136e-11
-3.0771212e-12 4.036049e-11 -2.4949116e-13 1.9008677e-11 2.9461212e-12 -8.989305e-11 -3.3147935e-12 -1.288637e-10
-2.5969903e-12 8.8817065e-11 -2.4013417e-13 5.2669358e-12 2.0892172e-13 -4.7522753e-11 3.2708565e-12 -6.6763026e-11
1.5866627e-11 -5.302952e-11 4.1013536e-13 8.0262394e-11 -1.5432329e-11 5.0480915e-11 -3.185693e-13 -2.868597e-12
-1.7522992e-11 4.5146897e-11 -1.1451144e-09 -2.974601e-12 6.285023e-07 1.06323145e-10 -4.4864324e-13 1.5352709e-11
00000000: 1ed4 aaad 1866 252e fe7c 252a c968 f62b
00000010: 9f0c d731 0353 9bab 8e8f f62b 0f9d 652d
00000020: 779a d929 5980 eb2d 9680 eeac 60ef 5b2d
00000030: 00f7 8c2d f632 5e2c 9910 4c36 2369 892e
00000040: 5005 59aa 1a0c f92d d184 602c e03b 032f
00000050: d990 eb2b 467e f42e ce93 af2d ec22 b8ae
00000060: 7bcc 41af c8b7 caab e691 08ac 1673 c4ad
00000070: 7457 4fac e573 f32b 578d 9aab a716 88ad
00000080: b5b4 5d2a 6518 a2ae d011 acab b5f1 fd2e
00000090: 7f34 c22c 219d 02af 1b8c 9830 6636 b9ab
000000a0: 8d35 15aa 16df a42c a8c9 3bac 98f2 aa2e
000000b0: 72e8 1530 030a 95ab ba4c b0ac 59e2 8c2d
000000c0: 9127 762b 8e75 ce2c be68 482d 8a7e a72d
000000d0: b0c0 90ac 2b23 e12f 4abd 81aa e5b0 252e
000000e0: 125b aa2c a639 9f2f 8a31 05ac e09f b3ad
000000f0: 0225 9a2a 4397 03ae a1d4 e129 f698 772d
00000100: 2ecd 5aac 3474 c32e 0569 182e f402 1eaf
00000110: f564 5fac a319 74af 7214 822b b3b6 85ae
00000120: 47cc 43ad d60c bc2e 894a faaa d9bb 76ad
00000130: 18af 022d 804b 1aad 46cb 8eaa 34a3 2a2e
00000140: e338 842e 581f fdab d82f 882d 9351 7aaf
00000150: 97a3 202d 4d4f b229 c7c5 6cab 94cc 972e
00000160: 57d5 4b2e 6f2f 932c 225b 40ac e467 4a2e
00000170: b8ec 0131 ffbe ad2b ad73 7bb5 ba29 662d
00000180: 01a6 00ac 0ae8 f4ac f981 252a 9aea 1e2e
00000190: 6db9 27b0 9839 1d2b 3ebd 502a 7348 cb2e
000001a0: e8c5 06ab bb0b 152e 0f53 7d2a a0df 5aab
000001b0: 1de8 872d a081 b4ae 0e54 3fac 8c49 66af
000001c0: 88bd d4b2 1e4c 06ac 378e 4a29 09a7 afae
000001d0: 0203 a42d e900 b1ae 00a9 83aa d461 12ae
000001e0: 8f3b 8b31 7104 c62c af80 01b2 1183 f9ad
000001f0: b214 522d 366f 80ae 106f 00af 4445 dfab
00000200: 8578 1bab da41 0c2d 2f07 bcac 5591 27ab
00000210: 05c0 44ab 1c65 9cae 3906 d037 16de 6d2e
00000220: 6b5b 2ca7 a2e2 e32d ccd5 bba7 1639 a6ac
00000230: 1089 c0ac 872f b72d e905 22aa 0f7d a9af
00000240: 04b3 a7ad 9672 892e 942a 7c2f 11d0 ddad
00000250: 69db 47aa b4c0 a6ae ddf2 38ad 2c59 5b2d
00000260: 7fc7 a4aa 0662 8e2d 301f b62f f5d7 262c
00000270: 0cf8 96b2 d60d a2ab 804a 7c2b 62db cf2f
00000280: 88cf 892d 4d32 71ae deec 0dab 6a95 b32c
00000290: 4a86 802c 9a72 96ae ff67 93b4 33d5 282e
000002a0: 7d88 58ac df81 312e 7773 8caa bc33 a72d
000002b0: 9a50 4f2c 4aad c5ae 0342 69ac e8af 0daf
000002c0: 38bf 36ac 904f c32e fb2e 87aa 5750 b92c
000002d0: 9639 6b2a dd01 51ae 832a 662c 3ed0 92ae
000002e0: 7890 8b2d ee39 69ae bce2 e62a b67f b02e
000002f0: 84be 87ad 7504 5e2e ad56 b3aa 0ddc 49ac
00000300: 4522 9aad e38e 462e 2262 9db0 a651 51ac
00000310: 59b6 2835 9cce e92e 4e90 fcaa 3a0b 872d

fc1.bias f4 [100]
-1.6424638e-05 2.1625572e-09 4.8740938e-05 1.429903e-05 4.7545227e-12 -7.713458e-09 -5.8457077e-05 1.4628986e-07
8.342567e-09 -3.7289755e-07 -7.82806e-10 4.0713385e-06 1.5923666e-06 1.4722737e-10 0.00016701652 3.7005852e-06
-1.3550784e-09 2.993682e-11 -9.4646914e-08 5.9823755e-08 -0.00038747984 -9.9026174e-08 -4.206254e-06 6.074928e-06
-6.445836e-06 6.3584184e-06 2.2523199e-09 1.2961557e-13 -4.4109416e-07 -7.1035515e-07 -2.4006824e-10 -4.105639e-12
-1.6610264e-07 9.047544e-06 4.183495e-12 4.6502393e-08 2.850629e-05 4.7109725e-06 -1.8117414e-07 8.96286e-13
3.2790715e-06 2.6753645e-12 2.5677307e-06 -1.8369122e-11 3.438935e-05 -3.836645e-08 -3.6969863e-09 -1.0761656e-05
5.3465083e-08 -6.0838814e-09 1.2296547e-06 -1.3344913e-08 -1.9672954e-15 1.3459346e-11 4.4577263e-07 -2.317793e-11
7.5909615e-05 1.1346684e-14 1.6423655e-05 2.21499e-10 7.156359e-06 1.066245e-06 1.0359267e-07 -1.7807475e-06
-2.7695283e-12 -2.3003631e-05 -1.2984687e-16 2.5766437e-07 6.2584014e-09 0.0002646997 2.61332e-07 -3.3506586e-11
3.1335298e-06 6.754046e-06 -2.7957335e-13 -2.4700317e-09 -1.5718706e-10 -6.6266645e-11 -1.4678878e-09 1.0205649e-11
3.0907322e-07 5.4813903e-08 -4.807909e-09 -1.6432665e-05 3.953541e-10 -1.1796845e-10 2.378294e-08 5.243867e-14
6.770094e-08 -8.5540155e-15 3.491948e-08 1.147016e-08 -8.7540314e-10 7.345568e-18 -4.2884956e-08 7.7083445e-16
1.6894703e-05 -5.3023625e-05 -2.7442891e-05 1.36418345e-17
00000000: a4c7 89b7 1c9c 1431 2f6f 4c38 dee5 6f37
00000010: ef48 a72c 2684 04b2 cf2f 75b8 da13 1d34
00000020: ff52 0f32 a632 c8b4 132d 57b0 889c 8836
00000030: 4db9 d535 d2e0 212f 2821 2f39 9257 7836
00000040: 953d bab0 dda9 032e b140 cbb3 7578 8033
00000050: aa26 cbb9 37a8 d4b3 7223 8db6 3cd7 cb36
00000060: 4f49 d8b6 665a d536 3bc7 1a31 25ef 112a
00000070: 85cf ecb4 3caf 3eb5 9afa 83af 4f74 90ac
00000080: f259 32b4 e8ca 1737 9331 932c ecb9 4733
00000090: cb20 ef37 f212 9e36 c588 42b4 3648 7c2b
000000a0: 050e 5c36 1543 3c2c 4751 2c36 9693 a1ad
000000b0: 493d 1038 5cc8 24b3 120e 7eb1 f68c 34b7
000000c0: 7ba1 6533 630a d1b1 9d0a a535 8c43 65b2
000000d0: 32c2 0da7 81c7 6c2d 8652 ef34 0fe0 cbad
000000e0: aa31 9f38 5867 4c28 88c5 8937 6d8a 732f
000000f0: a820 f036 e61b 8f35 ac76 de33 0502 efb5
00000100: 63e3 42ac ecf7 c0b7 08b4 15a5 1f55 8a34
00000110: 7b09 d731 64c7 8a39 324d 8c34 105d 13ae
00000120: a249 5236 d0a0 e236 c462 9daa 42bd 29b1
00000130: 39d4 2caf ceb8 91ae b6be c9b0 288a 332d
00000140: b3ee a534 866c 6b33 d132 a5b1 e1d8 89b7
00000150: 2559 d92f 2bb5 01af 3d4b cc32 ac29 6c29
00000160: fc62 9133 6f18 1aa8 60fa 1533 4c0e 4532
00000170: 05a1 70b0 7780 0723 8230 38b3 8b2d 5e26
00000180: 19b9 8d37 af65 5eb8 2935 e6b7 bea5 7b23

fc2.weight f4 [100, 100]
1.1728707e-21 -1.0694893e-19 1.5073353e-21 -1.9286855e-12 -1.26223795e-20 -1.318596e-19 9.4747166e-21 -6.6504736e-21
-5.531675e-20 1.3107067e-19 2.8520952e-20 -8.8101734e-20 4.912341e-10 -6.4528095e-20 -8.861846e-17 2.9726357e-20
9.848329e-20 -4.2438905e-21 5.4674674e-20 1.8157728e-22 3.058946e-20 1.1294863e-19 3.408797e-21 8.789524e-18
-8.61859e-21 5.136023e-20 3.4234967e-20 9.7803535e-20 2.8527495e-20 1.03000045e-20 1.6647847e-19 1.886343e-19
-1.5072852e-19 -9.182635e-19 2.5278614e-19 -8.118245e-20 -8.840101e-21 -3.7869734e-20 -1.9812364e-22 1.68099e-20
-8.974603e-17 8.155454e-21 2.5931703e-18 -6.216695e-19 -6.1681202e-21 1.397547e-19 -2.2381193e-21 4.6804044e-21
1.1452021e-20 1.1215706e-19 4.2278534e-21 2.927837e-20 -4.9425047e-21 -6.539725e-21 1.1994752e-19 -2.988306e-20
1.308107e-20 -5.024658e-20 -1.3204054e-19 3.359027e-20 -1.3872317e-22 -6.036358e-21 3.6066583e-17 -1.05495896e-22
4.7424502e-21 -1.000821e-19 -2.0284093e-19 -1.806371e-21 -5.6303405e-20 1.999556e-21 1.6228729e-15 -5.464359e-20
-3.505199e-20 4.8793292e-21 1.03895804e-19 3.872381e-20 -4.176895e-20 -3.3276542e-20 -2.7359227e-21 6.0681246e-20
-4.974238e-21 1.9160902e-19 -2.764047e-20 2.9798576e-22 -9.175626e-20 -1.1088416e-19 -8.748692e-20 7.416333e-20
4.8731288e-20 -7.660143e-20 1.6059125e-19 -8.4776455e-20 -5.401544e-21 -4.327882e-21 2.3262083e-20 1.1121097e-20
-7.657047e-18 -5.587419e-22 1.0081544e-21 -1.3496708e-19 3.4868517e-19 5.526311e-21 7.0949724e-20 -3.884989e-21
4.191136e-20 -6.012283e-20 7.0831486e-19 6.8271745e-19 -2.0954755e-20 -2.916229e-20 6.567855e-20 3.3993179e-19
8.5420124e-20 8.058179e-20 -3.6262564e-19 -2.948473e-21 -1.2746845e-19 -9.859445e-19 -9.5080994e-21 -4.2939718e-20
-3.4922128e-20 9.81867e-20 -2.610305e-19 1.03462336e-19 -3.874323e-19 -5.143366e-20 1.4546545e-22 1.8257469e-20
-1.1100398e-19 8.629149e-21 -2.9639477e-21 3.854383e-20 -5.4489675e-22 -1.2492766e-18 -2.2922141e-20 -6.398046e-20
-4.826981e-20 -1.5089442e-20 -3.7976076e-19 -1.5134641e-20 -1.1079638e-20 -1.2145385e-18 -2.041196e-20 8.354165e-19
1.7147753e-19 9.985268e-21 2.914779e-19 -2.172673e-19 -7.130778e-21 -1.5649823e-20 -3.4606352e-19 -2.0532815e-20
6.403106e-20 9.402755e-19 -5.526944e-19 -1.7684504e-20 -1.3871258e-18 6.4970766e-22 3.102461e-19 7.3633835e-20
-4.9358626e-21 8.726352e-19 6.9202483e-19 -2.841321e-19 1.5259126e-21 5.6496193e-21 -4.3894557e-21 1.3921036e-19
2.4912284e-20 -9.3032764e-20 -1.4312736e-19 -2.074308e-20 -3.876076e-19 -1.2162906e-18 -1.42974e-20 -1.3416634e-18
-6.8903224e-21 1.3631148e-19 -2.492642e-19 -3.161026e-20 1.4986762e-18 3.51901e-20 1.5284e-20 7.4287276e-19
1.5439055e-20 1.3868714e-20 -1.85557e-20 -6.353889e-21 1.1816163e-19 -9.753256e-21 -2.2183139e-20 -2.3121055e-21
-2.0463579e-20 3.7424233e-20 -4.463017e-19 -3.0448024e-21 -3.7034486e-19 9.2503375e-20 -8.5905043e-19 -1.3785204e-19
2.3703615e-19 -8.094155e-20 -6.602128e-20 -1.2755213e-20 -3.105379e-20 -3.0793656e-20 9.158739e-21 8.500399e-20
4.8444156e-20 -3.86544e-20 -7.644715e-20 -1.7343836e-19 3.4623544e-20 -4.7542655e-20 6.209122e-20 2.7604904e-20
5.9121175e-21 -9.597072e-21 -2.943225e-20 2.0962927e-19 1.0548054e-20 -6.161952e-20 9.7904044e-20 3.508268e-20
-4.6342493e-20 -2.079247e-19 1.4007554e-19 2.1296142e-19 4.4160436e-20 -7.3785456e-21 2.6962757e-20 -8.093156e-20
6.2985635e-20 -9.377375e-20 -5.347339e-20 3.6150014e-21 1.1437395e-19 4.12533e-20 -1.420454e-20 -5.131233e-21
1.18383714e-20 -1.5572515e-19 -1.6804756e-19 -1.27885265e-20 -4.2222594e-21 1.1110199e-19 6.1329956e-20 1.0921585e-19
3.1753333e-21 1.1079467e-19 -3.2954814e-20 -2.6566176e-21 -1.1146212e-19 -9.6541206e-20 -6.482612e-20 -1.4400666e-19
00000000: 3d3d b11c a986 fc9f 36c8 e31c 1cb8 07ac
00000010: 156e 6e9e 1eac 1ba0 ebf8 321e 6f3f fb9d
00000020: ec9c 829f aebd 1a20 b7af 061f 3b06 d09f
00000030: 8707 0730 d75c 989f 1b57 cca4 f660 0c1f
00000040: 7f89 e81f 6454 a09d d018 811f 7283 5b1b
00000050: 6374 101f a158 0520 ddc7 801d 5b23 2223
00000060: f2cc 229e b58a 721f 89ab 211f 9cee e61f
00000070: a0b7 061f c48f 421e 088b 4420 38b3 5e20
00000080: e6f2 31a0 0483 87a1 f637 9520 c8af bf9f
00000090: 1bfc 269e b3d5 329f 4c84 6f9b d8c3 9e1e
000000a0: b5f0 cea4 5b0d 1a1e 9a57 3f22 057c 37a1
000000b0: 6606 e99d 44fe 2420 861b 299d 18d2 b01d
000000c0: 9352 581e 6469 0420 4ab9 9f1d 6143 0a1f
000000d0: f9b8 ba9d 5710 f79d ea9b 0d20 671e 0d9f
000000e0: 2c18 771e 6348 6d9f cee2 1ba0 25a0 1e1f
000000f0: beb4 279b 130c e49d e853 2624 cc12 ff9a
00000100: 2a2a b31d eb4f ec9f e978 6fa0 4c7c 089d
00000110: 52f1 849f 0a15 171d 71e1 e926 0606 819f
00000120: 4187 259f fa55 b81d 2951 f51f 37de 361f
00000130: 903f 459f df24 1d9f 71b8 4e9d 9047 8f1f
00000140: e1eb bb9d 4636 6220 4787 029f 101f b41b
00000150: 42a7 d89f aee8 02a0 9992 ce9f fb1c af1f
00000160: 8320 661f b9de b49f ba97 3d20 392c c89f
00000170: 8710 cc9d b580 a39d 44b4 db1e 5312 521e
00000180: 623f 0da3 90de 289c 1659 981c 4c57 1fa0
00000190: d0d3 cd20 33c7 d01d 7a86 a71f 4fc5 929d
000001a0: baeb 451f 05f6 8d9f c20e 5121 ac80 4921
000001b0: 7de9 c59e 0cb7 099f 3f14 9b1f 0aa9 c820
000001c0: 4cb1 c91f b444 be1f 700e d6a0 c3c7 5e9d
000001d0: fa7c 16a0 ee7f 91a1 599a 339e efc6 4a9f
000001e0: 43ea 249f 38d6 e71f d015 9aa0 254b f41f
000001f0: 1db3 e4a0 7be3 729f 60db 2f1b da6f ac1e
00000200: e50c 03a0 0100 231e 16f3 5f9d a204 361f
00000210: 58af 249c 565c b8a1 567e d89e d111 979f
00000220: 9ff2 639f 0884 8e9e d32b e0a0 51f1 8e9e
00000230: d849 519e f83b b3a1 17c9 c09e 4992 7621
00000240: e771 4a20 cb9d 3c1e e50e ac20 8240 80a0
00000250: 54b2 069e f3ce 939e a447 cca0 4ded c19e
00000260: 6730 971f 9bc2 8a21 6820 23a1 8206 a79e
00000270: 22b4 cca1 b25c 441c 1123 b720 ecdc ad1f
00000280: bc78 ba9d 3ac7 8021 eb3f 4c21 d4b8 a7a0
00000290: e296 e61c c46f d51d 36d4 a59d c059 2420
000002a0: 354a eb1e dbaa db9f 97f9 28a0 b1e9 c39e
000002b0: 9bcd e4a0 297e b3a1 fe08 879e 9cfe c5a1
000002c0: 8e27 029e 9eed 2020 be23 93a0 7646 159f
000002d0: 632a dd21 382e 261f 725a 901e e141 5b21
000002e0: 58d1 911e 7efc 821e ee40 af9e 0b0b f09d
000002f0: 2980 0b20 da3b 389e 8a83 d19e a0b2 2e9d
00000300: e645 c19e 1fbb 301f 9ab9 03a1 0b0f 669d
00000310: ef9c daa0 dc6a da1f 048c 7da1 39bf 22a0
00000320: e4eb 8b20 2a1e bf9f 6ae3 9b9f 6df0 709e
00000330: bba5 129f 3f6b 119f f200 2d1e c2b5 c81f
00000340: 64c5 641f 4d8a 369f 7781 b49f 87c2 4ca0
00000350: 4c81 231f 8b83 609f d79b 921f 485c 021f
00000360: 7e5a df1d 9848 359e 68fd 0a9f 8f7c 7720
00000370: 423f 471e b77e 919f 5d2b e71f 5cac 251f
00000380: a3d8 5a9f 6279 75a0 3c5f 2520 a46b 7b20
00000390: b18a 501f 7560 0b9e f2a7 fe1e 2018 bf9f
000003a0: 7bb8 941f c16a dd9f 5d85 7c9f 2692 881d
000003b0: 6807 0720 2ed0 421f 7828 869e 3eda c19d
000003c0: da9e 5f1e 0ad9 37a0 4265 46a0 8591 719e
000003d0: 3083 9f9d 842a 0320 afcf 901f 77f0 0020
000003e0: e1eb 6f1d a2cd 0220 ed9f 1b9f 75ba 489d
000003f0: 5c97 03a0 94f3 e39f fc10 999f 5803 2aa0

fc2.bias f4 [100]
5.0669097e-18 -5.929546e-20 5.411408e-20 -2.4147722e-23 -3.2936773e-18 1.5080025e-18 -1.6690331e-09 -6.281556e-20
-3.686041e-19 9.724157e-20 3.8155753e-18 -1.0755295e-17 -3.3075184e-19 6.1082716e-21 -1.5976324e-17 -2.0309573e-20
4.5366543e-15 -0.00015679264 -1.8483371e-18 3.6864938e-18 -7.59085e-19 -1.3967024e-18 2.69218e-19 9.577714e-18
-1.8756183e-19 8.0113e-19 7.344691e-21 -3.9807728e-18 5.5742663e-21 2.7095844e-18 2.1241786e-17 -1.8575048e-19
-2.1402266e-19 3.414339e-18 -2.6417696e-18 2.4579346e-19 8.511663e-06 -5.7641543e-19 -2.4998598e-18 3.8568152e-18
-5.788054e-20 4.6276605e-22 -2.403334e-18 2.24021e-19 1.2593565e-18 6.661225e-20 2.368319e-18 1.110031e-17
-6.66541e-19 3.475724e-18 1.387492e-19 1.8363813e-16 3.132381e-19 -3.1312763e-18 -1.5147311e-18 2.4751972e-21
2.2211513e-19 3.9167854e-15 4.1644722e-18 1.9919018e-18 -9.163284e-18 2.91439e-18 7.967826e-20 1.0283386e-18
2.2961818e-18 1.8876398e-18 -5.282225e-19 -6.660834e-18 -5.8480437e-18 -1.561645e-19 4.2931765e-19 4.7873428e-23
-1.2972529e-19 -6.8633124e-19 4.385868e-18 8.028064e-18 -5.841426e-19 1.8371895e-19 3.5788135e-18 4.915683e-18
-3.1374406e-18 6.025006e-19 -3.9535585e-18 1.08896955e-17 5.001206e-19 2.482117e-20 1.916806e-18 2.7538712e-18
1.0636857e-19 -5.825916e-18 -1.4221098e-19 -2.5642132e-18 -2.5971904e-18 2.1753055e-17 1.5538342e-19 2.5068361e-20
-6.87523e-18 7.356665e-19 -6.595611e-19 -4.6245646e-18
00000000: 9cef ba22 e801 8c9f e98b 7f1f dd8a e999
00000010: ce07 73a2 b98a de21 e263 e5b0 ad51 949f
00000020: e095 d9a0 ec9a e51f 17c5 8c22 7266 46a3
00000030: ce3d c3a0 94c3 e61d 075b 93a3 89d1 bf9e
00000040: 4073 a327 b468 24b9 1a62 08a2 f301 8822
00000050: d70a 60a1 ed1d cea1 13eb 9e20 7aad 3023
00000060: 166f 5da0 ac73 6c21 bfbc 0a1e 56dd 92a2
00000070: ff96 d21d 9aee 4722 c0eb c323 a34b 5ba0
00000080: 61ac 7ca0 0aef 7b22 9eed 42a2 4217 9120
00000090: 50cd 0e37 b820 2aa1 0475 38a2 974a 8e22
000000a0: a4aa 889f cadc 0b1c b255 31a2 193d 8420
000000b0: 25d9 b921 a248 9d1f 48c0 2e22 bbc3 4c23
000000c0: 6aba 44a1 493b 8022 5fce 2320 69b8 5325
000000d0: 34e7 b820 230c 67a2 ec88 dfa1 4705 3b1d
000000e0: 171d 8320 f81d 8d27 54a4 9922 f6f9 1222
000000f0: 6308 29a3 450b 5722 8e22 bc1f 89c1 9721
00000100: a66d 2922 8248 0b22 5de7 1ba1 ccbd f5a2
00000110: 36c1 d7a2 d35d 38a0 a66c fd20 6f80 671a
00000120: 1027 19a0 b991 4aa1 5acf a122 7617 1423
00000130: 9168 2ca1 a5e5 5820 f008 8422 505b b522
00000140: 9480 67a2 a9d3 3121 4edc 91a2 22e1 4823
00000150: 0b9c 1321 e86d ea1e 716f 0d22 2833 4b22
00000160: db27 fb1f 39f0 d6a2 a2e4 27a0 9e34 3da2
00000170: 8aa3 3fa2 f3a2 c823 c271 3720 94c3 ec1e
00000180: b6a6 fda2 6421 5921 07ab 42a1 c79d aaa2

fc3.weight f4 [1, 100]
6.418089e-21 -2.0229994e-21 1.7887872e-21 -6.748858e-22 -4.5224296e-15 -3.683366e-22 2.1395006e-06 -1.6390861e-22
-1.2822263e-16 -2.844902e-17 7.388588e-17 4.2823476e-16 -6.9103953e-22 2.0982411e-22 -1.1176318e-14 9.749104e-19
4.6003433e-19 -8.1597556e-10 -2.1750903e-16 4.337425e-22 -3.8689537e-16 1.3981864e-23 -1.1175718e-18 -2.6794027e-23
3.2159015e-17 -1.181978e-16 1.0137364e-21 -1.6446032e-22 -1.139793e-19 -7.31557e-15 1.1779536e-15 -2.1791643e-17
-8.145621e-16 -9.702078e-16 -1.4174044e-16 5.1975778e-17 -9.057302e-11 2.3588968e-21 8.978551e-15 9.487349e-15
-7.7867594e-22 1.0922671e-18 1.14390855e-20 -2.282957e-21 8.5396263e-16 -4.848583e-20 -4.104638e-22 -5.439886e-16
-1.3586271e-16 1.2998845e-21 -7.163801e-18 1.7926735e-21 1.5335192e-20 -1.6047254e-14 2.6716245e-15 -2.929638e-19
-1.2951277e-16 -8.085896e-21 -1.3826342e-22 5.265459e-21 -6.22224e-16 -3.5309723e-17 3.083135e-15 1.4439493e-14
6.284374e-16 -1.3329802e-22 -8.91374e-23 1.1054724e-16 1.2808021e-16 -2.731545e-22 -7.313892e-24 -6.93475e-22
5.6511945e-18 6.0116215e-16 -1.4678295e-14 3.596935e-20 1.4678713e-16 -4.302479e-23 -1.4906404e-14 -3.0687476e-24
1.6040344e-22 -1.4704586e-17 2.212747e-21 -2.549234e-16 1.2813045e-16 -8.36463e-22 -4.9790543e-22 6.517748e-16
-1.3559814e-14 2.56309e-15 -3.294138e-22 4.8917228e-21 -2.7044e-16 1.0113294e-15 -1.889846e-20 -5.64215e-17
2.531575e-15 -1.7934253e-21 1.8427373e-15 9.84766e-21
00000000: f377 f21d 80da 189d 2d28 071d c2f8 4b9c
00000010: 0df0 a2a7 54a5 de9b 5794 0f36 4227 469b
00000020: a4d4 13a5 ad32 03a4 875e aa24 4cdc f625
00000030: 98da 509c 6ba9 7d1b ab55 49a8 13df 8f21
00000040: 36c7 0721 2d4b 60b0 56c5 7aa5 3317 031c
00000050: ae07 dfa5 6b39 8719 abec a4a1 6691 019a
00000060: aa4e 1424 d545 08a5 0731 991c 01d2 469b
00000070: 2190 06a0 1dc9 03a8 d1c2 a926 10fe c8a3
00000080: 13c8 6aa6 5ad2 8ba6 656a 23a5 2bb2 6f24
00000090: 142c c7ae b33b 321d 42be 2128 ade8 2a28
000000a0: 2257 6b9c af30 a121 0614 581e d07e 2c9d
000000b0: 5223 7626 c6f7 649f 321c f89b 46cb 1ca6
000000c0: 98a3 1ca5 d96e c41c 1826 04a3 5973 071d
000000d0: 38d6 901e 738a 90a8 c682 4027 70ef aca0
000000e0: 6c51 15a5 febc 189e 7526 279b 65ec c61d
000000f0: 0758 33a6 5dd6 22a4 cd29 5e27 340f 8228
00000100: 7f22 3526 bd25 219b 6185 d79a 93e7 fe24
00000110: 9baa 1325 9d1c a59b a478 0d99 0797 519c
00000120: 067e d022 f045 2d26 d835 84a8 47dc 291f
00000130: ea3b 2925 1c0e 509a d443 86a8 cf6e 6d98
00000140: 76ea 411b 39a0 87a3 c030 271d 0ef4 92a5
00000150: 6fb9 1325 31ce 7c9c 917b 169c 7edc 3b26
00000160: 9b45 74a8 aab0 3827 511e c79b d7cd b81d
00000170: e6e5 9ba5 78bf 9126 ac7d b29e 6019 82a4
00000180: 516b 3627 e481 079d 81c8 0427 5d04 3a1e
