UQ/saved_models/Uy_mean.pth (torch, 2199 bytes, 5 tensors)

fc1.weight f4 [4, 2]
0.017235585 0.10688943 -0.009736542 -0.0020402526 -0.017504072 -0.10185429 0.056240376 -0.033148788
00000000: a431 8d3c d8e8 da3d 0486 1fbc c2b5 05bb
00000010: b364 8fbc fb98 d0bd 4f5c 663d 06c7 07bd

fc1.bias f4 [4]
-0.004554009 0.02902252 0.0020741594 -0.036305528
00000000: cc39 95bb a3c0 ed3c 9fee 073b 1bb5 14bd

fc2.weight f4 [4, 4]
-0.012923067 -0.011483653 0.010167609 0.037480198 0.013804528 0.013855855 -0.009943394 -0.036938723
0.0025792075 0.012599511 -0.001121334 -0.02412521 -0.01179735 -0.010835661 0.010487225 0.040087976
00000000: 46bb 53bc ef25 3cbc 0b96 263c d684 193d
00000010: 632c 623c ab03 633c 9ee9 22bc 0f4d 17bd
00000020: ec07 293b 2e6e 4e3c baf9 92ba 3ba2 c5bc
00000030: ac49 41bc 0e88 31bc 9cd2 2b3c 4a33 243d

fc2.bias f4 [4]
0.0024079452 -0.0016533454 0.0022649097 -0.0004664945
00000000: 9ece 1d3b 11b5 d8ba e16e 143b d593 f4b9

fc3.weight f4 [1, 4]
-0.056449365 0.05666526 0.02014806 -0.061849993
00000000: 7337 67bd d519 683d 8b0d a53c 6b56 7dbd
