UQ/saved_models/Uy_mean_regul.pt (torch, 2311 bytes, 5 tensors)

fc1.weight f4 [4, 2]
0	0xb52ddb18	-6.4766346e-07
1	0x39336826	0.00017109569
2	0x3831cd91	4.2391537e-05
3	0xb20747fe	-7.874403e-09
4	0x37a581f1	1.9730041e-05
5	0xb5da9d5a	-1.6288061e-06
6	0xafa25c9a	-2.9533426e-10
7	0x3805c257	3.1890664e-05

fc1.bias f4 [4]
0	0x388fa9e8	6.850419e-05
1	0x36ac7707	5.139856e-06
2	0x36955593	4.450508e-06
3	0x3823e85c	3.907863e-05

fc2.weight f4 [4, 4]
0	0xb6325f5b	-2.657957e-06
1	0xb8f3341e	-0.000115968505
2	0xaf22d5d8	-1.4809787e-10
3	0xb8d7892e	-0.000102775506
4	0xb809cd93	-3.28548e-05
5	0x36c9afa5	6.0107145e-06
6	0x3920c484	0.00015331997
7	0xb3cde278	-9.587251e-08
8	0xb64ef57a	-3.0839278e-06
9	0xb505a72f	-4.9789645e-07
10	0x3957a007	0.00020563613
11	0xb7e6c661	-2.7510514e-05
12	0x3249e5da	1.1752002e-08
13	0xb71f00ca	-9.477322e-06
14	0xb4c4a2bf	-3.6626258e-07
15	0xb76ae36e	-1.40004395e-05

fc2.bias f4 [4]
0	0x2ee8895f	1.05745405e-10
1	0x3228dbf2	9.828897e-09
2	0xaf35a29f	-1.6519629e-10
3	0xb8b0b683	-8.4263294e-05

fc3.weight f4 [1, 4]
0	0x2fe94d2e	4.2437293e-10
1	0xb8a19b04	-7.705952e-05
2	0xae6bc780	-5.3610005e-11
3	0x3203f1fc	7.6802245e-09
