UQ/saved_models/Uy_mean.pt (torch, 2199 bytes, 5 tensors)

fc1.weight f4 [4, 2]
00000000: e1b5 f3bc 393a ef3e 722f ff3e cbc2 bf3e
00000010: db41 f33c a539 fdbe 795d 6fbe d21f e73d
-0.029749813 0.46724108 0.49840885 0.37453303 0.029694488 -0.49458042 -0.233755 0.11285366

fc1.bias f4 [4]
00000000: 9b05 6a3d 20c6 dd3e 5742 febd c309 253f
0.057134252 0.4331522 -0.12414997 0.6446802

fc2.weight f4 [4, 4]
00000000: dd61 1c3e 9ce5 ecbc cbf3 e8be e15b e1be
00000010: bb87 bcbe 8566 46be 528b f8bd dc0e 883e
00000020: c0d6 a83e 351d db3e b0bd c0bd 0a12 7bbe
00000030: 684d 5cbe 6010 94be a71e d13d 96b8 1a3e
0.15271707 -0.02891808 -0.454985 -0.4401541 -0.36822304 -0.19375046 -0.12135948 0.26573837
0.3297634 0.4279572 -0.0941118 -0.245186 -0.21513903 -0.28918743 0.102109246 0.15109476

fc2.bias f4 [4]
00000000: e12a 813e ebb3 233c 4f50 df3c 107a d63e
0.25228027 0.009991626 0.027259974 0.4189

fc3.weight f4 [1, 4]
00000000: 316a 193e 9494 993d 1420 e6be e468 7fbe
0.14981915 0.07499042 -0.4494635 -0.24942356
