UQ/saved_models/Uy_mean_regul.pt (torch, 13255 bytes, 5 tensors)

fc1.weight f4 [50, 2]
00000000: 0878 fd34 d721 0435 9f73 d1ac 8069 a2ae
00000010: 1d0c 3db5 d3cc 8a35 99b6 662d d690 1533
00000020: d5a7 a133 ad1d 1c36 930d 2b36 d06b f4b1
00000030: 2a4a 4136 43ec 5130 8969 4a37 be4b cd32
00000040: a9ec c932 3fd4 fbb1 6810 b331 b651 44b2
00000050: 8dcd 07b6 92fe 2a31 18cf 0b35 4035 0e36
00000060: 8487 4733 f523 fcae 5db6 e535 8685 2235
00000070: e932 b4ae 735c 1434 44e6 7636 49cc 62b7
00000080: 4010 81b7 d779 1fb4 211f 8733 4bd4 1336
00000090: d787 4ab6 a427 46b4 82ff a32f 171e 8433
000000a0: 02e8 b3b2 c6f0 342f e32b af34 f108 6db4
000000b0: 328f dd2f a646 0fb0 61dd 2a36 4502 30b5
000000c0: f315 22b7 a5b6 e0b6 9f15 4836 71a5 f3ae
000000d0: 31b6 072e 64d2 50b4 2889 01b3 9c7a 04b3
000000e0: 60a2 f536 49f1 c82f be33 bc36 8e86 eb2d
000000f0: 592e 66b2 15b2 2136 8cf9 5f35 3a95 cdb1
00000100: 783f 76b6 cb78 a830 b543 2c31 a5d1 6d35
00000110: de47 9734 e908 2db5 691a f035 ceac 9235
00000120: fa66 7cb6 0efc 7fb6 43c5 992d d85d be2e
00000130: 40fe c7b3 1269 2535 b50f 03b0 8075 0fb5
00000140: 95c2 4336 e637 0fb4 459a 1a2f 9e72 e7b2
00000150: 09c6 6e30 fabe f1b0 1f76 14b3 d90e 8eb5
00000160: 3a80 29b7 6e04 9235 94e2 96b5 d165 ee35
00000170: d8dc 3ab6 75df d8ad ec4f b934 e1f9 a6b1
00000180: d3a5 502b 9e66 37b5 b2c8 88b3 25a6 59b6
4.7212257e-07 4.9223075e-07 -5.952974e-12 -7.3856476e-11 -7.0425614e-07 1.0341413e-06 1.3114531e-11 3.4823493e-08
7.527675e-08 2.3263085e-06 2.5488887e-06 -7.1135915e-09 2.880241e-06 7.6369505e-10 1.206471e-05 2.3899585e-08
2.35071e-08 -7.329191e-09 5.211451e-09 -1.14272805e-08 -2.0236214e-06 2.4882962e-09 5.2082896e-07 2.1190644e-06
4.645655e-08 -1.14660205e-10 1.7114904e-06 6.0544005e-07 -8.194496e-11 1.3817207e-07 3.6790889e-06 -1.3518214e-05
-1.5385565e-05 -1.4852354e-07 6.29209e-08 2.2028278e-06 -3.0179415e-06 -1.8454608e-07 2.9831076e-10 6.152202e-08
-2.0943848e-08 1.6456445e-10 3.2628222e-07 -2.2075598e-07 4.0301412e-10 -5.2123494e-10 2.5460834e-06 -6.556841e-07
-9.661063e-06 -6.696983e-06 2.9814908e-06 -1.1079749e-10 3.0857265e-11 -1.9448049e-07 -3.0159896e-08 -3.0845158e-08
7.320472e-06 3.6551231e-10 5.60886e-06 2.6776161e-11 -1.33983e-08 2.4094527e-06 8.343711e-07 -5.9832503e-09
-3.66938e-06 1.225794e-09 2.5067781e-09 8.8594453e-07 2.8178232e-07 -6.446049e-07 1.788908e-06 1.092814e-06
-3.7610866e-06 -3.8144676e-06 1.7481688e-11 8.65687e-11 -9.3129074e-08 6.162019e-07 -4.7679843e-10 -5.3442636e-07
2.9170526e-06 -1.3338249e-07 1.4061026e-10 -2.6944061e-08 8.686532e-10 -1.7589337e-09 -3.4566366e-08 -1.0584146e-06
-1.010304e-05 1.0879137e-06 -1.1241814e-06 1.7762014e-06 -2.7844708e-06 -2.4655592e-11 3.4517086e-07 -4.859644e-09
7.412657e-13 -6.832214e-07 -6.3695e-08 -3.2432229e-06

fc1.bias f4 [50]
00000000: 1116 5b36 422c 49b4 9c4a 1cae 505c d5b4
00000010: ef89 3435 8f1b b731 b939 a832 c69c 5036
00000020: c171 8e36 2aa5 8a35 8140 1f34 7f87 5937
00000030: f247 3934 9c1c 55b5 2aed 9a35 11b2 d236
00000040: cb40 4a32 7e94 2536 be49 af34 ddf1 14b4
00000050: fa6d c230 73ac 9eb7 55e5 1537 2afd d637
00000060: 32d9 20b5 b620 8d31 8cf7 f436 5c96 1a34
00000070: e201 7236 8482 80b5 aea2 5432 ba23 0735
00000080: 6919 32b4 879b 4436 ea7a 69b7 b22a 14af
00000090: e91e bd36 e722 c9b0 7cf9 58b7 2ee1 cbb1
000000a0: a0a7 5533 57e3 93b6 763c 2431 133c f7b3
000000b0: 211c 9036 e6d9 9535 1f30 d731 b0aa e3b4
000000c0: 6c7e 5db4 cf98 5cb5
3.2646387e-06 -1.8735685e-07 -3.553656e-11 -3.9741508e-07 6.7255945e-07 5.329134e-09 1.9584023e-08 3.108567e-06
4.2451725e-06 1.032987e-06 1.4831495e-07 1.2965756e-05 1.7255641e-07 -7.9390315e-07 1.1542918e-06 6.2792174e-06
1.177268e-08 2.467335e-06 3.2649945e-07 -1.3871563e-07 1.4146615e-09 -1.891537e-05 8.934488e-06 2.5628677e-05
-5.9920706e-07 4.107359e-09 7.300585e-06 1.4397068e-07 3.6061906e-06 -9.574728e-07 1.2377013e-08 5.034341e-07
-1.6586786e-07 2.9296805e-06 -1.39165e-05 -1.347569e-10 5.6362373e-06 -1.4634595e-09 -1.2932691e-05 -5.9336775e-09
4.974538e-08 -4.4074072e-06 2.389951e-09 -1.1512761e-07 4.294809e-06 1.1164782e-06 6.2627943e-09 -4.2406236e-07
-2.0628221e-07 -8.217875e-07

fc2.weight f4 [50, 50]
00000000: 6fd3 232a e989 b336 c52f 26b0 17ce f7ad
00000010: 6b2e 89b4 79b4 8e2e 6e15 f6ad 405a 32b3
00000020: e826 4630 2701 10b3 6618 efac 967c f6ad
00000030: dd23 252d e19b b3b4 e54e b332 eadf f9b0
00000040: 278b 0a35 a1ca 2932 eb74 2a37 da1e a031
00000050: b98a 1337 6f46 2cb4 864a 4532 603e ab32
00000060: 7a60 c133 c06e 47b1 a523 bfb5 1422 c6b2
00000070: 07eb 5c33 9aaa b231 b57d 4730 af18 8a2d
00000080: 9e84 d6ad e4d3 1530 ad47 b4b1 c3c5 5630
00000090: 7295 b0b6 3598 3b36 658d 4c34 df52 ceae
000000a0: fd25 f734 ee16 7d34 74ce 9336 81a0 2e34
000000b0: e4ac e333 91f6 f3b4 73e2 47b2 343f 1034
000000c0: 2921 5caf 0cee 24b6 7a5e b033 8d07 ffb0
000000d0: 04d0 3a34 7c13 10af 832c ef30 d3d2 cf34
000000e0: 19da 8c33 b5b3 06b5 feba 98b2 1257 a8b5
000000f0: e0df ddb5 1e5f d6b5 00fd afb1 a8a0 a530
00000100: 775f 862b 5c3e 1635 14ae 8cb2 97d2 2836
00000110: 6902 85b4 8f19 8b31 b3a2 53b4 34c8 5135
00000120: aa10 bdb1 10d3 462d 540c c02e 43a6 eab1
00000130: dfaf 68b3 2051 c1b0 5e14 abb1 77b1 37ae
00000140: 0818 7232 355a 2d32 3361 002a 82ec 35af
00000150: dbe4 31b0 023f 9730 6cc6 5cb5 dee4 4030
00000160: 93cd e5ad cfaa f5b4 b3e8 862d dfb7 7c31
00000170: ac34 38b5 4edc 03b2 317a 99b1 ba85 4a31
00000180: ed38 85b5 c82e 03b7 3a9d d2b2 3af7 86b4
00000190: e3a3 46b4 0995 97b6 418d 2b35 54fa 01ad
000001a0: effe 2d34 039a 19b6 0e68 2936 efef 9433
000001b0: 7820 c92f 8959 1331 4906 6032 f190 5336
000001c0: 34af d034 e348 8132 f655 aeb3 1289 39b5
000001d0: a7a9 2334 d630 66b2 95f3 dab7 3a82 cf2f
000001e0: b787 0c34 cbd1 4236 ae84 9d35 4e5b 5235
000001f0: 2345 2db2 84bc e0b2 621f 75b6 18db fc31
00000200: 3982 4631 6627 0cb5 e6b9 7d30 94da 6ab5
00000210: b905 4430 f2b7 8ab3 7eec 94b6 306a 03b8
00000220: 5f05 9f36 4a63 6ead 4334 d3b1 78d0 f331
00000230: 323b 5eb4 d857 0bae 3a11 4033 3174 1e32
00000240: 7d7a 3fb6 9053 7e34 fdd6 c22e c241 e1b7
00000250: 3475 7e32 9f77 0631 02df 0936 8546 80b1
00000260: 4241 0334 f305 9d32 584d 1e33 bcf3 38ae
00000270: 3669 bcb4 7626 e8ae 1c9a 16b6 c954 c7b4
00000280: 5523 16b4 cc53 c4af d181 de32 f2d6 a231
00000290: ebd0 902c 1b62 f7b2 e8f5 5ab3 8e3d 822c
000002a0: 9f7d 9e32 3bf0 cdb2 ee64 2837 9919 16b6
000002b0: 8456 a9af 0df5 62b7 231a c8b6 2ad4 0c31
000002c0: 40c7 1235 3f77 992c b93f 382f 54f1 e2b3
000002d0: a5ec ae34 1a82 ed33 3c45 9bae fa50 9735
000002e0: 5e7b b0af 9dd5 d8ad a6e3 ce33 9964 00b2
000002f0: 594e 0935 9ead b5af 075d 4236 e8d0 ae2c
00000300: 6959 deb4 f08e 5935 ff3b e12d b51f c5b1
00000310: 6d78 44b1 b6b1 2036 e0a0 5334 5a00 b037
00000320: ac4c 2eb2 56e5 312f 10d3 7eb3 a35e beb1
00000330: 5339 3a31 8ca5 a733 bc86 1db5 1e68 16b5
00000340: e165 2db3 31ce 8832 3492 04b4 7b28 afad
00000350: 2dc9 25b3 6e8c 36b6 a327 8430 3b7a 0435
00000360: cb11 a2b2 dfec 5431 8cb0 bbaf 3543 f2b5
00000370: dddc a331 b428 6d31 0077 0636 6b42 682f
00000380: 5107 b6b5 9124 6133 2b01 46b0 3513 4837
00000390: 0bc3 19b7 0b9c bcb4 2409 c02d f3cf 65b4
000003a0: 25bd 6030 eeee d233 1d88 2b31 cb5c 22b1
000003b0: b8b7 58b4 28d8 f52f c183 b3b0 a082 c42c
000003c0: 8010 bab2 27e4 d9b5 a777 99b2 374d e030
000003d0: 1dda 7fb3 0c85 31b1 e27c 7037 49a7 572e
000003e0: 7ddb 5436 311e 7035 3486 d835 5af6 d0b4
000003f0: 9f7e 3835 bb0f 1934 8c45 9635 37bf f3ac
1.4550664e-13 5.3506706e-06 -6.0458333e-10 -2.8172171e-11 -2.5552012e-07 6.489471e-11 -2.7976479e-11 -4.1525936e-08
7.208727e-10 -3.352866e-08 -6.7954973e-12 -2.802229e-11 9.387127e-12 -3.3454765e-07 2.087422e-08 -1.8180775e-09
5.16115e-07 9.883167e-09 1.0160012e-05 4.6601203e-09 8.794182e-06 -1.6044372e-07 1.1483854e-08 1.9935385e-08
9.004812e-08 -2.9021265e-09 -1.4240983e-06 -2.306573e-08 5.1436498e-08 5.199877e-09 7.257442e-10 1.5699745e-11
-2.4387877e-11 5.4507e-10 -5.246838e-09 7.8133783e-10 -5.2626065e-06 2.7953768e-06 1.905042e-07 -9.382516e-11
4.6034975e-07 2.3570803e-07 4.4049757e-06 1.6263404e-07 1.060196e-07 -4.5441678e-07 -1.1634813e-08 1.3434038e-07
-2.0020664e-10 -2.4576466e-06 8.212824e-08 -1.8555838e-09 1.7398276e-07 -1.3103646e-10 1.740219e-09 3.871015e-07
6.55893e-08 -5.01804e-07 -1.7780163e-08 -1.2542316e-06 -1.6530939e-06 -1.5971925e-06 -5.121933e-09 1.2050991e-09
9.54777e-13 5.59701e-07 -1.6377307e-08 2.515653e-06 -2.4774934e-07 4.048338e-09 -1.9710096e-07 7.81499e-07
-5.5025184e-09 1.1301862e-11 8.733339e-11 -6.829198e-09 -5.4176663e-08 -1.4065655e-09 -4.9790705e-09 -4.1767003e-11
1.4091718e-08 1.0090436e-08 1.1402407e-13 -1.6545879e-10 -6.471745e-10 1.1004604e-09 -8.224513e-07 7.0174433e-10
-2.6125579e-11 -4.5759086e-07 1.5337375e-11 3.6775345e-09 -6.862199e-07 -7.675295e-09 -4.4667776e-09 2.9470884e-09
-9.92584e-07 -7.819101e-06 -2.4518716e-08 -2.5139326e-07 -1.8499809e-07 -4.5175007e-06 6.3908016e-07 -7.388385e-12
1.6204625e-07 -2.2888423e-06 2.524353e-06 6.935431e-08 3.6584757e-10 2.144221e-09 1.3039945e-08 3.1525817e-06
3.8870496e-07 1.5050722e-08 -8.1181426e-08 -6.9117334e-07 1.5242277e-07 -1.3398866e-08 -2.6101052e-05 3.7745612e-10
1.3087889e-07 2.9030368e-06 1.1736026e-06 7.836396e-07 -1.0085645e-08 -2.6162759e-08 -3.6526112e-06 7.3590734e-09
2.8886815e-09 -5.2211396e-07 9.230504e-10 -8.7489866e-07 7.1312517e-10 -6.459585e-08 -4.438275e-06 -3.133173e-05
4.7391945e-06 -1.355078e-11 -6.1468497e-09 7.095931e-09 -2.0696896e-07 -3.1682962e-11 4.471915e-08 9.223229e-09
-2.8532515e-06 2.3685993e-07 8.860288e-11 -2.6852711e-05 1.4811395e-08 1.9567563e-09 2.0544398e-06 -3.7333074e-09
1.2224066e-07 1.8279911e-08 3.6857585e-08 -4.2053236e-11 -3.509428e-07 -1.05569706e-10 -2.2441445e-06 -3.7128328e-07
-1.3982692e-07 -3.5711734e-10 2.5903235e-08 4.739257e-09 4.1159207e-12 -2.8799198e-08 -5.098073e-08 3.701656e-12
1.8450747e-08 -2.3974385e-08 1.003708e-05 -2.2366642e-06 -3.0802394e-10 -1.3527705e-05 -5.963507e-06 2.0493283e-09
5.4679185e-07 4.3617605e-12 1.6757341e-10 -1.05678424e-07 3.2582207e-07 1.1059838e-07 -7.0608824e-11 1.1273944e-06
-3.210187e-10 -2.465122e-11 9.6340315e-08 -7.473454e-09 5.115049e-07 -3.304707e-10 2.8962402e-06 4.9685707e-12
-4.1415777e-07 8.10468e-07 2.5606182e-11 -5.7370593e-09 -2.8590208e-09 2.39453e-06 1.9709432e-07 2.0980999e-05
-1.0145566e-08 1.6179533e-10 -5.9330944e-08 -5.5404867e-09 2.7099147e-09 7.806656e-08 -5.868312e-07 -5.6030865e-07
-4.037236e-08 1.5926249e-08 -1.2346646e-07 -1.9913174e-11 -3.8600025e-08 -2.7201854e-06 9.61553e-10 4.93517e-07
-1.8867373e-08 3.0984706e-09 -3.4140546e-10 -1.8049965e-06 4.7690336e-09 3.4511176e-09 2.0036823e-06 2.1123873e-10
-1.3562186e-06 5.242015e-08 -7.203364e-10 1.1925401e-05 -9.164923e-06 -3.5131265e-07 2.1831932e-11 -2.1402938e-07
8.1759516e-10 9.822348e-08 2.4961146e-09 -2.362685e-09 -2.0183404e-07 4.471883e-10 -1.3061411e-09 5.5851573e-12
-2.1660753e-08 -1.6234161e-06 -1.7865956e-08 1.6320091e-09 -5.9570187e-08 -2.5832518e-09 1.4334191e-05 4.903392e-11
3.171822e-06 8.94509e-07 1.6132312e-06 -3.8922263e-07 6.87296e-07 1.4254958e-07 1.1196112e-06 -6.9277045e-12

fc2.bias f4 [50]
00000000: 535d 79b6 28b6 2eb3 75fd efb5 1e58 a8b0
00000010: 0199 a634 cfe3 e6b7 0a49 3db2 0b9e bdb1
00000020: a553 dbb2 b0fe 1937 8ebb 5131 2637 13b2
00000030: 3fd1 64b4 260e c72f 7af1 7c36 5307 13b6
00000040: a162 db30 4285 e22e c003 d5b5 8726 1bb6
00000050: 0ee2 9fb2 4c73 0a37 4690 5436 55ca 9f35
00000060: 7f74 5236 6372 b1b3 2663 e335 b3b2 1e33
00000070: 55c0 a936 1ddc d0b6 464c 4f32 0587 8036
00000080: b18e 2236 c1b0 9c36 3275 0235 876a f1b6
00000090: b7c1 ffb5 de25 adb4 71ab 9e32 7ee4 92b6
000000a0: 5fa7 4335 05b4 adb3 7473 e633 352f d3b4
000000b0: 377e e935 25ce 3936 93b9 fdb3 3290 a3b2
000000c0: 0abf 04b4 97e1 8bb4
-3.7158213e-06 -4.0678202e-08 -1.7880653e-06 -1.2248653e-09 3.1031234e-07 -2.7524218e-05 -1.1017855e-08 -5.5185914e-09
-2.5532993e-08 9.17881e-06 3.0520115e-09 -8.5690655e-09 -2.1310278e-07 3.6207942e-10 3.7691484e-06 -2.190897e-06
1.5962379e-09 1.03009615e-10 -1.5870828e-06 -2.3119226e-06 -1.8612834e-08 8.252286e-06 3.167444e-06 1.190531e-06
3.1360248e-06 -8.2630116e-08 1.6941674e-06 3.6949768e-08 5.058983e-06 -6.2245076e-06 1.2066328e-08 3.8304156e-06
2.4222938e-06 4.669739e-06 4.8599316e-07 -7.194761e-06 -1.9055359e-06 -3.2251313e-07 1.8471583e-08 -4.377739e-06
7.288672e-07 -8.0886856e-08 1.07312104e-07 -3.933616e-07 1.7396586e-06 2.768714e-06 -1.1814986e-07 -1.904127e-08
-1.2362958e-07 -2.6054906e-07

fc3.weight f4 [1, 50]
00000000: 9663 8d33 832c 9935 433b 91b5 7930 4732
00000010: b685 23b2 4d81 dbb4 ef60 c036 c8d3 0730
00000020: 4786 7f36 5942 f1b5 81d4 6230 42ba a3b5
00000030: 9606 93b3 f1d1 022f 3b3b 8ab3 49ff 4bb6
00000040: d322 deb1 2f5d cf33 81f7 9bb0 506e 0bb3
00000050: 2d42 abb6 e248 9e34 3f99 abb5 9dd3 c5b3
00000060: 3a49 a9b6 916a 9233 3e0b 1bb4 17bb c7b6
00000070: 2954 8eb1 7044 bbb5 af43 0034 39eb 48b3
00000080: 094b 0834 cac6 0134 89d3 9e32 e531 e3b1
00000090: afb8 5b31 db76 ba30 9768 1b36 25d1 f7b1
000000a0: 2ba7 03b4 6f41 a735 63ab ea34 44b5 0eb5
000000b0: 88a8 ceb5 dd31 a235 46ed d431 a3ad 8e2e
000000c0: ce70 0ab3 6fc6 b1b3
6.583939e-08 1.1412343e-06 -1.0820589e-06 1.1594346e-08 -9.518251e-09 -4.0886007e-07 5.7333305e-06 4.9413673e-10
3.807612e-06 -1.7975209e-06 8.252031e-10 -1.2198655e-06 -6.846419e-08 1.1898017e-10 -6.4369e-08 -3.0397953e-06
-6.4650094e-09 9.6561386e-08 -1.1348079e-09 -3.2463788e-08 -5.103901e-06 2.9482823e-07 -1.2785093e-06 -9.2120196e-08
-5.045117e-06 6.818039e-08 -1.443959e-07 -5.9524423e-06 -4.142312e-09 -1.3952504e-06 1.1945552e-07 -4.6780062e-08
1.2693285e-07 1.208638e-07 1.8489816e-08 -6.612242e-09 3.1973675e-09 1.3567062e-09 2.315768e-06 -7.212423e-09
-1.2261141e-07 1.2461513e-06 4.3710597e-07 -5.31629e-07 -1.5397245e-06 1.2084453e-06 6.196987e-09 6.4882565e-11
-3.2233224e-08 -8.2783e-08
