HPO/wandb/run-20230331_010414-1l1q5s6s/files/model-3000.pt (torch, 381771 bytes, 30 tensors)

linears.0.weight f4 [100, 2]
1.1104401 0.7309711 -0.77680326 0.5205197 -0.6593253 -0.21011345 -0.79832697 1.289407
1.1930918 0.7105108 0.7021396 1.1859899 1.1826181 -0.117015354 -0.7752279 1.7534933
-1.1782391 0.9560803 -0.020908559 -0.8338895 0.24450943 1.4834914 -0.73448205 -0.7605241
1.9582021 -0.7429618 1.4148967 -0.5070865 -0.7336739 -0.787795 -0.27812016 -1.0093904
1.2806382 -0.62434894 -0.607851 0.7211541 1.2578884 -0.034191046 -0.6344981 0.6987663
-0.8381924 0.7523883 1.497746 -0.14731126 1.3121551 -0.73734 -0.013404441 -1.1070663
-0.84346014 -0.4968261 0.90575564 0.68248594 1.4654226 -0.59807336 0.7646896 0.8367474
-1.169208 -0.19913219 -0.713067 1.7075058 -0.5766931 1.3460062 1.227602 -0.249768
1.1230881 -0.11590566 -0.8559412 0.955668 -0.026872914 -1.0511658 -0.69286746 0.65375465
-0.83594394 1.276376 -0.97674453 0.21536493 1.6069329 -0.11527342 1.3435454 -0.02652764
0.20658776 -1.119124 1.4132264 -0.7246228 -1.2067013 0.7948078 -0.9715155 0.96941745
0.74857134 1.1938186 -1.2107428 1.5600096 -0.6059624 1.5935278 -1.1268469 -0.102980934
-0.3425258 -0.9587729 0.3669673 1.3330181 1.7423497 0.23812859 1.1949613 -0.6155676
0.7710802 0.55593383 -0.034206465 -1.2394066 -0.77116936 0.9941675 -1.0601834 -0.19979784
1.2601407 -0.59050184 -0.87600857 -0.39418048 0.88483155 -1.3752205 -1.0140187 -0.15343891
1.3389435 -0.58021283 -0.85431474 0.8503716 1.6309642 -0.024891833 0.091607876 -1.4195777
-0.43077525 -0.6214471 -0.61067486 -0.27475396 0.73495513 1.4013035 0.9855331 0.8376155
1.665378 -0.36679488 0.6319717 1.137146 -0.07394326 1.5948298 1.0923538 0.4850108
0.5725868 1.2649901 1.3352946 -0.5156107 -0.33174753 -0.75863653 1.3156652 0.7021424
-0.6083935 1.6821278 1.2977036 -0.34190965 1.3312967 -0.043222334 1.4229865 -0.27574632
1.3389313 0.84383535 1.2881384 -0.55840474 -1.0701944 -0.833577 1.6592307 -0.32987815
1.2462924 0.8571237 -0.73220736 1.362883 0.14423347 1.6610423 -1.7026334 -0.07728962
0.90434194 -1.313679 -1.8362161 0.5875142 -0.9068853 -0.14080136 1.3337246 -0.44371086
-1.020558 0.44961238 -0.1038376 -1.1050246 -0.16397275 -1.2981251 1.1215128 0.28719506
-0.47955167 -0.8383357 0.9254431 1.0623076 1.2943597 0.662563 -0.58759564 1.7217689
00000000: e722 8e3f ec20 3b3f 94dc 46bf c740 053f
00000010: 8bc9 28bf fb27 57be 285f 4cbf 4a0b a53f
00000020: 3bb7 983f 09e4 353f 6cbf 333f 84ce 973f
00000030: 0860 973f bfa5 efbd 5675 46bf 7872 e03f
00000040: 8ad0 96bf aec1 743f 6d48 abbc c879 55bf
00000050: ae60 7a3e 0ce3 bd3f 0407 3cbf b5b1 42bf
00000060: 5ea6 fa3f bf32 3ebf 561b b53f 6cd0 01bf
00000070: 0dd2 3bbf efac 49bf c465 8ebe b433 81bf
00000080: f4eb a33f 55d5 1fbf 209c 1bbf 8e9d 383f
00000090: 7d02 a13f e90b 0cbd 786e 22bf 59e2 323f
000000a0: c793 56bf 859c 403f 24b6 bf3f c3d8 16be
000000b0: b3f4 a73f 50c2 3cbf 4d9e 5bbc 59b4 8dbf
000000c0: 01ed 57bf fe5f febe 9adf 673f 66b7 2e3f
000000d0: f892 bb3f 561b 19bf b3c2 433f 1435 563f
000000e0: 9ca8 95bf 4fe9 4bbe 8f8b 36bf 8d8f da3f
000000f0: 29a2 13bf ee49 ac3f 1022 9d3f 2fc3 7fbe
00000100: 5ac1 8f3f f25f edbd f61e 5bbf a8a6 743f
00000110: 9624 dcbc 9a8c 86bf c35f 31bf 775c 273f
00000120: 6c00 56bf 4a60 a33f ee0b 7abf a088 5c3e
00000130: faaf cd3f 7914 ecbd 4cf9 ab3f 7e50 d9bc
00000140: be8b 533e 753f 8fbf 9ae4 b43f e180 39bf
00000150: 3075 9abf 8678 4b3f 3db5 78bf be2b 783f
00000160: 5fa2 3f3f 0ccf 983f 9ff9 9abf 65ae c73f
00000170: 5a20 1bbf b8f8 cb3f 853c 90bf abe7 d2bd
00000180: 8b5f afbe 2472 75bf 23e3 bb3e 56a0 aa3f
00000190: 5105 df3f fbd7 733e 7ef4 983f d795 1dbf
000001a0: 8365 453f ae51 0e3f 141c 0cbd e0a4 9ebf
000001b0: 5b6b 45bf c381 7e3f 17b4 87bf ce97 4cbe
000001c0: 4a4c a13f 212b 17bf 1942 60bf 06d2 c9be
000001d0: 5284 623f 3a07 b0bf 5dcb 81bf 171f 1dbe
000001e0: 8062 ab3f d488 14bf 5fb4 5abf f4b1 593f
000001f0: 6fc3 d03f f5e9 cbbc e99c bb3d b9b4 b5bf
00000200: 938e dcbe 2817 1fbf 3055 1cbf 8dac 8cbe
00000210: 0526 3c3f ea5d b33f e64b 7c3f f86d 563f
00000220: 1b2b d53f 8acc bbbe e6c8 213f 008e 913f
00000230: 906f 97bd 6223 cc3f 40d2 8b3f 5653 f83e
00000240: 0c95 123f 32eb a13f efea aa3f 10ff 03bf
00000250: d0da a9be 0136 42bf b867 a83f 9bbf 333f
00000260: adbf 1bbf f74f d73f 271b a63f c80e afbe
00000270: ee67 aa3f e709 31bd 6c24 b63f 9f2e 8dbe
00000280: 1a62 ab3f 9805 583f b8e1 a43f 9df3 0ebf
00000290: 21fc 88bf 4d65 55bf ac61 d43f cae5 a8be
000002a0: 8286 9f3f 756c 5b3f f171 3bbf f372 ae3f
000002b0: f0b1 133e 099d d43f e4ef d9bf 054a 9ebd
000002c0: f482 673f a226 a8bf 2109 ebbf 5567 163f
000002d0: a329 68bf 3b2e 10be 7db7 aa3f 122e e3be
000002e0: a5a1 82bf 9833 e63e cfa8 d4bd 7271 8dbf
000002f0: 79e8 27be f728 a6bf bb8d 8f3f 3b0b 933e
00000300: cc87 f5be 2b9d 56bf d7e9 6c3f b2f9 873f
00000310: 94ad a53f bb9d 293f ab6c 16bf ec62 dc3f

linears.0.bias f4 [100]
-0.608029 0.2293879 0.37110138 -0.14453934 -0.55344087 -0.5977371 -0.1627154 -0.31487465
0.26850316 0.2532305 -0.6791817 0.4616198 -0.58604544 -0.19495422 0.4394704 0.5161086
-0.20676523 0.064764574 -0.4036607 0.06861415 0.28204843 -0.45253628 -0.32030818 0.4482488
0.5341757 -0.32143578 -0.35137123 -0.36221895 0.5583648 -0.4229364 -0.3188114 -0.33354944
-0.40148917 0.016890232 0.34509546 0.13758168 -0.12716168 0.34135365 -0.6829084 -0.4750933
0.33440754 -0.19164662 0.36967507 0.10895059 -0.71581304 0.13433783 -0.5440272 0.540006
0.51347417 -0.6087213 -0.70882094 0.15031669 -0.16103794 0.53721756 0.03021556 0.47313696
-0.17418057 0.49937585 0.36688158 0.5400361 -0.0076320325 0.13589661 -0.4743224 0.597493
0.37466264 0.40935138 -0.85000956 -0.56068987 -0.5973814 -0.5663179 -0.65767175 -0.47313243
-0.6772956 -0.2347217 0.31778213 -0.59375685 -0.59653497 -0.32312274 -0.4897431 -0.322626
-0.8449598 -0.2850018 0.74373853 -0.585487 -0.5393168 -0.3910227 -0.811993 0.8721196
0.41652894 0.78373015 0.4219602 -0.23291932 0.3302436 0.42375034 0.6170325 -0.5253715
0.47389397 -0.60616165 -0.67481965 -0.58329064
00000000: caa7 1bbf a9e4 6a3e 0001 be3e 1f02 14be
00000010: 4dae 0dbf 4c05 19bf de9e 26be 4037 a1be
00000020: 3f79 893e 6ea7 813e dade 2dbf 6e59 ec3e
00000030: 1307 16bf 14a2 47be 4402 e13e b11f 043f
00000040: 44ba 53be 4aa3 843d 9eac cebe 9385 8c3d
00000050: a768 903e d6b2 e7be 6fff a3be de80 e53e
00000060: bdbf 083f 3b93 a4be eee6 b3be c374 b9be
00000070: fff0 0e3f 1f8b d8be 3f3b a3be fec6 aabe
00000080: fd8f cdbe 625d 8a3c 5ab0 b03e 36e2 0c3e
00000090: ac36 02be e8c5 ae3e 16d3 2ebf 6e3f f3be
000000a0: 7737 ab3e 033f 44be 0d46 bd3e 7d21 df3d
000000b0: 863f 37bf db8f 093e 5e45 0bbf d53d 0a3f
000000c0: 0b73 033f 29d5 1bbf 4a75 35bf 9eec 193e
000000d0: 21e7 24be 1787 093f 9f86 f73c 023f f23e
000000e0: 645c 32be 31ae ff3e e7d7 bb3e ce3f 0a3f
000000f0: 2116 fabb 7b28 0b3e 63da f2be 4df5 183f
00000100: c8d3 bf3e 8196 d13e 3a9a 59bf 5f89 0fbf
00000110: fded 18bf 36fa 10bf 2d5d 28bf 6a3e f2be
00000120: 3f63 2dbf e35a 70be 57b4 a23e 7300 18bf
00000130: 84b6 18bf 5870 a5be 9cbf fabe 3c2f a5be
00000140: 494f 58bf c2eb 91be a665 3e3f 7ae2 15bf
00000150: aa10 0abf 2134 c8be c6de 4fbf 3b43 5f3f
00000160: 4843 d53e 8aa2 483f 2b0b d83e 6782 6ebe
00000170: b015 a93e cef5 d83e d8f5 1d3f bf7e 06bf
00000180: 3ba2 f23e 692d 1bbf fbc0 2cbf 8952 15bf

linears.1.weight f4 [100, 100]
-0.2900753 0.11303399 0.22155736 -0.35126674 -0.18778348 -0.47288507 0.17272976 -0.4510929
0.060515128 0.29577023 -0.31141913 0.59674054 0.0956574 0.13410467 0.44365075 0.5209771
0.30979815 0.08259517 -0.1631223 -0.0827142 0.15356147 -0.14216004 0.34396788 0.6058973
0.5354714 -0.16758557 0.24407603 -0.29427576 0.17268594 -0.51098645 -0.22888784 -0.10396527
0.11126096 -0.07746345 0.38718802 0.120339684 -0.24477118 0.32970914 -0.05941997 0.0064751087
0.57148147 0.28334594 -0.11303674 -0.031914398 -0.4356958 -0.0191488 -0.33995596 0.2992408
0.39180428 -0.25714582 -0.13162689 0.032134645 -0.16872099 0.6447472 -0.007917069 0.36430672
0.16106196 0.5033581 0.38728413 0.2720154 0.08638358 0.12447127 0.042643823 0.69361305
0.38959616 0.3796287 -0.43116498 -0.07758051 -0.07527892 -0.30344754 -0.41429248 -0.16735306
-0.28535253 0.002232593 0.32641092 -0.053037472 -0.44186082 0.07925176 0.057043508 0.0483714
-0.43256682 0.18613845 0.4675665 0.16350992 -0.19773598 -0.32826862 -0.69772875 0.4881459
0.42148852 0.30399957 0.36435264 -0.056441966 -0.022809634 0.53360397 0.5530482 -0.24862218
0.38384563 -0.1738234 -0.27283388 -0.4673229 -0.2922614 0.07811693 0.0073948796 -0.32383046
-0.051261432 -0.39964333 0.128823 -0.48247248 0.0010497844 0.36522222 -0.21023844 0.27711013
0.06450322 0.14286552 0.34172514 0.37327513 0.24556747 0.01890309 -0.021019807 -0.09379669
-0.14068682 0.058074962 0.04416379 0.37093994 0.3286742 -0.17699794 0.13000557 -0.21872659
-0.03177002 -0.30857915 -0.12421816 -0.036335696 0.14224388 -0.28974417 0.17728366 -0.15891537
-0.23273206 -0.13208152 0.028581448 0.108491726 0.33369696 -0.018238131 -0.26860863 -0.29545617
-0.20940006 -0.3664279 -0.4065031 0.044825148 0.19381459 -0.1969181 -0.09376305 0.23259912
-0.19393109 0.23772608 -0.21133406 0.2835804 0.23988532 0.3047795 0.3920973 0.26953328
0.043515194 -0.09878717 -0.19709562 0.54656196 0.11670096 -0.039867144 -0.3529777 -0.31112206
-0.112267405 -0.3894619 -0.35364434 -0.19715442 -0.17405699 0.1779211 0.18201642 -0.15258023
-0.42358032 0.017803175 -0.05873293 0.1480441 -0.047868263 -0.031749506 0.3092679 0.09150634
-0.25631183 -0.422476 -0.33006606 0.015311798 0.15587877 -0.035215218 0.19240478 -0.07152119
0.008973244 0.4315942 0.26935562 0.012366612 0.28850648 -0.29832745 -0.19018655 -0.32079738
0.055389933 0.18149094 -0.14657895 0.106160425 -0.13697658 0.120004095 0.034161676 0.30020797
0.26080218 -0.021535117 0.22741495 -0.035863746 -0.25125742 -0.06755343 -0.21245137 -0.12095514
-0.0773622 0.039325666 -0.054970298 0.09602228 0.010920419 -0.0037534465 -0.34775507 -0.07909976
-0.13880734 0.009775566 -0.24935761 0.21460973 -0.1348549 0.22422254 -0.0011672413 -0.07765725
-0.11772989 0.0051286 -0.22861858 0.21663044 0.20415469 0.08347682 -0.05215087 0.041399807
-0.05212556 -0.13670005 0.18930122 0.09678774 -0.016798731 0.40326175 0.17950477 -0.16781813
-0.1570996 0.19341445 0.055481207 -0.14210397 0.15382998 -0.180748 0.2080542 -0.21039501
00000000: c084 94be 5d7e e73d efdf 623e 3cd9 b3be
00000010: 504a 40be fe1d f2be 12e0 303e a6f5 e6be
00000020: b6de 773d 326f 973e 5472 9fbe fdc3 183f
00000030: 07e8 c33d bc52 093e 3126 e33e c15e 053f
00000040: dd9d 9e3e a827 a93d 8809 27be 1066 a9bd
00000050: 383f 1d3e 6792 11be 8f1c b03e 161c 1b3f
00000060: a714 093f 8d9b 2bbe 11ef 793e 50ab 96be
00000070: 95d4 303e 02d0 02bf 9361 6abe beeb d4bd
00000080: c9dc e33d 28a5 9ebd 823d c63e a774 f63d
00000090: 4ca5 7abe a3cf a83e 5b62 73bd 262d d43b
000000a0: 9c4c 123f b812 913e ce7f e7bd acb8 02bd
000000b0: 8513 dfbe f2dd 9cbc b50e aebe 1736 993e
000000c0: 929a c83e 9ea8 83be 33c9 06be 9e9f 033d
000000d0: 32c5 2cbe 270e 253f 98b6 01bc 6986 ba3e
000000e0: 6ded 243e 14dc 003f 1b4a c63e 9a45 8b3e
000000f0: e0e9 b03d cbea fe3d 4aab 2e3d a090 313f
00000100: 2679 c73e b15e c23e a8c1 dcbe 88e2 9ebd
00000110: d62b 9abd 7a5d 9bbe 251e d4be 9a5e 2bbe
00000120: ba19 92be b250 123b 551f a73e d23d 59bd
00000130: 953b e2be bf4e a23d 74a6 693d 1721 463d
00000140: 6679 ddbe 149b 3e3e e064 ef3e 256f 273e
00000150: 4d7b 4abe d312 a8be 5a9e 32bf 42ee f93e
00000160: 58cd d73e d5a5 9b3e 6e8c ba3e b12f 67bd
00000170: 45db babc 459a 083f 9194 0d3f d096 7ebe
00000180: 6a87 c43e c3fe 31be e2b0 8bbe f244 efbe
00000190: 49a3 95be c5fb 9f3d bf50 f23b 1bcd a5be
000001a0: 82f7 51bd 0d9e ccbe 2dea 033e a206 f7be
000001b0: eb98 893a 68fe ba3e bf48 57be 61e1 8d3e
000001c0: 441a 843d 574b 123e 99f6 ae3e eb1d bf3e
000001d0: 0a76 7b3e a7da 9a3c bb31 acbc 7b18 c0bd
000001e0: 3510 10be 03e0 6d3d 17e5 343d d7eb bd3e
000001f0: fc47 a83e f33e 35be 2e20 053e ddf9 5fbe
00000200: 4821 02bd 16fe 9dbe 1766 febd bdd4 14bd
00000210: 61a8 113e 5959 94be d989 353e b6ba 22be
00000220: 5051 6ebe 6140 07be a423 ea3c e930 de3d
00000230: 54da aa3e 2268 95bc 1287 89be 0846 97be
00000240: f86c 56be 709c bbbe 2d21 d0be 939a 373d
00000250: 5577 463e e6a4 49be d806 c0bd 772e 6e3e
00000260: df95 46be 776e 733e f567 58be 7331 913e
00000270: 7fa4 753e 0f0c 9c3e fac0 c83e 4400 8a3e
00000280: fd3c 323d ee50 cabd 6fd3 49be 7ceb 0b3f
00000290: ea00 ef3d bb4b 23bd 7eb9 b4be 644b 9fbe
000002a0: 74ec e5bd 8d67 c7be df10 b5be d9e2 49be
000002b0: ff3b 32be f330 363e 8362 3a3e fe3d 1cbe
000002c0: 85df d8be f7d7 913c f191 70bd df98 173e
000002d0: 8311 44bd c50b 02bd 5d58 9e3e ad67 bb3d
000002e0: 4e3b 83be c64e d8be 6bfe a8be 56de 7a3c
000002f0: af9e 1f3e d53d 10bd c205 453e b479 92bd
00000300: 8304 133c eaf9 dc3e fbe8 893e 559d 4a3c
00000310: 1fb7 933e 60be 98be 43c0 42be 8e3f a4be
00000320: 8ee0 623d c3d8 393e cb18 16be a36a d93d
00000330: 9743 0cbe b5c4 f53d 1ded 0b3d dcb4 993e
00000340: dd87 853e 6a6a b0bc 77df 683e dde5 12bd
00000350: d0a4 80be 7459 8abd da8c 59be 54b7 f7bd
00000360: 1370 9ebd f313 213d 8928 61bd 54a7 c43d
00000370: 8feb 323c 62fc 75bb f40c b2be 0eff a1bd
00000380: 8323 0ebe b229 203c 9a57 7fbe a7c2 5b3e
00000390: 6717 0abe 989a 653e 1efe 98ba c40a 9fbd
000003a0: 5e1c f1bd d10d a83b fd1a 6abe 5fd4 5d3e
000003b0: ed0d 513e e5f5 aa3d 279c 55bd d892 293d
000003c0: 9c81 55bd 19fb 0bbe 2ed8 413e a738 c63d
000003d0: 7e9d 89bc 5378 ce3e 19d0 373e 84d8 2bbe
000003e0: b8de 20be 700e 463e 4340 633d b483 11be
000003f0: 9b85 1d3e 0116 39be 290c 553e ca71 57be

linears.1.bias f4 [100]
0.21933441 0.030242804 -0.059658438 -0.30923596 -0.018678477 0.14134648 -0.01575366 -0.15452065
-0.24016559 -0.047571827 -0.0013498046 -0.2517315 0.20054407 0.027749168 -0.25230718 0.008277019
-0.11689754 0.118011415 0.04717945 0.02526816 -0.06718136 -0.27324367 -0.096706554 0.2527954
-0.17004074 -0.16783181 -0.18703227 -0.008536393 0.0573807 0.33677256 0.06647795 0.07079
0.022470454 -0.24804059 0.20003146 0.027745852 0.057310816 -0.08370854 -0.13809587 0.027342353
0.08127125 0.24912952 0.22162148 -0.3545645 0.18799609 0.21693411 0.080568895 -0.21865605
-0.06786745 -0.12444158 -0.053201623 -0.13360257 -0.08866062 0.3171579 -0.29650202 0.14980009
0.09358589 0.12097647 0.20959228 0.14026006 0.020441364 0.0005334326 -0.075958714 0.15289065
-0.062125128 -0.09975958 -0.07369619 0.119113 -0.18706234 -0.25489566 -0.4082754 0.08502306
0.013234632 -0.088459 0.21878555 0.12705839 0.052592434 -0.12776403 0.48257163 -0.010423998
0.35382095 -0.04819919 0.04030728 0.06955796 -0.2623932 -0.11471638 -0.08709956 -0.22561635
-0.23628639 -0.088320896 0.3469518 0.09939434 0.22050455 0.16498925 -0.04004573 -0.039604347
-0.08570447 -0.18993106 -0.11371682 -0.049245093
00000000: 3399 603e c2bf f73c 685c 74bd 2d54 9ebe
00000010: 9b03 99bc 22bd 103e d20d 81bc a93a 1ebe
00000020: f8ed 75be adda 42bd edeb b0ba f3e2 80be
00000030: 6d5b 4d3e 3952 e33c 682e 81be 559c 073c
00000040: fa67 efbd f8af f13d 3d3f 413d 2cff ce3c
00000050: 6296 89bd 98e6 8bbe 160e c6bd 666e 813e
00000060: 291f 2ebe 1adc 2bbe 6385 3fbe 3adc 0bbc
00000070: 0608 6b3d 746d ac3e 9725 883d 59fa 903d
00000080: f513 b83c 5afe 7dbe 0cd5 4c3e 454b e33c
00000090: bfbe 6a3d 626f abbd 0169 0dbe 12fd df3c
000000a0: 8b71 a63d cf1b 7f3e bef0 623e 7a89 b5be
000000b0: 0c82 403e fa23 5e3e 4e01 a53d 5fe7 5fbe
000000c0: 17fe 8abd 3adb febd f2e9 59bd 1dcf 08be
000000d0: b393 b5bd 8562 a23e 1dcf 97be 3265 193e
000000e0: f6a9 bf3d 83c2 f73d 5c9f 563e 55a0 0f3e
000000f0: a674 a73c 0ed6 0b3a 3e90 9bbd 5e8f 1c3e
00000100: eb76 7ebd c04e ccbd 07ee 96bd 84f1 f33d
00000110: 458d 3fbe af81 82be 7909 d1be 9220 ae3d
00000120: 12d6 583c fe29 b5bd 5209 603e 981b 023e
00000130: 2a6b 573d 93d4 02be a113 f73e 6bc9 2abc
00000140: 0528 b53e 846c 45bd 3f19 253d 6774 8e3d
00000150: 6758 86be 6cf0 eabd 4161 b2bd f907 67be
00000160: 0ff5 71be 96e1 b4bd aba3 b13e 428f cb3d
00000170: f2cb 613e f1f2 283e fe06 24bd 2b38 22bd
00000180: d385 afbd 4a7d 42be 5de4 e8bd 39b5 49bd

linears.2.weight f4 [100, 100]
-0.09105114 -0.093073726 -0.091118455 0.20736033 -0.3823064 0.033062827 0.6181285 0.18776539
0.562375 0.13494334 -0.14292401 0.56436914 -0.20346671 -0.08467101 0.21451458 -0.1912445
0.43341526 0.023929847 0.30429682 -0.13004366 0.75091666 0.75677836 -0.71960557 -0.15610677
0.30406538 0.41058066 0.20213167 -0.28338397 0.05031521 -0.20058307 -0.09433728 -0.32701305
-0.0592472 0.5098343 0.031311825 -0.0477145 0.06885888 0.048671134 0.123226196 0.0331749
0.43217868 -0.60156214 0.428358 0.4667737 -0.10418048 -0.00780311 -0.31907853 0.467888
-0.4877303 0.14769775 0.036766324 0.36813724 0.18631642 -1.0762225 0.53885984 -0.38102555
0.4328605 0.27556676 -0.27214468 0.3486766 -0.009020259 -0.33640203 0.28648195 -0.31597245
0.013094494 0.23066162 0.17159651 -0.22728503 0.4086031 0.4042099 0.016012354 -0.17559828
0.02876093 0.43916032 -0.15542568 -0.2691276 0.12557356 0.4251874 -0.34941375 0.473727
-0.26381573 -0.813927 0.26712233 -0.0067250757 0.6127683 0.201464 -0.20625919 0.4603554
0.4939696 -0.13211986 -0.3433399 -0.11506927 -0.44718733 -0.12236101 0.34491003 -0.10084057
-0.63939 0.42555773 0.15751138 0.03339492 -0.27404833 -0.27124998 0.1279166 -0.029385155
0.017696721 0.30511212 -0.12252483 0.024068706 0.1960144 0.12557411 -0.24896392 0.30482933
-0.37421596 0.4125942 0.31348744 0.08770224 0.0175 -0.40353402 0.044928014 -0.057758782
0.27559134 0.5160418 0.118978314 0.37260017 0.5751114 0.25597048 0.262571 0.22579275
-0.17310536 -0.11476302 -0.13496265 -0.5196024 0.12560782 0.3885259 0.15239693 0.13914786
-0.129667 0.23201641 0.1585529 -0.45381397 0.05144835 -0.7539317 -0.0565088 0.3596635
-0.31766358 0.25203043 -0.28638256 0.34154165 0.1424327 0.4545089 0.50214523 0.41530198
0.39140624 -1.0450149 -0.07657703 -0.5507291 0.05560685 -0.10723776 -0.74422073 -0.31335697
-0.4588073 -0.1845802 -0.17658225 -0.39810732 0.2846991 0.08469081 0.33079708 -0.4463268
0.026340306 0.046840694 -0.7314664 -0.16381814 -0.027670754 0.5727728 0.2960774 -0.43013036
-0.46456715 0.4323506 0.658393 -0.059311606 -0.27611813 -0.037069816 0.6640715 -0.5888057
0.4999427 0.2816245 0.3589577 0.3294423 0.088841006 0.32696724 -0.330357 -0.4509019
-0.58681095 -0.45000163 -0.022124607 0.22899984 0.017166808 -0.013159874 -0.0745875 0.028208248
0.01085009 -0.14870416 -0.017390244 -0.36637208 0.4391336 0.26122254 -0.6068279 -0.5690814
-0.22398154 0.14695822 0.27500215 -0.5910804 -0.21286793 0.35575986 -0.28753772 0.022191595
-0.47516835 0.04013586 -0.43482986 -0.1114898 -0.6882982 -0.14942242 0.64971995 0.16324419
-0.11483764 -0.22953914 -0.25853968 0.33139342 -0.034820583 0.0050567915 0.34031782 -0.1789288
0.0668732 -0.31167647 0.21303363 0.34334636 0.198014 -0.098512135 -0.08033289 -0.31113198
-0.3330395 0.2976723 -0.43539035 -0.38188574 0.31315446 0.1805687 0.053684976 0.20647535
0.25741735 -0.15871297 0.03646063 0.1102438 -0.14504749 0.73352593 -0.26827943 -0.072831154
00000000: 0579 babd 709d bebd 509c babd 4456 543e
00000010: aabd c3be e36c 073d ab3d 1e3f 9245 403e
00000020: cff7 0f3f 962e 0a3e ac5a 12be 7f7a 103f
00000030: 9459 50be ff67 adbd b6a9 5b3e 99d5 43be
00000040: 9be8 dd3e 8708 c43c cbcc 9b3e 2a2a 05be
00000050: 133c 403f 3abc 413f 1238 38bf 74da 1fbe
00000060: 75ae 9b3e a137 d23e 9bfb 4e3e b417 91be
00000070: 5217 4e3d a665 4dbe e733 c1bd 416e a7be
00000080: 31ad 72bd 8084 023f d440 003d 4870 43bd
00000090: e205 8d3d 625b 473d 045e fc3d 67e2 073d
000000a0: 8646 dd3e faff 19bf bd51 db3e f6fc ee3e
000000b0: 935c d5bd 3bb1 ffbb 435e a3be 048f ef3e
000000c0: c9b7 f9be 143e 173e 4998 163d 7c7c bc3e
000000d0: bbc9 3e3e a9c1 89bf b8f2 093f c815 c3be
000000e0: e49f dd3e 1617 8d3e 8c56 8bbe bd85 b23e
000000f0: b5c9 13bc e33c acbe c3ad 923e 24c7 a1be
00000100: 4a8a 563c 8f32 6c3e ffb6 2f3e 68bd 68be
00000110: 6d34 d13e 9af4 ce3e 572c 833c 09d0 33be
00000120: 0b9c eb3c 9fd9 e03e e927 1fbe 18cb 89be
00000130: 5b96 003e 2ab2 d93e 5ce6 b2be 588c f23e
00000140: db12 87be 855d 50bf 42c4 883e 065e dcbb
00000150: 62de 1c3f 944c 4e3e 9c35 53be b4b3 eb3e
00000160: 95e9 fc3e 6e4a 07be 3fca afbe 70a9 ebbd
00000170: bdf5 e4be 6998 fabd 0c98 b03e 8085 cebd
00000180: 10af 23bf b4e2 d93e aa4a 213e 1dc9 083d
00000190: 1050 8cbe 47e1 8abe 92fc 023e 23b9 f0bc
000001a0: b7f8 903c a837 9c3e 4cee fabd bc2b c53c
000001b0: 00b8 483e 8096 003e 66f0 7ebe 9712 9c3e
000001c0: 3c99 bfbe 8c3f d33e 6d81 a03e 3b9d b33d
000001d0: 295c 8f3c 039c cebe 7006 383d 7994 6cbd
000001e0: 4f1a 8d3e 511b 043f e7aa f33d 73c5 be3e
000001f0: 803a 133f 900e 833e b56f 863e 3736 673e
00000200: 8842 31be e008 ebbd a633 0abe aa04 05bf
00000210: 569f 003e deec c63e f10d 1c3e c77c 0e3e
00000220: 6dc7 04be b695 6d3e b15b 223e 4e5a e8be
00000230: 81bb 523d ab01 41bf c575 67bd d025 b83e
00000240: cda4 a2be 220a 813e bca0 92be 8cde ae3e
00000250: e1d9 113e 64b5 e83e 978c 003f 76a2 d43e
00000260: 6666 c83e 0cc3 85bf 6bd4 9cbd 95fc 0cbf
00000270: 02c4 633d 799f dbbd 4085 3ebf 5370 a0be
00000280: cae8 eabe 9802 3dbe fad1 34be b9d4 cbbe
00000290: 15c4 913e 6072 ad3d 3c5e a93e f284 e4be
000002a0: a0c7 d73c 07dc 3f3d 6241 3bbf f1bf 27be
000002b0: c7ad e2bc 3da1 123f 7597 973e 0c3a dcbe
000002c0: bfdb edbe 0f5d dd3e 728c 283f baf0 72bd
000002d0: 5b5f 8dbe 85d6 17bd 9700 2a3f f8bb 16bf
000002e0: 7df8 ff3e 1631 903e 4ec9 b73e a9ac a83e
000002f0: 46f2 b53d 4068 a73e 8d24 a9be 9ddc e6be
00000300: 3e39 16bf 9d66 e6be aa3e b5bc ef7e 6a3e
00000310: 68a1 8c3c 839c 57bc 55c1 98bd fc14 e73c
00000320: 93c4 313c e745 18be fc75 8ebc 1f95 bbbe
00000330: 1fd6 e03e f6be 853e 1359 1bbf 52af 11bf
00000340: 6b5b 65be 377c 163e 15cd 8c3e 0c51 17bf
00000350: 0dfa 59be 2826 b63e 2538 93be 26cb b53c
00000360: 4449 f3be 8065 243d 05a2 debe c454 e4bd
00000370: 5034 30bf 3102 19be 0c54 263f 7c29 273e
00000380: ff2f ebbd 4f0c 6bbe 505f 84be 66ac a93e
00000390: 07a0 0ebd 71b3 a53b 233e ae3e 1d39 37be
000003a0: d1f4 883d 0f94 9fbe 7d25 5a3e 18cb af3e
000003b0: 2fc4 4a3e bbc0 c9bd 9285 a4bd b14c 9fbe
000003c0: 2784 aabe 8168 983e 7ceb debe 8786 c3be
000003d0: c855 a03e 00e7 383e c7e4 5b3d 466e 533e
000003e0: 35cc 833e a785 22be be57 153d 80c7 e13d
000003f0: 5487 14be 5bc8 3b3f ec5b 89be 8028 95bd

linears.2.bias f4 [100]
1.2659735e-06 -0.10629347 -0.035812806 0.012941035 -0.04837272 0.029731885 -0.07498496 -0.054303378
-0.017614732 -0.053540885 -0.25629416 -0.09632688 -0.051771436 0.043862328 -0.1423217 -0.02658589
-0.025096452 -0.016049748 -0.17799078 -0.0020971985 0.12495692 0.040085837 -0.0020812952 -0.0742677
0.036949385 -0.06149237 -0.123821236 -0.054753393 0.012021457 -0.085160285 0.05094206 -0.015306379
0.030565051 0.06622342 0.024988307 -0.046694346 0.08186046 -0.015369094 0.033932272 0.06738281
-0.04296413 -0.09620482 -0.07598363 -0.10128419 -0.031605396 0.00072683283 0.035112392 -0.08531372
-0.05416609 -0.033816747 -0.05463877 -0.14366302 -0.036163386 -0.31357616 -0.09828033 0.38487417
0.035022732 0.121894404 -0.08745405 0.01761528 0.05038933 -0.13561152 -0.12630978 -0.041994385
-0.044610795 0.049645677 -0.11712255 -0.05283976 0.050994836 -0.0073897955 0.09900878 0.020716619
-0.026594257 -0.042308502 -0.045490656 0.115597695 0.010821523 -0.009805253 -0.012329657 0.054167148
0.02850091 0.09989334 0.15733534 -0.06384094 -0.013851 -0.0322779 0.0008355578 -0.027801258
-0.0071384027 0.037228532 0.022701357 -0.04287895 -0.031099517 -0.0023585625 0.058441844 0.020924166
-0.042163383 -0.020096017 -0.0256527 -0.21619783
00000000: 85ea a935 64b0 d9bd 73b0 12bd a306 543c
00000010: 7922 46bd 4890 f33c b791 99bd 386d 5ebd
00000020: c54c 90bc b04d 5bbd fd38 83be 0747 c5bd
00000030: 490e 54bd fca8 333d c8bc 11be a7ca d9bc
00000040: 1397 cdbc c37a 83bc 3743 36be 2771 09bb
00000050: 6ae9 ff3d 0c31 243d 5766 08bb aa19 98bd
00000060: 3d58 173d 6cdf 7bbd fd95 fdbd 1845 60bd
00000070: a5f5 443c 8468 aebd 9fa8 503d 9bc7 7abc
00000080: 8f63 fa3c 25a0 873d 47b4 cc3c 9242 3fbd
00000090: 75a6 a73d a7ce 7bbc 91fc 0a3d 0000 8a3d
000000a0: 28fb 2fbd 0807 c5bd 4e9d 9bbd 166e cfbd
000000b0: a974 01bd ed88 3e3a 03d2 0f3d f6b8 aebd
000000c0: 43dd 5dbd 6e83 0abd e7cc 5fbd 661c 13be
000000d0: 0f20 14bd 0e8d a0be 3347 c9bd 3a0e c53e
000000e0: ff73 0f3d c6a3 f93d 1c1b b3bd eb4d 903c
000000f0: 0b65 4e3d bfdd 0abe 5a57 01be 4e02 2cbd
00000100: cfb9 36bd 4459 4b3d f3dd efbd 816e 58bd
00000110: f6df 503d 1926 f2bb 1ec5 ca3d e6b5 a93c
00000120: 33dc d9bc ae4b 2dbd 6954 3abd 7cbe ec3d
00000130: c24c 313c 36a6 20bc 5402 4abc 5fde 5d3d
00000140: be7a e93c e194 cc3d 841c 213e 0abf 82bd
00000150: 4eef 62bc d535 04bd 5609 5b3a 77bf e3bc
00000160: 43e9 e9bb f27c 183d 32f8 b93c d6a1 2fbd
00000170: 6ac4 febc 1d92 1abb b760 6f3d 2869 ab3c
00000180: 83b3 2cbd 67a0 a4bc 9c25 d2bc f762 5dbe

linears.3.weight f4 [100, 100]
0.15660653 0.5312366 0.043175664 -0.35607502 0.30683696 -0.09596227 -0.22345127 -0.44150916
0.4077211 -0.12781152 0.25650007 0.3689347 -0.6582048 -0.12926465 -0.30870387 -0.31603995
0.99246365 -0.41487062 -0.57799524 -0.4762712 0.03186435 -0.2515227 -0.43387946 -0.09944174
-0.3960313 -0.79697067 0.05198784 0.418065 -0.16832061 0.014208802 -0.46623144 0.07709943
-0.05625256 0.22093292 -0.099004805 -0.13049272 -0.44623902 -0.17147157 -0.47333747 0.18848291
-0.31371194 0.14870913 0.29327652 -0.45656005 -0.12929928 0.1724097 -0.6752135 -0.48908648
-0.27280325 0.76410526 0.3064895 0.5348957 -0.032038692 -0.06316087 -0.4679146 0.32802767
0.035759702 -0.36752567 0.024597447 0.4812502 -0.23296046 0.5628678 -0.4406021 0.37577674
0.30768144 0.6822434 -0.238783 -0.3526448 -0.5899062 0.3677806 0.39898384 -0.0986203
0.12192793 0.68769485 -0.8832302 0.19786301 -0.3500116 -0.31325838 -0.18622375 0.5965075
-0.4417552 -0.17855987 0.15670337 -0.044898972 -0.10798418 0.08367845 0.29045355 0.13470235
0.4726491 0.2948317 -0.146134 0.08302012 -0.36214277 0.113160014 -0.12378865 -0.7203932
0.8803318 -0.29927853 0.11349509 0.41844586 0.4472777 0.21015763 -0.53119457 -0.19010623
-0.265316 -0.2630987 0.04185109 0.004913683 0.33037007 0.13132137 -0.34169325 -0.16050293
-0.60269547 0.5812953 0.25542724 0.26881772 0.2505614 0.23887838 -0.054941244 0.23171116
-0.20748839 0.2587442 0.2989085 -0.027731787 0.46020848 -0.15074226 -0.008741629 -0.31587467
0.10899063 -0.18523003 0.077179484 0.07845747 -0.2695649 -0.09949836 0.0003621662 0.14705783
0.27019098 -0.096424274 -0.19681661 -0.2391546 0.15133214 -0.29320544 0.0959995 -0.010336296
0.027723344 -0.40502572 0.097470544 0.33473742 0.3803497 0.24920869 -0.08392761 -0.05689651
-0.31505236 -0.032867316 0.38399112 -0.23132263 0.33355114 -0.1276831 0.28951225 0.35700998
-0.15867388 0.0013493119 0.20209694 -0.19553801 0.1384868 -0.04524411 0.013891583 0.2211359
0.039847113 -0.15934736 -0.1447854 -0.1986613 0.12306214 0.27739748 0.0841912 -0.2222348
0.16712694 0.6718531 0.26842558 0.0089795105 -0.030938156 -0.30031678 -0.27158654 0.053207073
-0.08865241 -0.29088122 -0.14514756 0.54116106 0.035901397 0.038715206 0.04010317 0.20187035
0.18590926 0.2629278 0.3037292 0.007332327 0.50079316 0.43346846 -0.3135723 -0.13563864
0.31035835 0.09002481 -0.33982837 -0.46901065 0.21210453 -0.41217163 0.32715043 0.62496907
0.01744597 0.34512302 -0.40011272 -0.37089062 -0.25664213 0.41926438 0.30974603 0.2101165
0.050627857 -0.21031065 -0.38670537 -0.048265953 -0.42102632 -0.023685127 0.19079143 0.67643505
0.18207549 -0.75721306 0.40329632 -0.24544685 -0.30228427 -0.29236278 0.026509691 0.687273
-0.58908933 -0.54788244 -0.3969381 0.52570164 0.38636202 0.8227477 -0.15170991 -0.4693729
0.8869531 -0.6327591 0.16317083 0.15610829 -0.31503525 -0.07108297 0.051434163 0.6160832
0.15323985 0.0008269137 0.21428278 0.35280415 -0.16050899 0.18083332 0.40968415 -0.18538252
00000000: 765d 203e 1fff 073f f7d8 303d 774f b6be
00000010: bc19 9d3e de87 c4bd 69d0 64be 7d0d e2be
00000020: d2c0 d03e 06e1 02be fa53 833e 02e5 bc3e
00000030: 1c80 28bf f45d 04be 6f0e 9ebe fdcf a1be
00000040: 1912 7e3f ec69 d4be 7ff7 13bf d2d9 f3be
00000050: 3184 023d 95c7 80be 7325 debe 1ca8 cbbd
00000060: 9dc4 cabe 4506 4cbf 34f1 543d 9e0c d63e
00000070: 3d5c 2cbe 09cc 683c e3b5 eebe 4ee6 9d3d
00000080: 1669 66bd 3d3c 623e 08c3 cabd e29f 05be
00000090: 7179 e4be 3e96 2fbe 4a59 f2be aa01 413e
000000a0: da9e a0be 3547 183e 5728 963e 3dc2 e9be
000000b0: 0867 04be 2b8c 303e cbda 2cbf 8b69 fabe
000000c0: deac 8bbe 679c 433f 31ec 9c3e edee 083f
000000d0: 013b 03bd 7c5a 81bd 8192 efbe 3ef3 a73e
000000e0: c478 123d 532c bcbe 9680 c93c 6d66 f63e
000000f0: 308d 6ebe 1b18 103f 9996 e1be cf65 c03e
00000100: 6c88 9d3e 81a7 2e3f 8883 74be dc8d b4be
00000110: 1804 17bf bd4d bc3e 9c47 cc3e 71f9 c9bd
00000120: 5ab5 f93d c50c 303f 601b 62bf 9a9c 4a3e
00000130: b834 b3be 6763 a0be 70b1 3ebe b7b4 183f
00000140: bd2d e2be 66d8 36be d976 203e fce7 37bd
00000150: cf26 ddbd 9b5f ab3d 54b6 943e 6aef 093e
00000160: 10ff f13e 2ef4 963e 27a4 15be 7406 aa3d
00000170: c76a b9be 70c0 e73d e784 fdbd b06b 38bf
00000180: 6d5d 613f 093b 99be 1d70 e83d 893e d63e
00000190: 9501 e53e 9033 573e 5efc 07bf 35ab 42be
000001a0: 80d7 87be dfb4 86be 0c6c 2b3d f602 a13b
000001b0: 4426 a93e 1c79 063e 6bf2 aebe e15a 24be
000001c0: 404a 1abf c5cf 143f 5cc7 823e 7aa2 893e
000001d0: 9549 803e 899c 743e 120a 61bd b145 6d3e
000001e0: d677 54be 1f7a 843e 890a 993e c62d e3bc
000001f0: 72a0 eb3e 2e5c 1abe 0d39 0fbc 53ba a1be
00000200: 7b36 df3d f1ac 3dbe 4710 9e3d 4fae a03d
00000210: 6904 8abe ccc5 cbbd 20e1 bd39 5496 163e
00000220: 7956 8a3e 177a c5bd 4b8a 49be f2e4 74be
00000230: d0f6 1a3e 061f 96be 639b c43d 9159 29bc
00000240: 111c e33c 885f cfbe a39e c73d b462 ab3e
00000250: 32bd c23e 9030 7f3e 3de2 abbd 510c 69bd
00000260: 8b4e a1be e19f 06bd 7c9a c43e d7df 6cbe
00000270: 37c7 aa3e 5cbf 02be f33a 943e 03ca b63e
00000280: 687b 22be 65db b03a 80f2 4e3e 1e3b 48be
00000290: 7ccf 0d3e e351 39bd 8699 633c 7371 623e
000002a0: ba36 233d f42b 23be a042 14be de6d 4bbe
000002b0: 0108 fc3d 0b07 8e3e 706c ac3d 8591 63be
000002c0: 5323 2b3e 91fe 2b3f 146f 893e cc1e 133c
000002d0: 0472 fdbc 1fc3 99be 640d 8bbe a9ef 593d
000002e0: 658f b5bd 62ee 94be 90a1 14be 8889 0a3f
000002f0: 580d 133d d693 1e3d 3943 243d 1ab7 4e3e
00000300: ff5e 3e3e 799e 863e 6582 9b3e 0444 f03b
00000310: fb33 003f 94ef dd3e 8c8c a0be dbe4 0abe
00000320: 4ae7 9e3e ed5e b83d fcfd adbe 2a22 f0be
00000330: ee31 593e 2908 d3be 4380 a73e f9fd 1f3f
00000340: daea 8e3c f7b3 b03e 93db ccbe 60e5 bdbe
00000350: 9966 83be d2a9 d63e 0897 9e3e c828 573e
00000360: 285f 4f3d ad5b 57be 3ffe c5be 85b2 45bd
00000370: c390 d7be 5007 c2bc d45e 433e d92a 2d3f
00000380: ff71 3a3e b7d8 41bf db7c ce3e 6b56 7bbe
00000390: 01c5 9abe 93b0 95be da2a d93c 20f1 2f3f
000003a0: 8fce 16bf 0642 0cbf 783b cbbe 6294 063f
000003b0: 3ed1 c53e 989f 523f d859 1bbe a551 f0be
000003c0: 5c0f 633f 80fc 21bf 4116 273e dada 1f3e
000003d0: 4d4c a1be f393 91bd a1ac 523d a1b7 1d3f
000003e0: e8ea 1c3e 3dc5 583a f26c 5b3e bfa2 b43e
000003f0: 785c 24be 5f2c 393e 1fc2 d13e ead4 3dbe

linears.3.bias f4 [100]
-0.05052978 -0.04147391 -0.0822321 -0.07111384 -0.026774881 -0.057915535 -0.0073529445 0.0208328
-0.18878211 0.007934974 -0.017413871 0.06196152 0.03431178 -0.046180934 0.0039539114 -0.07104992
0.015240695 -0.092086405 0.021032117 -0.027552145 -0.02005106 -0.028912017 -0.047529697 0.034478877
-0.0026140546 -0.06671167 -0.116066754 -0.03696507 0.023294019 -0.031434383 0.07331528 -0.091813065
-0.03705697 -0.033053745 -0.01994983 -0.013650987 -0.020385502 -0.008821208 0.013151847 0.01167944
-0.04464228 0.061114263 -0.076274045 -0.021602165 -0.03218427 0.031601366 -0.0042810175 0.013892698
-0.019541617 -0.05819559 0.08205096 -0.068553805 -0.12692618 0.062060766 -0.046466775 0.04000111
-0.014021828 0.117197566 0.017913247 0.052335802 0.16595127 0.067379646 -0.06412738 -0.16845834
-0.055107027 -0.030993087 -0.0062400424 0.03854409 -0.016828777 -0.054214302 -0.052972477 -0.02949619
-0.06027757 -0.024755718 -0.06275135 -0.02449898 -0.047554784 -0.0672784 -0.05574158 -0.04486138
-0.02661992 -0.059080716 0.0049978727 -0.056446392 0.008555172 -0.05939538 -0.16629982 0.043418903
-0.059660006 -0.032802284 0.024773989 -0.0016876059 -0.043838944 -0.04047173 0.28437 0.06604168
0.097312085 -0.070318855 0.06550718 -0.05309862
00000000: 51f8 4ebd 8ce0 29bd 4e69 a8bd 22a4 91bd
00000010: ff56 dbbc d738 6dbd f8f0 f0bb 8ca9 aa3c
00000020: 1950 41be b101 023c 89a7 8ebc 5dcb 7d3d
00000030: 828a 0c3d 3828 3dbd d08f 813b 9f82 91bd
00000040: 1cb4 793c cc97 bcbd 8c4b ac3c 09b5 e1bc
00000050: 1f42 a4bc e5d8 ecbc 80ae 42bd b939 0d3d
00000060: 8f50 2bbb 21a0 88bd 68b4 edbd af68 17bd
00000070: 19d3 be3c 57c1 00bd 5226 963d 7d08 bcbd
00000080: 0dc9 17bd 5d63 07bd d36d a3bc 64a8 5fbc
00000090: 7fff a6bc d486 10bc d87a 573c 1f5b 3f3c
000000a0: d3da 36bd f352 7a3d 9135 9cbd 06f7 b0bc
000000b0: a7d3 03bd 6f70 013d c747 8cbb 339e 633c
000000c0: be15 a0bc 805e 6ebd 550a a83d f065 8cbd
000000d0: f0f8 01be 6e33 7e3d f253 3ebd 34d8 233d
000000e0: cfbb 65bc 4705 f03d cdbe 923c 115e 563d
000000f0: 21ef 293e 57fe 893d 3755 83bd 5880 2cbe
00000100: e8b7 61bd 37e5 fdbc 4579 ccbb 68e0 1d3d
00000110: 81dc 89bc d10f 5ebd abf9 58bd fea1 f1bc
00000120: 9de5 76bd 81cc cabc c883 80bd 16b2 c8bc
00000130: cec8 42bd 42c9 89bd 4851 64bd 91c0 37bd
00000140: 0512 dabc 9ffe 71bd 32c5 a33b 5534 67bd
00000150: fe2a 0c3c 9248 73bd 804a 2abe 05d8 313d
00000160: 0d5e 74bd b05b 06bd d2f2 ca3c a832 ddba
00000170: 7790 33bd afc5 25bd f298 913e dc40 873d
00000180: 8f4b c73d 5503 90bd a128 863d f07d 59bd

linears.4.weight f4 [5, 100]
0.26814875 -0.6828931 -0.13350911 0.021355636 -0.3007538 -0.62465334 0.29888052 -0.7437004
0.20855683 -0.48609126 0.49451286 0.31101322 -0.29476994 -0.396424 0.16839762 0.6144535
0.26150584 -0.9299648 0.19995105 -0.40867534 -0.392876 -0.65868014 0.2516221 -0.5022367
0.123544276 -0.578091 -0.12884867 -0.24573547 -0.21618032 0.22115716 0.11695849 -0.9650536
0.26547727 -0.16165864 -0.9657752 0.55861473 -0.41081375 1.3769616 0.17006087 0.531248
1.0974525 1.0611371 0.31301728 -0.10346992 0.753817 0.51731277 0.03854779 1.3212072
0.030676914 1.233828 0.01520153 1.9935514 0.60657305 0.50198066 0.3956108 0.12271261
0.38695964 0.39797875 -0.2589926 0.23085146 -0.55574703 -0.68659264 0.86723465 0.19386996
0.24137315 -1.191585 0.071813986 0.39350733 -0.40175843 -0.11406778 0.8067271 -0.17942096
0.638086 0.68088335 -0.37278366 0.6028479 0.0010464002 0.37932834 -0.123600155 0.14330064
0.5397853 0.086571045 -0.2471265 -0.87919 0.23949094 0.51913023 0.06934452 0.36474046
0.93916386 0.48507202 -0.070671506 -0.5345992 0.09839713 -1.2510992 0.896598 -0.10726045
-0.35786444 -1.087724 0.43958226 0.39088234 -0.02418025 0.2806687 0.042494427 -0.04079081
0.04139275 0.28183168 -0.18085322 0.098996826 0.09981953 0.26815012 -0.23638663 0.03853249
-0.24254489 0.15609047 -0.2928529 -0.20798759 -0.34915915 0.15364271 -0.0073006474 0.38787302
-0.06665087 0.15224664 -0.16484676 -0.028160552 -0.11465928 -0.115079656 0.2816457 0.258831
0.15144634 -0.04394802 -0.029456327 0.29508126 0.29970288 0.18763979 0.24526078 -0.15626046
0.29415867 -0.18036711 0.07202269 0.05639706 -0.2704936 -0.3664051 0.098399386 0.23932803
0.2983135 -0.047103357 0.17703222 -0.23578659 0.12563807 -0.05960937 -0.1388684 -0.16144001
-0.035679273 -0.0073375856 -0.055080328 -0.16701566 0.28112406 0.37474674 0.19173312 -0.28364012
-0.15301366 0.049885422 -0.12293434 0.51634777 -0.26289973 0.119976066 0.28806397 -0.1395759
-0.16156054 0.051021192 -0.2565633 0.2963639 0.039725736 -0.2886971 -0.28785568 0.2788291
0.2539272 0.05346916 0.13343889 0.15447176 -0.31691405 0.34343722 0.12013086 0.1254983
0.33796322 0.16220364 0.060408935 0.07292795 0.028939463 -0.12002653 -0.57220185 0.254017
-0.27656487 0.048777435 0.27093807 -0.16963485 -0.2328366 0.33179572 -0.25779262 0.13168316
-1.602113 1.1949248 1.3783333 1.3965273 1.2169616 1.4214766 -1.6594778 1.2777686
-1.4279588 -1.8031837 -1.5138465 -1.3875672 -1.7649833 1.5477052 1.3631201 1.3471738
-1.9600066 1.4001836 1.1171198 -1.7963434 1.3284007 1.3148847 -1.607419 1.1156148
-1.7635821 1.4251969 -1.5649849 1.5140806 1.2320312 1.2981231 1.2652168 -1.8175786
1.3933116 1.3646578 -1.0857698 -1.3729722 1.5313531 1.5180665 -1.4814498 1.0961723
1.4855705 1.6349422 1.3546643 1.3209299 1.4306082 -1.5440704 -1.7272817 1.3832964
1.3109951 1.316682 -1.5277667 0.78876156 1.2605217 -1.5636692 1.4332309 -1.659936
00000000: cb4a 893e 15d2 2ebf 9db6 08be 04f2 ae3c
00000010: 67fc 99be 48e9 1fbf de06 993e 2663 3ebf
00000020: ec8f 553e f4e0 f8be ca30 fd3e 203d 9f3e
00000030: 16ec 96be 16f8 cabe 6d70 2c3e d34c 1d3f
00000040: 18e4 853e 2c12 6ebf f8bf 4c3e e53d d1be
00000050: 0b27 c9be 439f 28bf 9dd4 803e 9692 00bf
00000060: c804 fd3d c6fd 13bf e8f0 03be 14a2 7bbe
00000070: 605e 5dbe 0677 623e ef87 ef3d c10d 77bf
00000080: a3ec 873e d889 25be 0b3d 77bf 6001 0f3f
00000090: 2e56 d2be 4740 b03f 7024 2e3e deff 073f
000000a0: 5379 8c3f 57d3 873f cd43 a03e 0ae8 d3bd
000000b0: 27fa 403f 9c6e 043f 4ae4 1d3d 511d a93f
000000c0: 274e fb3c 13ee 9d3f d70f 793c b12c ff3f
000000d0: 5f48 1b3f ce81 003f 808d ca3e c050 fb3d
000000e0: 931f c63e dfc3 cb3e ae9a 84be 5364 6c3e
000000f0: 7045 0ebf 89c4 2fbf 1703 5e3f d985 463e
00000100: 862a 773e db85 98bf 3613 933d cb79 c93e
00000110: 48b3 cdbe 5e9c e9bd ab85 4e3f 21ba 37be
00000120: 9b59 233f 5f4e 2e3f 80dd bebe 3d54 1a3f
00000130: 5d27 893a 5337 c23e 1422 fdbd 67bd 123e
00000140: 5f2f 0a3f 294c b13d bb0e 7dbe 9912 61bf
00000150: 1d3d 753e b8e5 043f 8004 8e3d 43bf ba3e
00000160: 0b6d 703f 5c5b f83e 39bc 90bd 7edb 08bf
00000170: 6f84 c93d 0524 a0bf 7287 653f 5eab dbbd
00000180: 023a b7be 8a3a 8bbf ed10 e13e bb21 c83e
00000190: a915 c6bc cfb3 8f3e a30e 2e3d 4414 27bd
000001a0: 728b 293d 3e4c 903e 9631 39be d9be ca3d
000001b0: 2f6e cc3d f94a 893e 560f 72be 3fd4 1d3d
000001c0: b05d 78be 2ed6 1f3e d1f0 95be b3fa 54be
000001d0: fdc4 b2be 8454 1d3e 453a efbb 4b97 c63e
000001e0: 4080 88bd 8be6 1b3e 97cd 28be f5b0 e6bc
000001f0: 7cd2 eabd e2ae ebbd dd33 903e 7f85 843e
00000200: c014 1b3e d702 34bd 654e f1bc e414 973e
00000210: a872 993e a524 403e a425 7b3e be02 20be
00000220: f79b 963e 28b2 38be a280 933d 9b00 673d
00000230: 237e 8abe 7399 bbbe 9e85 c93d 6812 753e
00000240: 8cbc 983e 73ef 40bd ef47 353e 0a72 71be
00000250: 44a7 003e f428 74bd 8533 0ebe 8850 25be
00000260: 6e24 12bd 2170 f0bb e99b 61bd 2706 2bbe
00000270: 7eef 8f3e cede bf3e b055 443e 4739 91be
00000280: 9daf 1cbe a854 4c3d 00c5 fbbd 5e2f 043f
00000290: cb9a 86be 03b6 f53d 1f7d 933e fcec 0ebe
000002a0: 2070 25be 99fb 503d 445c 83be 02bd 973e
000002b0: 74b7 223d 1bd0 93be d261 93be b0c2 8e3e
000002c0: bf02 823e 7a02 5b3d 34a4 083e d82d 1e3e
000002d0: 8f42 a2be 01d7 af3e 2b07 f63d a082 003e
000002e0: 8409 ad3e b618 263e 5c6f 773d 405b 953d
000002f0: 7412 ed3c 78d0 f5bd d27b 12bf 840e 823e
00000300: e999 8dbe d9ca 473d 65b8 8a3e c2b4 2dbe
00000310: b86c 6ebe 21e1 a93e 65fd 83be f3d7 063e
00000320: 0a12 cdbf 4cf3 983f 3a6d b03f 68c1 b23f
00000330: 66c5 9b3f f2f2 b53f c569 d4bf ec8d a33f
00000340: 5bc7 b6bf b9ce e6bf b9c5 c1bf cd9b b1bf
00000350: f9ea e1bf 341b c63f b87a ae3f 3170 ac3f
00000360: 7fe1 fabf 3739 b33f c8fd 8e3f 95ee e5bf
00000370: 0909 aa3f 244e a83f e8bf cdbf 77cc 8e3f
00000380: 0fbd e1bf da6c b63f 6d51 c8bf 65cd c13f
00000390: 33b3 9d3f e628 a63f a0f2 a13f 6aa6 e8bf
000003a0: 0958 b23f 1bad ae3f 81fa 8abf 8ebd afbf
000003b0: 6103 c43f 0150 c23f 26a0 bdbf 604f 8c3f
000003c0: 2d27 be3f c945 d13f a465 ad3f 3b14 a93f
000003d0: 2b1e b73f 19a4 c5bf 9117 ddbf db0f b13f
000003e0: b0ce a73f 0989 a83f dc8d c3bf 47ec 493f
000003f0: c658 a13f 5026 c8bf 1c74 b73f c878 d4bf

linears.4.bias f4 [5]
0.28411368 0.025501 -1.2861301 0.063808754 0.020808062
00000000: 5977 913e 79e7 d03c e99f a4bf 2aae 823d
00000010: ab75 aa3c

exp_avg f4 [100, 2]
-0.008330515 -0.004620771 0.013004757 -0.0011924589 0.012576852 0.005698159 0.0055138906 -0.010928459
-0.009364222 -0.004129847 -0.0014779324 -0.006998395 -0.0081398105 0.0017773905 0.0027364588 -0.011388301
0.012139588 -0.0058006733 0.0023276343 0.008831643 0.0019015092 -0.010886331 0.007739101 0.009967851
-0.011857356 0.00021135542 -0.008864829 0.0042657834 0.007229096 0.010647669 0.005562262 0.014195918
-0.0063003534 0.0065416554 0.007285999 -0.0033550435 -0.011646941 -0.00023719111 0.008973652 -0.0042023305
0.011255184 -0.0037988378 -0.013322286 0.00033059806 -0.005815467 0.0074864076 0.0048796586 0.015486842
0.013421628 0.009285867 -0.0058914735 -0.0023443755 -0.010036343 0.0040984116 -0.0047954544 -0.004172936
0.014884832 0.0064065135 0.0013963684 -0.01242983 0.00048274794 -0.00800067 -0.010946837 0.001823783
-0.010039198 0.0012052879 0.007919921 -0.0075044665 0.0027688537 0.014533721 0.010452709 -0.0037031062
0.005045154 -0.011636033 0.016114512 0.0022206816 -0.015802579 -0.0014139445 -0.012062182 -0.00032694894
0.0025082147 0.014352873 -0.006465834 0.0060708146 0.014102236 -0.0032875768 0.010450718 -0.007056
-0.0011613766 -0.0071979715 0.007952245 -0.00827862 -0.0013094447 -0.014889124 0.015429239 0.00526081
0.0066183778 0.01337111 0.00017645337 -0.009830442 -0.014686406 -0.0019606978 -0.0045297667 0.0060872226
-0.005476734 -0.0016640256 0.004358251 0.016656535 0.008288197 -0.0072056116 0.015982036 0.005780102
-0.007207938 0.0062144645 0.014213664 0.00803138 0.0046517565 0.016836258 0.014707847 0.0053869025
-0.006466679 0.0054084044 0.010165425 -0.0059645628 -0.014072376 -0.0002494658 0.004934277 0.018745193
0.008135468 0.009818403 0.01234264 0.006510427 -0.00027446882 -0.008539569 -0.006994371 -0.004284439
-0.0132829035 -0.000117816635 -0.0015239189 -0.0072816485 0.00052272156 -0.0136057995 -0.009721807 -0.0031167897
0.00063494936 -0.008109715 -0.00802672 0.0046332176 0.0066165156 0.010349539 -0.009935239 -0.0022060168
-0.0014958894 -0.015220261 -0.010643939 0.0031616543 -0.01261034 0.00015125131 -0.011256119 0.001170495
-0.008393157 -0.0043200497 -0.0076209465 0.005814774 0.009726789 0.009238532 -0.014098293 -0.00041702876
-0.008311584 -0.0034105568 -0.00018165444 -0.012392367 0.001741609 -0.013108746 0.018455764 0.0052275825
0.0040948866 0.016787577 0.01954659 0.0027839136 0.016312746 0.0056119165 -0.00995813 0.0036386382
0.015647557 -0.00039202045 0.004780893 0.015750967 0.00437648 0.016786736 -0.011743349 -0.002658633
0.0070478288 0.012123828 -0.0032463335 -0.005292152 -0.010437345 -0.0034590187 -0.0008869022 -0.014355325
00000000: b67c 08bc d669 97bb e811 553c 484c 9cba
00000010: 240f 4e3c 9fb7 ba3b dead b43b 480d 33bc
00000020: 656c 19bc ab53 87bb 2fb7 c1ba cb52 e5bb
00000030: d75c 05bc 54f7 e83a 2956 333b ff95 3abc
00000040: 1fe5 463c 9313 bebb 398b 183b 98b2 103c
00000050: 103c f93a 955c 32bc 4998 fd3b 3350 233c
00000060: 5b45 42bc 4a9f 5d39 ca3d 11bc fcc7 8b3b
00000070: 0de2 ec3b 9073 2e3c a343 b63b ff95 683c
00000080: 3273 cebb 625b d63b 64bf ee3b 4ae0 5bbb
00000090: d0d2 3ebc 81b6 78b9 3906 133c b4b3 89bb
000000a0: aa67 383c ecf5 78bb b845 5abc 1f54 ad39
000000b0: ac8f bebb 8a50 f53b 8be5 9f3b 86bc 7d3c
000000c0: 63e6 5b3c c023 183c 430d c1bb 18a4 19bb
000000d0: 796f 24bc f84b 863b 3023 9dbb 20bd 88bb
000000e0: 83df 733c bbed d13b 5906 b73a 7ca6 4bbc
000000f0: 5519 fd39 3e15 03bc 5d5a 33bc 010c ef3a
00000100: 737b 24bc c0fa 9d3a 8ec2 013c 07e8 f5bb
00000110: a875 353b d81e 6e3c d741 2b3c d0af 72bb
00000120: d251 a53b 0fa5 3ebc 9502 843c db88 113b
00000130: 6974 81bc 1b54 b9ba 75a0 45bc 586a abb9
00000140: dc60 243b 5028 6b3c 59df d3bb afed c63b
00000150: 110d 673c 6374 57bb 7d39 2b3c 0536 e7bb
00000160: 5539 98ba f6dc ebbb 224a 023c 0da3 07bc
00000170: aca1 abba 83f1 73bc ebca 7c3c df62 ac3b
00000180: fade d83b 8012 5b3c 5706 3939 dd0f 21bc
00000190: 409f 70bc 0d7f 00bb 706e 94bb 5377 c73b
000001a0: 2d76 b3bb 6f1b daba a9cf 8e3b 4973 883c
000001b0: 38cb 073c 0d1d ecbb c2ec 823c 0367 bd3b
000001c0: 9130 ecbb b5a2 cb3b 6ee0 683c 0d96 033c
000001d0: c36d 983b 31ec 893c 2ef9 703c 9d84 b03b
000001e0: 6fe6 d3bb fc38 b13b e28c 263c 6172 c3bb
000001f0: d38f 66bc bcca 82b9 b7af a13b 858f 993c
00000200: a04a 053c 5edd 203c c938 4a3c 6c55 d53b
00000210: 95e6 8fb9 8ce9 0bbc 0931 e5bb 7b64 8cbb
00000220: 89a0 59bc 5314 f7b8 3cbe c7ba e59a eebb
00000230: 4007 093a dcea 5ebc 3748 1fbc 0e43 4cbb
00000240: bb72 263a 9cde 04bc 8182 03bc 3fd2 973b
00000250: 5bcf d83b 1d91 293c 6ac7 22bc d292 10bb
00000260: b811 c4ba 675e 79bc ea63 2ebc c233 4f3b
00000270: 999b 4ebc 3799 1e39 966b 38bc 4b6b 993a
00000280: 7483 09bc 348f 8dbb 22b9 f9bb dc89 be3b
00000290: 1c5d 1f3c 365d 173c 87fc 66bc a7a4 dab9
000002a0: 4f2d 08bc a683 5fbb 7e7a 3eb9 5b09 4bbc
000002b0: b346 e43a 11c6 56bc 8b30 973c 244c ab3b
000002c0: 662e 863b 1a86 893c 2c20 a03c 5272 363b
000002d0: 4fa2 853c 2be4 b73b 6d27 23bc 3876 6e3b
000002e0: 4e2f 803c 1888 cdb9 0aa9 9c3b 2c08 813c
000002f0: 9368 8f3b 5684 893c 2d67 40bc 763c 2ebb
00000300: 79f1 e63b 05a3 463c 70c0 54bb ca69 adbb
00000310: 6601 2bbc b4b0 62bb 007f 68ba 9932 6bbc

exp_avg_sq f4 [100, 2]
0.06007927 0.07470122 0.045723997 0.06482622 0.0532842 0.065425105 0.018949235 0.09196454
0.05911947 0.07445353 0.044204876 0.063832074 0.008482062 0.012361458 0.01516596 0.08872664
0.08557162 0.15752427 0.016641513 0.023311706 0.03501829 0.08161712 0.09925213 0.12992726
0.10678359 0.21078481 0.017674448 0.053521313 0.10712323 0.14733295 0.07414834 0.11515208
0.024244316 0.07734605 0.009343296 0.016493693 0.03918677 0.05574019 0.020603081 0.033695932
0.039081782 0.061054587 0.04866457 0.0723382 0.033487733 0.102254026 0.035739906 0.072337605
0.12364788 0.15478107 0.014015899 0.018649746 0.04469273 0.11232193 0.035850782 0.04555818
0.099675074 0.12195757 0.010397328 0.1057229 0.00058429973 0.010911545 0.024596151 0.040206276
0.020165233 0.029472727 0.021880614 0.060306553 0.035460796 0.06929318 0.025218708 0.044601172
0.023774905 0.097272106 0.083754055 0.11039467 0.08462735 0.122315526 0.037384942 0.052244395
0.022718726 0.05399019 0.031758618 0.1027018 0.082528934 0.1412482 0.040507603 0.09101004
0.06837921 0.09580378 0.07070903 0.14341025 0.0024310537 0.09696479 0.11005563 0.13523999
0.0865448 0.12659632 0.036091864 0.060084805 0.09255484 0.119107686 0.0022331194 0.020201443
0.010118289 0.0137342615 0.053096946 0.11718474 0.019439213 0.049514532 0.123141825 0.15092866
0.014946769 0.05260287 0.0865442 0.10587864 0.0043052942 0.12988359 0.0843825 0.10144775
0.0074653844 0.033001192 0.033163123 0.06387663 0.054814555 0.07988202 0.05660952 0.16339344
0.05076975 0.067312986 0.064337775 0.07807599 0.076444045 0.115301825 0.032030873 0.0411004
0.08046597 0.13819374 0.041847717 0.06084602 0.020692285 0.08882868 0.0454332 0.05651576
0.04024162 0.06274582 0.017436909 0.05075434 0.04632283 0.06443438 0.056024045 0.06999873
0.0030775715 0.10682996 0.032709282 0.06180139 0.04001972 0.05725584 0.03252938 0.0561782
0.06979787 0.08808025 0.029023744 0.07847655 0.17239697 0.22051102 0.07371088 0.12033105
0.042397555 0.057828225 0.0017977691 0.059756976 0.03662372 0.10923008 0.18733737 0.22660981
0.003950775 0.1346324 0.18382224 0.24741094 0.10295418 0.12379295 0.030680735 0.06540323
0.07829808 0.10216127 0.050713487 0.09303984 0.07270313 0.15482499 0.050156437 0.061547097
0.08590046 0.117604524 0.045986757 0.06827967 0.0662789 0.08501073 0.0036957772 0.11596876
00000000: ae15 763d f4fc 983d 1649 3b3d 9cc3 843d
00000010: 8940 5a3d 99fd 853d 6d3b 9b3c e857 bc3d
00000020: 4227 723d 187b 983d 2c10 353d 64ba 823d
00000030: 59f8 0a3c b687 4a3c a67a 783c 50b6 b53d
00000040: 2c40 af3d 0b4e 213e c853 883c 31f8 be3c
00000050: 576f 0f3d e026 a73d b344 cb3d a70b 053e
00000060: 5bb1 da3d f9d7 573e 01ca 903c 2a39 5b3d
00000070: 6d63 db3d 73de 163e 16db 973d dbd4 eb3d
00000080: 049c c63c 9b67 9e3d a014 193c c81d 873c
00000090: 4e82 203d d34f 643d cbc7 a83c bf04 0a3d
000000a0: 3814 203d 6014 7a3d 8054 473d 0d26 943d
000000b0: 6f2a 093d 8f6a d13d 0264 123d bd25 943d
000000c0: 1a3b fd3d ee7e 1e3e f1a2 653c 5ac7 983c
000000d0: b90f 373d 0a09 e63d 45d8 123d 379b 3a3d
000000e0: 7222 cc3d e4c4 f93d 8e59 2a3c 3f85 d83d
000000f0: b12b 193a 56c6 323c de7d c93c 56af 243d
00000100: 8f31 a53c ca70 f13c f93e b33c 0104 773d
00000110: 573f 113d 95e9 8d3d 7797 ce3c b8af 363d
00000120: 97c3 c23c 9936 c73d 3f87 ab3d 9a16 e23d
00000130: 1b51 ad3d 9080 fa3d f420 193d 38fe 553d
00000140: 9f1c ba3c d124 5d3d 5315 023d 5255 d23d
00000150: ee04 a93d 5ea3 103e 4deb 253d 7963 ba3d
00000160: 660a 8c3d c634 c43d e5cf 903d 23da 123e
00000170: 5052 1f3b 7a95 c63d d964 e13d 5a7c 0a3e
00000180: 663e b13d 77a2 013e 10d5 133d 7c1b 763d
00000190: 648d bd3d bbee f33d 8759 123b 7f7d a53c
000001a0: 2ec7 253c ab05 613c 2f7c 593d 8efe ef3d
000001b0: fc3e 9f3c c0cf 4a3d c831 fc3d 0b8d 1a3e
000001c0: 4be3 743c 1b76 573d 163e b13d e7d6 d83d
000001d0: 6d13 8d3b 3400 053e bbd0 ac3d d7c3 cf3d
000001e0: 2fa0 f43b 422c 073d 0ed6 073d c0d1 823d
000001f0: 3a85 603d 2f99 a33d 62df 673d 9c50 273e
00000200: f1f3 4f3d 64db 893d 86c3 833d 4ee6 9f3d
00000210: b28e 9c3d 5d23 ec3d ce32 033d e558 283d
00000220: 58cb a43d a982 0d3e 8368 2b3d ad39 793d
00000230: de82 a93c d0eb b53d 2a18 3a3d 127d 673d
00000240: 66d4 243d e180 803d d9d7 8e3c c8e3 4f3d
00000250: 02bd 3d3d 2cf6 833d 7879 653d 7f5b 8f3d
00000260: 15b1 493b abc9 da3d 2bfa 053d 7423 7d3d
00000270: b8eb 233d 1a85 6a3d 873d 053d 1d1b 663d
00000280: 30f2 8e3d 6b63 b43d 34c3 ed3c 50b8 a03d
00000290: d588 303e a4cd 613e bbf5 963d 2070 f63d
000002a0: 0fa9 2d3d 4add 6c3d 1fa3 eb3a bbc3 743d
000002b0: c102 163d 05b4 df3d 5ed5 3f3e 670c 683e
000002c0: 8175 813b 13dd 093e e63b 3c3e 4b59 7d3e
000002d0: a4d9 d23d 2887 fd3d 2a56 fb3c 21f2 853d
000002e0: be5a a03d ee39 d13d f2b8 4f3d ac8b be3d
000002f0: 61e5 943d 718a 1e3e d670 4d3d cf18 7c3d
00000300: 95ec af3d a4da f03d 9c5c 3c3d 36d6 8b3d
00000310: 3bbd 873d 1b1a ae3d da34 723b 0781 ed3d
