forward/results/varying_freq/model_a_3-18000.pt (torch, 35367 bytes, 10 tensors)

linears.0.weight f4 [50, 2]
0	0x3f8b11bf	1.0864791
1	0x3eca762e	0.3954329
2	0xc0ec75cb	-7.389379
3	0xbfeefe18	-1.8671293
4	0xbe834aa2	-0.25642878
5	0x3dff8f07	0.12478452
6	0xbf973fe9	-1.1816379
7	0xbe33ed48	-0.17570984
8	0xbf7739a1	-0.9657231
9	0xbf042c54	-0.5163014
10	0x3f12f12e	0.5739926
11	0xbe7f2ae7	-0.2491871
12	0xbfac114a	-1.3442776
13	0xbf52f90e	-0.8241128
14	0xbf86ef31	-1.0541745
15	0x3e94f6f4	0.2909466
16	0x3e771f63	0.24133067
17	0xbf8783eb	-1.0587133
18	0xbf450574	-0.76961446
19	0x3fbfb92d	1.4978386
20	0x3fbd6bd7	1.4798535
21	0xbf442838	-0.7662387
22	0x40193826	2.394052
23	0x3ef581be	0.47950548
24	0x4040e119	3.0137389
25	0xbdda1dfc	-0.1065025
26	0x3dae0187	0.08496385
27	0x3d7ff5b9	0.0624902
28	0xc07e097c	-3.9693289
29	0xbf176d30	-0.5915098
30	0x3e838a82	0.2569161
31	0xbeea91f9	-0.45814493
32	0x3e2411f9	0.16022481
33	0xbfa1f0d1	-1.2651616
34	0xbe9caa36	-0.3059861
35	0x3f1cc35f	0.6123561
36	0xc01c6c86	-2.4441237
37	0xbebc702f	-0.3680434
38	0xbeb22968	-0.34797215
39	0xbf8e945e	-1.1139028
40	0x3fef1431	1.8678037
41	0x3e0f3acb	0.13987271
42	0x3f03dc5e	0.5150813
43	0x3f804321	1.0020486
44	0xbf81cff6	-1.014159
45	0xbf9e62fb	-1.2373956
46	0x3cece02d	0.02891549
47	0xbf004181	-0.5009995
48	0xbfd29b66	-1.6453674
49	0xbf47f569	-0.7810884
50	0x3f0e8c4d	0.5568283
51	0x3fa44194	1.2832513
52	0xbfd58c81	-1.6683503
53	0x3feed32e	1.8658197
54	0x3f8ffb18	1.1248503
55	0x3feba6a7	1.8410233
56	0xbfce2f2e	-1.6108148
57	0x3d7818a6	0.06057038
58	0x3f6614a1	0.8987523
59	0x3f8657c3	1.0495533
60	0x3e865d24	0.26242936
61	0x3f6a30dc	0.91480803
62	0x3e8580e3	0.26074895
63	0x3face20d	1.3506485
64	0xbf31ca53	-0.6944935
65	0x3f5d1dbb	0.8637349
66	0x3eb9c3d0	0.36282206
67	0x3de8a1b6	0.11358969
68	0x3f73a96e	0.95180404
69	0x3f850acd	1.0393921
70	0x3fd6475c	1.6740527
71	0xbe5c68e7	-0.21524392
72	0x3d1f5502	0.03889943
73	0x3fa0b290	1.2554493
74	0xbfd9b5a1	-1.7008554
75	0xbe8b4411	-0.27200368
76	0xbfbc876f	-1.4728831
77	0x3eff2811	0.49835256
78	0x3f07d993	0.53066367
79	0x3ba0af7f	0.0049037333
80	0x3fc97997	1.5740231
81	0xbee584ad	-0.44827786
82	0xc016de49	-2.3573172
83	0xbc31e7e8	-0.010858513
84	0xc02d496e	-2.7076068
85	0xbf427e5a	-0.7597405
86	0x3e217f22	0.15771154
87	0x3f86f29b	1.0542787
88	0xbfdd8940	-1.730751
89	0xc030b7d1	-2.7612193
90	0xbec41359	-0.3829601
91	0x3f51b8f1	0.81922823
92	0xbf5716db	-0.8401925
93	0xbf864cfd	-1.0492245
94	0xbfd3bef7	-1.6542653
95	0x3f1e003c	0.6171911
96	0xbeb289d1	-0.3487077
97	0xc000423c	-2.0040426
98	0xbfcb6f23	-1.5893291
99	0xbe9f1641	-0.31071666

linears.0.bias f4 [50]
0	0x3f419ec0	0.7563286
1	0xc0dd7491	-6.9204793
2	0xbfafc62b	-1.3732351
3	0x3e46d7f1	0.19418313
4	0xc0241e15	-2.564336
5	0x3fcb788c	1.5896163
6	0xc07d0218	-3.9532528
7	0xbff8848d	-1.9415451
8	0x405da195	3.4629872
9	0x401dc156	2.4649253
10	0x409647bb	4.696256
11	0xc0315f9f	-2.7714612
12	0xbe37b7b6	-0.17941174
13	0x401499ca	2.3218865
14	0xc031acce	-2.7761722
15	0x3fc31f37	1.5243901
16	0xbfb05773	-1.3776687
17	0x3f96c50b	1.1778883
18	0xbd339890	-0.043846667
19	0xc06560cf	-3.5840337
20	0xc07cafa9	-3.9482214
21	0xc099926b	-4.7991233
22	0xc01d9cfa	-2.462706
23	0xbe85951e	-0.2609033
24	0x402a50dd	2.6611855
25	0x401da950	2.463459
26	0xc06574a0	-3.5852432
27	0x3ff7dbd8	1.9363966
28	0x3feb1f86	1.8368995
29	0x3fffbf56	1.9980266
30	0x3fda9fb1	1.7079984
31	0x3f997a12	1.1990378
32	0xbe3003e6	-0.17188987
33	0xbea9797d	-0.331005
34	0x40144a2d	2.3170273
35	0xbfe42fec	-1.7827125
36	0x3f91fd6d	1.1405464
37	0x3f96b5b4	1.1774201
38	0xbeb32150	-0.34986353
39	0xbf68753b	-0.9080388
40	0x3fcdc006	1.6074226
41	0xc0407b9d	-3.0075448
42	0xbf9983b7	-1.1993321
43	0x3fee378b	1.86107
44	0xbee07e35	-0.43846288
45	0xbfcc1451	-1.59437
46	0x3f6d52fa	0.9270474
47	0x3fe1bafc	1.7635188
48	0xc0419645	-3.0247967
49	0x3f71d194	0.94460416

linears.1.weight f4 [50, 50]
0	0xbe742e92	-0.2384589
1	0xbf1a9be9	-0.6039415
2	0xbdd104c0	-0.10205984
3	0x3f424c17	0.75897354
4	0xbd3e5a7b	-0.046473008
5	0x3bd14f0b	0.0063875965
6	0x3e1949af	0.14969514
7	0x3e9a1656	0.30095166
8	0x3ef6d820	0.48211765
9	0x3eb78ae6	0.3584816
10	0x3e8dbb7b	0.276821
11	0xbf28d4e1	-0.6594983
12	0xbe9905e1	-0.29887298
13	0x3ee9e381	0.45681384
14	0xbe9e2abd	-0.30891982
15	0xbdb1bc3d	-0.08678482
16	0x3e816e6d	0.2527956
17	0x3d2a6477	0.041599717
18	0x3f24c776	0.64366853
19	0xbef2dc95	-0.47433916
20	0xbec92dc2	-0.39292723
21	0xbe449ffd	-0.19201656
22	0xbe6f7b7f	-0.23386954
23	0xbf2770b3	-0.6540634
24	0x3f3db340	0.7410164
25	0x3d834dd1	0.06411327
26	0xbe41a76c	-0.18911523
27	0x3f3017a5	0.6878608
28	0x3f666efc	0.900131
29	0x3f174855	0.59094745
30	0xbd81bfb2	-0.06335391
31	0x3f92d5af	1.1471461
32	0x3ef6cdd4	0.4820391
33	0x3efb9f25	0.49144855
34	0x3e554f22	0.20830968
35	0xbf626db6	-0.88448656
36	0xbeeb4dde	-0.45957845
37	0xbe3410ed	-0.17584582
38	0xbede4fef	-0.4342036
39	0xbf57264c	-0.8404281
40	0xbe0cc1f3	-0.13745861
41	0xbdc86eeb	-0.09786781
42	0x3e80a6a3	0.25127134
43	0xbea95f4e	-0.33080524
44	0x3ee7e1bc	0.4528941
45	0xbec75bae	-0.38937134
46	0x3f3036fe	0.6883391
47	0x3e921295	0.28529802
48	0x3edc442f	0.4302077
49	0xbd1e14d8	-0.038594097
50	0x3f4fdc44	0.81195474
51	0x3e9f0e55	0.31065622
52	0xbea8795d	-0.32905093
53	0xbf104a40	-0.56363297
54	0xbe729afd	-0.23691936
55	0x3dd8fc0f	0.10594951
56	0xbe55c23e	-0.20874879
57	0xbf4b7f0d	-0.7949074
58	0x3e3367ef	0.17520116
59	0xbf1f7dc5	-0.62301284
60	0xbdda6fca	-0.10665853
61	0x3f81619d	1.0107914
62	0x3f339c38	0.70160246
63	0xbf0f9f0d	-0.5610207
64	0xbf06c9aa	-0.52651465
65	0x3e02a585	0.12758453
66	0xbea74962	-0.32673174
67	0x3e0cc8d8	0.13748491
68	0xbf4d3626	-0.8016075
69	0x3f73a817	0.9517836
70	0x3f53d518	0.8274703
71	0x3f2c9c22	0.6742574
72	0x3ebf2574	0.37333262
73	0x3ec846e7	0.39116594
74	0xbfb1a2de	-1.3877828
75	0x3e2d939d	0.16950841
76	0xbe62da1c	-0.22153515
77	0xbdd4b89a	-0.103867725
78	0xbf3f81b0	-0.7480726
79	0x4004fecd	2.0780518
80	0xbdafcb59	-0.08583707
81	0xbf2ff316	-0.68730295
82	0xbf860abf	-1.047203
83	0xbea1feb4	-0.31639636
84	0x3af1825c	0.0018425691
85	0x3e8e87ea	0.2783807
86	0x3f1842b5	0.59476787
87	0xbed77b8b	-0.42086443
88	0x3eef389c	0.46722877
89	0x3e148165	0.14502485
90	0x3de5200d	0.11187754
91	0x3e143ca3	0.14476256
92	0xbf23bc3e	-0.6395911
93	0xbf0406ed	-0.5157307
94	0x3f0e3280	0.55545807
95	0xbefa74d0	-0.48917246
96	0xbec001fc	-0.37501514
97	0xbfd5b889	-1.6696941
98	0x3e9b154f	0.30289695
99	0xbf965f9a	-1.1747925
100	0xbf2e326b	-0.6804568
101	0x3eb87671	0.36027864
102	0x3f821b0a	1.0164502
103	0x3c5b16c3	0.013372126
104	0x3f98f1d7	1.1948804
105	0xbf5d5227	-0.8645348
106	0x3f78e0f8	0.97218275
107	0x3f5d2aad	0.86393243
108	0xbef0bfe7	-0.4702141
109	0x3ec5ee88	0.38658547
110	0xbf02e6d5	-0.5113347
111	0xbf2355ef	-0.63803
112	0xbef77e62	-0.4833861
113	0x3e38b1c2	0.18036559
114	0x3f6b7be0	0.91985893
115	0xbf186b72	-0.5953895
116	0x3f735f0f	0.9506692
117	0xbdd1cfc8	-0.10244709
118	0x3f58ee7c	0.847389
119	0x3e17f42d	0.1483924
120	0xbec2b7da	-0.38030893
121	0xbe666adc	-0.22501701
122	0x3ee5cf27	0.44884607
123	0xbedd83b7	-0.43264553
124	0x3f139215	0.5764478
125	0xbf893b2f	-1.0721186
126	0x3ec367b1	0.38165048
127	0xbef3ae67	-0.47593996
128	0x3eae8590	0.34086275
129	0xbf6f20af	-0.93409246
130	0xbc058138	-0.008148484
131	0x3efad50a	0.4899066
132	0x3f43e799	0.76525265
133	0x3f2b516f	0.6692113
134	0xbf260fab	-0.6486766
135	0x3de398c5	0.11113123
136	0xbf2e23ba	-0.68023264
137	0x3e905f33	0.2819763
138	0xbf27c26b	-0.65531033
139	0xbe797c7e	-0.24363896
140	0xbee69890	-0.4503827
141	0x3e9c3d24	0.30515397
142	0x3f22a167	0.6352753
143	0x3eca18f5	0.39472166
144	0xbef7c236	-0.4839036
145	0x3f5ddc9b	0.8666474
146	0x3e8bade8	0.27281117
147	0x3f99e568	1.2023134
148	0x3eb166ca	0.34648734
149	0x3f4f0778	0.8087077
150	0x3f3769ba	0.716457
151	0xbdcab4df	-0.0989778
152	0xbe4ffa0f	-0.20310234
153	0x3e5b91af	0.21442293
154	0xbf0f2ef1	-0.55931
155	0x3edb4551	0.42826322
156	0xbf8248ae	-1.017843
157	0xbf4720aa	-0.77784216
158	0x3ec77b5d	0.38961306
159	0x3e27dc41	0.16392614
160	0x3eef2a0c	0.46711767
161	0xbe735223	-0.23761801
162	0xbe266dbb	-0.16252796
163	0x3e182193	0.14856558
164	0x3dd4875e	0.10377382
165	0x3f5011e0	0.81277275
166	0xbf86d7c5	-1.0534598
167	0x3f13b312	0.57695115
168	0xbedc624b	-0.43043742
169	0xbf205b6b	-0.6263949
170	0xbf0d88ea	-0.5528704
171	0xbf40faa6	-0.7538246
172	0xbf71029d	-0.9414461
173	0x3ce15648	0.027506962
174	0x3cf8453a	0.030306447
175	0x3f213a28	0.62979364
176	0xbdd2e8dc	-0.10298321
177	0xbe8fa8f4	-0.28058589
178	0x3cb3ce02	0.021948818
179	0x3ea69c5c	0.32541168
180	0xbc234e70	-0.009967431
181	0xbf1272ea	-0.57206595
182	0xbf0d8d7a	-0.55294
183	0xbec4a56b	-0.38407454
184	0x3f00ea11	0.50357157
185	0x3e0f2467	0.1397873
186	0x3eb5ced3	0.35509357
187	0x3e29fe3d	0.1660089
188	0x3f15232c	0.58256793
189	0x3d04327e	0.032274716
190	0x3f020cb3	0.5080063
191	0xbe7b9fb0	-0.24572635
192	0xbe921d85	-0.28538147
193	0x3eb73232	0.35780483
194	0x3eb503a7	0.3535435
195	0xbed6bb1c	-0.41939628
196	0xbde5d045	-0.11221365
197	0xbdd2d343	-0.10294201
198	0xbf3683b2	-0.712947
199	0x3e9ec200	0.31007385
200	0xbe55459b	-0.20827334
201	0xbe08423e	-0.1330652
202	0x3eb590a8	0.35461926
203	0xbe78cafe	-0.24296185
204	0x3f0285e0	0.5098553
205	0xbe712842	-0.23550513
206	0x3f00a861	0.50256926
207	0x3e99e8b9	0.30060366
208	0x3e341991	0.17587878
209	0xbd522e01	-0.051313404
210	0xbe009047	-0.12555037
211	0xbd2ae5b6	-0.041722976
212	0x3d36faf6	0.04467293
213	0x3d9e17a6	0.07719354
214	0x3ecf1483	0.40445337
215	0xbeff7b5b	-0.498988
216	0x3f55eaf9	0.83561665
217	0xbe432a8b	-0.19059198
218	0x3d891623	0.06693675
219	0x3f00e877	0.50354713
220	0x3e060be0	0.13090467
221	0x3ef7a551	0.48368314
222	0x3ede2655	0.4338862
223	0xbeb3e5ab	-0.3513616
224	0xbd5fc6f1	-0.054633085
225	0xbed2ae39	-0.41148546
226	0xbdcae357	-0.09906643
227	0x3e9f2dee	0.3108973
228	0xbe47199b	-0.19443361
229	0x3d3465f9	0.04404256
230	0x3efa6b3f	0.48909947
231	0x3e37adeb	0.17937438
232	0x3dd84075	0.10559169
233	0x3e72488b	0.23660485
234	0xbe8201e2	-0.2539206
235	0xbe929681	-0.2863045
236	0xbe19f571	-0.15035035
237	0x3e021464	0.12703091
238	0xbda77ad6	-0.08177726
239	0xbdf379bd	-0.11888454
240	0xbed55888	-0.41669106
241	0xbdbc7719	-0.092024036
242	0x3e7afba3	0.24510054
243	0xbebef0b2	-0.3729301
244	0xbdfa06e7	-0.12208348
245	0x3ddedff5	0.1088256
246	0x3e136d31	0.14397122
247	0x3d043433	0.032276344
248	0x3eefa2c2	0.46803862
249	0xbec7e82b	-0.39044318
250	0xbeb9f64e	-0.36320728
251	0x3d585194	0.052812174
252	0x3f5c478c	0.8604667
253	0x3e3186a5	0.17336519
254	0x3f348151	0.7050982
255	0xbed4d304	-0.41567242

linears.1.bias f4 [50]
0	0x3e9123a3	0.283475
1	0xbfb890a9	-1.4419147
2	0xbe781818	-0.24227941
3	0x3f97fbb8	1.1873693
4	0xbe885d58	-0.26633716
5	0xbf2896c1	-0.6585503
6	0x3faad1a8	1.3345232
7	0xbdbaaaa9	-0.09114582
8	0xbe81ffbb	-0.2539042
9	0x3e3f365c	0.1867308
10	0x3ebae757	0.36504623
11	0x3f28a555	0.65877277
12	0x3e2196eb	0.15780227
13	0x3db3d339	0.08780522
14	0xbf973d22	-1.1815531
15	0xbd971e1c	-0.0737879
16	0xbeb05ebe	-0.34447283
17	0xbcaf0fa1	-0.021369757
18	0xbff3bade	-1.9041402
19	0x3ef15dd4	0.47141898
20	0xbef0a0dd	-0.4699773
21	0x3f223bd0	0.63372517
22	0xbec29321	-0.38002875
23	0xbf08aa93	-0.53385276
24	0x3f145327	0.5793938
25	0x3ebd4c9e	0.36972517
26	0xbf87e9cd	-1.0618225
27	0x40025e36	2.0370002
28	0xbe90b20e	-0.28260845
29	0x400ac534	2.1682863
30	0xbf0c99bb	-0.54922074
31	0x3f45fea4	0.77341676
32	0xbf2bc242	-0.6709329
33	0x3ea84b0d	0.3286976
34	0xbe958f3f	-0.2921085
35	0xbf487660	-0.78305626
36	0x3ff8fbf5	1.9451891
37	0xbf97d311	-1.1861287
38	0xbfb71b76	-1.4305255
39	0x3f00e72f	0.5035276
40	0xbfaf6bc2	-1.370476
41	0xbeb3c235	-0.35109106
42	0x4006ea4e	2.1080508
43	0xbf819622	-1.0123942
44	0x4029fc6d	2.6560318
45	0xbd0d35d9	-0.03447518
46	0x3e913db0	0.28367376
47	0x3f28a8fe	0.6588286
48	0xbe9ba4cd	-0.3039917
49	0x3e9fe576	0.31229752

linears.2.weight f4 [50, 50]
0	0x3e1766fb	0.14785378
1	0x3c8b2076	0.016983252
2	0xbbab1a6d	-0.005221656
3	0xbeffbf77	-0.49950764
4	0x3e9929b5	0.29914632
5	0x3e811935	0.25214544
6	0xbe55727b	-0.20844452
7	0x3de607d8	0.11231965
8	0x3eaec161	0.3413191
9	0xbe92ba64	-0.2865783
10	0xbe4bf564	-0.19917828
11	0x3c332ef1	0.010936485
12	0xbeb0b5ce	-0.34513706
13	0x3e50a576	0.20375618
14	0x3e896408	0.2683413
15	0x3e38ed2b	0.18059222
16	0x3e65fdd9	0.22460116
17	0xbdb57e11	-0.08861936
18	0x3d021abc	0.031763777
19	0xbefd897c	-0.49518955
20	0x3ec1f9a7	0.37885782
21	0xbded777c	-0.115950555
22	0xbceaca53	-0.028660929
23	0x3ef8284e	0.4846825
24	0xbbe8b705	-0.0071018958
25	0xbd46b313	-0.048510622
26	0x3e30b688	0.1725713
27	0xbe60f09e	-0.21966788
28	0xbd115b0f	-0.03548723
29	0xbe39949f	-0.181231
30	0x3edb5d78	0.42844748
31	0x3edb4a66	0.428302
32	0xbe2e01a8	-0.1699282
33	0xbf00a243	-0.5024759
34	0x3e087869	0.13327183
35	0x3d143abf	0.036188837
36	0xbd9c4043	-0.076294445
37	0xbdabe3ea	-0.083930805
38	0x3c5e7f84	0.013580207
39	0xbeaab3c0	-0.33340263
40	0xbe044304	-0.1291619
41	0x3eb23e06	0.34812945
42	0x3db2be97	0.087277584
43	0xbed4297d	-0.41437903
44	0x3ea8c3eb	0.32961974
45	0xbe2f2154	-0.17102557
46	0x3d31a9c7	0.043374803
47	0xbd0e1164	-0.034684554
48	0x3efebf81	0.4975548
49	0xbe572a27	-0.21012174
50	0x3ed13e51	0.40867856
51	0xbca38388	-0.01996018
52	0x3e88c29b	0.26710972
53	0xbf3c2b52	-0.735036
54	0x3f066bc6	0.525082
55	0x3f594c2e	0.84881866
56	0xbf69d3b0	-0.91338634
57	0x3dba9771	0.091109164
58	0x3e996a4f	0.2996392
59	0xbf14f788	-0.581902
60	0xbe2f525d	-0.17121263
61	0xbf705208	-0.9387517
62	0xbeb9136c	-0.3614763
63	0x3f0093b1	0.5022536
64	0x3e5b50ce	0.21417543
65	0xbe7c74b4	-0.24653894
66	0x3eb4a415	0.35281435
67	0xbdfd341f	-0.12363457
68	0x3da8c1a2	0.082400575
69	0xbe7fa250	-0.24964261
70	0xbf511cf2	-0.8168479
71	0xbece818c	-0.4033321
72	0xbf46c197	-0.77639145
73	0x3ed3babc	0.41353405
74	0x3f3130f5	0.6921533
75	0x3da88726	0.082289025
76	0x3f0566b5	0.52109843
77	0xbd271f48	-0.040801316
78	0x3d412bb8	0.047160834
79	0xbea7bd1e	-0.32761472
80	0x3f2596cc	0.6468322
81	0x3ebb4ae7	0.36580583
82	0xbe4c471d	-0.19949003
83	0xbf399520	-0.7249317
84	0x3e828d24	0.25498307
85	0xbe34c887	-0.1765462
86	0x3e4b14c9	0.19832148
87	0x3ee9a3c8	0.45632768
88	0x3f349d50	0.7055254
89	0xbee58b7e	-0.44832987
90	0x3f5494bc	0.8303945
91	0x3f04452c	0.5166805
92	0x3e54c752	0.2077916
93	0x3e1be0ee	0.15222523
94	0x3e211369	0.1573006
95	0xbf4da325	-0.80327064
96	0xbe4fe3af	-0.20301698
97	0x3e3a8070	0.18213058
98	0x3daf72b0	0.08566797
99	0xbe97a3c1	-0.29617122
100	0xbb14b6eb	-0.0022692035
101	0xbdcc106d	-0.099640705
102	0x3bbc6fa1	0.005750612
103	0xbdb29699	-0.087201305
104	0xbea78e02	-0.3272553
105	0xbdafe92b	-0.08589395
106	0xbdfb85ef	-0.12281405
107	0xbd65b243	-0.056078207
108	0xbeac190d	-0.33612862
109	0x3eb0eb1f	0.34554383
110	0x3d34b379	0.04411647
111	0xbe4ce12b	-0.2000777
112	0xbe933013	-0.28747615
113	0xbefea5bd	-0.49735823
114	0xbe83b185	-0.25721374
115	0xbdd1e45e	-0.10248636
116	0xbf122dbe	-0.5710105
117	0x3dc4032d	0.09570918
118	0xbe14d15d	-0.14532991
119	0x3e988a1c	0.2979287
120	0xbd252404	-0.04031755
121	0x3ea3d81e	0.32000822
122	0x3dd8abdd	0.10579655
123	0xbeca44e0	-0.39505672
124	0xbd242730	-0.040076435
125	0xbdad9315	-0.08475319
126	0xbdfd2587	-0.123606734
127	0xbd299451	-0.04140121
128	0xbd7881d0	-0.060670674
129	0x3e84584f	0.25848624
130	0xbe5b7858	-0.21432626
131	0x3e99accc	0.30014646
132	0x3ca258cd	0.019817734
133	0x3dfd7c49	0.12377221
134	0xbd728021	-0.059204224
135	0xbe4af9dd	-0.19821878
136	0x3d56771b	0.05235968
137	0x3d9888a0	0.07447934
138	0xbf22c28a	-0.63578093
139	0x3f08b35d	0.53398687
140	0xbe06cf4a	-0.13165012
141	0xbdf4ec8d	-0.11959181
142	0x3e5539be	0.20822808
143	0xbeb42b81	-0.3518944
144	0x3d180af2	0.037119813
145	0x3df5a7fa	0.119949296
146	0x3e6172b4	0.22016412
147	0xbd16bfce	-0.036804013
148	0xbec278da	-0.37982827
149	0x3ea4ac40	0.32162666
150	0xbf39c4b5	-0.72565776
151	0x3f6c4fbf	0.9230918
152	0xbf63b219	-0.8894363
153	0xbf8c9e8f	-1.0985888
154	0x3f9d313e	1.2280653
155	0x3f9d256d	1.2277046
156	0xbf7638bb	-0.96180314
157	0xbf09b028	-0.5378442
158	0x3fac82b3	1.3477386
159	0xbf9c1dcf	-1.2196597
160	0xbf8d8678	-1.1056662
161	0xbf871e51	-1.0556127
162	0xbf9c2529	-1.219884
163	0x3f875f7d	1.0576016
164	0x3f9ca6c3	1.2238392
165	0x3e9c2362	0.30495745
166	0x3f8d2575	1.1027056
167	0x3ea162f0	0.31520796
168	0x3f646e5b	0.8923089
169	0xbf792879	-0.9732738
170	0xbf2a2b9d	-0.664728
171	0xbf99a383	-1.2003025
172	0xbf8ab855	-1.0837504
173	0x3f95be40	1.1698685
174	0x3f526410	0.82183933
175	0xbeee85ee	-0.46586555
176	0x3f9a20bb	1.2041239
177	0xbfb11cd8	-1.3836927
178	0x3f8d21dd	1.1025959
179	0x3e5463d7	0.20741211
180	0x3fa134f7	1.2594289
181	0xbe68530f	-0.22687934
182	0xbd80ae39	-0.0628323
183	0xbf8e4bec	-1.111692
184	0xbf4a3625	-0.7898887
185	0x3eb6c022	0.3569346
186	0x3db1e483	0.08686163
187	0x3cabead8	0.020986006
188	0x3f87fdeb	1.0624365
189	0xbf9f450b	-1.2442945
190	0x3f9f7b1b	1.2459444
191	0x3f87ffe8	1.0624971
192	0x3ed2f1d4	0.41200125
193	0x3eee41da	0.46534616
194	0x3f787c5c	0.9706476
195	0xbf956371	-1.1670972
196	0xbee543bb	-0.44778237
197	0xbf41a503	-0.7564241
198	0x3fabc9eb	1.3420995
199	0xbf9d6289	-1.2295696
200	0x3e69962d	0.22811194
201	0x3dcef85f	0.10105967
202	0xbe0509be	-0.12991998
203	0xbe7a9277	-0.24469934
204	0x3e4c613b	0.19958965
205	0x3e0c88ac	0.13724011
206	0x3eae8167	0.340831
207	0xbcbab704	-0.022792347
208	0x3e72d4c1	0.23713972
209	0x3c89af30	0.016807169
210	0xbe443971	-0.19162537
211	0xbdbf9183	-0.09353926
212	0xbe77ac58	-0.24186838
213	0x3e1488bf	0.1450529
214	0x3e6b0039	0.22949304
215	0x3e494e0d	0.1965868
216	0x3d9b1757	0.07572811
217	0xbe69412a	-0.22778764
218	0x3e398b0b	0.18119447
219	0xbeacd986	-0.33759707
220	0x3e454808	0.19265759
221	0x3d6d9442	0.058002718
222	0xbcf05e9f	-0.029341994
223	0x3ea4d5c6	0.32194346
224	0x3df2fa26	0.11864118
225	0xbe1b37bb	-0.15157978
226	0x3e1dd0ff	0.15411757
227	0x3d605de7	0.054777052
228	0xbd6cf9d8	-0.057855457
229	0xbe4a1dd3	-0.1973794
230	0x3d8df414	0.0693132
231	0xbdc149e7	-0.09437924
232	0xbe8e873e	-0.27837557
233	0xbeaa334e	-0.33242267
234	0x3ec03d67	0.37546846
235	0xbc2de0e1	-0.010612697
236	0x3d4176dc	0.047232494
237	0x3de06d00	0.1095829
238	0x3ec1a7c8	0.3782332
239	0x3d19bb4a	0.03753213
240	0x3e9788b1	0.29596475
241	0x3bc39423	0.005968587
242	0xbe319486	-0.17341813
243	0x3c6c4b9f	0.014422326
244	0x3e0c7cc8	0.13719475
245	0x3e246b7b	0.16056626
246	0x3e372fcc	0.17889327
247	0xbdf09676	-0.11747448
248	0x3e97bf49	0.29638126
249	0xbe8da6c4	-0.27666295
250	0x3d53db4b	0.051722806
251	0xbe7f3273	-0.24921589
252	0xbe3abf4b	-0.18237035
253	0xbf92bb70	-1.1463451
254	0x3eb9c4e8	0.3628304
255	0x3f4e6fcc	0.8063934

linears.2.bias f4 [50]
0	0xbe0e8358	-0.13917291
1	0xbe59ff78	-0.2128886
2	0x3df20b7f	0.11818599
3	0xbfb78cbd	-1.4339825
4	0xbe18fac9	-0.14939417
5	0xbf2837a5	-0.65709907
6	0x3fa41a00	1.2820435
7	0xbfb09ab9	-1.3797218
8	0x3d803bcf	0.062614076
9	0xbd8e59cf	-0.069507234
10	0x3e17aa18	0.1481098
11	0xbf5b90a4	-0.8576758
12	0x3e14b26c	0.14521188
13	0x3efac228	0.48976254
14	0x3e9f337a	0.3109396
15	0xbedbd330	-0.4293456
16	0xbd331f35	-0.043730933
17	0x3e3376b0	0.17525744
18	0x3ed75b75	0.42061964
19	0x3dd60bdc	0.10451481
20	0x3f1f39b9	0.6219745
21	0xbe100e89	-0.14068045
22	0x3fca1e29	1.5790454
23	0xbeaf54b9	-0.34244326
24	0xbf239495	-0.63898593
25	0xbdcb412d	-0.09924541
26	0xbf1dc340	-0.6162605
27	0xbd0f00d9	-0.034912918
28	0xbd71cfa1	-0.0590359
29	0xbdfd9f9e	-0.1238396
30	0xbef19a94	-0.47188246
31	0xbe1bc0df	-0.15210293
32	0xbde82508	-0.11335188
33	0x3df23e1d	0.118282534
34	0x3e5bd388	0.21467412
35	0x3e2d8b51	0.16947676
36	0xbdff6b3d	-0.12471626
37	0xbde7c1fa	-0.11316295
38	0x3f7f06db	0.99619836
39	0xbe0ae1db	-0.1356272
40	0x3e103392	0.14082173
41	0x3e2c0894	0.16800147
42	0xbe56bab4	-0.20969659
43	0x3e1d7cd6	0.15379652
44	0xc012cf16	-2.2938895
45	0x3e7e9026	0.24859676
46	0x3e890fbb	0.26769814
47	0xbf111426	-0.5667137
48	0xbe9a6c00	-0.30160522
49	0xbf0d295e	-0.55141246

linears.3.weight f4 [50, 50]
0	0xbe39b859	-0.1813673
1	0xbea27aee	-0.31734413
2	0x3e222926	0.1583601
3	0x3e969f13	0.2941824
4	0xbe5123f5	-0.20423873
5	0x3e1351b9	0.14386643
6	0x3e5d1784	0.21591002
7	0xbe341efc	-0.17589945
8	0x3d0e011b	0.034669023
9	0x3e07f7d1	0.13278128
10	0x3cc1bff5	0.023651103
11	0x3e86f253	0.26356754
12	0xbde729b7	-0.11287253
13	0xbe5f5051	-0.21807982
14	0xbd8c4f4d	-0.06851063
15	0xbe934232	-0.2876144
16	0xbe3d6b65	-0.18497999
17	0x3ea48766	0.3213455
18	0xbc2b0a36	-0.010439446
19	0x3d6a6e97	0.057234373
20	0xbee166dc	-0.44023788
21	0x3dc9af2f	0.09847867
22	0xbe31a60f	-0.17348503
23	0x3e9fb315	0.31191316
24	0xbebd2bff	-0.3694763
25	0xbe84b8a2	-0.25922114
26	0x3e80faca	0.25191337
27	0xbe277994	-0.16354972
28	0x3e48d9b9	0.19614305
29	0xbe978c84	-0.29599392
30	0x3e3f903b	0.18707363
31	0xbd9d53b9	-0.076819845
32	0xbe7a3829	-0.24435486
33	0x3eaa752b	0.33292517
34	0xbd77fe0c	-0.060545012
35	0x3dabe30e	0.083929166
36	0xbe169b72	-0.14707735
37	0xbe4d5171	-0.20050599
38	0x3e9f28f0	0.3108592
39	0xbec7e6c5	-0.3904325
40	0x3ec23aa6	0.3793537
41	0x3e544e0c	0.20732898
42	0x3d3f4ae4	0.04670228
43	0x3dde291c	0.10847685
44	0xb9c25c58	-0.00037071365
45	0x3ebe47bd	0.37164107
46	0x3e7340cd	0.23755188
47	0xbdd23749	-0.10264451
48	0xbe226f5e	-0.15862796
49	0x3d0d8eff	0.0345602
50	0xbe3437d3	-0.1759942
51	0xbef888d6	-0.48541898
52	0x3dabf8a2	0.08397032
53	0x3e73f4bb	0.23823826
54	0xbe8785bb	-0.26469216
55	0x3dd24f4a	0.102690294
56	0x3dd5fb19	0.10448284
57	0xbe183a80	-0.14866066
58	0x3eac5164	0.33655846
59	0x3d4e1cd5	0.050320465
60	0x3e374ab1	0.17899586
61	0x3e4a3ed0	0.19750524
62	0xbe17a80e	-0.14810202
63	0x3e4a5bed	0.1976163
64	0xbef69e7a	-0.48167783
65	0xbe69e718	-0.22842062
66	0xbd466b2d	-0.048442055
67	0x3d2d5a1e	0.04232227
68	0xbdf6aeb3	-0.1204504
69	0x3d31d5c7	0.043416765
70	0xbdd2ab4f	-0.10286581
71	0xbeabee93	-0.33580455
72	0x3dfc15d7	0.12308853
73	0x3eadf89f	0.33978745
74	0x3c901191	0.017586501
75	0xbea858c5	-0.32880226
76	0x3e33eec1	0.17571546
77	0xbe37a638	-0.17934501
78	0x3dd4ee39	0.10397
79	0xbe0a707c	-0.13519472
80	0x3e14e336	0.14539799
81	0x3b8439c1	0.004035205
82	0xbc5b7a15	-0.013395806
83	0x3e5a0704	0.21291739
84	0x3ee83b88	0.4535792
85	0x3d659857	0.056053486
86	0xbe1c96e1	-0.1529193
87	0xbe5574fc	-0.20845407
88	0x3e8d6ea6	0.2762348
89	0xbdabf63e	-0.08396576
90	0x3e7ccd7f	0.24687766
91	0x3e6e5a69	0.23276676
92	0x3ebb28e6	0.3655464
93	0x3e662617	0.22475468
94	0xbe31265f	-0.17299794
95	0x3e0db4bb	0.13838474
96	0x3e88792b	0.26654944
97	0xbe2ea155	-0.17053731
98	0x3e9422a6	0.28932685
99	0x3e89173b	0.26775536
100	0x3dd699b7	0.104785375
101	0xbd0622df	-0.0327481
102	0xbd85958b	-0.06522664
103	0xbe943ab1	-0.28951028
104	0xbe3468d6	-0.17618117
105	0xbe5de750	-0.2167027
106	0xbe620112	-0.22070721
107	0xbd2267c4	-0.03964974
108	0xbe6f23a9	-0.23353447
109	0xbe20b076	-0.15692315
110	0x3c88e050	0.016708523
111	0xbf1fe2b0	-0.6245527
112	0x3ec09187	0.3761103
113	0xbebdd127	-0.37073633
114	0x3f1bc3b4	0.60845494
115	0x3e587e11	0.2114184
116	0x3e9b1f4b	0.30297312
117	0xbc7c78c1	-0.015409649
118	0x3f301d8c	0.68795085
119	0x3d90a79a	0.070632175
120	0x3f0e8aca	0.55680525
121	0x3e593efd	0.21215434
122	0x3eeb8631	0.46000817
123	0xbf0ed814	-0.5579846
124	0xbd3d4909	-0.04621223
125	0xbe43babc	-0.19114202
126	0xbebfc8fe	-0.37458032
127	0x3f195901	0.59901434
128	0x3ebcc0c0	0.36865807
129	0x3e10c639	0.14138116
130	0xbe9e1dc3	-0.3088208
131	0xbd8cf463	-0.068825506
132	0x3d60c115	0.054871637
133	0x3e447a7b	0.19187348
134	0x3df89432	0.12137641
135	0x3e8ca37a	0.27468473
136	0xbe325e3f	-0.17418765
137	0xbdf551a5	-0.11978463
138	0x3e006aae	0.12540695
139	0xbd3e7bb2	-0.046504684
140	0x3e397488	0.1811086
141	0x3e838877	0.25690052
142	0xbf02aacc	-0.51041865
143	0x3dbadd7c	0.09124276
144	0x3e2016f6	0.15633759
145	0xbb61bcbb	-0.0034444768
146	0xbf0cf8f8	-0.55067396
147	0x3e841f80	0.25805283
148	0xbf09967d	-0.5374525
149	0xbe902ccd	-0.2815918
150	0xbe24c99d	-0.16092534
151	0xbe108ae1	-0.14115478
152	0x3e8bc86c	0.27301347
153	0x3ea8f727	0.33001062
154	0xbf00a5ba	-0.5025288
155	0x3ecd14e1	0.40054992
156	0xbd509194	-0.050920084
157	0xbd9d15ff	-0.07670211
158	0xbe8db935	-0.27680364
159	0x3f76af47	0.963612
160	0x3e4aa5cb	0.19789807
161	0x3ec9f553	0.3944498
162	0xbe485a9f	-0.19565819
163	0x40505ead	3.2557786
164	0xbfbe6b15	-1.4876429
165	0xbdcc9b80	-0.09990597
166	0xbeed1098	-0.46301723
167	0xbc5fea37	-0.013666681
168	0x3e8667e9	0.26251152
169	0x3e96fba3	0.2948886
170	0xbe72bbbb	-0.23704426
171	0x3e810a3d	0.25203124
172	0xbfadeb26	-1.3587387
173	0x3e5fcaaf	0.21854661
174	0xbd454c90	-0.04816872
175	0xbe52f1c4	-0.20600039
176	0x40166c71	2.3503687
177	0x3e4af52a	0.19820085
178	0xbf7e9138	-0.99440336
179	0xbe82ef4d	-0.25573197
180	0x3ddf244c	0.10895595
181	0xbed26abd	-0.4109706
182	0xbced2aaf	-0.028951017
183	0xbd814d68	-0.06313592
184	0x3eea1d12	0.45725304
185	0x3e2e13ac	0.16999692
186	0xbd29c7f7	-0.041450467
187	0xbdd05395	-0.10172192
188	0x3e38bd5e	0.18040988
189	0xbe8bd43a	-0.27310354
190	0x3e11a6bb	0.14223759
191	0x3d69da5f	0.05709302
192	0x404c98da	3.1968293
193	0x3e913fe1	0.28369048
194	0xbe95c9e5	-0.29255596
195	0x3dac704d	0.08419857
196	0xbe49a837	-0.19693075
197	0xbca868e5	-0.02055783
198	0x40431e21	3.048714
199	0x3e54f91d	0.20798154
200	0xbe447734	-0.19186097
201	0xbdf219e9	-0.11821348
202	0xb9d4cfcd	-0.00040590615
203	0xbd5d922e	-0.054094486
204	0xbeea447a	-0.45755368
205	0x3e77a0e7	0.24182473
206	0x3e309c2b	0.17247073
207	0xbebcc060	-0.3686552
208	0x3e64c988	0.22342503
209	0xbda5f4e3	-0.08103349
210	0x3e477f7c	0.19482225
211	0x3e3a077c	0.18166918
212	0x3e367535	0.17818148
213	0xbea8274d	-0.32842484
214	0xb929368e	-0.00016137419
215	0xbf178114	-0.5918133
216	0xbed92bbe	-0.42416185
217	0x3eaf5b45	0.3424932
218	0x3de4a845	0.11164907
219	0x3e8b33e0	0.27188015
220	0xbe601e3f	-0.21886538
221	0xbdf36b6e	-0.11885725
222	0x3d8961d7	0.067081146
223	0x3e36952b	0.1783034
224	0xbe489f63	-0.19592051
225	0xbe89b5e5	-0.26896587
226	0x3e540ce3	0.20708041
227	0xbe47c475	-0.19508536
228	0x3e2ac623	0.16677146
229	0xbe22ef43	-0.15911584
230	0xbd587d69	-0.052853975
231	0xbec32284	-0.3811227
232	0xbea71129	-0.3263028
233	0x3e72cf7b	0.2371196
234	0xbd47d1fb	-0.048784237
235	0x3e4a7e43	0.19774728
236	0x3c5a73c0	0.013333261
237	0x3d8fb0d9	0.07016153
238	0x3e27319f	0.16327523
239	0x3d35269b	0.04422627
240	0x3e66c39f	0.22535561
241	0x3ea2ba46	0.3178274
242	0x3df6917c	0.12039468
243	0x3e56923b	0.2095422
244	0xbd9af4c3	-0.07566216
245	0x3f0952d5	0.53642017
246	0x3bd5f674	0.0065296236
247	0x3dc3484e	0.095352754
248	0xbdf8aac4	-0.12141946
249	0x3e1e4a6a	0.15458074
250	0x3ea45c02	0.32101446
251	0x3f171e6f	0.5903081
252	0xbea3f46a	-0.3202241
253	0xbe91a059	-0.28442648
254	0x3f121756	0.5706686
255	0xbdeec134	-0.11657944

linears.3.bias f4 [50]
0	0x3e419497	0.18904339
1	0x3e13bb40	0.14426899
2	0x3ea3f461	0.32022384
3	0x3e2fa45e	0.17152545
4	0x3e27f39d	0.16401525
5	0xbe695f04	-0.22790152
6	0x3dbf6865	0.093460836
7	0xbebf8222	-0.3740397
8	0xbe7adfcd	-0.24499436
9	0x3d467e37	0.04846021
10	0xbe67794c	-0.22604865
11	0xbe820186	-0.25391787
12	0xbf66cc99	-0.9015594
13	0x3eba6fe1	0.36413482
14	0xbe908f2a	-0.28234226
15	0x3dd88e03	0.105739616
16	0x3e3500c0	0.17676067
17	0x3ef0ce33	0.47032318
18	0xbe0508cd	-0.12991638
19	0x3e6f7313	0.23383741
20	0x3dd4c992	0.10390009
21	0x3ffd9745	1.9811789
22	0xbe896b69	-0.2683976
23	0xbf985a30	-1.1902523
24	0x3e3043d6	0.17213377
25	0x3d9dafe6	0.076995656
26	0x3e47486b	0.19461219
27	0x3e3896d7	0.18026291
28	0xbddb1fb0	-0.10699403
29	0xbe2719d6	-0.1631845
30	0x3f150734	0.58214116
31	0xbe4f3813	-0.20236234
32	0x3eb69eab	0.3566793
33	0x3dafcaab	0.08583578
34	0xbd21ff5d	-0.039550174
35	0xbded5368	-0.11588174
36	0xbd917ddd	-0.07104085
37	0x3f0f8a56	0.5607046
38	0xbe52c129	-0.20581497
39	0xbebf9365	-0.3741714
40	0x3e1c0fce	0.15240404
41	0xbe92a0ae	-0.28638214
42	0xbf462ada	-0.77409136
43	0x3df9d061	0.12197948
44	0x3e32bf9e	0.17455909
45	0xbdf26218	-0.11835116
46	0x3e830222	0.25587565
47	0xbe7e6a10	-0.24845147
48	0xbe0c1f86	-0.136839
49	0x3ee91bb7	0.45528957

linears.4.weight f4 [2, 50]
0	0x4074a90d	3.822818
1	0x408484af	4.1411967
2	0xc076bb95	-3.855199
3	0xc16b2d84	-14.698612
4	0x40693ad5	3.6442158
5	0xc07a70ca	-3.913134
6	0x4074bc56	3.823995
7	0x40893145	4.2872643
8	0xc0789036	-3.883802
9	0x40804e40	4.009552
10	0xc07e3ec6	-3.9725814
11	0xc0827f09	-4.078007
12	0x41776f5a	15.464685
13	0xc16616a9	-14.380532
14	0xc077b10d	-3.8701813
15	0x40645921	3.56794
16	0x41687600	14.528809
17	0xc157c5fd	-13.485837
18	0xc06d3278	-3.7062054
19	0x40710128	3.7656956
20	0x407480a8	3.8203526
21	0xc2df6ea0	-111.716064
22	0xc0774a6c	-3.8639174
23	0xc125e2cb	-10.367869
24	0x40722a88	3.783846
25	0x4160eb21	14.0574045
26	0x4079904b	3.899432
27	0x405e6184	3.474702
28	0xc07217f7	-3.7827127
29	0xc05da929	-3.4634497
30	0x402c6b10	2.6940346
31	0xc07ab373	-3.9172027
32	0xc11c1ae8	-9.756569
33	0x404aeba0	3.1706314
34	0x416a2641	14.634339
35	0xc0832a89	-4.0989423
36	0xc06d68b0	-3.7095146
37	0x422970da	42.360207
38	0x4166c97c	14.4241905
39	0xc17b75b3	-15.716235
40	0x40763855	3.8471882
41	0xc07c749c	-3.9446173
42	0x4151bbf9	13.108392
43	0x4079ebe2	3.9050221
44	0x406a6771	3.6625636
45	0xc077d22a	-3.8722024
46	0xc168ad4b	-14.542308
47	0xc06957d1	-3.645985
48	0xc06c1c88	-3.6892414
49	0x40c93954	6.288248
50	0xbe1a2051	-0.1505139
51	0xbf10543b	-0.56378525
52	0x3ea3032f	0.31838366
53	0x3e021354	0.12702686
54	0x3eef9c05	0.4679872
55	0x3ef0694c	0.46955335
56	0xbe95d817	-0.29266426
57	0x3f6f03d3	0.9336521
58	0xbe49c0a1	-0.19702388
59	0x3e001a10	0.12509942
60	0xbe39ca57	-0.18143593
61	0xbe31193b	-0.17294781
62	0xbde73c00	-0.11290741
63	0xbd76ab6e	-0.06022208
64	0x3fb06f95	1.3784052
65	0xbe108550	-0.14113355
66	0x3d8c997b	0.068652116
67	0x3e10690d	0.14102574
68	0x3f16e78b	0.58947057
69	0xbf06d1ce	-0.52663887
70	0xbfb9b0bb	-1.4507059
71	0x3c953df2	0.018218014
72	0xbf8047fa	-1.0021966
73	0xc01e4298	-2.4728146
74	0xbeb2fce4	-0.34958565
75	0x3d8e04ce	0.0693451
76	0xbfb6ba2c	-1.4275565
77	0x3f815730	1.0104733
78	0x3f643921	0.8914967
79	0x3f1cdeed	0.6127766
80	0x3e78e2d8	0.24305284
81	0xbd793a83	-0.060846817
82	0xbf896455	-1.0733744
83	0x3ef087ef	0.4697871
84	0x3d417449	0.04723004
85	0xbdbafe2d	-0.091305114
86	0x3f134ab8	0.57535887
87	0xbf235249	-0.6379743
88	0xbe3a7b42	-0.18211082
89	0x3e5b2596	0.21401057
90	0xbec93824	-0.39300644
91	0xbd2846b4	-0.041083053
92	0x3dba2b09	0.090902396
93	0xbe985a12	-0.29756218
94	0xbf09e08a	-0.53858244
95	0x3d2b412e	0.041810207
96	0x3f11c4ba	0.56940806
97	0xbf0c34b1	-0.547679
98	0x3fb9e2f2	1.4522383
99	0xbf5dec20	-0.86688423

linears.4.bias f4 [2]
0	0x40a0df63	5.027269
1	0xbfab39f6	-1.3377063
