forward/results/varying_freq/model_a_2-18000.pt (torch, 35367 bytes, 10 tensors)

linears.0.weight f4 [50, 2]
00000000: dc96 5ebe f613 40be e980 1fbf 963a cdbe
00000010: af3a 773d 7cfc d93e 43c4 8dbe 6fe3 59be
00000020: 833d babe 2ea4 fb3d 0b62 9cbe 98fd e7be
00000030: 4f1a a13b 689b 26be 4c78 e33d e40c 6d3d
00000040: 3b52 80be 029b be3e 8ce3 8cbe 29a6 bdbe
00000050: d025 24bf 69da 98be 163b 0abe c5d5 10be
00000060: 4f19 3bbc 79c9 02bf 3a92 57bd ee67 b43e
00000070: 57ae 273e 0b2f 213f 613f cabe 372d 313e
00000080: 7dc7 4a3e 5633 f6bd 8b67 99be 7e51 0d3f
00000090: d524 ec3d 8841 223f 5e95 19bd 6206 803e
000000a0: c700 b83e 99da e9be e298 13bf 2f49 1dbd
000000b0: ce41 28bd b64e 0f3e ddc5 e43e 2f84 723e
000000c0: 38e0 923e 123c 473e 5ce6 2dbd 6f96 dabe
000000d0: 8498 3cbf b989 aa3e 40a0 8d3e 585b 5b3d
000000e0: 31ad df3e ed72 9cbe 8b51 d1bb 7ad8 bdbb
000000f0: 8c41 043e c2bc 9a3b dfc8 843e 12f0 9abe
00000100: 44a8 3f3d 03f3 cebd f191 053e 557a 3e3e
00000110: 0382 f9bc 9541 31bf f35f a4be a59d 893e
00000120: 670a 9abe 87d5 14bd aaeb 8a3d cdef 9ebe
00000130: 3867 1a3f c469 9bbe 7be8 9dbe a337 83bf
00000140: bd2a 8fbe 771e 38bf 4f33 713d f6b6 68be
00000150: 0c71 443e 432a 013f ae2d 63be 64e5 bb3e
00000160: 52e5 04bf b1e4 93be 0423 36be 48ab 5e3d
00000170: 86ae d83d 5cee e63d 1ecc 9abe d38d a33e
00000180: a487 103d 7f77 09be 96f4 df3d f7a0 aabe
-0.21737236 -0.18757614 -0.62306076 -0.4008376 0.0603587 0.42575443 -0.27688798 -0.21278165
-0.36375055 0.12287174 -0.3054355 -0.45310664 0.0049164663 -0.1627022 0.11106929 0.05787362
-0.25062737 0.37227637 -0.27517354 -0.37040833 -0.641202 -0.29854134 -0.13499102 -0.14144047
-0.011419608 -0.5108867 -0.052629687 0.35235542 0.16375099 0.62962407 -0.3950148 0.17302404
0.19802661 -0.1202151 -0.2996181 0.5520247 0.11530463 0.6338124 -0.037495963 0.2500487
0.35938093 -0.4567459 -0.57655156 -0.03839987 -0.04107838 0.1399487 0.44682208 0.23683237
0.2868669 0.19456509 -0.042456016 -0.42692897 -0.7367022 0.333082 0.27661324 0.05355391
0.43686822 -0.3055643 -0.0063878945 -0.0057936283 0.12915629 0.0047222087 0.25934502 -0.30261284
0.04679133 -0.101049446 0.13043953 0.18601353 -0.030457502 -0.69240695 -0.32104453 0.26878086
-0.3008606 -0.036336448 0.067832306 -0.31042328 0.6031375 -0.3035413 -0.3084143 -1.0251354
-0.27962294 -0.71921486 0.058886822 -0.22726044 0.19183749 0.5045511 -0.22185394 0.3669845
-0.51912415 -0.28885415 -0.17786795 0.054362565 0.10580163 0.11275932 -0.30233854 0.3194414
0.035285607 -0.1342449 0.10935323 -0.3332593

linears.0.bias f4 [50]
00000000: 8675 20bf f325 86bf ca1c de3d d3f9 aabe
00000010: 39d5 413e a08c 2dbe bf01 ec3e 5f6d 363f
00000020: a26b 7abe 0ee8 253d d7ba 32bf 6ccb 87bd
00000030: 9238 a4bd 30d8 363d b652 af3e 4760 803c
00000040: efe8 363f e1f6 f13d fa94 073f db32 873e
00000050: 8815 f33c f919 c0bc cf9c 693e c433 7dbd
00000060: 72d3 9cbe 8bd0 2bbe 88b1 89be 91a4 cebd
00000070: d700 73be c380 c7bb 77e6 56be 6a1a 5abd
00000080: b90b 44bd 77a0 153e 6e43 eebe 8358 763d
00000090: 17e2 3c3e 4179 93be bbd6 3c3d db7b 1ebf
000000a0: 733f bcbd f2e1 343f 4800 9fbe c3f0 933e
000000b0: 2e48 93be b1e1 0e3e 24b5 823e 05d7 11bd
000000c0: ae4d dd3e cab8 343e
-0.62679327 -1.0480331 0.10845335 -0.33393726 0.18928994 -0.16948175 0.46095082 0.7126064
-0.24455121 0.040504508 -0.69816345 -0.066305965 -0.080186024 0.044639766 0.3424279 0.015670909
0.7144918 0.118146665 0.52961695 0.26405987 0.029673353 -0.023449885 0.22813724 -0.061816946
-0.3063007 -0.16778772 -0.26893258 -0.10089982 -0.23730789 -0.0060883476 -0.20986353 -0.053247847
-0.047862742 0.14611994 -0.4653582 0.060143005 0.18445621 -0.28803447 0.04610322 -0.6190774
-0.091917895 0.70657265 -0.31054902 0.28894624 -0.28766006 0.13953282 0.25528824 -0.03560545
0.43223327 0.17648616

linears.1.weight f4 [50, 50]
00000000: aa86 3b3e b73d c93e ff48 fbbd 71bb 903e
00000010: 603e 85be 8777 9b3d 165a 10be 5303 87be
00000020: 7874 d43e 8f25 fc3c af01 703e afbd e2be
00000030: 8cd9 e03d deac 04bf 85df eabe 02f6 80bd
00000040: 1e44 9ebe a6ac 74bd fc0d 37bf 06d8 9cbe
00000050: 5038 3dbe f3d1 11be 11fe ddbd 0cb1 813e
00000060: dcac cd3e ea1c 3d3e 6d9f 80be f8da c33e
00000070: 9b89 683d 07ab 903e aa0e 723e 603c ad3e
00000080: ff12 e13e e7c7 f2bd 301b a33e 390a 2bbe
00000090: 921e eebe 5f51 bc3e e759 6d3e 798b a6bd
000000a0: bbe8 abbd 0839 fdbe 02dc bd3d 3119 e6bd
000000b0: 5339 b1bd 904e 77be f394 1cbe 3b2e 603e
000000c0: bc9b bdbe 45c2 233e 275b d33e fa13 153f
000000d0: 9bd6 0fbe 671c 573e 7f8b a2be 3058 38bd
000000e0: dfe5 bdbe 493a 14bf a05f 353e e580 2cbb
000000f0: 8285 94be 1443 f2be 9272 8c3e 54df aabe
00000100: 188a d4be 2378 78be fabc 08bf 61ec a7bc
00000110: 57fe fabe e839 c9be 67bd 10bd 99a4 07be
00000120: f2a0 eabe ad4c efbd 94cf 7b3e c711 86bc
00000130: 562b 373e f400 353f 2c47 10bc f874 053e
00000140: fc3d 8b3e 21a0 e13e a212 293f 3a33 d0be
00000150: 8592 173f 1aa0 56be fff8 dfbd 7284 f03e
00000160: f0f6 a8bd f96e 9bbd 0d00 243e 132b 28bf
00000170: 7611 1ebe 24ad 653d dcd2 36be d3bf 96be
00000180: d218 8dbe 5877 60bd d447 b1be 8a6a a33e
00000190: 5db7 7fbe 67b9 18bf b52f 443d cf4a f8be
000001a0: cf48 8e3e 0560 efbc 15bc c13e 70c3 6f3d
000001b0: 2c4e 07bf ad8e b13d 2f51 bb3d 2ae2 983e
000001c0: ae55 32be 1ea4 153f e051 063f 3a27 2fbe
000001d0: 550c a03e 1a6a 333d 52d1 e63e 696e c83e
000001e0: 3375 573d 39b3 143d 2799 253f 57c3 c6be
000001f0: 5905 abbe 9d63 023e 58f6 89b9 0765 f8be
00000200: 7e80 dabe 8e1e f8bd 50f2 483e 3b44 e53b
00000210: 13aa d7be ed6d de3e 16d0 84be 3108 58bd
00000220: e65d 543d b896 d9be 1624 f13d 7374 263e
00000230: 2dc1 99bd ff7b 1e3e a1c0 443c eafb ce3d
00000240: b0e8 6ebd aeaf 473e 2465 c73e a48a 2abe
00000250: 3431 fb3e bd1d 9abe af23 c8bd efc4 0f3f
00000260: 400d f3bd b9c3 d63e d456 e1be 08eb 803e
00000270: 3795 22be 7c48 3bbe fd97 133e cd30 883e
00000280: a3e7 bbbe 4bab 1bbf 642d be3e b2d5 f3be
00000290: f0ca 6ebe 1490 9ebe 3365 56be 891b af3e
000002a0: 1d0e 99be 7dbe d3be 17a8 82be c6d2 cd3c
000002b0: 0003 aabe 2a1a 7cbd 2389 873e b72d 5cbd
000002c0: d9fa ab3d 8442 723e c5bf 6fbe d15d 9bbe
000002d0: fdff 9b3e 9be8 50bd 1361 713e abc0 c4be
000002e0: ffdf f33e ff39 823e 037d 81be 784a a93e
000002f0: e903 d93d 498a a63d 7b6d da3d afef 39be
00000300: 03a8 a4bd cce9 d6bd 303b 5bbc c85c debe
00000310: 4c51 4bbe abfe 88be 60bc e2be f70a 573e
00000320: f7c3 433c 2954 1b3e 5336 d2be ea8b 4bbb
00000330: f938 dfbe 3cc8 10bd 52d8 e9bd adb0 ed3d
00000340: 7edc c3bc 8700 783e 84a0 8bbe 6185 80be
00000350: d7c9 583e 205c 3fbe 8a8e 7bbd 923f 31bd
00000360: 0dd7 00be 7295 953e 48de 00bc 787b 083d
00000370: 89a3 babd d1b0 d3bd 0260 b8be 1b34 13bd
00000380: 4fed cebd 2caa 523d 499e 9b3d 626c d73e
00000390: 99bf ce3d 10d3 2d3e e936 15be 5524 593e
000003a0: 5f34 983e 432d 01bf ea00 893e be2e a63d
000003b0: 4d3b c93c 8f7c 403e 7ee5 bf3d 0717 17be
000003c0: fe09 3e3e aade 1f3e 1639 36be 28ed d23d
000003d0: 3e96 85be f9be 20bf fdb3 c9bd 0217 873e
000003e0: 5543 e4be 325c b93e 6ff5 17be 8ec5 34bf
000003f0: bb0c 893e 7017 e2be 5eff d03e 9a32 77be
0.18313089 0.39304897 -0.12269782 0.28268006 -0.2602415 0.075911574 -0.14096865 -0.26369724
0.4149511 0.030779628 0.23438142 -0.44285342 0.10978994 -0.51826274 -0.45873657 -0.06296922
-0.30911344 -0.059734963 -0.71505713 -0.30633563 -0.18478513 -0.14240246 -0.10839475 0.2533039
0.40170944 0.18468061 -0.25121632 0.38252997 0.056771856 0.28255484 0.23638406 0.33835125
0.43959805 -0.118545346 0.3185668 -0.16703118 -0.46507698 0.3678083 0.23178826 -0.08132071
-0.08393999 -0.49457574 0.09270479 -0.11235274 -0.08653512 -0.24151063 -0.15291195 0.21892636
-0.37032878 0.15992077 0.4128048 0.58233607 -0.14046709 0.21006928 -0.31747052 -0.045005977
-0.3708944 -0.57901436 0.1771226 -0.0026321944 -0.29008108 -0.47316802 0.2743116 -0.3337351
-0.41511607 -0.24264579 -0.53413355 -0.020498456 -0.4902217 -0.3930199 -0.03533688 -0.13246383
-0.45825917 -0.116845466 0.24590904 -0.016365899 0.17887625 0.7070458 -0.008806031 0.13032901
0.27195728 0.4406748 0.66044056 -0.40664083 0.59207946 -0.20959511 -0.10936164 0.46976048
-0.082502246 -0.07589526 0.16015644 -0.65690726 -0.15436348 0.056073323 -0.17853874 -0.29443225
-0.27558 -0.054801315 -0.34625113 0.3191722 -0.24972291 -0.596579 0.04789706 -0.48494574
0.27789924 -0.02922059 0.37838808 0.058535993 -0.52853656 0.08669791 0.09146344 0.2986005
-0.17415497 0.5845355 0.5246868 -0.17104807 0.3125941 0.04380236 0.45081574 0.39146736
0.052602004 0.036303733 0.64686817 -0.38820907 -0.33402517 0.12733312 -0.00026314217 -0.48514578
-0.42676157 -0.12115203 0.19623685 0.006996659 -0.42121944 0.43443242 -0.25940007 -0.052742187
0.05184736 -0.42497802 0.11774461 0.1625536 -0.075075485 0.15476988 0.012008817 0.101066425
-0.058327377 0.1950061 0.38944352 -0.1665445 0.49060977 -0.30100814 -0.09772431 0.5615987
-0.118677616 0.419462 -0.44011557 0.25179315 -0.15877233 -0.1828937 0.14413448 0.26599732
-0.36700162 -0.6080825 0.37144005 -0.47623974 -0.23319602 -0.30969298 -0.20937042 0.34200695
-0.2989358 -0.4135627 -0.25518867 0.025124919 -0.33205414 -0.06154839 0.26471815 -0.053754535
0.08397455 0.23658186 -0.23412998 -0.30345014 0.3046874 -0.05100308 0.23572187 -0.38428244
0.47631833 0.25434873 -0.2529069 0.33064628 0.10596449 0.081318446 0.10665413 -0.18157838
-0.08039858 -0.10493812 -0.013380811 -0.4343016 -0.19855231 -0.26756796 -0.44284344 0.21000277
0.011948577 0.15168823 -0.4105707 -0.0031058737 -0.43598154 -0.03534721 -0.11418213 0.11605964
-0.02390885 0.24218951 -0.272709 -0.2510176 0.21170746 -0.18687487 -0.061415233 -0.043273516
-0.12582035 0.2921558 -0.007865496 0.033320874 -0.09113223 -0.103364594 -0.36010748 -0.035938364
-0.10103857 0.05143182 0.0759855 0.42074877 0.10095138 0.16975045 -0.14571728 0.21205266
0.29727456 -0.5045969 0.2675851 0.08114384 0.02456441 0.18797515 0.09369944 -0.14754878
0.18558499 0.15612283 -0.17795214 0.1029914 -0.26091188 -0.627914 -0.09848783 0.2638474
-0.4458262 0.36203152 -0.14839719 -0.70613945 0.26767525 -0.44158506 0.4081983 -0.24140397

linears.1.bias f4 [50]
00000000: 1615 39be 4bdd 5ebe 75db 773e ecd1 3cbe
00000010: 4584 853d 2ab0 913e 4564 bdbe bd17 573e
00000020: 1269 92be 0622 4ebf f442 463e 1c61 35be
00000030: 2430 3a3e 99a8 793c d58d aabe 3a84 0d3e
00000040: 8b56 3d3e b1ed 95bd 8ac7 0dbe 6389 6e3e
00000050: ca98 983e a132 063f 49d4 813e 9f54 343e
00000060: c429 6dbe a2b5 6b3e f14f 86bd b1d6 c1bd
00000070: 3a20 523d 8b70 a6be b4af 6bbe 05da 0a3f
00000080: 2e35 e13e 96a5 dbbc 68dd 24bf 48a1 2dbe
00000090: 98bf d63d ed62 efbe 1ebb 91be eb42 71be
000000a0: 9df3 46be 28eb babe 6e77 62be 717e f13d
000000b0: 706f 3f3d e4f5 82bc 22c3 53be 7916 02be
000000c0: 93de 493c 712a 6cbe
-0.1807445 -0.21764104 0.2420481 -0.18439454 0.06519369 0.28454715 -0.36990562 0.21005149
-0.28595787 -0.80520666 0.19361478 -0.17712826 0.18182427 0.015237951 -0.33311334 0.13819972
0.18490045 -0.07320727 -0.1384565 0.23294596 0.2980407 0.52421004 0.25357273 0.17610405
-0.23160464 0.23018506 -0.06558216 -0.09464777 0.051300265 -0.32507738 -0.23016244 0.5423892
0.43985885 -0.026812356 -0.6440034 -0.16956055 0.10485762 -0.46755162 -0.28463072 -0.23560683
-0.19428869 -0.36507535 -0.22115871 0.11791695 0.046737134 -0.01598639 -0.20679906 -0.12703885
0.012321132 -0.23063065

linears.2.weight f4 [50, 50]
00000000: ed4a 22be cea6 8abe b3eb 603e 20d1 8abe
00000010: 3521 87bd 509b f13d 9d45 953e b6d9 44be
00000020: 1651 a73d 4942 ee3d 3419 0ebe 7a7a e0bb
00000030: 7c1d 4f3d 2131 8abe 2d51 d33d 9137 703d
00000040: da31 833d e2b5 1a3e 1d7c 733e c404 393e
00000050: c39e 393c e56b a13c 4f4c 703e 8a11 293e
00000060: 873e a93c bb14 473d 92df 163d a07d b8be
00000070: 426b 693e 690e 103e b23c 23be a2d6 21be
00000080: 6c5f 2abe a040 393e af3e a13e 32bc 2bbe
00000090: 18d0 5d3e 3916 4a3b 4c00 9d3e a527 163d
000000a0: f278 d5bd d0bc d93d 623d b63e 2316 0f3e
000000b0: ffd5 1fbe db6e 5c3e cd5c 383c 6266 9bbe
000000c0: 7b9b bf3d 9770 c3bd 6e5e 993e 8138 c0bd
000000d0: c3db 42be 5ff4 a43d 43c3 33bd 1d0e 00bf
000000e0: 523b 213f 9656 20bd d45b ff3e 0287 f63d
000000f0: 0de0 3fbe 0c25 e73b dfdf a6be 543d af3e
00000100: 7f90 183f 6be1 043d f807 d03d 4e38 a33e
00000110: 6841 243f 9d42 0dbb fa65 10bf f50f d23e
00000120: 9d90 07bf fbc0 69be 4bf0 5d3e 8744 bbbd
00000130: 1ead 1dbe dae5 6b3d b9ba 16be 08d3 c9ba
00000140: 2b52 fd3e e488 c6be a49b a53d 4780 5ebd
00000150: c5f4 983e 4dcc f13e c12a 683d 524a f93d
00000160: 06e7 a4be 01fe 1d3c 41fa c43e c7a8 953c
00000170: ccbe 14bf a6ee 9dbe 332f 233f 285b 8b3e
00000180: a9a9 c73d 8ee0 08bf d069 96be 9e62 1b3e
00000190: 0be0 143d 1a80 c53d 85da abbe 4dfb e33e
000001a0: 50d8 023f 65e6 d3be 9b5a acbe 9eae 513e
000001b0: d2a4 26be 1933 c4be aa68 d93e b045 003e
000001c0: a4aa a2bd 0a91 843e 527c a4be f5fe 8d3e
000001d0: cdc4 7abe 80f5 c4be af8f 433e 2bee 88be
000001e0: daf4 2e3d f5a5 553e 88b2 9abe 15f5 dabe
000001f0: 8125 04be 0d92 44be ad56 cebd f524 093f
00000200: 443e 91be 3ae3 acbe 6563 bebd 6c9f 833e
00000210: 304f f23e 386b 31be 7b70 7fbe a590 cf3e
00000220: 50ed 07bf 9fd5 65be 758d cfbe ac44 c4bd
00000230: ada7 5c3e 9449 5e3d 02a3 e6be 0d91 8b3e
00000240: c07e d73e 8b23 1bbe 2a72 8abe 6d62 1dbd
00000250: 7e99 e1be d814 9c3e ce9c c33d bce0 2a3e
00000260: 302f 923e 7b28 85be ba79 cdbe fd89 613e
00000270: f441 b53a f6c2 c2be 2d44 253e 9a4e 113f
00000280: cd71 18bf 67ac abbe 0085 363d 22d1 09be
00000290: 4bbc 953e c2f2 a6be 64aa 9b3e 09fe 043e
000002a0: fd97 383e 343d 903e 9e9b dabe 0dea 4f3d
000002b0: e061 8b3d ff72 333e 67b5 eb3c 063f 90bd
000002c0: 5787 a93e 1b37 9cbe 6eb4 7e3e 1c48 103f
000002d0: de13 84bd 22cd f7be 7361 8abe 665f fa3e
000002e0: d680 7d3e f6da 3dbd 9499 553e ff93 a63e
000002f0: 866c 8b3d 730a 9e3e 9a3d 37bd 089c 803e
00000300: e22a b53e d030 a0be c0c3 00be 0306 863e
00000310: 30cc 043f 4864 babe 6e8c 143f 8617 fdbd
00000320: 40f1 44be 7a7a 433e 6ff5 9c3e d246 16bf
00000330: a744 34bf 2c42 0e3f 4fa8 debd 2cb1 dcbe
00000340: c333 743a 0a1a cf3e 7195 b3be 5ede 2dbe
00000350: c5fd a93e 65ed 14bf dfa3 443e 2033 e1be
00000360: 7939 163f da36 273f e5d4 27bd a5a0 fa3e
00000370: 9e89 51be 782a 86be db1a 153f f0f4 3e3f
00000380: 5244 f7bd e18b 013e 359f dc3e fdf8 8fbe
00000390: 654b d33e 5596 0b3f 9ecc 0abf 61f4 06bf
000003a0: 7cb6 0abf c508 4b3f a62b 153f 5471 f7be
000003b0: 3977 cd3e 1a64 193f 1e77 8f3f 2ccb c93e
000003c0: 3be8 43bd bcde f03e 7e95 2c3f 83d9 2bbe
000003d0: 72a9 e0be 561b 033f 5e7c 053f 68e5 c0bd
000003e0: 17de d83e 9489 69be 37fc c0bd 50f5 9c3c
000003f0: 3877 b13e 518a 30be 9a08 2cbe 1e5c 593e
-0.15848894 -0.27080387 0.21964912 -0.27112675 -0.065981306 0.11797202 0.29154673 -0.19223675
0.08169763 0.11633737 -0.13876802 -0.006850538 0.050565228 -0.26990607 0.103182174 0.058646742
0.06405993 0.15108445 0.23777814 0.18068224 0.011329356 0.019704768 0.2346661 0.16510597
0.020659698 0.048603754 0.036834307 -0.36033344 0.22794822 0.14067997 -0.15941122 -0.15804532
-0.16637963 0.18091059 0.31493136 -0.1677101 0.21661413 0.0030836 0.3066429 0.0366589
-0.10423459 0.10631716 0.35593706 0.13973288 -0.15608977 0.21526663 0.011252594 -0.3035155
0.093558274 -0.09542959 0.29954857 -0.09385777 -0.19029145 0.080544226 -0.043887388 -0.50021535
0.6298114 -0.039145075 0.49874747 0.120374694 -0.18737812 0.007053977 -0.32592675 0.34226477
0.59595484 0.032441538 0.1015777 0.31878895 0.641623 -0.0021554597 -0.56405604 0.410278
-0.5295504 -0.22827522 0.21673696 -0.0914393 -0.1539807 0.05759225 -0.14719667 -0.0015397975
0.49476752 -0.38776314 0.08086327 -0.054321554 0.29874244 0.47226182 0.0566814 0.121723786
-0.32207507 0.009643079 0.3847218 0.018268956 -0.5810363 -0.30846137 0.63743895 0.27217984
0.09749157 -0.53467643 -0.29377604 0.15174338 0.036346477 0.09643574 -0.33565155 0.44527665
0.51111317 -0.41386715 -0.33662876 0.20476767 -0.16273811 -0.38320234 0.42462665 0.12526584
-0.07942703 0.25891906 -0.321261 0.2773358 -0.24489136 -0.38468552 0.1909778 -0.26744208
0.042713977 0.20864089 -0.30214334 -0.42765108 -0.12904932 -0.19196339 -0.10075126 0.53572017
-0.28367817 -0.3376711 -0.09296302 0.25707567 0.4732604 -0.17326057 -0.24945252 0.40540043
-0.53096485 -0.22444771 -0.4053761 -0.095834106 0.21548338 0.05426939 -0.4504624 0.27259102
0.4208889 -0.15150277 -0.27040225 -0.038423944 -0.44062418 0.30484653 0.095513925 0.16687292
0.28551626 -0.26007447 -0.40131932 0.22025295 0.001382886 -0.38039368 0.16139288 0.5676056
-0.59548646 -0.3352997 0.044560432 -0.13458684 0.2924522 -0.32607085 0.30403435 0.12987532
0.18026729 0.28171694 -0.42696851 0.050760318 0.068057775 0.17524336 0.028773023 -0.07043271
0.3311107 -0.30510792 0.24873516 0.5636003 -0.06449102 -0.4839869 -0.27027473 0.48900908
0.24756178 -0.046351396 0.20859367 0.32534787 0.068078086 0.30867347 -0.044736482 0.25119042
0.3538428 -0.3128724 -0.12574673 0.26176462 0.51874065 -0.36404634 0.5802678 -0.12358002
-0.19232655 0.1908969 0.30656 -0.58701813 -0.70417255 0.5556972 -0.10871946 -0.4310392
0.00093155744 0.40449554 -0.35074952 -0.16979358 0.33201423 -0.58174735 0.19203137 -0.43984318
0.58681446 0.6531807 -0.040974516 0.48950687 -0.20462653 -0.26204276 0.58244103 0.74592495
-0.12073578 0.12651016 0.43090215 -0.2811965 0.4126846 0.54526263 -0.5421847 -0.5271664
-0.541847 0.79310256 0.5826973 -0.4832865 0.40130022 0.5991837 1.1208227 0.3941282
-0.047828894 0.47044933 0.67415607 -0.16782193 -0.43879277 0.51213586 0.52142894 -0.09418756
0.4235694 -0.22806388 -0.09423106 0.019159943 0.3466127 -0.17240264 -0.16800156 0.21226546

linears.2.bias f4 [50]
00000000: 5a17 a0bd 9461 31be 4a93 ec3d 0584 2cbe
00000010: 09db c0bd e905 91bd c586 edbc 9ee2 9bbd
00000020: d48b 563e 9749 713c 6ad1 cebc 47a1 34be
00000030: 490c b7bd 6d5d 0b3e 701e 013e 70df a2bd
00000040: 99ea 7dbd a047 a4bd 673e 143e b67d b43d
00000050: e07e e13d 114c 403e b231 70bd 0543 1ebe
00000060: 8277 a0bd d95d 02be df42 aebe 0db5 1bbe
00000070: db1a c03c 8543 293e 1c80 f93c 24d4 febd
00000080: 4016 8f3d ff6e c63d aec2 073d 86ca 153e
00000090: 72fd a9bd dfc5 fabd 3eb1 6a3d 5aad 99bd
000000a0: 9a9f b33c 5918 333e 8dce e03d 6ae9 0dbd
000000b0: bdf9 8c3d 4562 3d3e 2074 6cbe 26f6 0bbe
000000c0: 6976 bdbc 0e03 3fbc
-0.07816954 -0.1732238 0.11551531 -0.16847236 -0.09416778 -0.070812054 -0.028994927 -0.07611583
0.20951778 0.014727018 -0.02524634 -0.17639647 -0.0893789 0.13609858 0.12609267 -0.079527736
-0.061991308 -0.08021474 0.1447693 0.0881304 0.110105276 0.18779017 -0.058641143 -0.15455253
-0.07835294 -0.12731113 -0.34035394 -0.15205784 0.023450306 0.16529663 0.030456595 -0.12442806
0.06986666 0.096891396 0.033144645 0.14628038 -0.08300294 -0.12244772 0.057297938 -0.07503767
0.02192669 0.17489757 0.109768964 -0.03464643 0.06883571 0.18494518 -0.23091173 -0.13668117
-0.023127751 -0.011658443

linears.3.weight f4 [50, 50]
00000000: 53ad 11be 0725 0b3e ce47 b83d f1ac ddbd
00000010: 7786 84bd 69ba c8be 3dc5 09be 12b7 9abe
00000020: bf92 563e 63cd 353e dc14 733d 602b aebe
00000030: 8f61 1a3e 69c6 13bd 07fe c43d 0150 94be
00000040: 86fe e7bc 7a5c ca3d 3568 49be 72f1 6fbe
00000050: e663 e5be c4b4 a83c 51a9 883d 17a2 ddbd
00000060: ec5c 86be 2413 a13e 53ef 343e c4a7 a2be
00000070: 39b7 56be d7e0 5a3e ed21 91be 64ee 003e
00000080: 9020 063c 0cf2 cc3d 90f1 d3bc 8f11 88bc
00000090: 89e0 e9bd 1bf4 00bc 4793 483e 3c9c 03bf
000000a0: cf15 663e 8d3e c33e 799a 1b3e f2f2 7e3e
000000b0: 55f2 02be d767 483c f7e8 ad3d fb3e 17bd
000000c0: 9709 073e 817e b7bd 20b5 39be 4211 1f3d
000000d0: c719 8a3e d597 bb3d 17ec acbc 85d2 50bd
000000e0: 34c9 153d 7ab8 edbd 8a4a 87bd 2af4 363e
000000f0: 0c06 0a3d f136 62be 9641 833e cbf6 e5bd
00000100: 0336 68bd 41bc d7be a47f f5bd e1dd c7bd
00000110: aa65 063e c111 893d 0772 e03e aafc 58be
00000120: 5a81 1c3d 98d9 aabc 203b 97be 6e0c 0dbd
00000130: 3e3d 85be 535f 8cbe 163d 8dbe b5ea af3d
00000140: 744b 8f3e e907 8c3e 9b77 5e3d 4438 bf3e
00000150: d646 843e b67f 453d bebc 883e 1aa2 d5bd
00000160: a59d 733d 5318 6b3e ddd1 833d eead 1dbe
00000170: bea7 0d3e 26ca a9bd 3f79 55bd e482 16bd
00000180: 2044 5e3d 3c52 1abe b203 023e 4835 48be
00000190: e80a 6fbe e3d8 d03e b76d 963d dd84 61be
000001a0: 5c6f 5a3d 18a8 5dbe f677 003d 7537 50be
000001b0: b025 2f3e 422a 693e 8244 24bd da7d 2abf
000001c0: 3603 3e3d ddb7 e3bd 39e2 953e 4473 adbc
000001d0: 8d29 a9be a01d aebe 131d 66bd b093 a93e
000001e0: 805c 3f3e 4447 723e 8704 113e cf07 9dbe
000001f0: 4ddd 14be f802 b53e 5bbb 913d deab 4bbe
00000200: 7645 b6be 8559 ad3e e9f1 a6bd 5efe 853e
00000210: d5da 853e adfe 893e 836c 4a3e db4a e03e
00000220: f256 373d a3e4 a5be 997b 673e 2e72 8c3e
00000230: 69fc 753d 5d6c e23e 039c 3e3e 28bb a73e
00000240: 6bfa 2ebe e19d 3a3e 40f9 adba 9f9a 81be
00000250: dab8 3b3e 7e33 d6bd 76d0 f7bd 4a2b dd3c
00000260: 7d26 76be 1886 483e 4782 023e 6cc2 d93d
00000270: bfe2 5b3e fe8e 893e 045c b13c 21dc b1bd
00000280: c912 43be 164a 7c3e b8c6 e43c 6efd 113e
00000290: 03ec e4bd 40b9 923d 60be 033e b9f7 803e
000002a0: 27c0 3a3e 0e22 18be bf49 11bf dc23 49bd
000002b0: 576f 6bbe a7d1 933e 4959 4c3e 8a6a 79be
000002c0: 5d2e 34be 4f27 8a3e 0652 9d3e a6ed aebe
000002d0: b7a7 f13e 7a68 013d 9eb2 c0be a552 f6bd
000002e0: 4637 80be 92ac 24bf 7c67 aabe f1b0 0b3e
000002f0: 6324 3cbe 301c a2bd 241c 55be 5041 8fbe
00000300: cb3c 32be 037b 38be 0946 bb3e 5013 a5bd
00000310: c1bf 6e3d cb68 4f3d 7330 bdbe 8c39 9bbd
00000320: 80a1 a53d fe26 493f 60bc 0b3c 1a7c 0bbf
00000330: 6b3d 933d 1149 5abe 6cde a73d d302 06bf
00000340: 3b2d 863f 1c21 b23e 86ac 01bf 4645 253f
00000350: 636a c9bf 9780 21bf dfa3 88be b1fa 84bd
00000360: f370 d53d 31ba 643f d8ba abbe 6e04 873e
00000370: 6e78 62be e7c1 c0bd 58be b3bc f4b6 3e3c
00000380: 92d8 333f faf0 5e3d ae71 323f d24c 723f
00000390: 22f9 2cbd 808c 22bf c433 3f3e a740 b1bf
000003a0: 98a3 73bf 5200 0bbe d8a0 653e f2f3 023f
000003b0: 128e cabe 2975 3a3e 3ef2 dabc ecec 5a3e
000003c0: b582 133f 0ca0 203e e2d0 163f 4e8c e9bd
000003d0: 3770 c7bd 6e30 293f 656b d5be 4d25 2ebf
000003e0: 26e7 2dbd 8c85 613f 24a1 a4be 0c29 62be
000003f0: 0e21 83be ad59 e83d 190f 573e 3845 543e
-0.14226274 0.13588344 0.08998071 -0.108240016 -0.0647096 -0.3920472 -0.13454147 -0.30217797
0.20954417 0.1775413 0.059346065 -0.34017467 0.15076278 -0.03607789 0.09618764 -0.28967288
-0.028319608 0.0988092 -0.19668658 -0.23431948 -0.4480278 0.020594008 0.066729195 -0.10821932
-0.2624277 0.31459916 0.1766942 -0.3176862 -0.20968331 0.21374832 -0.28346196 0.12590939
0.008186474 0.10007104 -0.025872022 -0.016609935 -0.1141978 -0.007870699 0.19587432 -0.5141027
0.22469257 0.3813366 0.15195645 0.24897364 -0.12787755 0.012231789 0.084917 -0.036925297
0.13187252 -0.089596756 -0.181355 0.038834818 0.26972792 0.09159819 -0.02110867 -0.050982017
0.036568835 -0.11607452 -0.06606014 0.17866579 0.033697173 -0.22091271 0.25635976 -0.11228713
-0.056692135 -0.42135814 -0.11987236 -0.09759117 0.1312472 0.066928394 0.43836996 -0.21190134
0.038209297 -0.02085571 -0.29537296 -0.034435682 -0.26023287 -0.27416477 -0.27585667 0.08589689
0.27987254 0.27349785 0.054313283 0.37347615 0.25835294 0.048217498 0.267065 -0.10431309
0.059476513 0.22958498 0.064365126 -0.1539838 0.1383352 -0.0829051 -0.052117582 -0.03674592
0.054264188 -0.15070432 0.12696722 -0.19551575 -0.23344004 0.4079047 0.07345145 -0.2202334
0.053328857 -0.21646154 0.031364404 -0.20333655 0.1710422 0.22770026 -0.040104397 -0.66598284
0.04638978 -0.111190535 0.29274157 -0.021173127 -0.33039513 -0.34006977 -0.05618007 0.3312049
0.1868763 0.23659998 0.14161883 -0.3067002 -0.14537545 0.35353827 0.07115813 -0.19889781
-0.3559987 0.3385736 -0.081516095 0.2617063 0.26143518 0.26952115 0.19767956 0.4380711
0.044760652 -0.32400998 0.22605743 0.27430862 0.06005517 0.442233 0.18614201 0.32759976
-0.17087714 0.18224289 -0.0013273135 -0.2531328 0.18332234 -0.1045904 -0.12100308 0.02699818
-0.2403812 0.19582403 0.1274501 0.10632786 0.21473216 0.26866907 0.021650322 -0.086845644
-0.19050135 0.24637637 0.027926788 0.14256832 -0.11177828 0.0716424 0.12865591 0.25188997
0.18237363 -0.14856741 -0.5675315 -0.049106464 -0.22991692 0.2887089 0.19955935 -0.24357048
-0.17595811 0.26983115 0.3072664 -0.34165686 0.4719827 0.031593777 -0.37636274 -0.12027482
-0.2504217 -0.6432582 -0.33282077 0.13641717 -0.18373255 -0.079155326 -0.20811516 -0.27979517
-0.17406003 -0.18015675 0.3657687 -0.08060324 0.05828834 0.050637048 -0.36951026 -0.075793356
0.08087444 0.7857512 0.008528799 -0.5448624 0.07189449 -0.21316935 0.081967205 -0.5234806
1.0482553 0.34790885 -0.50653875 0.6455883 -1.5735592 -0.6308684 -0.26687524 -0.06493128
0.10421934 0.89346606 -0.33540988 0.26370567 -0.22116253 -0.09411984 -0.021941349 0.011640299
0.70252335 0.054429032 0.6970471 0.9464847 -0.04222978 -0.63495636 0.18672091 -1.3847855
-0.951715 -0.13574341 0.22424638 0.5115348 -0.39561516 0.18208756 -0.026726838 0.21379441
0.5762132 0.15686053 0.5891248 -0.11403714 -0.097382 0.6608952 -0.41683498 -0.68025666
-0.04245677 0.880944 -0.3215419 -0.2208597 -0.25611156 0.11345229 0.21001853 0.2072953

linears.3.bias f4 [50]
00000000: 5ab3 97bd 4990 8b3d 9cd5 c33d 26e8 6abd
00000010: 469d 9b3e d3fc 4dbc f7a6 f4bc 4e93 57be
00000020: 8d56 da3d 75d0 7ebd c5d1 e33d f642 cebd
00000030: 0e1f 6b3d 069e 7a3d b538 d1be fe68 fa3b
00000040: 6b2d 15bc ea19 433d c732 e03d a547 30bd
00000050: 6b17 16bd be57 323e 7b0f 9c3d b747 4a3d
00000060: de2b 8abd 404b 07be 901a 13be acbf 1cbe
00000070: 6450 943d fe48 f5bd c2c9 56bd a477 2c3d
00000080: 3332 a5be 3bb2 d43b f12e f9bd 36dc 04bc
00000090: a0f6 823d b2ff 0c3d a6a2 b63e 5262 583d
000000a0: d8c9 a9be 543b 8bbd 9678 e0bd e3f3 613d
000000b0: 52ae f33c 3821 7e3d 1a91 edbd cc2e c93e
000000c0: 2518 733e 2c31 423e
-0.074072555 0.068146296 0.09562227 -0.0573503 0.30393428 -0.012572485 -0.029864771 -0.21052286
0.106610395 -0.06221052 0.11123995 -0.100713655 0.057402663 0.06118586 -0.40863577 0.0076419106
-0.009105067 0.047632135 0.10947185 -0.043037076 -0.036643427 0.17416283 0.0762014 0.0493848
-0.06746648 -0.132123 -0.14365602 -0.15307492 0.07241896 -0.11976813 -0.052438505 0.042106286
-0.3226486 0.0064909733 -0.121671565 -0.008109143 0.06394696 0.034423538 0.35670966 0.05282814
-0.33161807 -0.06798425 -0.109605 0.05516423 0.029746208 0.0620434 -0.115999416 0.39293516
0.23739679 0.1896407

linears.4.weight f4 [2, 50]
00000000: fcc8 e83f 682f c03f 41a0 c53f e7b6 d4bf
00000010: 3f28 38c0 aa21 bfbf 7b03 3f40 1c49 59c0
00000020: 18d7 8b3f 09b7 c23f 2b4e c8bf 4ad4 bc3f
00000030: ded9 d23f 06a5 0f40 c7db 5140 fb4d bbbf
00000040: d04f 9fbf 64d0 dd3f f62c 4540 7235 2ec0
00000050: f1fc 1340 37b1 a1bf 9ef1 b5bf ca5d 4a40
00000060: cff9 b03f adab 4240 f4c7 51c0 1902 34bf
00000070: 5c4c 4640 09b4 9ebf 4536 37c0 1e48 41c0
00000080: a817 6440 49d9 e73f 5573 5dc0 9f5b 4bc0
00000090: d8e9 eb3f 91e6 b23f c792 6e40 ff7f 46c0
000000a0: 37ce 4040 0cf7 b63f 744d 5940 ec74 bc3f
000000b0: 1eec 48c0 846b bfbf cc96 6ec0 26ee 6a40
000000c0: 76c7 5c40 0889 c3bf dbac 73bf 59fd 853f
000000d0: b04a d0bd 696e 38be 6de9 0cbf 784f a5bd
000000e0: ee5c 19bc 4250 333d 6fb9 22bd 254a 623f
000000f0: 7c4b 433f 012c a23f 6c6e 133e 4636 21be
00000100: 33de 693e 58d2 853e 3d68 02bf 99ae a73e
00000110: 24f7 b3bf 8d39 423e 4427 333f 12e1 b9bf
00000120: a85d 86be 6126 253f 668b 773e 8a6f 153e
00000130: b6a4 223d 28ea 493d 80ee 4fbf 1f2b 3fbc
00000140: 3058 ddbe 2f75 9dbf 38c2 e4bc ca4d f5be
00000150: 18d4 98bf 23d7 cc3f 911b 863e e18e 673e
00000160: 491d 9abe a9d2 ff3f 27af 563f 3f06 04be
00000170: b49c 873d 4d80 cb3e 209b 0cbf d7db 0dbe
00000180: b138 783e 0cb5 82bf 6609 13be b022 623d
1.8186336 1.5014467 1.5439531 -1.6618317 -2.8774564 -1.4932148 2.9845874 -3.3950872
1.0925016 1.5212108 -1.5648855 1.4752285 1.6472738 2.2444472 3.2790391 -1.4633173
-1.2446232 1.7329221 3.0808692 -2.722012 2.3123133 -1.2632207 -1.4214361 3.1619744
1.3826236 3.0417283 -3.2778292 -0.703157 3.0984106 -1.2398692 -2.8626873 -3.0200267
3.5639439 1.8113185 -3.4601643 -3.177467 1.8430738 1.3976613 3.7277086 -3.1015623
3.0125864 1.4294143 3.3953524 1.4723182 -3.1394114 -1.4954686 -3.727954 3.6707854
3.4496741 -1.5276194 -0.9518563 1.046794 -0.101704955 -0.18010868 -0.5504368 -0.08071798
-0.009360535 0.04377771 -0.039727625 0.88394386 0.76287055 1.2669679 0.14397591 -0.1574336
0.22838669 0.26137042 -0.50940305 0.32750395 -1.4059796 0.18967266 0.6998179 -1.4521811
-0.2624333 0.64511687 0.2417427 0.1459333 0.03970786 0.049295574 -0.812233 -0.011667996
-0.43231344 -1.2301387 -0.027924642 -0.4791091 -1.1939726 1.6003155 0.26192906 0.22613098
-0.30100468 1.9986163 0.8386101 -0.12893008 0.066216856 0.39746323 -0.549242 -0.13853393
0.24240376 -1.0211501 -0.14359054 0.05520886

linears.4.bias f4 [2]
00000000: 6458 f1bf 02f8 f9bf
-1.88551 -1.9528811
