forward/results/mixed_BVP/first_run/model_parallel-18000.pt (torch, 35719 bytes, 10 tensors)

linears.0.weight f4 [50, 2]
000000 24 be ec bd 53 50 2f 3e 13 b5 91 be a9 97 b3 be
       -0.11559704 0.17120485 -0.2845846 -0.35076645
000010 64 73 30 3e 8c 4b 70 3d 83 87 c2 be b8 f0 88 3e
       0.17231518 0.058665797 -0.37994012 0.26746154
000020 68 f4 0c be de 2d 4e 3e ed 5a 78 be 8e 96 7f 3d
       -0.13765109 0.20134684 -0.24253435 0.06239944
000030 72 9f 97 be ad 3a 4c 3d a7 0a 8f 3e d5 6b 5b be
       -0.29613835 0.049860645 0.27937815 -0.21427853
000040 f0 26 42 bd d9 ea 78 bf 44 32 c2 be f5 b6 14 3e
       -0.047400415 -0.9723335 -0.37928975 0.14522918
000050 25 a9 69 be a1 d6 cb bd ca 06 24 be 66 6f 7f 3e
       -0.2281843 -0.099530466 -0.16018215 0.24944839
000060 48 9d c3 bd 21 98 61 be 97 08 1d 3e a8 8c f5 bc
       -0.095514834 -0.22030689 0.15335308 -0.029974297
000070 0b 38 24 be 4e 89 b1 be 33 c8 e3 3e d1 02 84 3d
       -0.16037004 -0.34675068 0.44488677 0.0644585
000080 80 53 a1 be 44 6e 82 bd f9 ca d5 bc 93 53 94 bd
       -0.31509018 -0.06368688 -0.026097761 -0.07242503
000090 cd da 15 3e 54 e1 80 3e 91 1a 12 3e ce 9a 16 be
       0.14634247 0.25171912 0.14267947 -0.14707491
0000a0 02 8a 14 3c 21 5b 6e be 37 e2 ec 3d fb 43 08 3e
       0.009066107 -0.2327695 0.115665846 0.13307182
0000b0 a0 d2 51 3e 87 80 ba bd 5d 67 19 be 24 48 1b 3e
       0.20490503 -0.09106546 -0.14980836 0.15164238
0000c0 7c b6 bc 3d de 4b 1d be 36 17 ae bd a7 d0 89 be
       0.09214494 -0.15360972 -0.08500521 -0.26917002
0000d0 bc 50 8d bc cf 91 83 3e bf ca 92 3b d0 24 af be
       -0.017250411 0.2569718 0.0044797356 -0.34207773
0000e0 b4 2f 14 be d6 91 a6 3e 72 87 d0 bd aa 77 12 be
       -0.14471322 0.3253314 -0.10182084 -0.1430346
0000f0 13 57 8e 3e 80 76 8d be 66 32 06 be 46 3b 8a be
       0.27800807 -0.2762947 -0.13105163 -0.26998347
000100 80 59 29 be 1c 42 f8 3d 9a 21 2c 3e 6e 16 98 3e
       -0.16538048 0.12121984 0.16809693 0.29704612
000110 3b 3d 79 3d 3a d7 bb be a1 4a 01 3f 8a bf c6 be
       0.06084941 -0.36687642 0.505045 -0.38818008
000120 30 79 b9 bd 59 fe 43 be a4 a4 f9 3e 0d e4 a9 be
       -0.09056318 -0.19139995 0.48758423 -0.331818
000130 7c 55 cb be db ee 9b 3e 99 12 8c bc 46 21 a1 3c
       -0.39713657 0.3045567 -0.017098712 0.019669186
000140 cc 3a 39 3e e1 f6 ae 3d bf 30 5c be 9c c9 18 3d
       0.18088835 0.08543182 -0.2150297 0.037301645
000150 7c 4a 67 3e 76 aa 2b 3e bc f7 de be e9 07 90 be
       0.22587007 0.16764244 -0.4354838 -0.28131035
000160 5e 15 19 3e 62 eb 86 be 14 1a 0a be c7 ab 50 be
       0.14949557 -0.26351458 -0.1348651 -0.20378028
000170 ed a1 ef 3d 28 f3 43 3e af 1e 8a 3e 09 a7 56 3e
       0.11700807 0.19135725 0.26976535 0.20962156
000180 41 2a 80 3e f2 dc 9d be c6 ce 94 3e d6 0a 7c 3e
       0.25032237 -0.3083263 0.29064006 0.24613509

linears.0.bias f4 [50]
000000 f7 d2 07 3e 9d 27 64 be 00 2f 59 be 07 31 d5 3e
       0.1326407 -0.22280736 -0.21209335 0.41638967
000010 41 fd b1 3c 85 22 3e bd ea db 29 3a ed 96 c1 3e
       0.021727206 -0.04641964 0.0006479608 0.3781046
000020 d5 ec c9 be 26 fa cf bd bd bc d0 be d8 c8 2e be
       -0.394385 -0.10155134 -0.40768996 -0.17068803
000030 c5 d3 3f be be 5c e3 bb 35 dc 39 be b5 fa c3 3e
       -0.18733127 -0.006938546 -0.18150409 0.38277212
000040 9a 3b 29 3f 47 1d b9 3d 53 c7 03 be 6d 13 aa 3d
       0.6610657 0.09038787 -0.12869005 0.083044864
000050 50 39 3f 3d 1c 06 eb 3c a2 a6 0e be 8b 96 b6 3d
       0.046685517 0.028689437 -0.13930753 0.089154325
000060 4e 6b 64 3e df 8d c5 3d 61 11 f9 bd 2e ea 10 be
       0.22306558 0.096462004 -0.12161518 -0.14151832
000070 e3 05 12 be 17 e3 e8 3e 82 0f 36 bd 83 d2 13 3d
       -0.14260058 0.45485756 -0.044448383 0.03608943
000080 b3 dd 3c be a9 3e 85 be f9 43 b3 3e c4 ae 8c 3e
       -0.18443947 -0.26024368 0.35012797 0.27477086
000090 2e a9 0c be 8a ff 0d bc 48 f4 06 bf bc 11 5f bc
       -0.13736412 -0.008666882 -0.52716494 -0.013615068
0000a0 f6 16 5b 3e d5 e4 5d 3e 90 99 53 3e c9 64 d7 bd
       0.21395478 0.21669324 0.20664048 -0.1051727
0000b0 51 88 f8 3e 79 03 8e 3e 28 05 93 3e 7e d8 c1 3d
       0.485415 0.27737024 0.2871487 0.09465121
0000c0 4a 63 91 bd a1 48 81 3d
       -0.07099016 0.06312681

linears.1.weight f4 [50, 50]
000000 10 61 0b 3e e4 f6 ae 3d 60 04 79 be 2e a9 5d be
       0.13611245 0.085431844 -0.24318075 -0.21646568
000010 ae 87 6a be f4 f3 b8 bc c4 bf 76 bd f8 19 08 3e
       -0.2290332 -0.022577263 -0.060241476 0.13291156
000020 f5 10 04 3e 17 e9 34 be 54 77 0d 3e 0e 40 0a 3e
       0.12897094 -0.17667042 0.13815051 0.13500997
000030 5d 7f a1 3e 23 35 ad bd 7e 09 1a 3e b2 d4 9c 3c
       0.31542483 -0.08457401 0.15042683 0.01914439
000040 f4 d4 ca be 54 b7 88 3d 91 01 ea 3b 0d 56 1e 3e
       -0.39615595 0.06675592 0.0071413 0.15462513
000050 c1 5c 70 bd 8a 18 16 3d 95 85 8e 3e 40 de a9 bd
       -0.058682207 0.036644496 0.2783629 -0.08294344
000060 7f 1e 34 be cf ad e4 3d 20 e1 2e 3e 9a de f8 3d
       -0.17589758 0.11165964 0.17078066 0.12151833
000070 d1 79 ca bc c6 0b 25 be 5c c6 57 3e 71 18 47 bd
       -0.02471629 -0.16117772 0.21071762 -0.048607294
000080 61 26 4a be a0 92 04 be 11 a4 74 bd 6a 95 23 3e
       -0.19741203 -0.12946558 -0.05972678 0.15974966
000090 61 3e b2 3d bf 6b 69 3e 79 2c 94 bc a8 2c d6 3d
       0.08703304 0.22795008 -0.018087612 0.10457736
0000a0 e0 75 4a 3e a3 d1 8b 3a de 40 e9 3d e1 f3 6a 3d
       0.19771528 0.0010667335 0.113893256 0.057361487
0000b0 81 8f e6 3d 84 41 09 3e 4b 7d c3 3d b7 ab 3a bd
       0.1125784 0.13403898 0.09545382 -0.045573916
0000c0 41 2b ca 3e 5f 02 0c be a2 2f 0f 3e ab 85 1d 3e
       0.39486125 -0.1367278 0.13983014 0.15383022
0000d0 15 35 22 bc 30 7f c0 bd 37 da b0 be 42 bf a7 bd
       -0.009900351 -0.09399259 -0.34541485 -0.081907764
0000e0 56 7c 22 be 9c 44 ce 3e bc 46 e8 3d cd 3c 34 be
       -0.15867743 0.4028672 0.113416165 -0.17601319
0000f0 09 16 9d bc 2e a5 9a be 2c 58 8b 3e 87 af 31 3d
       -0.019175546 -0.30204147 0.27215707 0.043380287
000100 3e ca 86 3d c4 66 20 3e f1 97 da bd 8b 5f 7a be
       0.065815434 0.15664202 -0.10673512 -0.24450509
000110 16 07 4b be 6a b2 14 be 5b f2 0e 3e 20 15 25 3e
       -0.19826922 -0.14521185 0.13959639 0.1612134
000120 9e 07 19 be 82 21 1d be 4a bf 9d 3e 9c fa 7b be
       -0.14944312 -0.15344813 0.30810004 -0.24607319
000130 e5 fe 79 3d 6a a9 a6 bd 30 cf e7 be d6 e1 81 3e
       0.061034102 -0.08137782 -0.4527526 0.25367612
000140 a0 7f 0d 3e b1 6d 5e be 57 91 59 be 31 46 7c 3e
       0.13818216 -0.21721531 -0.21246849 0.24636151
000150 16 bf 32 3e 5a 45 fe 3d a1 7a f2 bd 6e df 71 3e
       0.17455706 0.124155715 -0.11839796 0.23620388
000160 21 aa 9f bd 53 c7 0c 3e 67 38 a1 3e 5a 10 5c be
       -0.077961214 0.13747911 0.31488344 -0.21490613
000170 f4 23 09 3e ca d9 80 bd b8 bb a6 3d b6 f8 2a 3e
       0.13392621 -0.0629154 0.08141273 0.16696438
000180 8e c9 ba 3d 2d 84 9d 3d 79 e2 58 3e 31 f8 19 3d
       0.09120475 0.07691226 0.21180142 0.03759021
000190 d2 f9 84 bd 20 21 97 3b f2 9a 2d bd 3b 67 e4 be
       -0.06492962 0.004612103 -0.042384095 -0.4461001
0001a0 15 ab 98 3d 63 8c 16 3e e0 28 6f be fc 8d 3a be
       0.07454506 0.14701991 -0.23355436 -0.18218225
0001b0 fb 88 cd 3c 99 95 99 3e 91 60 a9 3e 8d 17 aa 3e
       0.025089731 0.29996946 0.33081487 0.33221093
0001c0 cf b3 80 3d f3 8f b7 3e f5 e7 46 3d 52 a5 d5 bb
       0.06284296 0.35852012 0.048561055 -0.006519952
0001d0 b5 af 50 bf 0f c7 e8 3d a2 5c 93 3d 23 a4 c2 be
       -0.8151811 0.113660924 0.07195403 -0.3801585
0001e0 e5 5d 46 3e 83 4e e1 bc d6 10 f1 3d d4 35 a2 3e
       0.19371755 -0.027503258 0.11770789 0.31681693
0001f0 b3 10 5c be a3 ff 15 be 79 b4 a2 3e 36 de 49 3d
       -0.21490745 -0.14648299 0.31778315 0.049284182
000200 64 f2 dd 3d 5b 93 de be 7f c1 61 be 83 87 73 3c
       0.10837248 -0.43471798 -0.22046469 0.0148638515
000210 34 cc 5a 3e f3 fd 65 3e a0 19 fe be 7f 6d 55 be
       0.2136696 0.22460155 -0.49628925 -0.2084255
000220 b7 20 45 be 44 25 3a bc 97 bd 0a 3f 4c 47 82 3e
       -0.19250761 -0.011361424 0.5419554 0.2544502
000230 17 1a 7c be 36 32 4c be 40 20 82 3d 03 b8 67 3e
       -0.24619327 -0.19941029 0.063538074 0.22628789
000240 63 91 dd be 4a 54 81 be e9 23 61 3e 90 21 93 bd
       -0.43274984 -0.2525962 0.21986355 -0.07184136
000250 28 68 c3 bd ac a6 92 3e fb 2a 4a 3e 37 6d 43 be
       -0.095413506 0.28642786 0.19742958 -0.19084631
000260 9f ae 72 3e d0 d7 8f be e7 88 1c be c7 e9 5e 3e
       0.23699425 -0.2809434 -0.15286599 0.21768866
000270 5f 6d 5f be 26 3c c3 bc 8c 01 90 3e ec 30 71 be
       -0.21819066 -0.023832392 0.2812618 -0.23553818
000280 4f a0 b6 bd c9 54 40 be 73 2c a0 3e 99 f5 3b be
       -0.08917295 -0.18782343 0.31283912 -0.18355407
000290 42 51 20 be 6d 29 38 bd 9c a1 e2 bd c7 63 c9 bd
       -0.15655997 -0.04496138 -0.11065981 -0.09833484
0002a0 b7 fd e6 bd 5e 36 1f bd b0 93 74 3e 7b c6 6f 3e
       -0.11278861 -0.038870208 0.23884463 0.23415558
0002b0 d8 3c 56 3e 07 bb 72 be 67 81 c5 3d 90 47 ee bd
       0.20921648 -0.23704158 0.09643822 -0.11634743
0002c0 d7 9b 41 bd 90 b5 94 3d f1 a1 c3 be dc 29 16 3e
       -0.04726776 0.07261193 -0.3820949 0.14664406
0002d0 68 d2 71 3d 84 4b 7c bc 08 91 44 3e f0 5b 75 3e
       0.05903855 -0.015398864 0.1919595 0.23960853
0002e0 10 03 24 be 57 b4 8b 3e 22 43 b8 3d 5e 9d 4a 3d
       -0.16016793 0.27286026 0.089971796 0.049466483
0002f0 2c 49 dc bd a9 56 ec bd 24 b6 b5 3d 78 ef 3d be
       -0.10756144 -0.115399666 0.08872631 -0.18548381
000300 93 66 0c 3e 7d cd 48 3e 4e eb 2a 3e 0b a8 87 3e
       0.13711004 0.19609638 0.16691324 0.26495394
000310 3b 6b e4 3d 3a e7 1d 3e ba 55 90 bd 51 45 4e bd
       0.11153265 0.15420237 -0.07047601 -0.050359074
000320 ac e4 4a 3d fb 0e 69 3e 84 2b d6 3b ff 0e 4f 3e
       0.049534485 0.22759621 0.006535949 0.20220564
000330 ca fe 9a 3d b0 90 81 3e a4 e2 b3 3e 1a d9 d0 be
       0.075681284 0.253057 0.3513385 -0.40790635
000340 69 d0 fb 3d 66 ec bf 3e 9f 5e 6f 3e a5 d8 9f 3e
       0.122956105 0.37485045 0.23375939 0.31219974
000350 37 e0 40 3e a0 10 2c be 79 25 7e 3e e3 ba b1 bd
       0.18835531 -0.16803217 0.24818982 -0.08678224
000360 fa a8 a0 3e 4c 5b 91 3e e7 95 06 3e 7e 81 97 bb
       0.3137892 0.28389966 0.1314312 -0.004623591
000370 05 dd db 3c 5b 15 8e 3d b9 d6 81 3d 27 45 59 3c
       0.026838789 0.06937667 0.06339783 0.013261116
000380 c9 55 4e be 6a 86 d2 3b 8c e6 a7 bd 68 d6 e4 3d
       -0.20149912 0.006424715 -0.0819827 0.11173707
000390 68 45 e5 bd 6e 07 64 bd 18 c3 99 be 6a ae 91 3d
       -0.11194879 -0.055671148 -0.30031657 0.07113345
0003a0 8f 75 33 3c a7 62 82 be cb ef 8a 3e 4d 12 54 be
       0.010953321 -0.2546589 0.27136073 -0.20710106
0003b0 39 6e 39 3d 96 d2 81 bd 44 17 c1 bd 6e 0c 74 be
       0.045271132 -0.06338994 -0.09428266 -0.23832867
0003c0 54 83 ac be 4a 8c 05 3e 0e 5c 6e 3d 8d bb 92 3e
       -0.33693945 0.13041797 0.05819326 0.28658715
0003d0 56 8d 45 bd 3c a3 ad 3d cd b4 5c bd 30 15 d8 bc
       -0.04823049 0.084784 -0.053883363 -0.02637729
0003e0 70 bc bd be 0e c5 23 3e 6e 7e 4f be 4e f3 91 be
       -0.3705783 0.15993139 -0.20263073 -0.2850594
0003f0 e1 65 c2 3d 3b a7 f4 3a 17 4a 33 3e cc 48 c5 b7
       0.09492088 0.0018665561 0.17508732 -2.3518129e-05

linears.1.bias f4 [50]
000000 04 04 24 3b 31 06 b6 3d b2 af c6 be 33 c3 f8 3d
       0.0025026808 0.088879 -0.3880592 0.12146606
000010 6a 5d 86 3d ff ca 1a 3d 16 d2 f5 bd 99 f9 b2 be
       0.06560786 0.03779125 -0.12002961 -0.34956053
000020 76 2e 88 bd b6 f2 37 3e e7 a1 19 3e ac c9 a8 be
       -0.06649487 0.1796368 0.15003167 -0.32966363
000030 92 d9 31 be ac ec 1f 3e f2 e0 ca 3d 6b 07 54 be
       -0.17368153 0.15617627 0.09906186 -0.20705955
000040 3f da 40 be 04 1e 81 3d 02 d4 82 3d 4e ad 24 3e
       -0.18833254 0.06304553 0.063880935 0.16081735
000050 e5 10 7e bd 95 e5 23 be 1a 3b 0d be db ee 7e bd
       -0.06202783 -0.16005547 -0.13792077 -0.06223951
000060 c9 3a 9b be 97 56 47 3e 1d 46 c7 3b 02 62 ad bc
       -0.30318287 0.19466625 0.006081356 -0.021164898
000070 d4 48 08 bc e7 6c 82 be 9a 21 75 bd a7 6e c5 3b
       -0.008318145 -0.2547371 -0.059846498 0.0060251537
000080 f5 06 98 3d 80 d5 3a be df 8f 7c be 18 b0 89 3d
       0.07423202 -0.18245506 -0.24664257 0.0672304
000090 bd 26 37 3d f5 f4 50 be 5a 57 64 3d 2c f8 86 3d
       0.044714678 -0.20405944 0.055747367 0.06590304
0000a0 cd 3f fe bd dd a1 b0 3d 5d 65 33 be 48 68 98 bd
       -0.12414513 0.08624623 -0.17519136 -0.07441765
0000b0 9d 75 0b be 12 54 01 3e 39 93 0b bd 9f 38 88 3d
       -0.13619085 0.12629727 -0.03407595 0.066514246
0000c0 cb bf 9c 3d 1c 1b f0 bd
       0.07653769 -0.11723921

linears.2.weight f4 [50, 50]
000000 ff e2 9b 3e 31 af 39 be 9c 05 06 bf 68 b0 90 3e
       0.30446622 -0.18133236 -0.5235231 0.28259587
000010 d8 31 7b be e9 27 28 bc 00 39 77 3e 53 c1 73 3e
       -0.24530733 -0.010263422 0.24142838 0.23804216
000020 f3 42 7e be 75 2b 2d 3f 24 e7 6a 3e a8 f2 0a 3e
       -0.24830227 0.67644435 0.22939736 0.13569129
000030 86 f6 9e 3e 8b ab 40 3e 07 93 d1 3d be 3d f5 3d
       0.31047457 0.18815438 0.10233121 0.11974667
000040 3d ed c1 3c a0 56 e5 3e 06 e5 c8 bd 63 2c 17 3e
       0.023672694 0.44792652 -0.09809308 0.14763026
000050 26 17 72 3e d4 44 a3 be c8 0f 4a be 74 70 73 be
       0.23641643 -0.3188845 -0.19732583 -0.23773366
000060 c8 f6 dd be c4 4f 5a be 92 ec 3e be e3 d4 b2 3e
       -0.43352342 -0.2131949 -0.18644932 0.34928045
000070 49 d5 b9 3d 27 78 d5 3b 66 c6 99 3e b8 33 ca 3b
       0.09073884 0.0065145674 0.30034178 0.006170716
000080 ea eb 9b 3d 9a af df 3d 75 7b b3 3d 81 12 75 bd
       0.076133564 0.10922165 0.08763782 -0.0598321
000090 75 bb c5 bd 5c ee f9 3c 41 b1 b7 be a3 7c 65 3e
       -0.09654895 0.030509166 -0.35877421 0.22410826
0000a0 eb fb e6 3d 98 69 d2 3d 53 48 ae be fa ac 05 bd
       0.11278518 0.10274047 -0.34039554 -0.032635666
0000b0 6b 58 fa be 6e c6 38 3d 94 4a b9 3d db 50 19 be
       -0.48895583 0.045111112 0.09047428 -0.1497225
0000c0 24 05 41 3e 5c 44 0b 3e 27 44 b8 3d af d2 7e 3e
       0.18849617 0.13600296 0.08997374 0.24885057
0000d0 81 51 ff be 39 ab c5 3e 92 e1 0a be 51 9c be bd
       -0.4986687 0.38607195 -0.13562611 -0.09307159
0000e0 55 8b 00 3e ef 3d 9a be c6 70 86 be 17 98 97 3c
       0.12553151 -0.30125377 -0.26257914 0.01850514
0000f0 c7 1f 15 3d 47 32 19 bf f8 c5 b1 3e 87 ca 91 3e
       0.03640726 -0.5984234 0.3472135 0.2847483
000100 7e a7 c5 bd fb ef 08 bf bd 27 22 3e 35 6c b2 bd
       -0.09651087 -0.5349118 0.15835471 -0.08712045
000110 91 ce 84 3e ce 1b 89 3e 07 8a 82 3c ff 1c 71 be
       0.25938848 0.26779026 0.015934957 -0.23546217
000120 2d bf f9 3e fb 77 0f be ab 05 31 be 99 3c b5 3d
       0.48778668 -0.14010613 -0.17287318 0.08849449
000130 ad 4c 56 3e cc 72 68 3e 52 0f 0f bd ef 58 d5 3e
       0.20927687 0.22700042 -0.03492672 0.41669413
000140 a5 21 fd 3d 10 15 3b 3e 62 83 7a 3c d4 9a de 3e
       0.12359933 0.18269753 0.015290113 0.434775
000150 66 f9 98 bd 6d 69 5a be 08 0d 0e 3e 63 46 c4 bd
       -0.07469444 -0.21329279 0.13872159 -0.09583738
000160 4e db 17 3f f2 f4 d4 3d e0 de 13 3e c8 f6 d5 3d
       0.5931901 0.10398282 0.14440489 0.104474604
000170 90 0d 41 be 36 b0 a1 3e 2f c2 26 be 62 38 38 3e
       -0.1885283 0.3157975 -0.16285013 0.17990258
000180 e6 cb 0c 3f b1 ff 91 be 44 c6 ad 3e 33 be fc 3e
       0.54998624 -0.2851539 0.33940327 0.4936386
000190 50 f6 85 3e 3e 13 8a bd 18 38 33 be 21 2f 6f 3e
       0.26164484 -0.067419514 -0.17501867 0.23357822
0001a0 f4 88 81 3d da 3c 81 be 29 5b 11 3e 59 11 d5 bd
       0.0632495 -0.2524174 0.14194931 -0.104036994
0001b0 6d a0 d2 be 32 f9 60 bd ff 71 cb 3d d3 d6 8a 3e
       -0.4113802 -0.05492515 0.099338524 0.27117023
0001c0 7f 24 6c 3e f3 c1 be 3e ea 45 c3 3c a7 c2 90 be
       0.23060797 0.37257347 0.023837049 -0.28273508
0001d0 1b 4f 30 3e 86 9a bd 3e 5a 91 77 3c 03 43 f0 3d
       0.17217676 0.37031955 0.015110338 0.117315315
0001e0 a7 f6 8d 3e 4a 35 4f be dd 1c a5 be c9 18 96 3d
       0.27727243 -0.20235172 -0.32248583 0.07328946
0001f0 86 bc da 3d 15 c2 24 be 17 d8 18 3e cc ab a7 3d
       0.10680489 -0.16089661 0.14926182 0.081870645
000200 de 9a 94 bd 21 4e 65 bd 2a db b4 3e d9 1f a6 3e
       -0.07256101 -0.055982713 0.3532346 0.32446173
000210 80 b5 f1 3d e7 78 48 3d 92 f2 33 be 92 1d 8a bc
       0.118021965 0.048943426 -0.17573002 -0.016859803
000220 14 c6 60 3d df 25 05 3e 8c e8 38 bf 17 95 29 3d
       0.054876402 0.13002728 -0.7222984 0.04140195
000230 40 04 66 bd 41 ae 57 3c ae ba 22 3e f5 fe 9a 3e
       -0.056156397 0.013164104 0.15891525 0.30272642
000240 c1 98 f6 be dc 0a 3a 3f eb 71 00 be b7 62 6f bc
       -0.48163417 0.7267282 -0.12543456 -0.014610938
000250 60 00 d0 3e 14 da b3 3e c9 80 f5 3d 4e 15 e6 bd
       0.40625286 0.35127318 0.119874544 -0.11234532
000260 9d ff 0b 3d 24 4a 76 be a6 f1 a0 bd 94 6a 14 3c
       0.03417932 -0.2405172 -0.07858591 0.009058613
000270 00 77 8a 3e 7a 15 3c be bb 6c 40 3e 92 36 bc bc
       0.27043915 -0.18367568 0.18791477 -0.02297524
000280 81 de 6f bc a9 dc 1d be 83 c4 09 bf 8b 66 0a bf
       -0.014640451 -0.15416206 -0.5381548 -0.5406272
000290 b2 1e 35 be 44 9d 0b 3d cf 82 99 be 6a 3f d9 be
       -0.1768749 0.034085527 -0.29982612 -0.42431194
0002a0 a8 78 84 bc 7a 0d 84 be ac 94 2f be 34 5f f8 3e
       -0.016170815 -0.25791532 -0.17146558 0.48510134
0002b0 cc b0 93 bd cd 57 8e 3e 22 c0 4a bb f4 dd b8 bd
       -0.07211456 0.27801362 -0.0030937274 -0.09026709
0002c0 fb 6e b6 3c a1 15 50 3e 36 4a 80 3e e7 07 85 be
       0.022269716 0.20320751 0.25056618 -0.25982592
0002d0 78 6c d6 bc e5 1b 72 3d 70 ff ad 3a 0b 71 00 bf
       -0.026174769 0.059108634 0.0013274979 -0.5017249
0002e0 3f 82 39 3e d9 1f 68 3e 6d 2f 71 bc 47 0a fd bd
       0.18116091 0.22668399 -0.01472078 -0.12355476
0002f0 31 de fc 3e 58 27 2c be 46 15 06 3e 6f 7c d9 bd
       0.4938827 -0.16811883 0.13094053 -0.10619437
000300 53 d9 f3 3d da b9 a6 be f5 c6 c9 3e 8d 65 4a be
       0.11906686 -0.32563668 0.39409605 -0.19765301
000310 5d 1a 9b 3c 4a c0 5b 3d c7 de 72 bd d1 f4 b4 bd
       0.01893347 0.053650178 -0.05929449 -0.088357575
000320 38 18 3e 3e 11 a2 71 3e c9 3c aa bd 2e 06 dd 3d
       0.18563926 0.2359698 -0.08312375 0.10792194
000330 78 21 91 3e ee e4 00 3e dc 63 96 3d 7d ee 65 3e
       0.28345847 0.1258733 0.073432654 0.22454257
000340 1e 8d 93 bb 1e b7 dc be e0 60 a8 3d db 9e 3f be
       -0.0045029065 -0.43108457 0.082216024 -0.18712942
000350 2a 6e 9b 3e b5 44 f6 3e 5a 13 0a bd be 60 1a 3d
       0.30357486 0.48099294 -0.03370986 0.037689917
000360 b0 46 83 3c 10 b1 31 be 7d 31 d2 3d 9d fb 87 3e
       0.016024917 -0.173527 0.102633454 0.26559153
000370 12 dd 29 3e b6 f3 6a bd 30 6b 9c 3e 9a 09 81 be
       0.16588238 -0.057361327 0.30550528 -0.25202638
000380 6b ca 0a bf 51 0e 0a be 34 e6 73 3c 02 e1 ce 3d
       -0.54215115 -0.13482024 0.014886428 0.101015106
000390 cd ef e2 3c 4c 8c 18 3e 12 bb ca 3c 66 fb d4 bd
       0.027702237 0.14897269 0.024747405 -0.10399513
0003a0 51 88 4f 3d 1a d8 d5 bd 0f 5f 07 be d8 8c 29 3e
       0.05066711 -0.10441609 -0.13219856 0.16557634
0003b0 f5 db 76 3e ac db c2 bd 3c 65 fa 3e ee be 0b 3e
       0.24107344 -0.09514555 0.4890536 0.13647053
0003c0 20 8e 95 be 2c 45 29 3e 6b cd 07 be 55 7f d1 3d
       -0.29209995 0.16530293 -0.13261954 0.10229365
0003d0 c0 b2 b1 bd 03 93 29 bc b2 49 a5 3d 66 bf 85 be
       -0.08676672 -0.010349992 0.08070697 -0.26122588
0003e0 da e8 a5 bd 46 56 8e 3e 80 51 7e 3e 3a 83 76 bd
       -0.081010535 0.27800196 0.24835777 -0.06018374
0003f0 71 87 15 be ef 48 1b 3e 95 a5 bb 3d ed 38 42 be
       -0.14602448 0.1516454 0.09162442 -0.18967028

linears.2.bias f4 [50]
000000 1c ba 41 3e 2c 38 8d bd 12 f7 b8 bd be a3 ca 3c
       0.18918651 -0.068954796 -0.090315 0.024736281
000010 2e b1 b3 3b 0d b8 78 3d 18 39 2f be 0c bf 98 bd
       0.005483768 0.0607224 -0.17111623 -0.07458314
000020 2e e6 78 bd 51 7c 77 be a8 7a 41 bc 20 58 01 bd
       -0.06076639 -0.24168517 -0.011809029 -0.031578183
000030 a1 16 e6 bd 69 f8 d5 bd 0c 98 b9 3d 7e 3c de bd
       -0.11234785 -0.10447771 0.09062204 -0.10851382
000040 e0 cc 4f 3d a6 14 e3 3a 8c 69 77 3d 77 49 45 3e
       0.050732493 0.0017324879 0.06040339 0.19266306
000050 28 b1 7c bd 57 92 97 ba 06 4e 17 3e ff 38 9f bd
       -0.061692387 -0.0011563998 0.14775857 -0.07774543
000060 82 13 4e bc b5 d4 07 3d 46 50 25 be 03 d9 00 3e
       -0.012577893 0.033161838 -0.16143903 0.12582783
000070 6a 81 0c 3c 0b b6 84 3c 42 d2 0f be 41 d5 08 bd
       0.008575777 0.016200086 -0.1404505 -0.0334065
000080 7a f7 57 3d 82 2c 06 3e 90 94 f6 3d 22 ed 22 bd
       0.052726246 0.13102916 0.12040055 -0.03977693
000090 51 89 d1 38 d4 ac 62 bd 29 2b ca 3c e0 59 ff bd
       9.991474e-05 -0.055340603 0.024678783 -0.12468314
0000a0 a3 b8 78 3e 54 4c e3 bd 52 a5 64 bc 9d 7f f2 3d
       0.24289183 -0.11098543 -0.013955431 0.118407466
0000b0 f7 51 60 bb 41 96 3e bd a6 3a 3d 3d 6a aa f4 bc
       -0.0034228542 -0.046530012 0.04619851 -0.029866416
0000c0 67 33 1f bc 81 1d 05 bd
       -0.009716845 -0.03249884

linears.3.weight f4 [50, 50]
000000 da 52 1c bc 0b a1 c6 3d 72 e6 d9 3e 79 12 fa be
       -0.009541238 0.09698685 0.42558628 -0.4884222
000010 7b 96 20 3e f1 b9 81 3d c4 73 81 3d ec 0e a6 be
       0.15682404 0.06334294 0.06320909 -0.3243326
000020 85 fd 0a 3f 64 9b 4a bd 93 62 8d bd e0 1f 19 3e
       0.5429309 -0.0494646 -0.06903567 0.14953566
000030 4c e9 d9 be 1f 62 66 be cd 7f 11 3f fe 53 a3 bd
       -0.42560804 -0.22498368 0.56835634 -0.079750046
000040 7d f0 85 3c 82 57 7f 3e 02 c8 5e 3e 90 33 09 bf
       0.016350025 0.24935725 0.21755984 -0.53594303
000050 2b cd fe 3d 22 6f be be b9 86 2e 3e 14 11 e4 3d
       0.124414764 -0.37194163 0.1704358 0.1113607
000060 7c a0 a1 be 8e 11 5a be 62 d1 c9 be b0 e7 80 3c
       -0.31567752 -0.21295759 -0.3941756 0.015735477
000070 30 77 db 3e a3 bd 54 3e 8b b3 90 bd 6a 6a a1 be
       0.4286437 0.20775466 -0.07065495 -0.315265
000080 b9 f5 59 be ba d9 c6 3c 91 da 47 be 28 98 6d be
       -0.21285142 0.024273742 -0.1951697 -0.23202574
000090 b2 24 1b bd 4f ae f1 3c 5d 0d 18 3f 5a 89 29 3f
       -0.037876792 0.029502062 0.5939539 0.66225207
0000a0 90 26 4c be c7 a5 86 bd 50 95 84 3e 5d 95 1c 3f
       -0.19936585 -0.06574588 0.25895166 0.6116541
0000b0 d0 4b dd be 44 d5 17 3f 37 31 11 bf 7d 8c 6a bd
       -0.43221903 0.5930979 -0.5671572 -0.057262886
0000c0 c9 74 c9 be 72 96 5c 3d 02 87 65 be b4 cc 0d 3f
       -0.39346913 0.053854413 -0.22414783 0.5539048
0000d0 45 3c 06 bf 0e 87 01 3f 40 de 4f be fc 72 d2 3d
       -0.52435714 0.505967 -0.20299625 0.10275838
0000e0 cb 31 2f 3f 48 1d 86 be 2b 44 96 3f a1 93 10 be
       0.68435353 -0.26194215 1.1739553 -0.14118816
0000f0 2e b1 71 3e 65 2e 7b bd be 42 be be 56 60 03 3f
       0.23602745 -0.061323542 -0.37160295 0.5131887
000100 8c 8e 10 3f fb 67 a7 3c be 4d 0f bf df f8 c7 3d
       0.5646751 0.020435324 -0.55978 0.09764265
000110 ea bb 66 be 02 1e cf 3e 0d 68 24 3f 36 41 43 be
       -0.22532621 0.40452582 0.6422127 -0.19067845
000120 1e a5 87 be ef 1e 9c be e6 f4 83 3f c5 a2 1c be
       -0.26493162 -0.3049235 1.0309112 -0.15296467
000130 c4 81 06 bf de c2 3b 3e 5a 61 13 3e aa 71 f9 be
       -0.52541757 0.18336055 0.14392605 -0.4871953
000140 64 60 36 3e 5f 34 30 3e f8 31 93 3e 96 8d 4e 3d
       0.17810208 0.17207478 0.2874906 0.050427996
000150 1f eb fc 3d b8 88 a6 3d 03 8d 6e 3e b4 85 fb 3e
       0.12349533 0.08131546 0.23295979 0.49125445
000160 2e 14 22 be e4 15 61 3e 63 b6 20 3f d3 14 2a 3d
       -0.1582801 0.21981007 0.627783 0.041523766
000170 40 d7 53 3e f5 30 15 3e e9 11 b7 3e f4 2b 39 3e
       0.2068758 0.14569457 0.35755852 0.18083173
000180 00 1c b7 bd cb de 9d bd f3 55 c3 be d0 20 00 3f
       -0.089408875 -0.0770851 -0.38151512 0.5005007
000190 b3 28 a0 3e 19 f4 e4 be c9 25 cf 3e 74 45 c7 bd
       0.3128105 -0.44717482 0.40458515 -0.09730044
0001a0 0f 78 c1 bd 48 81 db bd 93 c2 97 bd 3d 39 55 3d
       -0.094467275 -0.10718018 -0.07410159 0.05205654
0001b0 01 cb 56 3d 8e a0 84 be fa b4 93 3d f8 85 5b be
       0.052439693 -0.25903744 0.07212253 -0.21437824
0001c0 d8 24 ae bd b8 10 65 be f8 d4 b3 bb f0 b5 99 bd
       -0.08503121 -0.22369659 -0.0054880343 -0.07505405
0001d0 3c fb de 3e 03 f9 54 3e d7 38 0c 3e 42 95 8f be
       0.43551052 0.20798115 0.13693558 -0.28043562
0001e0 85 5e 78 be 6a df 2c be 12 36 86 3e bc 03 0c bd
       -0.24254806 -0.168821 0.26213127 -0.03418325
0001f0 b8 28 39 be 44 cd 18 be ae 83 3d bc 32 af 26 bd
       -0.18081939 -0.14922053 -0.011567039 -0.040694423
000200 c7 80 05 3e ed 87 ff ba d6 7d e4 3d ec 4c 28 be
       0.13037406 -0.0019495465 0.11156814 -0.16435593
000210 9c 2f 07 bf dd 1e d5 be f4 60 60 be 5a 00 16 3e
       -0.5280702 -0.4162511 -0.21911985 0.14648572
000220 19 9c 4e bd a5 56 b3 bd 71 15 07 3e 31 56 93 3e
       -0.050441835 -0.087567605 0.13191773 0.28776696
000230 29 20 b8 be 1d 81 e8 bd a0 be 9c bc 62 3a bb bc
       -0.35962036 -0.113527514 -0.019133866 -0.022854988
000240 c5 d3 b7 be 5c dd 6e 3e 4e c5 2a bd 12 8a 68 3d
       -0.35903755 0.2332663 -0.04169207 0.0567723
000250 f3 37 76 3e da 23 9f 3e 99 25 d1 3e 5b d0 b4 bd
       0.2404478 0.3108204 0.40848997 -0.08828803
000260 67 66 04 3f 96 77 ee be 4e 46 2e 3e e8 21 c3 3e
       0.51718754 -0.46575612 0.17019007 0.38111806
000270 ce 29 91 3d b8 b7 b3 3e 5f 5e 6d 3e f4 2c 9d 3e
       0.07088052 0.35101104 0.23180531 0.3069836
000280 54 e0 8f be ae db 1f 3f 87 2c 33 be d4 9a 2b 3f
       -0.28100836 0.6244458 -0.17497455 0.67033124
000290 12 90 08 bd b0 16 7d bc 36 32 09 3f 0e 51 8b bd
       -0.03334052 -0.015447304 0.5359224 -0.06802569
0002a0 6a ca 3b 3f 8c 8c 23 bf a8 0d f9 be 5c 5b aa be
       0.73355734 -0.6388633 -0.4864323 -0.33272827
0002b0 5e 26 99 3d 15 e6 60 3e d7 34 fb be ac ab 25 3d
       0.07478021 0.2196277 -0.4906375 0.040446922
0002c0 7e 17 0b 3e 44 64 09 3f 6d b7 67 3d 28 63 cd 3e
       0.1358318 0.5366862 0.056571413 0.40114713
0002d0 65 c1 b4 3e 37 0c 9d 3c b8 de 60 3e 65 e9 30 3e
       0.35303798 0.019170864 0.2195996 0.17276533
0002e0 fa d0 65 3e cc 68 11 be ab 12 e4 bd 60 aa 38 3e
       0.22443 -0.14200133 -0.11136373 0.18033743
0002f0 b2 27 8e 3e 3d 1f 17 3e 28 ca cd 3e 05 49 69 bf
       0.2776466 0.1475801 0.40193295 -0.91127044
000300 2f e0 a1 be 92 e8 34 3e 29 fe 7c 3e a8 8b 99 3e
       -0.3161635 0.17666844 0.2470633 0.29989362
000310 a6 12 55 be 8d 3b be bc 34 cc e0 3d 55 c2 48 bf
       -0.20807895 -0.023221755 0.10976449 -0.7842153
000320 3d 3f bb 3e 8a f4 2a bf fe 5b 98 3e e5 84 7c 3e
       0.36571684 -0.66779387 0.29757684 0.2466007
000330 d5 b3 f6 3c 00 f1 c8 be a9 c2 b8 be 7c a5 b3 bd
       0.030115047 -0.39246368 -0.36086014 -0.08771798
000340 67 1a e5 3e cf b3 59 3d b7 e1 c9 3e ce 0a a5 bf
       0.44746706 0.053149994 0.3943002 -1.2893922
000350 32 89 aa be 3b 39 bb 3f 20 bd 9e be ec 4e d4 be
       -0.33307797 1.462684 -0.31003666 -0.41466463
000360 af e2 95 3e 34 fb 83 3d 41 56 00 3f 0f 90 28 bf
       0.29274508 0.064443976 0.50131613 -0.65844816
000370 19 a3 b7 3e 63 f4 86 3d 21 97 9c bf 8e eb bd be
       0.3586662 0.06589582 -1.2233621 -0.37093776
000380 39 2d 06 3e 0f 85 13 bf ad e6 d2 be e2 29 4f be
       0.13103189 -0.57624906 -0.41191617 -0.20230821
000390 14 15 88 3d 11 6f 42 3d 12 64 0e 3f 8b a1 8b be
       0.06644645 0.047469202 0.55621445 -0.27271685
0003a0 6d 9f f5 3e 06 7f 18 3d bb 4f d2 be 76 bf 39 be
       0.47973195 0.037230514 -0.41076455 -0.18139443
0003b0 0d 4a 30 bd 86 70 82 bc 1b 01 28 be 00 a6 02 3c
       -0.04303937 -0.015922796 -0.16406672 0.007974148
0003c0 01 37 06 3e 1a c5 0a 3f d3 72 cb 3d 3a e3 95 be
       0.1310692 0.54207003 0.0993401 -0.29274923
0003d0 8c 47 1d bf 38 7b 5b 3d 4e df 1d bd c2 c5 e0 3d
       -0.61437297 0.053584307 -0.038543038 0.10975219
0003e0 b8 ac 0d 3f 63 89 64 3e ce 91 e6 3e b6 b9 73 3c
       0.5534167 0.22318034 0.45033115 0.01487582
0003f0 6d f5 ed 3e 3b cd d2 be 91 5c 12 3d 3b 3e d5 3e
       0.46476308 -0.41172203 0.03573281 0.4164904

linears.3.bias f4 [50]
000000 87 3a ec bd 78 f5 5d 3e c3 a9 5f 3d 31 6f ba bd
       -0.11534601 0.2167567 0.054605257 -0.09103239
000010 76 84 e8 bd e7 8e cb bd e7 4c 46 bd 65 45 83 bd
       -0.1135339 -0.09939366 -0.048413184 -0.0640972
000020 b4 f4 82 be 9c f8 30 bd 52 fb c5 3d c8 76 3b 3d
       -0.2557732 -0.043205842 0.09667076 0.045767576
000030 4a 6a 6e 3c a9 c6 27 be be 4a 95 bd 89 6f d1 3e
       0.0145517085 -0.16384377 -0.072896466 0.40905407
000040 b4 43 7e bd 76 83 aa be 29 8b ed 3c 8f c7 0d be
       -0.062076285 -0.33303422 0.02899702 -0.13845657
000050 82 c9 34 3b b0 01 2f be 2f e0 c4 3d 30 92 ad bd
       0.0027585928 -0.17090487 0.09613072 -0.08475149
000060 37 fa e6 3d 25 14 b3 3d 20 2f 86 3e a9 27 54 be
       0.112781934 0.08744077 0.2620783 -0.20718254
000070 20 a1 85 bb 22 f1 c4 3e 4e 6a 6f bd 85 d6 dc 3d
       -0.0040780455 0.3846522 -0.05845099 0.10783104
000080 01 5b 0f 3d 46 70 a1 bd 66 4b 36 bd ae 51 c3 bd
       0.034998897 -0.078827426 -0.0445055 -0.095370635
000090 81 f2 13 3d f0 a0 0a 3c eb d0 5c be 8a ee e6 3d
       0.03611994 0.008461222 -0.21564071 0.112759665
0000a0 54 23 98 be 38 a1 57 be 14 60 a0 bc eb 4c 89 bc
       -0.29714453 -0.21057594 -0.019577064 -0.01676031
0000b0 cb 15 bb bd 80 7e ee be c3 a8 15 3e 07 ef 92 bd
       -0.09135016 -0.46580887 0.14615159 -0.07174497
0000c0 ec ca 75 3e bb dc 89 3e
       0.2400319 0.26926216

linears.4.weight f4 [5, 50]
000000 4b 72 30 3c 80 2f bb 3d 55 3f 31 3e 25 95 05 bf
       0.010769437 0.09139919 0.17309316 -0.521807
000010 57 af c3 3f 74 2b 9f 3e 23 fe 16 bf a3 a3 09 3f
       1.5287884 0.3108784 -0.5898153 0.53765315
000020 7b ae b7 be fa 36 15 be 3b 09 3c bc 75 11 62 bf
       -0.35875306 -0.14571753 -0.01147681 -0.8830789
000030 54 fd bc be 40 01 dd 3c 41 01 3a 3f 9b fd 1c c0
       -0.36912024 0.026978135 0.72658163 -2.4529788
000040 a5 72 11 c0 b2 b6 e0 be 51 b7 80 bf 1f eb 93 3f
       -2.2726223 -0.43889385 -1.0055944 1.1556128
000050 39 43 2a 40 8a e0 ab 3f 83 b3 e0 3e 65 1a 0a bf
       2.660353 1.3427899 0.43886957 -0.53946525
000060 3c 37 0a be 9d f0 cd 3e 26 d9 b3 3e d9 64 a5 be
       -0.13497633 0.40222636 0.3512661 -0.32303503
000070 51 90 ea be c3 fc 36 bf 79 67 88 be 96 d5 03 3f
       -0.4581323 -0.71479434 -0.26641443 0.5149778
000080 81 1e 1b bf db 52 cd 3e 63 5d 2a bd 06 2a c8 3e
       -0.6059342 0.40102276 -0.041592967 0.3909456
000090 90 7e a3 3e 4f e4 f9 bc 52 f0 98 3f ac 92 a5 3e
       0.31932497 -0.030504374 1.194834 0.32338464
0000a0 de 26 33 3f ca 90 de 3f 4e 5f 25 bf f0 d4 2d bc
       0.6998118 1.7387936 -0.6459855 -0.01060985
0000b0 d1 0a be bf ac 2d 82 3f df 15 4f bf 1d 6c 30 bd
       -1.4847051 1.0170188 -0.8089275 -0.043071855
0000c0 11 50 9e bb d4 db 2b bf bc c6 b4 bc 45 31 97 be
       -0.004831322 -0.67132306 -0.02206742 -0.29529777
0000d0 e1 da 3b 3e 5e a1 05 3e 3c 32 5f 3f 51 3f e6 be
       0.18345214 0.13049838 0.87186027 -0.44970182
0000e0 9f a9 98 3d 3e 64 34 3d da d2 c2 be 64 5a fc 3d
       0.07454228 0.04404091 -0.38051492 0.12321928
0000f0 5a 93 0b 3f d1 a9 43 be 66 89 e2 3e 95 32 5e be
       0.54521716 -0.19107749 0.44245452 -0.21698983
000100 7c 83 d9 3e 7c 29 a0 be 0f 16 4a 3e 9c eb 0c bf
       0.42483127 -0.3128165 0.19734977 -0.5504701
000110 77 5a d2 be 41 e7 5c be 87 48 03 bf d5 60 9f 3c
       -0.41084644 -0.21572591 -0.5128254 0.019455353
000120 99 5b a3 be f3 de cf 3e 03 e7 e1 3d cf 48 a5 bd
       -0.3190582 0.40599784 0.1103039 -0.08070528
000130 56 9f 52 3e 57 96 78 bf e4 1c bf bd f1 f7 31 3f
       0.20568594 -0.971044 -0.09331682 0.69518954
000140 30 8c e3 3e b1 6a 04 3f 83 78 b5 3e f6 c8 85 bd
       0.44442892 0.517253 0.35443506 -0.06532471
000150 0b 0e 56 3e d3 dd b9 bd c6 49 05 3f 9d 3e 03 3f
       0.20903794 -0.09075513 0.52065694 0.51267415
000160 33 9e e9 be be f9 1d bf 79 14 fb be 0d ba ad 3e
       -0.4562851 -0.617092 -0.49039057 0.33931008
000170 a1 c3 22 3f 6a 16 db 3d b4 bf 5e 3e f6 2a 59 3b
       0.63579756 0.106976345 0.21752816 0.003313718
000180 43 22 f8 be b3 80 dc be 33 4b 17 3f f3 92 3a 3f
       -0.4846364 -0.4306694 0.5909912 0.72880477
000190 e9 9b 1d bf 21 20 64 40 8d c7 01 c0 a5 92 a4 c0
       -0.61566025 3.564461 -2.0278046 -5.142901
0001a0 55 fd 25 c0 ac 27 84 c0 43 f3 45 c0 8e f6 65 40
       -2.5935872 -4.1298428 -3.0929725 3.5931735
0001b0 68 c3 85 c0 d9 96 37 40 41 04 86 c0 dd cd 76 c0
       -4.1801033 2.868582 -4.1880193 -3.856315
0001c0 1a ca 5a c0 dc 8e 11 c0 d3 dd 3b c0 78 f3 82 be
       -3.4185853 -2.2743444 -2.935414 -0.25576377
0001d0 3b 24 1d c0 96 e9 2e 40 aa fa 17 40 f6 33 58 40
       -2.4553363 2.733007 2.3746743 3.3781714
0001e0 a0 ea db 3f da d6 88 bf cf 02 61 c0 fc 6b 7e bf
       1.7180977 -1.0690567 -3.5157964 -0.9938352
0001f0 73 e0 72 40 fe c5 a0 c0 64 47 6c 40 2a 47 1b c0
       3.7949493 -5.024169 3.6918573 -2.4262185
000200 4c a6 8e 40 cd eb 3d c0 bb 34 76 c0 6f 19 50 c0
       4.4578 -2.9675171 -3.8469684 -3.2515523
000210 eb 0e 1c 40 d9 0d 21 c0 4a 18 59 40 f6 b4 68 40
       2.4384105 -2.5164702 3.3921075 3.636045
000220 61 a6 58 40 04 6c 8e 40 66 50 27 c0 95 9d a1 c0
       3.385155 4.4506855 -2.6142821 -5.050486
000230 6e 45 4d c0 24 e9 43 c0 e3 c6 6c 40 dd ed 80 c0
       -3.2073627 -3.0611048 3.699639 -4.029036
000240 6b eb 12 c0 18 10 33 40 09 71 50 40 ac 4f 83 40
       -2.2956188 2.7978573 3.256899 4.1034756
000250 f2 a9 6c 40 24 6f 88 c0 46 0c 87 40 7c 01 38 40
       3.6978726 -4.263567 4.220248 2.8750906
000260 92 9f 3d c0 44 a5 7d 3f 14 e1 81 40 d1 d0 46 3e
       -2.9628644 0.990803 4.0587254 0.19415595
000270 2e 9d 65 c0 73 31 eb bd 1e 11 95 be 6d 68 36 c0
       -3.5877185 -0.11484041 -0.29114622 -2.8501236
000280 b0 3c 6d 3e c2 c2 28 be 21 70 10 bf 2c 66 55 c0
       0.23167682 -0.16480544 -0.56421095 -3.334361
000290 cf 16 b0 bf 34 03 0d 40 f5 7c df be 72 c4 09 c0
       -1.3756961 2.2033205 -0.43650022 -2.152615
0002a0 a6 55 15 40 90 9c 68 c0 9f 30 84 3f ce 4d 5b 3d
       2.3333526 -3.6345558 1.0327338 0.053540997
0002b0 4a 3a 25 3e 68 93 96 40 38 43 5d 3a e9 a1 76 be
       0.16135517 4.705494 0.00084404973 -0.24085201
0002c0 8f ca 34 bf de a5 17 c0 12 5e 3a c0 85 8c fe bf
       -0.7062158 -2.3694987 -2.9119916 -1.9886633
0002d0 c1 e9 8d 3f a0 f8 27 bf 58 49 21 40 b1 48 15 c0
       1.1086961 -0.65613747 2.5201015 -2.3325617
0002e0 b4 10 84 3e 51 e4 1b 3e fd 90 e2 bf 3d ce 21 bf
       0.25793993 0.15223815 -1.7700497 -0.6320532
0002f0 68 9b 06 c0 78 24 80 bf b3 8d 72 bd 51 c5 fe be
       -2.1032352 -1.0011129 -0.059217166 -0.49759915
000300 38 6a a2 bf 7a bd f9 bd 24 fd 31 c0 9d 81 c7 bf
       -1.2688665 -0.12194343 -2.7810755 -1.558643
000310 68 f5 15 3f 03 89 09 40 5a ab 43 3e 95 8b ee 3f
       0.58577585 2.1489875 0.19108334 1.8636347
000320 d2 bf 1c bc 24 be d7 3e 52 24 24 3e 92 10 59 3f
       -0.009567218 0.42137253 0.1602948 0.8479091
000330 97 08 87 bf 4c 1b a9 bd ff cd 66 3f bc d5 4f bf
       -1.0549496 -0.082571596 0.90158075 -0.8118551
000340 48 0f 77 be d8 0f eb 3c 37 b8 2a be 6a 09 35 bf
       -0.24126923 0.028694078 -0.16671835 -0.7071749
000350 e3 84 8a 3f 26 04 68 3d 0f a8 0b 3f a7 04 af be
       1.0821804 0.05664458 0.5455331 -0.34183237
000360 49 2b a9 bf 2b 83 8a be 1c 74 15 bf 07 66 ff bd
       -1.3216335 -0.27053198 -0.58380294 -0.12470632
000370 9c 9f 5b bf c1 52 a0 3f 24 bb 94 3f 06 bc 6d bf
       -0.8579042 1.2525254 1.1619611 -0.92865026
000380 57 7c 07 3d e4 7d 40 be 24 77 b7 3e ac 1c 30 bf
       0.033077564 -0.18798023 0.35833085 -0.6879375
000390 90 37 56 bd 63 63 bd bf 01 fc 26 bf cd df c1 be
       -0.052299082 -1.4795955 -0.6522828 -0.3786606
0003a0 21 a2 1c 3d 62 a6 42 3f ab 94 68 3e cc 56 19 bf
       0.038240556 0.7603513 0.22712962 -0.59898067
0003b0 42 ac 89 3f 89 b0 82 3f f9 cd 33 3f ac 40 81 be
       1.0755694 1.0210124 0.70236164 -0.25244653
0003c0 99 20 32 bf c0 99 2f 3e c6 68 19 be 18 70 b7 b9
       -0.6958099 0.17148495 -0.14981374 -0.00034987996
0003d0 0c 7a 32 bd 57 1f d0 3e 97 6f a5 be 8d fa f4 3e
       -0.043573424 0.4064891 -0.323117 0.47847405
0003e0 db a0 43 3f 66 3d b1 bd
       0.7641732 -0.08654289

linears.4.bias f4 [5]
000000 fd f7 3f 40 1f 3e 2c 3f 1e a3 55 3f 8b df 0d bf
       2.999511 0.6728229 0.8345202 -0.55419225
000010 56 c6 77 bf
       -0.9678701
