forward/results/mixed_BVP/first_run/model_direct-18000.pt (torch, 35143 bytes, 10 tensors)

linears.0.weight f4 [50, 2]
000000 3d 36 a8 3d 6f 31 e2 bc cc 33 99 3e 45 5d 8c 3e
       0.0821347 -0.027611462 0.2992233 0.2741491
000010 ab 1d c0 be ba 7a cb bd a7 9e 8d 3e 9c b2 8a 3e
       -0.37522635 -0.099355176 0.27660105 0.27089393
000020 c1 45 8d be 1a c8 36 be 08 d9 e2 bd 0d 82 24 3e
       -0.2759228 -0.1784977 -0.11076552 0.16065235
000030 07 88 a8 be 19 6f 52 3e 39 7b 72 3e 86 06 c4 3e
       -0.3291628 0.20550193 0.23679818 0.38286227
000040 88 27 7e be 18 29 fe bc 0f 0e 47 3d 98 bc 1c be
       -0.24819767 -0.031025454 0.04859739 -0.15306318
000050 55 9d ca 3e fd 30 82 3d f2 7d aa 3d 0a d1 bc 3d
       0.3957316 0.06357 0.083248034 0.092195585
000060 d9 c4 5f 3e 79 ff 3d 3e 5d 02 88 3e 20 4e a0 3b
       0.21852435 0.18554486 0.26564303 0.0048921257
000070 67 b5 75 be db b7 18 3e 75 0f 80 be 1c d0 8b be
       -0.23994981 0.14913885 -0.25011793 -0.27307212
000080 85 76 b3 3e bc 2a a0 bd d9 cc 69 3e 47 29 5c 3e
       0.3505136 -0.07820651 0.2283205 0.21500121
000090 5f 49 a3 be 36 21 34 3e 0a 90 d4 3d ad 95 66 be
       -0.31891915 0.17590794 0.10379036 -0.22518034
0000a0 ee 23 c8 3e 56 da 43 be 8a 28 fa 3c ee e5 60 be
       0.39089912 -0.19126257 0.030536909 -0.21962711
0000b0 c8 ad 9e 3e 53 27 0b be a4 a7 97 3d 46 78 2b be
       0.3099196 -0.1358922 0.07405022 -0.167451
0000c0 0e 99 89 3e b3 c2 54 bb 25 0d 68 bc d3 73 eb 3d
       0.26874584 -0.0032464683 -0.01416329 0.11496701
0000d0 34 73 72 3d 30 a9 1f 3e 33 c4 1c 3d cb 11 96 bc
       0.059191898 0.15591884 0.038273048 -0.018319031
0000e0 82 4d bf be 38 96 85 3e e4 e6 72 3e b9 25 24 3e
       -0.3736382 0.2609117 0.2372089 0.16030015
0000f0 d9 56 b9 be 74 5c 85 be 60 05 1b 3e 46 1c 89 bc
       -0.36199072 -0.260471 0.15138769 -0.016737115
000100 81 ae aa be 89 f1 78 be e3 7e b7 3e 36 dc ba 3d
       -0.3333626 -0.24310888 0.35838994 0.09124033
000110 87 02 64 be 33 04 7c 3e b3 9b 6e bc 3a 11 68 3e
       -0.22266589 0.24610977 -0.014563489 0.22662821
000120 71 52 be 3e 37 10 86 bc 3d 0a 95 3d 8f 37 04 be
       0.37172273 -0.016365154 0.072773434 -0.12911819
000130 60 af 6b bd 83 ae 04 3e 98 2c 9c 3d 4a d0 0a 3d
       -0.057540298 0.12957196 0.07625693 0.033890046
000140 45 19 ba 3e ef f3 70 be 4e 24 1f 3e 27 14 c0 bd
       0.36347404 -0.23530553 0.15541193 -0.09378844
000150 82 6b cc be 95 00 75 3e d7 91 9d 3e 6c 3f 9b be
       -0.39925772 0.23926003 0.3077533 -0.30321825
000160 3d 11 a7 be bb 74 4e 3d 95 66 d5 bd b8 11 5d be
       -0.3263034 0.05040429 -0.104199566 -0.2158879
000170 95 88 8e be c5 51 8a 3d 9a 06 9f 3e 53 78 4c 3d
       -0.2783858 0.067538776 0.31059724 0.049919438
000180 30 10 1e 3e 6d 44 8b bd 79 2a 73 3d f9 a3 a6 3e
       0.15435863 -0.068001606 0.059366677 0.32546976

linears.0.bias f4 [50]
000000 b9 37 89 be cc 46 64 bd 28 7d cd bc 19 6c d2 3d
       -0.26800326 -0.05573158 -0.025084093 0.10274524
000010 46 7e 05 3e db 5f a2 3a 40 60 1b 3e 6e e7 1c be
       0.1303645 0.0012388186 0.15173435 -0.15322658
000020 8c a9 26 3c f0 27 84 3e 7a 06 83 3d cf 10 70 be
       0.010172259 0.2581172 0.0639772 -0.23443912
000030 05 69 a7 bc 5f 14 30 3c 5d 88 1b be a4 dd 47 be
       -0.02043582 0.010747044 -0.15188737 -0.19518143
000040 89 b4 43 bd 0a 4d 46 bd 3c ac f2 3c 5f b9 05 3e
       -0.047779594 -0.048413314 0.029623143 0.13058995
000050 e0 f8 29 3d 45 4c 88 3e bd 71 97 3d 03 89 f6 3b
       0.04149711 0.2662069 0.07394741 0.0075236573
000060 72 8d 24 be 04 f3 92 be 27 b1 44 be ab 0f 64 be
       -0.16069582 -0.2870103 -0.19208203 -0.22271602
000070 95 42 0c be 7c c1 bb bd 74 65 fc 3c be 6b 42 bd
       -0.13697274 -0.091677636 0.030810095 -0.047466032
000080 28 ae d6 bd 87 5b e6 bd 9c 7a ba 3d 5d e9 49 be
       -0.104824364 -0.11247926 0.09105417 -0.19717927
000090 d7 0f 02 bd 0c 88 68 bc 67 2e 74 be 88 da 0e be
       -0.031753387 -0.014192592 -0.23845826 -0.1395055
0000a0 39 a8 8c bd 46 db ea bd 9d 76 78 be 20 12 e5 bc
       -0.068680234 -0.11467604 -0.24263997 -0.027962744
0000b0 d3 3a b4 3c 39 b6 4f bd a5 d6 85 3d 59 9a 2f bd
       0.022000706 -0.05071089 0.06535081 -0.042871807
0000c0 fe d0 7b be 23 36 c2 bc
       -0.24591443 -0.023707455

linears.1.weight f4 [50, 50]
000000 9c fa af 3a a4 59 f7 bd ff 14 48 3e ca 64 14 3d
       0.0013426128 -0.120776445 0.1953926 0.036228932
000010 59 7e 5c be 0d f9 59 3e 49 0e a7 3e e8 1b e4 bd
       -0.21532573 0.21286412 0.32628086 -0.11138135
000020 7a 3b 78 3e e9 b9 fc 3d 21 a1 5f be 2e 57 d4 bd
       0.24241439 0.12340147 -0.2183881 -0.10368191
000030 b1 62 33 3e 7b d8 42 3e 53 f9 86 3d 0b 7d 50 3e
       0.17518117 0.19027893 0.065905236 0.203602
000040 c5 c0 26 be e3 42 5c 3d e7 3b be bd b0 ce 1b be
       -0.16284473 0.053774726 -0.09288769 -0.15215564
000050 36 2a 82 3d aa 64 5c 3e db be 95 be 6e ad 99 be
       0.06355707 0.21522775 -0.29247174 -0.3001513
000060 37 71 bb 3c d5 17 23 3e ac f3 53 3e 7b 60 4c be
       0.022881133 0.1592706 0.20698422 -0.1995868
000070 87 cd b0 bd ff 0b b4 bd ad 2b 71 3d 29 f7 a3 bd
       -0.08632951 -0.087913506 0.058879543 -0.080061264
000080 57 5c 46 be ad 6e da bd 0c 3b db bd 80 fe bc 3a
       -0.19371162 -0.10665641 -0.10704622 0.0014419109
000090 e1 a5 37 3e 74 3d 99 be 17 2c 49 be 9a 6a bb 3d
       0.17934372 -0.29929698 -0.19645725 0.09151192
0000a0 cc fa a8 3d f6 1f b6 be d5 d5 e1 bd 27 2f 8d be
       0.08250961 -0.3557126 -0.11027113 -0.27575037
0000b0 14 48 c1 bd 72 69 17 be d5 a4 98 3d 01 46 5d bd
       -0.09437576 -0.14786318 0.07453314 -0.05402184
0000c0 36 1b 68 be 83 a3 dd 3d a6 91 95 3e 3c 60 90 be
       -0.2266663 0.10822203 0.29212683 -0.2819842
0000d0 24 77 00 be 24 29 96 be b5 50 86 bc e3 cd 0e 3e
       -0.12545449 -0.29328263 -0.016395906 0.13945727
0000e0 ca 63 3c 3e 82 3a 7c be 21 52 96 3e e3 78 59 be
       0.18397442 -0.24631694 0.29359534 -0.21237521
0000f0 34 ec be be 2b 15 39 3e b4 ca eb bd 1a ad 34 be
       -0.37289584 0.18074481 -0.11513272 -0.17644158
000100 3e 44 06 be 86 10 d2 bc 43 b1 2a be 82 f7 dd bd
       -0.1311197 -0.025642645 -0.16669182 -0.10838224
000110 ad e1 24 3e eb af 7c be 6a 61 95 bd 20 c7 9a 3c
       0.16101713 -0.24676482 -0.07293971 0.018893778
000120 b7 41 96 bc 99 b3 cc 3d c8 07 79 bd 53 3f 51 3e
       -0.018341882 0.09995193 -0.060798436 0.20434313
000130 c4 14 f1 3d 91 1c a4 bd f3 81 65 3e 61 1f 02 3e
       0.11771539 -0.08013261 0.22412853 0.12707283
000140 09 b1 3a 3e aa a9 06 bd 5f 34 d1 3d 5b 58 12 3e
       0.18231596 -0.032876648 0.10215067 0.14291517
000150 79 d4 40 bd 60 37 4e be d5 13 ac be 0b 2c 9f 3d
       -0.04707763 -0.20138311 -0.3360888 0.077720724
000160 49 8e 8c 3e 08 f8 2b 3e 71 b7 17 3e 50 13 20 bc
       0.27452305 0.16793835 0.14816071 -0.009770229
000170 9b 77 07 3e 17 cd a1 3d 8b 23 d3 bc 5d 9a 13 3e
       0.1322922 0.07900446 -0.025773784 0.14414354
000180 bc 22 47 3e 18 1f 87 bd 51 3f 50 3e dd 58 bd bc
       0.19446844 -0.065977275 0.20336653 -0.023113662
000190 c6 03 ce bd db d0 07 be 5b c1 d3 3d 23 5e 11 3d
       -0.100593135 -0.13263266 0.10339614 0.035490166
0001a0 b3 78 24 3e a9 03 34 be b4 28 6a be 9f 46 90 3e
       0.16061668 -0.17579521 -0.2286709 0.2817888
0001b0 21 77 af be 83 d8 8f be 85 66 6c 3d da d1 ae 3d
       -0.34270576 -0.28094873 0.057714958 0.0853612
0001c0 99 24 cf 3d 2c 6c 84 3e 9b 2b e4 3c dd b1 8e bd
       0.10114402 0.2586378 0.027852824 -0.069675185
0001d0 ca 08 3b 3b 1b 68 fe 3d 1e d5 df 3d 0e b0 18 3e
       0.0028539174 0.124222 0.10929321 0.1491091
0001e0 82 a5 52 be d0 3a 94 be 95 06 1e be 66 46 31 3e
       -0.20570949 -0.2895112 -0.15432198 0.17312011
0001f0 d8 e1 88 3e 40 56 29 3e e6 0e 87 ba 42 32 00 3e
       0.26734805 0.16536808 -0.0010304123 0.12519172
000200 22 bb da bb 15 c7 cb 3d da 01 e7 bd e7 dc 87 3e
       -0.00667514 0.09950081 -0.1127965 0.26535723
000210 4b 35 4d 37 06 25 32 3e c3 5c 75 3e d4 8d 71 3d
       1.223136e-05 0.17396936 0.23961167 0.05897315
000220 76 7c 6a 3e 20 f0 ea bc 33 74 06 3e 34 fd 03 3e
       0.2289904 -0.028678954 0.13130264 0.12889558
000230 7c be 54 be 70 e3 40 be 02 e1 22 3e cb 84 2b 3e
       -0.20775789 -0.1883676 0.15906146 0.16749875
000240 d3 b1 31 3e fc c1 01 be 61 7e 00 be a6 11 9a 3e
       0.17352991 -0.12671655 -0.1254821 0.3009159
000250 ea 93 92 3e 3b 51 88 3d d3 3a a7 3e 7e a7 63 3c
       0.28628474 0.066561185 0.32662067 0.013894914
000260 5f 2a 05 3e 6a 90 b4 3d f6 aa 95 3d a8 73 1d 3e
       0.13004445 0.08816607 0.07307999 0.1537615
000270 25 c7 91 be 8f 5d 00 bc eb 78 0f be 73 02 0a be
       -0.28472248 -0.007834806 -0.1401097 -0.13477497
000280 0b 9a 27 3c 88 21 e6 bb 2b 12 96 bd d6 83 89 3e
       0.010229598 -0.00702304 -0.07327684 0.26858395
000290 69 5a 49 3e 41 14 1e 3d fa e9 e4 3d b7 59 0a be
       0.19663395 0.038593534 0.1117744 -0.13510786
0002a0 c4 5b 98 bc b3 82 35 3e 32 17 8c 3e cb 8c 24 3d
       -0.018598445 0.17725639 0.27361447 0.040173333
0002b0 e6 96 b6 39 9f 35 e9 3d 28 3c 59 3e ca 1c 96 3e
       0.00034826173 0.113871805 0.21214354 0.2931884
0002c0 15 79 e9 3d bc 45 87 3d 37 66 4d be 5c 0d c9 3d
       0.11400048 0.06605098 -0.20058523 0.09817001
0002d0 4f 73 3d be d5 5b 41 3e a6 6b 0c be 1e 09 0f 3e
       -0.18501018 0.18882687 -0.1371294 0.13968322
0002e0 74 c8 48 3c 30 e7 d9 bd 72 15 9f 3e 9c c9 66 3d
       0.012254823 -0.10639799 0.3107105 0.056344613
0002f0 c0 ea 55 3d c1 7d c7 3e d7 c2 10 3d bd e2 43 3d
       0.05222583 0.3896313 0.035342064 0.047823656
000300 30 36 4b bd 88 d4 84 bd 5e d8 94 3d e6 4c 34 bd
       -0.049612224 -0.064858496 0.07267831 -0.04401865
000310 aa 5f 1f be 31 21 1a 3d df f1 b1 3d 3c 77 d0 3c
       -0.15563837 0.03762931 0.086887114 0.02544748
000320 df 6d 61 3a 9b 8f 97 3e 55 43 f2 3d ed fb 94 3e
       0.0008599441 0.2960175 0.11829249 0.29098454
000330 2c b5 5e 3b 9d d5 ca bd 2d bd 5d bd 5b 12 8a 3e
       0.0033982499 -0.09904025 -0.05413549 0.2696713
000340 55 21 e1 bd 5b b2 06 3e a5 30 9b 3e 88 2b d2 bd
       -0.10992686 0.13153975 0.3031055 -0.10262209
000350 12 1a 84 3e 69 7e a1 bd 6f 05 22 be 4b 80 7f be
       0.2580114 -0.07885439 -0.15822385 -0.24951284
000360 d8 b6 8f 3e cc 35 33 3e ff b5 9a 3d c3 c2 f5 3d
       0.28069186 0.1750099 0.07554244 0.120000385
000370 5f af 46 3e d0 00 7b be 7f eb 13 3e cb df 6d be
       0.19402836 -0.24512029 0.14445303 -0.23229901
000380 17 c4 5f 3e 6e 43 82 3e 53 2e 82 3e 39 38 32 be
       0.21852146 0.2544207 0.25425968 -0.1740426
000390 73 9f 03 be 17 b6 e5 3d df d2 15 bd ca 9f 0b be
       -0.12853794 0.112163715 -0.036578055 -0.13635173
0003a0 c4 eb 74 bc 5e df 73 bd 34 24 f0 3d 17 0b b2 bd
       -0.014948789 -0.05953919 0.11725655 -0.086935215
0003b0 20 d1 25 3e 14 71 ee bd b8 4f 27 3e c7 a7 0a 3d
       0.16193056 -0.11642662 0.16339004 0.03385141
0003c0 6c 01 20 be 41 b9 7a 3e 75 d9 6b 3e 15 ea 0d be
       -0.15625542 0.24484731 0.23032172 -0.13858826
0003d0 fd ae 1a be b6 f4 8c be c9 ce 26 be ed 5e 14 3e
       -0.15105815 -0.2753045 -0.1628982 0.14489336
0003e0 86 19 3c 3d 54 34 1a 3d 86 cb cf 3d cd e3 a3 3d
       0.04592278 0.03764756 0.10146241 0.08002434
0003f0 58 b4 7a be 6e 18 09 3e e5 cf 4b be 4c 2e 02 3e
       -0.24482858 0.13388225 -0.19903524 0.12712973

linears.1.bias f4 [50]
000000 fe 9d ba 3d 76 3a 10 be bc 5e 82 bd 59 d8 28 be
       0.09112166 -0.14084801 -0.063657254 -0.1648878
000010 04 8e 05 bd 04 90 2e be e9 f4 de 3d 98 a8 6f 3c
       -0.03260614 -0.17047125 0.10886557 0.014627598
000020 53 cf 34 be cc a3 ad bd 1c ff 3d be 89 e4 15 bc
       -0.17657213 -0.084785074 -0.18554348 -0.009148725
000030 5b 9a 76 bd 3c 57 94 3c 11 a9 10 be 34 65 7e 3d
       -0.0602058 0.018108003 -0.14126994 0.062108234
000040 89 da db 3d ab a3 08 3e 47 cd 2b 3e 41 85 d0 bd
       0.10735042 0.13343684 0.16777526 -0.10181666
000050 77 af 7f bd d3 cb 38 be ee a5 98 bd 47 e2 0e bd
       -0.062423196 -0.18046503 -0.074535236 -0.034883764
000060 13 89 81 bc 7f 2f 74 bc 4f 1e a7 3d c9 43 eb bc
       -0.015812432 -0.014903902 0.08160078 -0.028718846
000070 3f 5a 3d bd 39 a3 0a 3e bf 96 5d be 88 2b 2e 3e
       -0.046228644 0.13538827 -0.21639536 0.17008793
000080 56 2d 17 be 31 8f 91 bd ed 39 36 3e 07 e6 ca 3c
       -0.14763388 -0.0710739 0.17795534 0.024767889
000090 54 56 0d 3d 1d 7b 19 3e 69 fa f5 bd 18 79 15 bd
       0.034506157 0.1498837 -0.120106526 -0.036492437
0000a0 ab 75 31 be df 82 c5 bc 30 51 0b 3e 27 17 92 bd
       -0.17330043 -0.024110256 0.1360519 -0.07133322
0000b0 1b de 6c 3e a9 5b aa bd 33 e3 06 3d e0 2b 81 3e
       0.23131602 -0.08318264 0.032931518 0.25228786
0000c0 45 85 12 3e d6 6f a2 3b
       0.14308651 0.0049571795

linears.2.weight f4 [50, 50]
000000 2f bc 9f 3e b6 fe d9 bd 81 e1 39 3e b8 b9 5e be
       0.3119826 -0.106442854 0.18152429 -0.21750534
000010 b3 54 17 be 45 2f ae 3d 8a 91 5f 3d 4d a1 91 be
       -0.14778404 0.0850511 0.054582156 -0.28443375
000020 46 1d d4 3d 75 58 79 3d 3c ad fc bc a5 cb 57 3e
       0.10357146 0.060875375 -0.030844323 0.21073778
000030 ec 3e 12 be ae be eb bd 75 a9 48 3e 1e 80 63 3e
       -0.14281815 -0.11510979 0.19595893 0.22216842
000040 ab 9e 9e 3d b8 a5 89 be ab 7d e3 3d f9 7c 03 bd
       0.07745107 -0.26884246 0.11107954 -0.032101605
000050 01 a3 a6 3e f5 56 16 bd d5 3e 4e 3e 29 38 81 3e
       0.32546237 -0.036704022 0.20141156 0.2523816
000060 23 58 9a be 73 c4 4d be 75 cc 45 be fd c0 92 3d
       -0.30145368 -0.2009447 -0.19316275 0.07165716
000070 10 d5 07 3e da 6d 8c be 9f 2a 85 3e 69 af 4b be
       0.1326487 -0.2742756 0.2600908 -0.19891132
000080 d0 15 95 3e c6 41 43 3e 84 00 ad bc 08 b9 cc 3d
       0.29118204 0.1906806 -0.02111841 0.099962294
000090 30 fe 84 3d be c3 0d be 05 67 b3 bc 3b 50 3c be
       0.06493795 -0.13844201 -0.02189971 -0.1838998
0000a0 3e 20 55 be b8 e3 72 3e cd e1 77 bd 74 e8 b9 3d
       -0.2081308 0.2371968 -0.060518075 0.0907754
0000b0 8d ec 40 be 21 96 b0 3e 7d b4 97 be f5 1b 95 be
       -0.18840237 0.3448954 -0.2962989 -0.29122892
0000c0 79 b4 1a bd 72 23 19 be ae d7 ca bc 89 3f 49 3d
       -0.03776977 -0.14954928 -0.024761047 0.049132857
0000d0 35 34 a2 3d 80 b6 c8 bd a7 1e b5 3d a8 99 83 be
       0.07920114 -0.09800434 0.08843737 -0.25703168
0000e0 a0 b6 b3 3e e9 35 22 3e e2 30 ca 3d d2 45 d9 3d
       0.3510027 0.15840878 0.09872605 0.1060902
0000f0 7c 3b 05 3c a4 9c 57 bd 8d 33 0b be 2f e5 63 3e
       0.008131858 -0.05263962 -0.13593884 0.22255395
000100 8f 42 f9 bc 80 6b bd bd f2 9a 99 be fb 04 b8 3d
       -0.030427245 -0.092490196 -0.30001026 0.08985325
000110 e5 db 6f be ec 2d 30 bd d6 0a 04 be 0b c6 64 be
       -0.23423727 -0.043012545 -0.12894759 -0.22341172
000120 71 a4 3e 3e ed f9 b0 be ea 15 a7 3e 62 4a a9 3d
       0.18617417 -0.34565678 0.32633907 0.082661405
000130 93 ac 39 3e 12 02 61 be fe 00 7d bd 4c ee ad 3c
       0.18132238 -0.21973446 -0.061768524 0.021231793
000140 76 8f 34 bd 86 ff 0b bd 22 f0 9a be f5 40 47 3d
       -0.044082128 -0.034179233 -0.30261332 0.048645932
000150 c7 93 2a 3d 8d e7 0d be 5c 1a 45 3d b9 80 0e bc
       0.041644838 -0.13857861 0.04812084 -0.008697682
000160 20 ba 3b be 2a 85 90 3e 33 a7 11 3e 69 b0 0a be
       -0.1833272 0.28226596 0.14223938 -0.13543858
000170 bc 02 bf 3e 2b 0d f3 bc f3 47 03 3d 8f 7e 33 be
       0.37306774 -0.029669365 0.032051038 -0.17528747
000180 ae b5 64 3e d6 2e 81 3e 65 b2 14 3d 5b f4 6e 3e
       0.2233493 0.25231045 0.036302943 0.23335402
000190 98 8f ab bd aa 6f 8c 3e 46 5f cf 3e 9c d9 8c 3e
       -0.08376998 0.27428943 0.40502375 0.27509773
0001a0 d9 82 0f be c5 7c 69 3e 19 2e 8d be da 71 24 be
       -0.14014758 0.22801502 -0.27574232 -0.16059056
0001b0 09 44 d7 3e 92 7b 99 3e ab f7 80 3e a1 a5 31 be
       0.42044094 0.2997709 0.25188956 -0.17348339
0001c0 09 74 87 bd 0a 4a 4b be ca a8 ce bc 59 01 71 be
       -0.06613929 -0.19852462 -0.02522697 -0.2353567
0001d0 aa d3 46 be 65 09 99 be a7 5a d1 bd 7e e8 be 3e
       -0.19416681 -0.2988998 -0.10222369 0.37286752
0001e0 ba 89 6d 3e f4 be b8 3e f7 d6 c4 bc 43 0e 16 be
       0.2319707 0.36083186 -0.024028284 -0.14653878
0001f0 51 4c 45 3e b8 8b 3b 3e b4 3a b6 3d c8 a2 25 be
       0.19267394 0.18315017 0.088979155 -0.16175377
000200 50 ad a2 3e e6 23 d4 bd 43 6b 9a 3e d3 2a b8 be
       0.31772852 -0.103584096 0.3015996 -0.35970172
000210 54 9e 9b 3e 30 53 b5 bd 0c 14 7a be 78 94 3c 3e
       0.30394232 -0.088537574 -0.2442171 0.18416011
000220 e5 a6 52 3c 3b 9b 80 be a9 23 a9 3e ef 65 2b bd
       0.012857174 -0.2511843 0.3303502 -0.04184526
000230 1d 01 46 3e 67 68 16 bd f3 61 cd 3b a4 91 15 be
       0.19336362 -0.03672066 0.00626778 -0.14606339
000240 30 b3 bf be 46 0a 33 3e 33 6e 9d be d2 31 30 be
       -0.37441397 0.17484388 -0.30748138 -0.17206505
000250 90 56 ab be d7 e2 f1 3d 84 dc 46 3d 6f 23 ec bd
       -0.3346448 0.118108444 0.048550144 -0.11530196
000260 0c 91 85 bd 18 0c cd 3b e5 08 04 bd 65 f7 e4 bc
       -0.06521806 0.006257545 -0.032235045 -0.027949998
000270 a9 ef 5c 3e 70 c1 12 be ae b0 aa bd 99 12 45 3d
       0.21575798 -0.14331603 -0.0833448 0.04811344
000280 1d 13 ec bc 53 9d 91 bc cd 81 1f bd b8 06 25 be
       -0.028817708 -0.017775213 -0.038942147 -0.16115844
000290 c7 93 a0 be a1 3c 8c 3d 21 10 17 3e 83 50 05 be
       -0.31362745 0.068475015 0.14752246 -0.13018994
0002a0 cc 88 0d be f4 7d 55 3e b8 9e 8b be ef 5a 9f be
       -0.13821715 0.20848829 -0.2726953 -0.31124064
0002b0 01 47 47 be d6 f9 1b be 05 ae 46 3e 71 8e 4f bd
       -0.1946068 -0.15232024 0.1940232 -0.050672952
0002c0 bf c7 0c 3e 8c ac 3c be 4e f4 3e 3e 8a 74 8c 3e
       0.13748072 -0.18425196 0.18647882 0.27432662
0002d0 ce 72 29 be 1a 0e 3c be e9 2b a1 be 56 ad 35 bd
       -0.16547701 -0.18364754 -0.31478813 -0.04435476
0002e0 b9 6e 15 3e 03 6c 07 bd 8b 1c 85 3d c8 08 85 3e
       0.14593019 -0.033061992 0.06499585 0.25983262
0002f0 5c c3 38 be 81 45 32 3e fe 75 df 3d 02 67 ad be
       -0.18043274 0.17409326 0.10911177 -0.3386765
000300 e4 7a 16 3e 2b cd a4 bd e6 b7 31 3e 91 c6 60 be
       0.14695317 -0.08046945 0.17355308 -0.21950747
000310 67 46 1d be a4 3e 85 3e d9 68 9a 3e 14 92 b3 3c
       -0.15358888 0.26024354 0.30158117 0.021920241
000320 b5 46 80 3e 7d b4 6c 3e 17 cb 16 be 27 03 0c be
       0.25053945 0.23115726 -0.1472591 -0.13673078
000330 07 35 25 bd f5 f2 a0 be ba 20 35 bd 27 38 4f be
       -0.040333774 -0.31435362 -0.044220664 -0.20236264
000340 e6 0e c0 be 33 ed 31 3e af d7 6a be 9d ce 53 3e
       -0.37511367 0.1737564 -0.2293384 0.20684285
000350 03 f2 38 bd 19 36 8b be 35 64 2b 3e a8 af 2c 3d
       -0.045152675 -0.2718971 0.16737445 0.042159706
000360 a9 42 00 3d ca a4 45 3d c6 13 5a 3e df a5 5c be
       0.031313572 0.04825286 0.21296605 -0.2154765
000370 d6 76 9f 3e 97 ad 7a 3d da 04 0f be 7e 0a 96 3d
       0.31145352 0.061200704 -0.13966694 0.0732622
000380 c5 82 89 bd 43 78 7b be 27 24 05 be 8f d0 42 bc
       -0.067143954 -0.24557595 -0.13002072 -0.011890545
000390 92 a2 1d be 80 8b 9d be f9 6c 29 be 2f cf 14 3e
       -0.15394047 -0.30770493 -0.16545476 0.1453216
0003a0 0d 99 11 be d7 f0 0e bd a3 76 3b be 4a 7d ab 3e
       -0.1421854 -0.03489765 -0.18306975 0.33494025
0003b0 be 13 08 be 51 7a 1d be 9f 91 d7 3c 28 fb 32 bc
       -0.13288781 -0.15378691 0.026314555 -0.010924138
0003c0 2e 3b c8 be 08 e0 0e 3e 08 96 00 bb aa 98 45 be
       -0.3910765 0.13952649 -0.0019620676 -0.19296518
0003d0 9c 86 82 bc 34 46 d8 bd 9e 84 52 bd cb 9f cf bd
       -0.015933327 -0.10560265 -0.051396005 -0.101379
0003e0 f6 be 17 bd 01 11 1a be 2a 37 80 be 59 48 af bd
       -0.03704735 -0.15045549 -0.25042087 -0.08558721
0003f0 4a f3 47 3c 9c 17 ec bd 2e ba 8b be 54 80 8d be
       0.012204001 -0.11527941 -0.2729048 -0.2763697

linears.2.bias f4 [50]
000000 c6 7b 04 3c 92 0a 07 bc 40 93 17 be 7f 40 c0 3d
       0.0080861505 -0.008242266 -0.14802265 0.09387302
000010 0e 69 af 3d cd eb d7 bb 9a 02 50 3c 60 0a 1a be
       0.085649595 -0.006589389 0.012695933 -0.1504302
000020 f9 64 70 3e 60 05 9d 3d 99 4f dd 3d fb f4 65 bd
       0.23476018 0.07667041 0.10806198 -0.056141835
000030 ea 3b 8a bd e0 39 90 bd b9 8c 97 3d 28 6f 20 bd
       -0.06749709 -0.07042289 0.073998876 -0.039168507
000040 32 64 e8 bd 19 c3 8f 3d 58 d5 db 3c 6b 1d 9e bd
       -0.11347236 0.07019634 0.026835129 -0.07720455
000050 6d 22 1d 3d 0c 94 ed 3c ab af 88 bd 57 f8 56 bd
       0.03836291 0.029001258 -0.06674131 -0.05248293
000060 1e a8 5a 3d 66 32 7b 3c 10 cb b0 3d 05 7d c2 3d
       0.053382985 0.01533184 0.08632481 0.09496502
000070 d9 9b a7 3c 9a 4a 95 bd 56 a1 22 3d c1 6a 6f bd
       0.020460056 -0.0728962 0.039704643 -0.058451418
000080 62 62 d1 3b 76 09 98 bd e3 49 86 3c d0 6a 37 bd
       0.006389902 -0.074236795 0.016392654 -0.0447796
000090 84 8d 0c 3d 3c 78 fa bc 45 fd 16 bd 64 75 96 3c
       0.034314647 -0.03057491 -0.03686263 0.018366523
0000a0 9f 05 b3 3d 8e dd e8 3d dd 37 d5 bd ba 4c 06 3e
       0.087413065 0.11370383 -0.10411046 0.13115206
0000b0 e8 5c 44 bc a0 75 b4 3c 2e 01 ea bd f5 57 47 bd
       -0.011985041 0.022028744 -0.11426006 -0.048667867
0000c0 a3 ff b1 3c 62 60 9e bd
       0.021728342 -0.07733227

linears.3.weight f4 [50, 50]
000000 6e ed 1e be 50 fd 31 bd b5 27 c0 3e c7 3b 2e 3e
       -0.1552026 -0.04345447 0.37530294 0.17014991
000010 5b d0 4c 3d 7d 88 cb be 7e 3c 57 bd ee a9 12 3c
       0.05000339 -0.3975257 -0.052547924 0.008951647
000020 da 08 77 bd 86 df 63 bd a4 e7 bf bc ff c6 9e 3e
       -0.060311176 -0.05563309 -0.023425885 0.31011197
000030 67 0f 6e 3d 18 3d c4 3e 71 9a 43 3d f4 ad b9 be
       0.058120158 0.3832786 0.04775471 -0.36265528
000040 20 dc 71 3e 86 57 11 3e 8d 0c 30 3e 70 61 90 be
       0.23619127 0.14193544 0.17192288 -0.2819934
000050 de cd 14 be 74 13 8a 3e 6c 0c 02 3e bf b4 e2 3d
       -0.14531657 0.26967967 0.12700051 0.11069631
000060 0a 79 fa be 57 7d 76 3e 3e af 6d 3e 41 54 86 3c
       -0.4892047 0.24071251 0.23211381 0.016397597
000070 50 74 21 3e 57 6b d4 3d c0 65 cc be 53 b9 44 3d
       0.15767026 0.10372036 -0.3992138 0.0480283
000080 33 9b 81 be ba 42 dd 3d 54 07 2a 3d ce 61 51 be
       -0.2531372 0.10803743 0.041510895 -0.20447466
000090 db 2d d3 3c c1 19 14 3a 70 73 90 bd 32 47 57 3e
       0.025778702 0.00056495896 -0.07053268 0.21023253
0000a0 76 f2 40 be 81 a7 a4 be 90 45 8e 3d ec 23 34 be
       -0.18842492 -0.32159045 0.06946862 -0.17591828
0000b0 c7 a7 a4 3d 97 ca 80 bd 31 e3 8c 3e e2 86 92 3d
       0.080398135 -0.06288641 0.27517083 0.07154633
0000c0 07 9a b7 bc d9 97 82 3b 68 22 cb bd 47 d5 90 3e
       -0.022412313 0.003985387 -0.09918672 0.28287718
0000d0 21 e9 49 be 31 9e 4b 3d 49 28 e8 3d ef 8e 1a bd
       -0.19717838 0.04971141 0.11335809 -0.03773397
0000e0 bb d6 4b be ab 74 f2 3d 29 ac 40 3d 2e 0a 13 3e
       -0.19906132 0.11838659 0.047039185 0.14359352
0000f0 86 b3 c6 3d 40 4d fa 3d 72 e1 bd 3c 3a 4d c3 bd
       0.0970221 0.122217655 0.02317879 -0.09536214
000100 c6 bf d7 3e 9c cb 58 be 59 cf 21 be b9 95 96 3e
       0.421385 -0.21171421 -0.15801753 0.29411104
000110 80 86 49 3e 29 ec 05 be 92 ec b9 3d 15 38 9c 3d
       0.19680214 -0.13078369 0.09078325 0.07627884
000120 9b 41 0c 3d f0 15 51 3e fd 58 eb 3b 29 7b a1 bc
       0.034242254 0.20418525 0.007182239 -0.019712048
000130 f8 bf 67 3e 70 7e 91 3e 89 35 bc 3d 2c b3 0c 3e
       0.22631824 0.28416777 0.091898985 0.13740224
000140 47 3e 1b 3e c5 76 94 be d3 8f ed 3d 4c 5e a4 3d
       0.15160476 -0.28996864 0.11599698 0.08025798
000150 3e a0 84 3c db 12 3f bd be db 85 bd 56 d6 6f be
       0.01618969 -0.04664884 -0.06536053 -0.23421606
000160 f3 a9 39 3e f7 a6 36 3e 65 ed 04 bd ec 13 fe bd
       0.18131237 0.1783713 -0.03245296 -0.124061435
000170 44 8a 6f 3e 1a 94 8e bc 3c d6 40 3e 2a 4f 82 bd
       0.23392588 -0.017404605 0.18831724 -0.063627556
000180 8b b3 21 be b0 44 75 be f6 84 9a be 09 cb 29 be
       -0.15791146 -0.23951983 -0.30179566 -0.16581358
000190 df 6d 3e be ed f2 30 be cf 00 8d be 5b 47 88 3d
       -0.185966 -0.17280169 -0.2753968 0.06654235
0001a0 a9 a3 25 3e 8e 4d ca 3d 80 82 bb 3d e9 14 7f be
       0.16175713 0.09878074 0.0915575 -0.2491032
0001b0 bb 34 a8 bd 87 83 b5 bd d8 21 be 3c 02 89 ba 3c
       -0.082131825 -0.088629775 0.023209497 0.022770409
0001c0 50 e5 0f be 55 6b 9a bd c1 e4 b7 be 71 7c 8b 3e
       -0.1405232 -0.07540003 -0.35916713 0.2724338
0001d0 fd 1c 12 3e 26 e6 34 be 34 cf 2c bd b6 3a 8b 3e
       0.1426887 -0.1766592 -0.04218979 0.2719323
0001e0 e1 0a a3 bd a2 1e dd bd 6a 8a 83 3d 9b 90 0a be
       -0.07961059 -0.10796858 0.06422885 -0.13531725
0001f0 d0 87 b3 3e 45 51 60 3d 23 a8 76 be 76 22 0e be
       0.35064554 0.054765005 -0.24087577 -0.13880333
000200 a9 b3 b4 be 31 fc d2 bd 0e eb 12 3e 12 e4 1f bd
       -0.3529332 -0.10302008 0.14347479 -0.039035864
000210 54 cc b2 3e 33 ce 76 be 33 41 bf bd 82 44 17 3d
       0.34921515 -0.24102096 -0.09338608 0.03693057
000220 1a 7d a6 3d 59 bf 01 be 2d 9e 67 3d 04 ae 5d be
       0.0812933 -0.1267065 0.056547333 -0.21648413
000230 35 3e 4c 3e d1 43 11 bd 12 b2 ee bd 65 29 d6 bc
       0.19945605 -0.035465065 -0.11655058 -0.026142785
000240 65 ca cf bd 3e 42 fc bd 52 98 e0 3c c0 0c 9c be
       -0.101460256 -0.12317322 0.027416382 -0.30478477
000250 78 bb 60 3e 0f b5 04 3e 8c f3 12 be e6 9e a2 3e
       0.21946514 0.12959693 -0.14350718 0.31761855
000260 65 c0 b4 bd 36 cc 7b 3e 3f 1f c4 3d f0 c3 3a be
       -0.08825759 0.24589619 0.09576272 -0.18238807
000270 e1 d3 55 be 7d 67 01 3f 2e fa bc 3e 00 03 d3 3d
       -0.20881607 0.50548536 0.36909622 0.103033066
000280 99 05 89 3e 7d cc 4c 3e 07 d3 70 3d 48 a2 94 bd
       0.26762083 0.19999881 0.058795 -0.07257515
000290 2a 60 cb bd e1 7a ab bd a9 e9 94 3e 2f c0 8c be
       -0.09930451 -0.08373047 0.2908452 -0.27490374
0002a0 ad 18 a3 3e 28 fb 23 be 8b 34 63 bd e6 f4 16 3e
       0.31854764 -0.16013777 -0.05547003 0.14741859
0002b0 0d e7 1f 3e a6 7f b4 3c 38 87 9c be 74 fb 01 be
       0.15615483 0.022033524 -0.30571914 -0.12693578
0002c0 70 dc 82 bd 63 f1 80 bc 7e 09 7e be 67 33 63 be
       -0.06389701 -0.015740102 -0.24808308 -0.22187577
0002d0 d3 60 ed 3d 48 e7 e0 be 0d fd 68 be af 72 93 3e
       0.115907334 -0.43926454 -0.22752781 0.28798434
0002e0 79 54 25 be a6 5b 08 3e 9a 81 6b bd 9b 94 43 be
       -0.16145505 0.13316211 -0.057496645 -0.19099657
0002f0 96 33 15 bd f5 55 48 3e fe a3 99 bd 02 67 b7 be
       -0.03642615 0.1956404 -0.07501982 -0.35820776
000300 33 b2 75 3d 09 77 2b 38 0f 15 ed bd a4 5c 87 be
       0.059984397 4.0880437e-05 -0.11576282 -0.26437867
000310 ce e2 0f be a0 f6 25 3e 5c b6 43 be e3 d7 4a be
       -0.14051363 0.16207361 -0.19112533 -0.19808917
000320 5a 01 f8 3d 08 34 50 bd f8 91 0f 3e cb cd 67 3e
       0.12109633 -0.05083087 0.14020526 0.22637098
000330 af 8d 82 3e 5a c2 cc 3d 49 32 d3 3d 43 7d f9 bd
       0.2549872 0.09998007 0.103123255 -0.12182095
000340 e2 40 90 be 6f a7 be 3d 48 b4 df 3d 1e b0 49 3d
       -0.28174502 0.09309279 0.10923058 0.049240224
000350 bd 7a a2 3c 1f eb c9 3d 55 9b a5 be ce 66 5d 3e
       0.019833917 0.09859299 -0.3234507 0.21621248
000360 c4 72 b3 3d 90 e7 da bd e1 e6 67 3e 03 a6 0f 3e
       0.08762124 -0.10688698 0.22646667 0.14028172
000370 bf 84 a2 3d c4 08 04 3d b1 d1 b7 3c 1e 5d f4 ba
       0.079354756 0.032234922 0.022438856 -0.0018643474
000380 e9 8e 5c 3e 49 16 d0 bd cb 10 9a 3d 87 af 18 3e
       0.21538891 -0.101605006 0.07522734 0.14910708
000390 e5 38 fe bd 72 64 50 be 11 3c 1c 3e 41 f3 06 3e
       -0.124131955 -0.20350817 0.15257289 0.13178732
0003a0 e7 fc ff bd 6b 5f 6d 3e d5 2e 9a be b6 8e ad bd
       -0.12499409 0.2318093 -0.30113855 -0.084744856
0003b0 3d 38 59 3e e5 56 1a 3e 44 44 9d be e7 49 ae 3d
       0.2121286 0.1507221 -0.30716145 0.085101895
0003c0 88 2b 97 3e 0a 43 87 bd 30 ec 30 3e 1d 11 b7 bd
       0.295254 -0.066045836 0.17277598 -0.08938811
0003d0 6e 5d 09 3d b1 a6 2f bd 39 4e ce 3c 0d 12 28 3d
       0.033536367 -0.04288358 0.025183784 0.04103284
0003e0 a1 dd 2c be e7 0b 35 be c2 da 37 3c 66 46 03 bd
       -0.1688142 -0.17680322 0.0112215895 -0.03204956
0003f0 fc 2e 91 bd f6 79 4a 3e ea 70 e9 bc f9 69 3e 3e
       -0.0708904 0.19773087 -0.028496224 0.18595113

linears.3.bias f4 [50]
000000 af 60 c2 3d ef 6f 49 3d 5b f8 d7 bc eb ce 07 be
       0.09491097 0.049179014 -0.026363542 -0.13262527
000010 83 36 fa bd 90 d4 9b bc e1 e4 2a bd e3 b7 05 3d
       -0.122174285 -0.019022256 -0.041722182 0.03264607
000020 72 5a 75 3d 9d f8 a5 bc 88 33 0c 3d 1c 70 18 3e
       0.05990071 -0.02026015 0.03422883 0.14886516
000030 28 50 3f 3d ec eb 29 3c 97 18 21 bb 05 cb 2a 3e
       0.046707302 0.01037119 -0.0024581307 0.16679008
000040 a5 3d f7 3d 93 0b e5 3c fe 74 9c 3d d1 e0 95 3d
       0.12072305 0.02795962 0.07639502 0.07318271
000050 89 0a 83 3d e7 d7 f5 3c 58 44 e6 3d 1b 3b 95 bd
       0.06398494 0.030010177 0.11243504 -0.07286664
000060 1f a6 8b bd db 9d db 3b 24 7d 32 be c6 e8 22 3d
       -0.068187945 0.0067021674 -0.1743055 0.03977277
000070 c4 fa 54 bd d8 fb 66 3d 8b d9 36 3e 35 46 5b bc
       -0.05199696 0.05639252 0.17856424 -0.013383438
000080 28 79 4f bd 38 f0 cc bc a7 13 12 bd b6 15 7d 3d
       -0.050652653 -0.025016889 -0.035663273 0.061788283
000090 68 db 56 3c 0e eb a8 3d b0 85 47 bd 26 e8 13 3c
       0.013113834 0.08247958 -0.04871148 0.0090275165
0000a0 ec 28 bd 3d 36 ad 0e bd 11 40 f2 3d f3 97 44 3c
       0.09236321 -0.034833156 0.11828626 0.011999118
0000b0 fa a8 30 3e ca 5c 3f 3d 0a ec 86 3b ec 3e a5 3d
       0.1725196 0.04671935 0.0041174935 0.08068642
0000c0 1b 03 36 bb f9 13 8d 3a
       -0.0027772847 0.0010763399

linears.4.weight f4 [2, 50]
000000 6d ac 49 3f ad 50 b2 3e 7c a9 28 3f 14 a1 4e 3f
       0.78778726 0.34827176 0.6588361 0.80714536
000010 a5 75 9e 3e 56 8a 21 bf ab 02 ff be e6 14 2b 3f
       0.3094913 -0.6310171 -0.49806723 0.66828763
000020 0a fa 28 bf cf 86 94 bf aa 2d 39 3f 8d 87 a7 be
       -0.6600653 -1.160364 0.723353 -0.32720605
000030 2d 04 00 3f fb 89 3b bf 75 11 d7 3e 94 aa 1d be
       0.5000637 -0.73257416 0.42005506 -0.15397102
000040 58 fd 41 3f 1b 0a 1e bf 16 55 ff 3e 61 69 bc be
       0.75777197 -0.6173417 0.49869603 -0.36799148
000050 c4 64 57 be c9 46 80 3e 89 d7 56 bf 6c 54 44 3e
       -0.21034533 0.25054005 -0.8392263 0.1917283
000060 25 73 bc bc 21 43 58 3f 90 57 da 3e 01 9b 89 3d
       -0.023004124 0.8447743 0.4264493 0.06719018
000070 f5 36 01 bf 0f 06 33 3f 38 36 ce be cb da 3f bf
       -0.5047448 0.6993112 -0.4027574 -0.74943227
000080 c9 8f 1e 3f 4e 27 1f bf 18 78 58 bf f3 26 0a bf
       0.6193815 -0.6216935 -0.8455825 -0.5396568
000090 36 4e 18 3e 86 ce 04 bf ac 21 e9 3e 94 39 0a bf
       0.14873585 -0.5187763 0.45533502 -0.5399411
0000a0 07 39 dc be d0 ee ea 3e 6b 16 11 3f 18 5d 77 3f
       -0.43012258 0.45885324 0.5667483 0.96626425
0000b0 22 20 79 be f6 b9 09 3f 76 26 1a 3f 3b f2 03 3f
       -0.24328664 0.5379938 0.60214937 0.5154149
0000c0 cf 70 02 bf 07 99 51 bc e2 1a bf bd 50 cb 25 3f
       -0.5095338 -0.012792832 -0.09331299 0.64763355
0000d0 09 0a 39 3d 29 81 2f bf 7c 4b b0 be a8 0e a8 bc
       0.045175586 -0.6855646 -0.3443259 -0.020514801
0000e0 d0 69 93 be b5 64 12 bc ab c9 2b be b3 54 c3 bd
       -0.28791666 -0.008935143 -0.16776149 -0.095376395
0000f0 46 e2 04 3f 37 03 e5 3e 0d 3e ce 3d 35 95 ea 3c
       0.51907766 0.44729015 0.10070429 0.0286356
000100 14 3d ae bc 12 9f 08 3f 1a 1f c1 3d 85 e5 d2 3b
       -0.021269359 0.5336772 0.0942976 0.0064360523
000110 8d 57 7f bd ac 3e b3 3e 65 37 37 3f d2 ee 2c 3f
       -0.062339354 0.35008752 0.715689 0.6755191
000120 12 b6 0f be ad 9a 22 bf 46 6c 25 bf cc 70 40 3d
       -0.14034298 -0.63517267 -0.6461834 0.04698257
000130 35 91 08 bf 5a 58 69 bf 87 7f e7 bd 52 b5 c6 3e
       -0.5334657 -0.9115044 -0.11303621 0.3881021
000140 fc 86 da 3e 31 cc 36 3d 14 18 cc bd 96 b1 57 bd
       0.4268111 0.044628326 -0.0996553 -0.052659594
000150 2a 04 87 3e 12 fe 21 3d 10 48 17 3f e3 4e bd 3e
       0.26370364 0.03954894 0.59094334 0.36974248
000160 76 6c f6 bd cc 57 74 bd 50 80 e8 3e da 45 16 be
       -0.12032406 -0.059654042 0.45410395 -0.14675084
000170 71 41 e0 3d ae ce b2 3e e7 d7 4a 3f d3 67 e0 be
       0.10949982 0.3492331 0.7923569 -0.43829212
000180 3f 78 fd 3e cc e3 08 3e f8 68 05 bd 80 87 26 3f
       0.49505803 0.13368148 -0.03257081 0.65050507

linears.4.bias f4 [2]
000000 dd a9 2c 3c 88 18 df 3e
       0.010538545 0.43573403
