HPO/wandb/run-20230331_011619-kfagavet/files/model-3000.pt (torch, 640095 bytes, 66 tensors)

linears.0.weight f4 [75, 2]
000000 ec b2 e4 3d 55 66 35 be c7 fe 9d 3e 37 29 0c be
       0.11166939 -0.17714818 0.30858442 -0.13687597
000010 a6 80 4f be da 06 11 bc 06 8e 87 bd 97 b1 89 3e
       -0.20263919 -0.008851731 -0.06618886 0.26893303
000020 1c cf 86 3e 0b 75 71 3b 69 14 39 3c 1d a4 4a bc
       0.26329887 0.0036843445 0.01129637 -0.012368229
000030 ca 5f b2 bd 4b 16 2a 3e ba f8 58 3e dc fe 63 be
       -0.087096766 0.16610067 0.21188632 -0.2226519
000040 54 c3 aa bd 7a 60 45 3e 4f 45 b2 3d 06 2a fe 3c
       -0.08338037 0.19275084 0.08704626 0.031025898
000050 c8 dd 9d bd 5f 79 8e be f0 31 0a 3e 55 a9 48 3e
       -0.07708317 -0.27826974 0.13495612 0.19595845
000060 3a a2 04 be fd 69 47 3c 25 f2 df bd 9d 97 df 3d
       -0.1295251 0.012171266 -0.10934857 0.1091759
000070 87 32 29 be c8 86 45 3e 75 cc 93 be b2 25 fb 3d
       -0.16523181 0.19289696 -0.28866926 0.12263049
000080 2f ad 6a 3e f5 a4 87 be d3 1b 6c 3e 1d a0 13 be
       0.22917627 -0.2649304 0.23057489 -0.14416547
000090 dd 29 b5 3d e5 84 ee bd 8d ef 29 bd 6b 3d 98 3d
       0.088458754 -0.11646441 -0.04148822 0.074335895
0000a0 70 d7 49 3e 08 a2 68 be 83 b4 68 3e ea 0e 61 3e
       0.19711089 -0.2271806 0.2272511 0.21978346
0000b0 bc 1e 65 bd 7e 86 23 be ae 93 82 3c d6 ca 45 3e
       -0.055937514 -0.15969273 0.01593956 0.19315657
0000c0 0a 1d 12 3e 88 3b 3b be b9 ac 6d bd 8f 7c de bd
       0.1426889 -0.18284428 -0.05802605 -0.108636014
0000d0 ae 7f 8b 3b 95 53 a3 bd 4c 45 5b 3d 91 53 17 be
       0.004257164 -0.079749264 0.053532884 -0.14777972
0000e0 81 7f f4 3d ea fb f4 3c f9 c1 67 be 62 7f 15 be
       0.11938382 0.029905278 -0.22632588 -0.14599374
0000f0 15 93 fc bd df 84 8f 3e 3e 3d f4 bd a3 7b 58 be
       -0.12332741 0.2803106 -0.119257435 -0.21140914
000100 2f 4d 7a 3e 7a 09 80 3e ca fa b7 3d 14 b5 79 3e
       0.24443506 0.2500723 0.08983381 0.24385482
000110 f9 ee 79 be e2 6c 08 be 13 c1 8c be 87 b6 3b 3e
       -0.24407567 -0.13322785 -0.27491054 0.18331347
000120 d3 6d 6c 3e 6e 93 47 3e e1 31 c5 3d bc c9 c2 bd
       0.2308877 0.19489834 0.09628654 -0.09511134
000130 33 d6 09 be 55 b0 19 be 14 e4 8e 3e b1 47 86 be
       -0.13460617 -0.15008672 0.27908385 -0.2622657
000140 dc 62 c4 bd 3a 67 4e 3e d9 68 87 3d 5e cc a1 bc
       -0.095891684 0.20156565 0.06611795 -0.01975077
000150 e5 6f 3e be f8 75 1c be 7e 59 ef bd 37 02 13 ba
       -0.18597372 -0.15279377 -0.11686991 -0.0005607935
000160 fd 60 6c 3e a8 66 39 be 80 fb 65 be 44 1a e9 3d
       0.23083873 -0.18105567 -0.22459221 0.11381963
000170 c4 20 6d 3e 75 48 05 3d fa 12 42 3e d8 f3 3b 3e
       0.2315703 0.032539804 0.18952551 0.18354738
000180 c9 c7 e6 3d 74 8f a2 bd db a5 a4 bd 38 99 9e bb
       0.11268575 -0.07937518 -0.08039447 -0.0048400424
000190 83 0c d3 bd 96 c6 b0 bd d2 73 7a 3e 62 7d 11 be
       -0.10305121 -0.08631627 0.24458244 -0.14207986
0001a0 97 02 10 be 16 66 79 be e1 f3 00 3e 6d 11 3e bd
       -0.14063488 -0.24355349 0.12593032 -0.046403337
0001b0 32 00 69 be b3 18 05 3e 76 36 40 3e 67 64 85 3e
       -0.22753981 0.12997703 0.18770775 0.26053163
0001c0 27 fd 37 3d df 94 09 3e c3 ec 28 bd c0 e1 8b be
       0.04491916 0.13435696 -0.04124142 -0.2732067
0001d0 e9 69 29 3d 61 b7 17 bd 0b 28 70 be af ca e0 bd
       0.04136077 -0.037040118 -0.23452775 -0.10976159
0001e0 60 5f 5f be 28 a6 42 3e 15 c0 c2 bc cb af b0 3c
       -0.21813726 0.19008696 -0.023773232 0.0215682
0001f0 47 5f 15 be e7 c3 2b 3d ee 4b 84 3e 05 82 80 3c
       -0.14587127 0.041934874 0.2583918 0.015686998
000200 30 be 19 be ce 24 a3 bd 16 c8 50 bc e3 a1 f7 bc
       -0.15013957 -0.07966004 -0.012743017 -0.03022856
000210 28 e7 13 3e b8 b4 6f bd 18 d6 10 3e 35 4b 8b 3b
       0.14443648 -0.058521956 0.1414417 0.0042509087
000220 df 86 39 be a2 dd 3d 3b 1f 03 da 3d 1f 3b 83 3e
       -0.18117855 0.0028971215 0.106451266 0.25631043
000230 71 ff 2f be 3b 38 0f 3e bf 6d 41 be 98 c6 f2 bd
       -0.17187287 0.13986294 -0.18889521 -0.11854285
000240 87 f5 89 3e 4d 60 80 3e 90 f0 29 3e 4b af 76 be
       0.26945135 0.25073472 0.16595674 -0.24090306
000250 3a 90 29 3e 44 57 15 3e
       0.16558924 0.1458407

linears.0.bias f4 [75]
000000 46 8c f9 bb 23 c0 63 3c c2 1c be 3c e2 f9 8e bb
       -0.007615599 0.013900789 0.023207072 -0.0043632844
000010 80 88 46 bd 7d 35 06 3d 2f 8b 46 3d 34 dd 92 3c
       -0.04847002 0.032765854 0.04847258 0.017927743
000020 c3 4f 39 bc 5a 93 1f 3d ad 1d 3c 3d 9e 0e 64 bc
       -0.011310521 0.038958885 0.04592674 -0.013919501
000030 77 f7 ac 3c 51 48 62 bd ff 6f 17 3b 2b ca 11 3c
       0.021114094 -0.055244748 0.0023107526 0.008898298
000040 23 d6 16 bd 00 fa 52 bd 32 87 56 bd 59 72 81 bc
       -0.03682531 -0.05150795 -0.052375026 -0.015801596
000050 29 d0 61 3d e8 dd 91 3c e2 d3 7c 3d 9a 94 71 bd
       0.055130158 0.017806008 0.061725505 -0.058979608
000060 3d 64 17 3c d8 23 7d 3b e2 c3 fb bc b6 16 85 ba
       0.009240207 0.00386261 -0.030733053 -0.0010153863
000070 50 66 aa bc 96 9c 3f 3d 85 ee 13 bd e8 21 27 3d
       -0.02080074 0.04678019 -0.03611614 0.04080382
000080 40 b0 e4 bc 77 d7 38 bd 25 7b 33 3c ff 81 4e 3d
       -0.027916074 -0.04512736 0.010954653 0.050416943
000090 be da 87 bd c8 16 81 3b cc ba c0 bb 29 9d 6e bd
       -0.06633519 0.0039394833 -0.005881643 -0.05825535
0000a0 e2 98 27 bb b4 a7 b6 3c 39 eb 50 3d 99 ed 55 3c
       -0.0025573303 0.022296764 0.051005576 0.013057136
0000b0 ab d0 0c bd b2 40 e2 3c 21 89 09 bd 8b 0b c4 3c
       -0.03437869 0.02761874 -0.033578042 0.023931285
0000c0 82 7e 3b bd 31 d9 8c 3c c7 64 37 3d ee 68 64 bd
       -0.045774944 0.017193409 0.044773843 -0.05576413
0000d0 4d c3 3a 3c 71 e4 68 3d 04 53 5d 3d 5d e6 ef bc
       0.011399102 0.056858484 0.054034248 -0.02928465
0000e0 77 38 de 3c 0a 94 7e 3d 0e f6 44 bd 9f 63 f5 3c
       0.027126534 0.0621529 -0.04808622 0.02995473
0000f0 22 59 9e 3b 5b 99 ed 3c 0d f6 8b 3d 35 a8 3d bd
       0.004832403 0.02900379 0.0683404 -0.046302993
000100 a3 c2 09 3d ab f3 6b 3d b1 d3 1d bd d1 91 4a bd
       0.033632886 0.057605427 -0.038531963 -0.049455468
000110 2c 48 3f 3d af a0 66 bd d6 5b f5 bb 17 21 43 3d
       0.046699688 -0.056305584 -0.0074877543 0.04763898
000120 87 b4 b1 3c 66 ec 72 3a c7 e8 06 bd
       0.021692527 0.00092667935 -0.032936838

linears.1.weight f4 [75, 75]
000000 76 42 38 bb a6 de 6c bd 7b 27 99 3c 12 27 56 be
       -0.0028115786 -0.05782952 0.018695584 -0.20913342
000010 b7 35 ef bc a3 b7 fa 3c 2c 15 a6 3d 41 aa ee bd
       -0.029200418 0.030605143 0.08109507 -0.11653567
000020 56 ed 15 3d de 15 10 be d3 b4 ea bd ef 5a 1c be
       0.036603294 -0.14070842 -0.11460271 -0.15269063
000030 ce 1c d4 3d 66 7f e6 bd 09 42 46 3c 44 ae 20 3e
       0.103570566 -0.11254768 0.012100705 0.15691477
000040 00 5b 60 3e 3f 94 e3 3d a3 dd ff bd 62 49 26 bb
       0.21909714 0.1111226 -0.12493446 -0.002537333
000050 08 39 8c 3e 81 cd 27 be 7b d0 69 bb 2b 38 91 bd
       0.2738726 -0.16386987 -0.0035677243 -0.07090791
000060 ef 07 ce 3c 29 1c cb 3b ba ff c5 3d 34 ff df bd
       0.025150267 0.0061984253 0.096679166 -0.10937348
000070 23 c9 0c bc e3 33 b0 3d d9 0b 41 bd 94 c4 0e 3e
       -0.008592877 0.086036466 -0.04713044 0.13942176
000080 2b 40 5c bc 1b 1c 05 3e c9 d7 03 3d a8 8a 36 3d
       -0.013443033 0.12999003 0.03218821 0.044565827
000090 24 a8 59 bd 4a 5a 48 3e e1 aa 09 3d d4 7c 6a 3e
       -0.053138867 0.19565693 0.03361023 0.2289918
0000a0 38 e6 d5 3d c0 81 36 be fc cc 89 3d e5 82 83 3b
       0.10444301 -0.17822933 0.06728551 0.0040134066
0000b0 83 d6 6e 3d 73 75 07 be 40 94 6b ba 2e bc c6 3d
       0.058310043 -0.13228397 -0.00089866295 0.09703861
0000c0 45 da bc bd f5 ad ec bc 88 dd d7 bd 86 ea b7 bd
       -0.09221319 -0.028891543 -0.105403006 -0.08980279
0000d0 9c 61 cc 3d 74 b7 b1 bd 42 9c 10 bd ad 15 45 3e
       0.09979555 -0.08677569 -0.03530527 0.1924655
0000e0 80 95 36 3e 0d b0 86 3d 73 8d 27 3e 81 f7 40 3e
       0.17830467 0.06576548 0.16362552 0.18844415
0000f0 e3 f2 fa 3d 19 2a 1b be d2 0c 28 3e 8c a0 d5 3c
       0.12253358 -0.15152778 0.1641114 0.026077531
000100 82 6b 4f bd aa 1a 17 3e f9 fd e9 bd 7c cb 49 be
       -0.050639637 0.14756265 -0.114253946 -0.1970653
000110 92 30 2d be 41 14 11 3e 05 31 0e be 08 5d 05 bd
       -0.1691306 0.14167883 -0.13885887 -0.032559425
000120 0c 9f 1d 3e 79 c7 04 be fa 37 31 3d 7a a1 48 bd
       0.15392703 -0.12966718 0.043266274 -0.04898212
000130 b1 f0 41 be a8 8f 55 3e 66 86 73 3d 03 d8 37 be
       -0.18939473 0.20855582 0.059454344 -0.17953496
000140 0e 25 2b 3e f6 8e 9e 3c f0 bc 9a bc ec f0 0f 3d
       0.16713354 0.019355278 -0.01888892 0.03514187
000150 2d 88 3b be 89 ee 06 be ac 5e 1a bd a2 15 08 bd
       -0.18313666 -0.13176931 -0.037687942 -0.033223756
000160 22 72 2a be 5a 20 10 bd 2d 3c 50 3e 02 fe 3a 3d
       -0.166451 -0.035187103 0.20335455 0.045652397
000170 08 72 ba bd 0c 83 32 be b2 f0 d5 bd e1 9c bd 3d
       -0.09103781 -0.17432803 -0.104462996 0.09258438
000180 06 73 f8 3d bb 5b a9 bc 2d d3 39 bd 49 b8 b5 bd
       0.12131314 -0.020673623 -0.04536741 -0.0887304
000190 42 10 0f 3e de 6f 53 3d 2c 0e 44 3d c7 18 44 be
       0.13971046 0.051620357 0.047865078 -0.19150077
0001a0 f9 29 40 be 0f 79 a0 bd 0e 21 d3 bd 33 74 ab bd
       -0.18766011 -0.0783559 -0.10309039 -0.083717726
0001b0 8c 0e 3c be 6e 3f 0f 3e ce cd 98 3d 4b 6c 05 3d
       -0.18364924 0.1398904 0.07461129 0.03257398
0001c0 b3 db 05 3d c0 45 8e bd 4c bb 1e bd 8d 82 39 be
       0.032680225 -0.069468975 -0.03875284 -0.18116207
0001d0 82 34 26 bd af 9d c0 bd 8b 34 43 be c2 c1 0d 3d
       -0.04057742 -0.09405076 -0.19063012 0.03460861
0001e0 13 14 fa 3d a9 0f 68 3d dd 7b 30 3d 0d 76 0f 3e
       0.1221086 0.05665556 0.043086875 0.14009877
0001f0 cc 5e 96 bc d3 e7 59 3d f9 78 f4 3d 2e 08 a9 bd
       -0.01835575 0.0531996 0.11937136 -0.08253513
000200 67 14 05 3e 2b a3 41 3e 27 b2 fc bd 65 da 32 bd
       0.12996064 0.189099 -0.12338667 -0.04366531
000210 3d 95 df 3d a7 14 10 3d 81 e6 ad bd 03 09 07 3e
       0.10917137 0.035175946 -0.08491231 0.13187031
000220 70 f3 33 be d6 9b 90 bd 0a 4e 44 be 58 5e 77 bc
       -0.17573333 -0.07060973 -0.19170395 -0.015098177
000230 5f 2d cd 3d 5b c7 20 3e de f6 09 3e 20 ff e5 3d
       0.100184195 0.15701048 0.13473079 0.11230302
000240 87 75 31 bb bf 79 a7 3d b2 53 2c be 78 23 6a bd
       -0.0027078108 0.08177518 -0.16828802 -0.057162732
000250 68 d6 68 3d 17 d7 a1 3d d8 cf 94 3d ca a2 19 3e
       0.0568451 0.07902353 0.072662055 0.15003505
000260 2c 82 3c bc 64 dc 6d bd ce 26 60 3d 6c 04 1e bd
       -0.011505645 -0.05807151 0.054724507 -0.038578436
000270 f6 7a 32 be bb b0 4a be 7d 23 21 3d 3d 27 19 3e
       -0.17429718 -0.1979398 0.039340485 0.14956374
000280 41 cd 04 be f6 86 05 be 9b 5e e6 3d be ee be bc
       -0.12968923 -0.13039765 0.11248513 -0.0233072
000290 89 50 a0 bd b7 70 3a 3e 67 d0 1b 3e 41 52 69 bd
       -0.07827861 0.1820706 0.15216218 -0.05696321
0002a0 e7 2e d2 3d bd 91 f7 3d 97 0e 58 3d da 9b dd 3d
       0.10262852 0.12088344 0.05274829 0.10820742
0002b0 ef 4d 0e be e8 e5 29 3e 48 7a 21 be 17 f1 44 3e
       -0.13896917 0.16591609 -0.15769303 0.19232593
0002c0 e9 83 48 3e 5b 21 96 3c e7 e6 23 be 97 77 a7 3d
       0.1958157 0.018326452 -0.16006051 0.08177107
0002d0 9c 71 8a bd 05 12 dd bd b0 aa 51 ba d0 4a 85 3c
       -0.067599505 -0.107944526 -0.00079981517 0.016271025
0002e0 12 ab 8e bd 91 be 14 3e fb 8e 19 3e c2 1a be 3d
       -0.06966223 0.1452582 0.14995949 0.092824474
0002f0 86 53 2c 3e a6 5b e7 3d f2 58 cb bc 78 00 1c be
       0.16828737 0.112967774 -0.024822686 -0.15234554
000300 08 cf e0 bc d4 86 15 be 85 63 c8 3d f9 1e be 3d
       -0.02744247 -0.14602214 0.09784607 0.09283251
000310 37 a1 3d 3e 8c 35 e5 bd 4e 62 16 bd 6f 60 fd bd
       0.1851853 -0.11191854 -0.036714844 -0.12371909
000320 97 bd 2f 3e be 73 07 3e 5b 0e 4d be f7 e4 29 be
       0.17162167 0.13227746 -0.20025007 -0.1659125
000330 ef 99 92 3d 71 88 5d 3c 05 45 19 3e 9e 39 59 be
       0.07158267 0.0135213 0.14967735 -0.21213385
000340 75 d0 fb 3d 38 8a d3 3d 6b d8 bb bd 04 6a c1 3d
       0.122956194 0.103290975 -0.09172138 0.09444049
000350 a6 6b 53 be 6b db 34 3d 19 33 c8 bd f9 d9 3c be
       -0.20646533 0.044154566 -0.09775371 -0.18442525
000360 0d 1f 34 3e 27 ec a0 bd 31 1d d2 3d e9 fe 2b 3e
       0.1758997 -0.078575425 0.10259474 0.1679646
000370 df b9 55 bc 23 e2 01 be 1f 25 a2 3d ac 47 12 be
       -0.013044803 -0.1268392 0.079172365 -0.14285153
000380 79 5b 0e bd ce 1f d5 3d 7d 29 04 be 2f 22 fa bd
       -0.034755204 0.10406457 -0.12906452 -0.12213551
000390 8c e7 f2 bd ba d2 37 bb e1 47 4b 3e d6 76 39 3e
       -0.1186057 -0.0028049187 0.19851638 0.18111739
0003a0 97 52 0f 3e 25 a8 2b be fe 2a 37 3e b3 70 8c 3d
       0.1399635 -0.16763361 0.17887494 0.06857433
0003b0 71 45 c7 3d 2e c8 40 be 34 4c c8 bd f8 25 38 3e
       0.09730042 -0.18826362 -0.097801596 0.17983234
0003c0 a2 cd 76 bb 2e b6 c8 3c 4b fa 1f 3e fb b4 a1 bd
       -0.0037659188 0.024500933 0.15622823 -0.078958474
0003d0 6c 91 b1 3d 84 1c 26 be a5 4f 31 3e 11 72 09 be
       0.08670315 -0.16221815 0.17315538 -0.13422419
0003e0 39 88 9b 3d d7 92 2b 3e 63 0d 4f bd a2 34 19 bd
       0.07594342 0.16755234 -0.050549876 -0.03740371
0003f0 06 d0 b9 bd 62 62 e5 bd 61 9f e3 bd 69 a8 3c be
       -0.090728804 -0.11200406 -0.111143835 -0.18423618

linears.1.bias f4 [75]
000000 e5 2b 9b 3d 86 a8 30 ba 6d 80 07 bd cf d5 1b 3c
       0.075767316 -0.0006738979 -0.03308146 0.009511425
000010 f4 b9 07 bd b1 c2 e9 3c 6f b6 05 3c b0 c5 e2 3c
       -0.033136323 0.028535219 0.008161171 0.027682155
000020 b2 f6 91 bb 1f 8e d1 bc 75 c9 c3 3c 57 9f 0b 3d
       -0.004454457 -0.025580464 0.023899773 0.034087505
000030 41 d6 d1 bc b1 b3 c8 bc a8 0a 6e bd ea 33 20 3d
       -0.02561486 -0.024499746 -0.05811563 0.03911201
000040 b5 35 d8 bc b0 c6 e9 bc ae 3e c6 3b 4a 3c af bc
       -0.026392797 -0.028537124 0.0060499525 -0.021391053
000050 35 f1 1e bd 77 8a e6 bc 07 80 de 3c d6 9e 0f 3d
       -0.03880425 -0.028142197 0.027160658 0.035063587
000060 15 9d 09 bd 2e 1a c3 3c 73 b5 1d bd ec eb 5e 3c
       -0.03359707 0.023816194 -0.03850312 0.013606053
000070 0c 84 b3 3c fd 48 40 3d 66 5f 38 3d ea e6 4a 3a
       0.02191355 0.046944607 0.045012854 0.00077400974
000080 a0 0e 9a bc 9c 3c d6 bb ea 49 39 3d d9 e6 b3 3b
       -0.018805802 -0.006537987 0.045236506 0.0054901657
000090 4a fb 2b 3c 3e 3f 4f bd fc 53 a6 bc 31 32 19 3d
       0.010496924 -0.05059742 -0.020303719 0.037401382
0000a0 d2 be 80 3d 87 98 b0 3c 7c d8 52 bd 23 03 48 bc
       0.06286396 0.021557106 -0.051475987 -0.012207779
0000b0 95 10 92 bd 93 fc 80 3c dd 77 61 bd 37 72 21 bb
       -0.07132069 0.015745437 -0.05504595 -0.0024634728
0000c0 84 bf 03 3c b5 14 6f bd 20 e3 6f 3d 0b 81 1c 3c
       0.008041266 -0.058369357 0.058566213 0.009552251
0000d0 8d 31 67 bd f3 76 d8 3c 2c bc 30 bd b2 c4 3c 3d
       -0.05644374 0.026423907 -0.043148205 0.04608602
0000e0 73 c9 24 3c b7 ed 06 bd 71 98 ed bc ef 7f 55 3d
       0.010057795 -0.032941546 -0.029003354 0.05212396
0000f0 31 e8 d7 3c f3 ef e1 3c 59 ff 9d 3c d2 0b af bc
       0.026355835 0.027580237 0.019286798 -0.021367941
000100 c9 28 eb 3c 01 8f 16 3d 0c d1 42 3d 16 7d a8 bc
       0.028705971 0.036757473 0.047562644 -0.020567458
000110 6f 27 11 3d 1b 29 9e b9 5d 01 a7 3c eb 92 e8 3c
       0.035437997 -0.00030166734 0.020386392 0.028390368
000120 57 76 80 bc 34 12 45 bd e3 81 30 3d
       -0.015681429 -0.048113063 0.04309262

linears.2.weight f4 [75, 75]
000000 86 6c de bc 06 d2 91 bd b1 91 30 bc db 9c c1 3d
       -0.027151357 -0.07120137 -0.010776923 0.09453746
000010 b7 9a 19 3e 6d ee 33 3e ca bf 08 bc 2e 8d 3d be
       0.15000425 0.17571421 -0.008346507 -0.18510887
000020 ef 9f 14 be 4d 6c 0b 3c 4f 66 32 3e 4a ea 96 3d
       -0.14514135 0.008509708 0.1742184 0.07368906
000030 95 c9 51 be d5 d4 bc 3d ea ad 64 bd 6c e6 de bb
       -0.20487054 0.09220282 -0.05582992 -0.006802371
000040 0c f1 cb 3d fa 74 1a 3d 32 77 4c be 8e e5 34 3e
       0.099580854 0.037709214 -0.19967344 0.17665693
000050 dd f9 34 bc a9 cf ec bc 80 3a a8 ba 86 44 b7 bd
       -0.0110459 -0.028907614 -0.0012834817 -0.08948617
000060 6c 25 04 bd 69 12 36 3e 20 ae 21 be 77 00 f0 3d
       -0.03226225 0.1778046 -0.1578908 0.11718839
000070 00 7c a7 bd 6d c3 03 be b1 1b b8 bd ab e8 0c be
       -0.08177948 -0.12867518 -0.08989657 -0.13760631
000080 94 cc 4b 3c f2 82 cd 3c 44 7d 51 be 4a 31 e6 3c
       0.012438912 0.025086854 -0.20457941 0.028099675
000090 f9 fb cc bd 71 d5 32 3a 75 96 0c bd 5e b8 85 3b
       -0.100089975 0.00068219664 -0.034323175 0.004080816
0000a0 db ca 97 be 45 5c 94 3d ca 57 23 3d 49 8c 13 be
       -0.29646954 0.072441615 0.039878644 -0.14408983
0000b0 08 c8 7f 3d 73 ad 23 3e 2b 42 55 3e 6f 86 15 bc
       0.062446624 0.15984134 0.20826022 -0.00912629
0000c0 f1 bf c8 bd d1 c3 45 3e 91 cf 02 be 77 f8 b7 bd
       -0.09802235 0.1931298 -0.12774493 -0.08982938
0000d0 98 e4 13 be 87 6f 5f be a5 6d 57 bc f6 ba c5 3c
       -0.1444267 -0.21819888 -0.0131487 0.024137001
0000e0 47 2a 3b be 82 3b f9 3d 7f bc 40 3e b0 02 36 3e
       -0.18277846 0.12169553 0.18821906 0.17774463
0000f0 a9 bd 37 bd d6 77 ad bc 65 ba 23 be ab d0 59 3e
       -0.04485861 -0.021175306 -0.15989073 0.21271007
000100 88 82 45 3d 44 d2 15 3d c6 74 23 be 0b ca b4 bd
       0.048220187 0.036577478 -0.15962514 -0.08827599
000110 1c 61 cf bd 3b 8a 04 bd d5 eb 02 be 37 b9 f3 bd
       -0.10125944 -0.03235839 -0.12785275 -0.11900561
000120 17 5c 25 bc 7b 5c b8 bc 3c 60 cd bd 5c fc c5 3d
       -0.010092757 -0.022505036 -0.10028121 0.09667274
000130 ee b8 44 bd 81 3f 1e be 21 b1 05 be 5b 38 b6 3d
       -0.048027925 -0.15453912 -0.1305585 0.08897468
000140 03 a3 c7 3d f8 95 dd 3d ba 00 16 be 6d 23 62 bc
       0.09747889 0.1081962 -0.14648715 -0.0138023915
000150 5f 16 e4 bd 0d 71 fd bd c8 fc de 3b 2e 24 0d 3e
       -0.111370794 -0.12375078 0.006805036 0.13783333
000160 91 5f 9e 3d 76 61 19 3d 72 b4 ee 3d 66 f9 31 bc
       0.077330716 0.03744646 0.11655511 -0.010862684
000170 51 84 cc 3d 01 0a 28 be a1 ce 89 3b 95 26 1d be
       0.09986175 -0.16410066 0.0042055403 -0.15346749
000180 1b 40 1d be 7a d0 56 3d 47 59 46 bd 95 f7 58 be
       -0.15356486 0.052444912 -0.048424985 -0.21188195
000190 3a 1a 45 be c0 42 e7 bd 4b e5 35 3e 9f b7 bb bd
       -0.19248286 -0.112920284 0.1776325 -0.09165882
0001a0 d5 5c c6 bd 6a e0 97 3c ba 42 70 3d 17 4e 8d 3c
       -0.09685675 0.018539626 0.058657385 0.01724915
0001b0 5b cd 0a 3e 37 a3 1d be c5 e5 58 be 04 67 2d 3e
       0.135549 -0.15394293 -0.211814 0.16933829
0001c0 d0 68 5f be 56 b5 63 bd 03 b4 ea bd f6 8a 16 bd
       -0.21817327 -0.055592857 -0.11460116 -0.036753617
0001d0 d8 59 4b 3d 27 61 71 bd c5 f8 89 3d 2b 97 d8 3d
       0.04964623 -0.058930542 0.06736902 0.10575708
0001e0 20 b4 45 3e 11 f3 28 3d 82 5d bb bd b2 1a 11 be
       0.19306993 0.04124743 -0.091486946 -0.1417034
0001f0 eb 47 bf 3d 86 ae 80 3e 1c 76 2b be bc 95 13 be
       0.09339889 0.2513315 -0.16744274 -0.14412588
000200 4c ca 29 be bc 04 4c be 3d 65 8d 3c c7 ab 14 be
       -0.16581076 -0.19923681 0.017260188 -0.14518653
000210 ea d6 f7 3d ac 3c 65 bb b8 5d 22 3e 15 f0 e1 3d
       0.121015385 -0.003497879 0.15856063 0.1103212
000220 76 71 8d bd 1c 3b b0 3d a0 65 21 be bb d4 a7 3d
       -0.069064066 0.08605024 -0.15761423 0.08194872
000230 d7 3d 06 3e 16 9a de 3b 96 b6 f2 bd da ce 52 3e
       0.13109528 0.006793271 -0.11851232 0.2058672
000240 16 c3 61 bc 92 6e 5a bd c8 f7 e9 3d 55 05 17 3e
       -0.013779422 -0.053328104 0.11424214 0.14748128
000250 aa f5 10 bd 9d f0 22 be b4 aa c7 3c a1 24 25 be
       -0.035390534 -0.15912099 0.02437339 -0.16127254
000260 9e 89 34 3c 35 10 d0 bd 0c ce 45 3e 13 b2 d3 3c
       0.011019139 -0.10159341 0.19316882 0.025841748
000270 1b 8e 2c 3e 0b cd 06 be 02 90 48 be 74 97 44 3e
       0.16851084 -0.13164155 -0.19586185 0.191984
000280 93 d7 8c bd bf 98 2c be b6 2f 3c 3e 10 44 5d bd
       -0.06877055 -0.16855143 0.18377575 -0.054019988
000290 a1 8a 0e bd e7 bf 5a be 71 20 2c be c1 00 bb bd
       -0.034800176 -0.21362267 -0.1680925 -0.09131003
0002a0 6a ad 52 bd 9e 56 cc bc de fe bf 3d 50 96 4b be
       -0.05143491 -0.024943646 0.09374784 -0.19881558
0002b0 ef 90 64 3d 2d 07 dc 3c 25 a8 f2 3d a3 2e 1c 3e
       0.055802282 0.02685889 0.11848477 0.15252165
0002c0 a2 4f d0 bc e2 48 52 bd 29 18 f9 bd fd d4 91 3d
       -0.025428597 -0.051339038 -0.12162811 0.071207024
0002d0 fd 59 0a bd ac 9c 34 3e e6 6f 7c 3d 40 43 bc 3d
       -0.033777226 0.1763789 0.061630152 0.091925144
0002e0 c8 44 33 3e 04 70 33 3e 51 b9 49 be 95 57 4b 3d
       0.17506707 0.175232 -0.19699599 0.04964407
0002f0 d5 94 79 3d 3b 6c 1a bd 17 a7 86 be d6 7e 50 be
       0.060932953 -0.037700873 -0.26299354 -0.20360884
000300 16 47 bc bd 14 e2 11 3e f7 13 69 3d 38 88 bf bd
       -0.09193246 0.14246398 0.056903806 -0.093521535
000310 23 14 1b be 08 04 97 3d fe e4 0c be bd 4a ad 3c
       -0.151444 0.07373816 -0.13759229 0.021153802
000320 b0 42 81 be 0f 8e 18 be b9 f7 3d 3e eb 86 39 3c
       -0.2524619 -0.14897941 0.1855153 0.011323671
000330 0e e3 25 be fe 16 a6 3d 7d 62 e6 3d 28 52 54 3e
       -0.16199896 0.08109854 0.11249254 0.20734465
000340 37 11 09 3e 9f 53 38 bd d4 ca cd bd 98 a3 3a 3e
       0.13385473 -0.045001622 -0.10048452 0.18226469
000350 61 4c 55 be 9f 69 9c bd e4 07 e3 3c c3 9e 27 3e
       -0.20829917 -0.07637333 0.027713723 0.16369157
000360 22 07 9d bd a9 6f e9 bc a7 97 08 be bb ba 00 3e
       -0.07667376 -0.028495627 -0.13339101 0.12571232
000370 0f 17 4a be ff 2c 3e be 75 9d 91 bc 93 37 01 3c
       -0.19735359 -0.18571852 -0.017775277 0.007886785
000380 5a a2 20 3e 06 28 b8 3d 51 b7 aa 3d 4e de 53 be
       0.15686932 0.08992009 0.08335746 -0.20690271
000390 52 3c 1d bc f7 f5 3b 3d 51 dd 9c bc 90 c7 17 be
       -0.009596901 0.045888867 -0.0191485 -0.14822221
0003a0 fb d7 6d 3d d5 c7 01 be 47 dc e4 bc 8d fb b4 bc
       0.058067303 -0.12673886 -0.027937068 -0.022092605
0003b0 6d c3 ff bd 5b 83 81 bd ae f8 f2 3d 2d 0b bb bd
       -0.124884464 -0.06323882 0.11863838 -0.09132991
0003c0 d4 62 00 3d f9 86 6c be 9f 22 95 bd b2 af 24 bc
       0.03134425 -0.23098363 -0.07281994 -0.010051655
0003d0 de c6 a3 bb 59 39 fc 3d 22 24 4f 3a 0b 50 3c be
       -0.004998072 0.12315626 0.00079018075 -0.18389909
0003e0 61 ca 6c 3e df a5 67 3e bc f9 5d bd 9f fc 28 3e
       0.23124076 0.22621869 -0.054193243 0.16502617
0003f0 98 d7 e5 3c 9f 6f 31 3d be 05 6a 3e 30 38 0e be
       0.028056905 0.04331934 0.22853753 -0.13888621

linears.2.bias f4 [75]
000000 ab 09 1c bc ba 79 57 3d 4e a6 8b bc 95 63 4b 3c
       -0.009523789 0.052606322 -0.017047074 0.012413879
000010 fd ea c3 bb b0 ab 16 bd cb 26 04 3c 3e f6 71 bc
       -0.0059789405 -0.036784828 0.00806589 -0.014768181
000020 ea 70 10 3d 88 d4 00 3d 64 1a c3 bc b9 4f 3b 3c
       0.035263933 0.031452686 -0.023816295 0.011432582
000030 b1 e4 21 3d f3 9c 8c bc 0a 12 e6 3c fa 1c 14 bd
       0.039524738 -0.017164683 0.028084774 -0.036160447
000040 72 7a 13 3d 2c cc ac bc 03 34 eb 3b e2 3b 8e 3c
       0.036005445 -0.02109345 0.007177831 0.017362539
000050 6e 46 ea bc 69 50 87 3c 66 ec 4e 3d a0 5b ab 3b
       -0.028598037 0.016517835 0.050518416 0.0052294284
000060 d2 90 af bb 83 33 4e 3c f6 f6 49 3c 20 fe a9 bc
       -0.00535784 0.012585524 0.0123269465 -0.020751059
000070 5d b1 27 bd c4 ae 04 bd aa 37 86 bd 31 f0 09 bd
       -0.04094063 -0.032393232 -0.06553586 -0.03367633
000080 a3 a9 f8 3c 64 d3 70 3d af b3 fd 3c 55 6b 46 3d
       0.030354327 0.058795348 0.030969469 0.048442204
000090 36 a3 d9 bc 35 73 a4 3c fd 43 a2 bb 1b 1e 3c 3d
       -0.026567083 0.020074466 -0.0049519525 0.04592715
0000a0 9f d2 ce 3b 28 0c 0c 3d 6c a6 a2 3c 9d 15 1c bd
       0.006311729 0.03419128 0.019854747 -0.03810655
0000b0 16 df 09 3d 86 a0 23 bd 32 d3 86 3c 94 a3 9b bc
       0.033660017 -0.03994801 0.016458128 -0.018998899
0000c0 92 65 fa 3c da 6f 2f bd 96 fa 63 3c c7 e1 a4 3c
       0.03056601 -0.04283128 0.013914725 0.02012719
0000d0 45 1c 62 3d 3e 00 3d bd b2 d7 15 bd e6 9d 02 3b
       0.05520274 -0.04614281 -0.036582656 0.001993054
0000e0 d5 d9 77 bd 03 2d 5f 3c 99 7f d5 bc e5 ec e9 bc
       -0.060510475 0.0136215715 -0.02606182 -0.028555343
0000f0 d4 4a 43 bd 36 9a 01 bd 37 29 5a 3c df 9d 77 bd
       -0.047678784 -0.031641208 0.01331549 -0.060453292
000100 59 75 40 bd d6 96 4b bc c3 4f ab 3b eb d9 33 3c
       -0.04698691 -0.012426099 0.005228014 0.010977249
000110 5a 60 ab 3b 7e 7e b3 3c 05 c8 d0 3a ea 08 25 bd
       0.005229992 0.021910902 0.0015928751 -0.040291704
000120 8b ab 80 3a 0f e8 c0 3c 38 21 55 bd
       0.0009816749 0.023548154 -0.052033633

linears.3.weight f4 [75, 75]
000000 af 9f 38 bc 91 ec 07 be f2 57 61 be d7 fb 24 3e
       -0.01126854 -0.13273837 -0.22006205 0.16111694
000010 71 bd 04 3e 58 be 2f 3d 30 49 4b be 72 ca c9 bd
       0.12962891 0.042906135 -0.19852138 -0.098530665
000020 ee 89 83 bd 5e 08 48 3c 96 66 d4 3d 18 0e 45 3e
       -0.064227924 0.012209026 0.10371129 0.19243658
000030 da 3a 38 3d 73 3b ab bd e2 66 24 3e 8c 1a 3c be
       0.044978 -0.083609484 0.16054872 -0.18369502
000040 96 94 85 3d 4b 4a ea 3d 34 8d 10 3b 6b 13 b4 3d
       0.06522481 0.114399515 0.002205682 0.08792766
000050 4f 1b 0b 3e 96 44 4d be 4a 9b 43 be af 2d 37 be
       0.13584636 -0.20045695 -0.19102207 -0.1788852
000060 c0 39 80 bd c6 ab 54 be ad 9e 50 3c fa 23 d7 3d
       -0.06261015 -0.20768651 0.012733144 0.10504909
000070 82 e3 f1 3d cf 09 84 bd 31 a0 10 be 7d 87 07 3e
       0.11810972 -0.06447183 -0.14123608 0.13235278
000080 fb 11 50 3e 30 5a 75 3d 94 39 d2 bc 30 1d 45 be
       0.20319359 0.059900463 -0.025662221 -0.19249415
000090 8d f0 bd 3d c9 9e 32 be 65 1c fc 3d 38 8c 53 3e
       0.09274397 -0.17443384 0.12310103 0.20658958
0000a0 69 34 1d 3e 74 2e 4c be 63 66 43 3e a3 ab 10 bd
       0.15352024 -0.19939595 0.19082026 -0.035319936
0000b0 46 93 95 3d df 13 93 bd 07 fa 92 bd 40 b7 9f bd
       0.07303481 -0.071815245 -0.07176595 -0.07798624
0000c0 f5 bb 4a be c8 9e 43 3e a3 be 1e be f5 a2 9c bd
       -0.19798262 0.19103539 -0.1550241 -0.07648269
0000d0 05 13 86 bd 3d a7 2b 3c 9f e4 10 be 79 fe 64 3e
       -0.065465964 0.010476884 -0.14149712 0.22362699
0000e0 8f 95 95 3c 78 22 d0 3d 63 d9 22 3e fd 95 30 be
       0.018259792 0.101628244 0.15903239 -0.17244716
0000f0 4c d8 18 3e f3 40 6a 3c df d1 b9 bc 48 c2 c0 3d
       0.1492626 0.014297712 -0.022683082 0.09412056
000100 c2 02 bd bd c2 3c 0b 3e 8c 8f 1d be 04 40 9b bd
       -0.09229042 0.13597396 -0.1538679 -0.075805694
000110 b1 2a 1a 3c 77 fd 57 be a5 6a 5f be a4 d3 e3 3d
       0.0094095925 -0.21092783 -0.21818025 0.111243516
000120 a8 64 90 3d 33 28 b0 3c d9 26 2c be 14 e1 d6 3c
       0.07050449 0.021503543 -0.16811694 0.026230372
000130 d0 c0 f8 bc 5e c6 05 be de 50 e1 3d b5 2e 53 be
       -0.030365378 -0.13063952 0.11001752 -0.20623286
000140 a7 36 34 bc 06 17 16 3d da a0 09 be ed ce b0 bd
       -0.010999358 0.03664305 -0.13440266 -0.08633218
000150 51 29 48 3e e0 ec 51 bb c4 4d 57 be be df 93 3d
       0.19547011 -0.0032032058 -0.21025759 0.0722041
000160 4c f5 44 3e 08 b7 bc 3d d5 62 1f 3e f5 7b dd 3d
       0.19234198 0.09214598 0.15565045 0.108146586
000170 21 30 10 3e e4 b0 2e 3e a4 e3 52 3e 2b 34 36 be
       0.1408086 0.17059666 0.2059465 -0.17793338
000180 6e f3 4c bd a4 1d a3 3d 06 c1 ae 3c 8c 0e fa bd
       -0.05003684 0.07964638 0.021332275 -0.12209806
000190 70 0b e2 bd ee 85 09 3e 9b 82 72 3b 74 81 6c bc
       -0.11037338 0.13429996 0.0037004116 -0.014435161
0001a0 68 98 31 be 1f 7a 38 3c 36 4c 84 bd d7 3d 89 bd
       -0.17343295 0.011259585 -0.064598486 -0.06701248
0001b0 8a d0 36 be 03 96 78 3e 42 1d 25 3d 37 e6 38 bd
       -0.17852989 0.24275975 0.040311106 -0.045141425
0001c0 09 33 07 be 66 88 9b bd ac 70 cb 3d c8 8c c8 3d
       -0.13203062 -0.07594375 0.099336 0.09792477
0001d0 81 c7 31 bd fd 97 74 3d 6c 24 de bd 2e c7 57 bd
       -0.043403152 0.05971526 -0.10846791 -0.052680187
0001e0 08 2e de bd c5 1b 88 3c 72 70 59 3d e3 16 10 3e
       -0.108486235 0.016614804 0.05308575 0.1407123
0001f0 32 50 63 be 72 a2 36 3d ac 59 1d 3e 69 2c 90 bd
       -0.22198561 0.044588514 0.15366238 -0.070397206
000200 c7 51 6e be 78 4a 30 be fc ba 99 bc eb 35 cd bc
       -0.23273383 -0.17215908 -0.018765919 -0.025050124
000210 7a 28 d5 3c 52 37 33 be 9d 56 20 be f3 9f e0 bd
       0.026020277 -0.17501572 -0.1565804 -0.10968008
000220 2c 55 2a 3e df fe 15 bd f3 d0 42 be 0a b8 57 be
       0.16634053 -0.036620017 -0.1902502 -0.21066299
000230 1c 63 4c bd 80 99 0a 3a b0 b1 59 3c d6 ba 18 3e
       -0.049899206 0.00052871555 0.013286993 0.14915022
000240 e2 80 f5 3a ac 23 f7 bd f2 49 8c 3d 0b 8a 2d be
       0.0018730427 -0.12067351 0.068500414 -0.1694719
000250 eb 8a d2 3d d2 dd 03 3e 9e 5b ab bd a9 09 6c 3e
       0.10280403 0.12877586 -0.08367084 0.2305056
000260 73 8f 3e be 7e 66 20 3d df 27 a1 bc d7 35 f9 bd
       -0.18609409 0.039160244 -0.019672332 -0.12168472
000270 d6 48 c9 3d 60 36 ab 3d 0f cd 52 3d ae 03 44 3e
       0.098283455 0.083599806 0.05146509 0.19142029
000280 5e 9a f6 bb b9 27 ef bc 38 5d 1c 3e 9a 03 18 be
       -0.007525726 -0.029193746 0.15269935 -0.14845124
000290 85 f8 f7 bd 46 b9 eb 3d 99 b8 4c 3e dc 89 c8 bd
       -0.12107948 0.115099475 0.19992293 -0.097919196
0002a0 23 2b c5 bd 45 6b 01 3e 62 ee b6 3c 15 9d 1f bd
       -0.09627368 0.12638576 0.022330467 -0.038968164
0002b0 5b 9f 06 3e 9f 14 5e be ad bf 0a 3e 29 e5 43 be
       0.13146727 -0.21687554 0.13549681 -0.19130386
0002c0 3a d0 97 3d b7 8b 57 be 9a b5 77 be 1b d1 17 3e
       0.07412763 -0.2104939 -0.24190369 0.14825861
0002d0 8f 58 32 be 69 7d 03 3e 8c 00 4b bd 91 e7 d7 bd
       -0.17416595 0.12840809 -0.04956107 -0.10542215
0002e0 c4 54 2b be 65 5a 82 3e e0 86 d8 3d 92 e2 24 3e
       -0.16731554 0.2545959 0.105726 0.16102055
0002f0 9d 88 a7 bd 65 ac de 3c 34 a6 27 be 89 32 9d 3d
       -0.08180354 0.027181813 -0.16371995 0.076756544
000300 75 29 12 3d f7 ed e8 bd 7b a0 07 3d 04 46 84 be
       0.035684068 -0.11373513 0.03311203 -0.25834668
000310 c3 c3 29 3d 5a a0 3c be 94 41 1a 3e d9 18 27 be
       0.04144646 -0.18420544 0.15064079 -0.16318072
000320 9b 24 61 3d 72 0f 51 3e f7 41 72 bd 5f f6 01 be
       0.05496655 0.20416048 -0.05914494 -0.1269164
000330 be 34 d6 bd 45 ff 92 bd cb 38 3e be a9 27 e8 bd
       -0.104592785 -0.07177595 -0.18576352 -0.113356896
000340 45 e9 f2 bb 75 ee a2 3b bd 19 f0 bd 0e 0d 02 be
       -0.007413062 0.004972274 -0.11723659 -0.12700292
000350 ae fc ca bd 1d f8 27 3e 4a 57 c2 bc e8 9a a3 3d
       -0.09911476 0.16403241 -0.023723263 0.079885304
000360 7d f2 75 bd 58 aa 91 3d 11 ad 9a bd 1f 52 24 be
       -0.060045708 0.071125686 -0.07552541 -0.16046952
000370 49 a4 13 bd 48 a9 2b 3c 91 c0 d2 bb 80 50 12 be
       -0.036045346 0.0104773715 -0.006431647 -0.14288521
000380 27 1a 80 be b7 26 51 3d 43 67 1f 3e a5 40 ed 3d
       -0.25019953 0.051062312 0.15566735 0.115845956
000390 8e f0 04 3c ef 3f e1 3d 31 33 91 3c a7 00 fb bd
       0.008113993 0.109985225 0.017724605 -0.12255984
0003a0 1f 5d d5 bc 4b 2b 1d be cc b8 03 3e 72 ca 19 be
       -0.02604538 -0.15348546 0.12863463 -0.15018633
0003b0 75 07 04 be bf 8a da 3d e0 0f 2b be f3 7a 31 be
       -0.1289347 0.10670995 -0.16705275 -0.17332058
0003c0 2c e1 13 3e f5 0a 2d be 2a 34 1c bd ab 13 06 3e
       0.14441365 -0.16898711 -0.038135685 0.1309344
0003d0 d0 c4 1d 3d 96 73 39 3c d2 f3 10 be 23 20 b2 3d
       0.038517773 0.011319062 -0.1415551 0.08697536
0003e0 85 f9 38 be 17 30 d1 3d 64 da 2c 3e 05 35 4c be
       -0.18063934 0.102142505 0.16880184 -0.199421
0003f0 e1 ef f1 bd ed c3 26 3d 6e 26 15 3e 68 38 6d 3d
       -0.118133314 0.040714193 0.14565441 0.05791512

linears.3.bias f4 [75]
000000 73 cf 59 bc 2e 63 41 3d 5e 94 1c 3d 83 1c cc 3c
       -0.013294089 0.047213726 0.03822743 0.02491594
000010 da 01 c0 3b ff 8c 03 bd 2b e2 3e bc dd be 81 3d
       0.0058595957 -0.032116886 -0.011650602 0.063352324
000020 a1 f3 28 bc ab f7 de 3a 95 3d 10 bc 2e 68 84 3b
       -0.010311992 0.0017011067 -0.008803745 0.0040407395
000030 e6 a3 73 bb 43 d9 b4 ba 11 bf 93 bc be 3c e7 3c
       -0.0037176549 -0.0013797659 -0.018035443 0.028227206
000040 c3 18 90 bc e7 2f e2 bb 9d aa 37 bd e8 03 e8 3c
       -0.017589932 -0.006902683 -0.044840444 0.028322175
000050 38 cc 07 3d 16 4b 99 3c 4d 92 3f 3c 0c 01 ce 3c
       0.033153743 0.018712562 0.011692596 0.025146984
000060 d8 fd 9e 3c 79 94 f9 3c 46 14 2c bc 5d 33 fa bc
       0.019408152 0.030466305 -0.01050288 -0.03054207
000070 07 0f 3e bc 98 21 b7 bc a3 56 81 bb 42 a6 fc bc
       -0.0116002625 -0.022354886 -0.0039470955 -0.030840997
000080 ed 0d 15 3d f5 1a c4 bc 37 52 b7 3c e4 f1 ef 3b
       0.036390234 -0.023938635 0.02237807 0.007322537
000090 6e ee 1b bb f3 4b 11 3c a8 df 8f 3d 32 3e 15 bd
       -0.0023793238 0.008868205 0.07025081 -0.036436267
0000a0 56 a9 e3 bc f6 05 06 bd 76 d6 ea 3c b1 7e 96 bc
       -0.027790707 -0.03272053 0.028666716 -0.018370958
0000b0 61 16 8b 3d b1 e4 1d bd 26 34 83 3d 9b e3 a0 bc
       0.06791378 -0.038548175 0.06406431 -0.01963978
0000c0 6a 91 c9 3b f4 0a d0 3c 5c 43 be 3b 96 22 4f ba
       0.006151368 0.025395848 0.0058063697 -0.0007901577
0000d0 22 58 95 bc 20 5b 75 3a b0 77 28 bd ef fb 02 bc
       -0.018230502 0.0009359587 -0.041129768 -0.007994636
0000e0 e2 ab 94 3c 79 0f 86 bb 52 6b fd 3c 9c 03 46 bd
       0.018148366 -0.0040912 0.030934963 -0.048343286
0000f0 30 c1 d6 3c d6 df 1b bd 13 a3 ac 3c 31 8d 25 bd
       0.026215166 -0.038055263 0.021073854 -0.040417854
000100 f6 35 68 3c a3 d4 dc bc bd a6 4a 3b 51 e3 9e 3b
       0.014173022 -0.026956862 0.0030922138 0.0048488756
000110 de 0c 50 3c 8b 89 44 3d 7c 96 7e 3c 15 4c da bc
       0.01269838 0.047982734 0.015538808 -0.026647607
000120 02 f1 e2 3c 6c 11 b0 bc b4 44 0d bd
       0.027702812 -0.021492682 -0.03448935

linears.4.weight f4 [75, 75]
000000 c7 46 f2 bd 5d 2c a4 3d 75 f3 d9 3d 0f 9f c6 3c
       -0.11829906 0.08016274 0.10642139 0.024245767
000010 5e 80 56 bd e0 c8 b0 3d e7 61 2e bd 40 b2 12 3d
       -0.052368514 0.08632064 -0.042573836 0.035814524
000020 b2 ce 86 3d 42 80 1f 3e 93 4f fa bd 7a 56 7b 3d
       0.06582393 0.1557627 -0.12222209 0.061361767
000030 cf 3d 02 3e f7 89 a4 bd 32 7f 9d bc b9 92 17 3d
       0.1271889 -0.08034127 -0.01922569 0.03700516
000040 cb a9 ac bd 61 6e 8f 3d 12 1f 0d 3e eb f5 68 3d
       -0.08430823 0.07003475 0.13781384 0.05687515
000050 84 f1 fd 3d d6 a6 f4 3d 27 90 c3 3d 55 7e bf bb
       0.12399581 0.11945884 0.09548979 -0.0058439174
000060 41 e9 68 3e e1 04 0b be a2 56 e9 3d 3c 63 36 be
       0.2274523 -0.1357608 0.11393477 -0.17811292
000070 de cb c0 3d 6a db 9c bd 85 7f 52 be c2 57 06 be
       0.094138846 -0.076590374 -0.20556457 -0.13119414
000080 99 5c 78 3d 9d 12 dc 3d 6a e1 6a 3d bb 0e 72 bd
       0.060635183 0.10745738 0.057343878 -0.05909608
000090 fe 69 cb 3d 5f d6 10 3d b4 b6 9c bc 62 21 5e 3e
       0.09932326 0.03536069 -0.019130088 0.21692422
0000a0 98 41 fe 3d ad 44 3d bd 88 b5 bd 3d 1f f0 c4 bd
       0.12414855 -0.046208072 0.0926314 -0.09616112
0000b0 6e b2 e6 3d 24 0d 8c 3d 7c 6f 81 3e a9 95 56 3b
       0.112645015 0.06838444 0.25280368 0.0032743013
0000c0 3f 02 8e 3d fa 3f b1 3d 9f 94 22 3e 67 b3 24 3e
       0.06934022 0.08654781 0.15877007 0.16084062
0000d0 86 9f 17 3c 4b 0b d4 3d f6 2b 7f 3b da 4b 54 3e
       0.009254342 0.103537165 0.0038936115 0.2073206
0000e0 49 7a 75 3e 0d 69 3f 3e 76 07 cd 3c 97 eb 3c be
       0.2397243 0.18692417 0.025027972 -0.18449245
0000f0 4b 50 af bd 97 a0 21 be 35 b4 ac 3d 46 88 21 3e
       -0.085602365 -0.15783916 0.08432809 0.1577464
000100 a7 81 1a 3e 3f 40 44 be 61 65 02 3d 61 b2 72 bd
       0.15088521 -0.19165133 0.031834964 -0.059252147
000110 d2 3f db 3b f6 0c f2 3d 98 6b 65 3e f4 62 b7 bd
       0.0066909576 0.11818878 0.22404325 -0.08954421
000120 9d a2 ae 3c 34 8f 0e 3e 2d cd 02 be 1b 1c a3 3c
       0.021317774 0.13921815 -0.12773581 0.019910863
000130 7d bd 11 bd 27 43 c5 3d b1 04 2a 3e 27 5c 79 be
       -0.0355811 0.09631949 0.16603352 -0.2435156
000140 a6 3a c4 bd 07 7c 04 3e 80 5c 98 bd 87 73 9b bd
       -0.09581499 0.12937938 -0.07439518 -0.075903945
000150 3e 3c 18 3e 63 05 ef bd c9 b9 10 be cc 36 04 be
       0.1486673 -0.11670949 -0.14133371 -0.12911528
000160 dd 1b 1a 3e 08 9f a4 3d d7 cd 0f 3d be a0 82 3e
       0.15049691 0.08038145 0.035108414 0.25513262
000170 55 63 b6 b9 d7 f4 64 3e 63 f2 3a 3e 30 2a 30 be
       -0.00034787753 0.22359024 0.18256526 -0.17203593
000180 29 c4 f8 bd 07 0a c6 3d 43 61 de bd 59 51 ec 39
       -0.121467896 0.09669881 -0.10858395 0.00045074036
000190 10 29 f3 bd fb b7 6a bd 7d bd d0 3c 75 2e 96 bd
       -0.118730664 -0.057304364 0.02548098 -0.0733308
0001a0 ce 0a e1 3d af 62 91 3d eb bf 63 bd aa 46 bd bd
       0.10988389 0.070989005 -0.05560295 -0.09241994
0001b0 56 ec cc bd 34 b8 8e be 66 04 ee 3d 08 77 56 bd
       -0.10006015 -0.2787491 0.11621933 -0.05235961
0001c0 35 12 b8 bd 2f 38 0d bd 9d ff 18 3e d0 d7 08 3e
       -0.08987848 -0.03447741 0.14941259 0.13363576
0001d0 96 62 ce bd 68 45 b5 be bf 5e b1 3d c8 25 45 bc
       -0.100773975 -0.35404515 0.086606495 -0.0120329335
0001e0 33 b1 9c bd bb 8b 1c bd c2 40 fd bb 1f 0b 4c 3d
       -0.076509856 -0.038219195 -0.007728667 0.049815293
0001f0 e7 fc e2 bc 73 41 29 be e5 c9 18 be b3 47 da bd
       -0.027708484 -0.16528873 -0.14920767 -0.10658207
000200 37 4f 78 3c e9 29 91 3e 2c 80 b2 bc 73 bb 88 be
       0.015155605 0.28352287 -0.021789633 -0.26705512
000210 2a b4 27 bd 1e 47 9e 3c 98 7b 88 3e ed 28 3d 3e
       -0.040943302 0.01932102 0.26656795 0.18472643
000220 9b 64 da bd 63 73 b6 3d 0b 66 54 be d5 a8 9c bd
       -0.1066372 0.08908727 -0.20742051 -0.0764939
000230 63 ee ad bd 9f d0 99 3d d0 b5 fa 3d bd 85 a0 3b
       -0.08492734 0.075104944 0.12241709 0.0048987553
000240 44 04 a2 bd f3 0e 5c be 49 57 00 bb 51 53 03 be
       -0.0791097 -0.21490078 -0.0019583276 -0.12824751
000250 a1 d7 15 3e de 8e 5c 3e 22 5d f4 3c cc 07 6a 3b
       0.14633037 0.21538875 0.029829565 0.0035710214
000260 6e 79 4d 3e b9 ab c0 3c 91 0e 07 be 1e ce 05 be
       0.20065853 0.023519384 -0.1318915 -0.13066909
000270 e1 7d 0b be ec 0c 04 3e 63 fe d1 bd 0c 26 ad bd
       -0.13622238 0.12895554 -0.102535985 -0.084545225
000280 24 13 f3 bd 68 88 07 be 4a 9e 2a 3e 98 be 2c 3e
       -0.11868885 -0.13235629 0.16661945 0.16869581
000290 ef 47 fd bd 49 37 0b 3d 87 7b 32 be f2 10 0b be
       -0.12367236 0.03398827 -0.17429934 -0.13580683
0002a0 4c b1 07 be 07 0d 14 3e 1c 40 2e be 1c 26 8e 3d
       -0.13251227 0.14458095 -0.17016643 0.069408625
0002b0 4d 80 6a 3e 4a 35 ae 3c 49 86 13 3d 3c 02 29 bd
       0.22900505 0.021265645 0.036016736 -0.041261896
0002c0 c2 e7 1b be 95 5c 9b 3a 18 e2 43 bd 8d eb 07 be
       -0.15225127 0.0011853153 -0.04782304 -0.13273449
0002d0 3f 24 60 3c a7 00 a3 bd 77 ec ac 3b 07 11 b1 3c
       0.013680517 -0.07959109 0.0052772122 0.021614565
0002e0 d0 fa e5 3c d4 f5 90 3d 59 e3 1d 3e 18 71 14 3e
       0.028073698 0.07078138 0.15418757 0.14496267
0002f0 69 da 47 be 66 6f 8d bd a9 0a 4b bd ec f6 1f 3e
       -0.1951691 -0.06906013 -0.049570713 0.15621537
000300 03 86 5a 3e e7 5a 59 be e1 cc 94 3e 6e f4 3d be
       0.21340184 -0.21226083 0.2906256 -0.18550274
000310 4f 08 fa 3d 37 c8 0a be 5a 73 1e 3e 8e e2 8c bc
       0.12208616 -0.13552938 0.1547369 -0.017197873
000320 b1 f1 31 3e f8 b0 02 be 43 07 53 bd 2b 6d b2 bd
       0.17377354 -0.1276282 -0.051520597 -0.087122284
000330 b1 66 3c be 08 07 00 be e8 2e b7 3d d1 d5 c2 3d
       -0.18398549 -0.12502682 0.089444935 0.095134385
000340 75 36 2b 3e 11 94 1b 3d c4 e5 40 3e d4 ff d0 3d
       0.16719992 0.037983004 0.18837649 0.10205045
000350 5a b4 52 bd 51 3a b1 3d f7 86 68 bd 43 7c e7 3c
       -0.051441528 0.08653701 -0.056769338 0.028257495
000360 2e 31 c8 bd 8e db 5b bc 0c ef b5 3d 0d 74 26 3e
       -0.09775005 -0.013419045 0.08883485 0.16255207
000370 d9 5d 5d 3d d3 d5 53 be 0c aa 6e 3c b9 15 d6 bd
       0.05404458 -0.20687036 0.0145669095 -0.10453362
000380 27 64 c6 bc 7f a7 f1 bd cf 3a 3f 3e 83 51 e7 bc
       -0.024217678 -0.117995255 0.18674777 -0.02823711
000390 17 20 f9 bd a6 9f d6 bd 32 ff 94 bd aa 23 be 3d
       -0.12164324 -0.10479669 -0.07275237 0.09284146
0003a0 31 0b 83 3e f6 1f af bd dc 33 ec 3b 24 e6 42 3e
       0.25594476 -0.08551018 0.0072083306 0.19033104
0003b0 91 10 12 bd 06 51 2f bd 4b 04 04 3e ad d4 01 3e
       -0.03566033 -0.04280188 0.12892263 0.12678786
0003c0 93 9f a0 bd 12 d4 46 be 4b 51 6a bd b6 78 10 bd
       -0.07842936 -0.19416836 -0.057206433 -0.03527137
0003d0 4c 35 94 bd 35 82 52 3e 32 19 24 be 75 72 8d 3d
       -0.07236728 0.20557483 -0.16025236 0.069065966
0003e0 16 c1 5b bd ee e0 13 be d0 ce ec bd 70 f6 28 3e
       -0.053650938 -0.14441273 -0.11562884 0.16500258
0003f0 3d fb b1 3d b2 af bb bd 7f 5f 2d 3e 5a 13 6c 3d
       0.08690498 -0.091643706 0.1693096 0.057635643

linears.4.bias f4 [75]
000000 1d 61 71 3c 37 bf 45 bc 1f 71 49 3d 22 f4 e0 bb
       0.014732626 -0.012069515 0.049180146 -0.0068650404
000010 b0 ff f4 bc 79 c2 b2 ba 5b 47 76 3c 30 38 62 3c
       -0.029907078 -0.001363828 0.015031661 0.013807341
000020 f5 0d 99 3c aa 6d 68 bc 87 d9 54 3b b2 b5 e3 bc
       0.018683413 -0.014186302 0.003247829 -0.0277966
000030 c4 20 d6 3c c1 f6 4d bd f1 61 9a bb f8 fe c7 bc
       0.02613867 -0.05028415 -0.0047113826 -0.02441357
000040 f3 e6 c3 bb 44 5e 7c bc 98 fd 70 3c a8 40 12 bc
       -0.005978459 -0.015403334 0.014708899 -0.008926548
000050 f9 67 83 3b c2 72 e8 bc e3 2c 46 ba 13 fd 41 bc
       0.0040101972 -0.028375033 -0.0007559789 -0.011840123
000060 61 81 2b bc f5 17 cf 3c 52 fc 98 3a a1 f1 1a 3c
       -0.010467858 0.025279978 0.0011671877 0.009457023
000070 d3 75 15 3d 47 3b cd bc dd 87 51 bc 2f 6c 32 bc
       0.03648932 -0.02505268 -0.01278874 -0.010890051
000080 8d c1 bb 3c 23 9f 09 bd 11 dc f7 bc e5 13 b4 bc
       0.02291944 -0.03359903 -0.030256303 -0.021982143
000090 49 2c 29 3c c8 09 47 3c 7b bf f2 3b 15 60 41 bc
       0.0103255 0.012148328 0.00740808 -0.011802693
0000a0 48 54 c3 3c 6b 64 5c bc e0 96 e6 bb 85 ee 11 bd
       0.0238439 -0.013451676 -0.0070370287 -0.03562786
0000b0 6e 2f 0f 3d 24 29 96 bc 18 7d c4 bc be 17 7e 3c
       0.03495734 -0.018330164 -0.02398543 0.01550859
0000c0 2b ed 17 3b bb a7 66 bc 46 6d b5 3a b9 5b 0f 3d
       0.0023182135 -0.014078076 0.001384177 0.034999583
0000d0 49 07 81 bc ee 5f ba b8 b2 14 0b bc 47 5d 38 3d
       -0.015750544 -8.8870394e-05 -0.008488821 0.04501083
0000e0 2b 8d 61 3d f7 da f1 3a 74 3f 88 3c 6b 69 9e 3c
       0.05506627 0.0018452097 0.01663182 0.019337377
0000f0 5c 6a c1 bc 3c 0b 3c 3c 51 2d 8b ba 74 02 70 3c
       -0.023610286 0.011477288 -0.0010618364 0.014649022
000100 a9 59 64 3c 8b 7c c9 3c 37 d7 82 bb 03 3b 82 3c
       0.013937392 0.02459552 -0.0039929408 0.01589728
000110 76 2e 3e bc 22 0b 69 bb 13 7b 63 bc ee 3b d8 3c
       -0.011607757 -0.0035559614 -0.013884324 0.026395764
000120 cb df 5d 3c cc cf 74 3b 1c 7d 42 bc
       0.013542126 0.0037355302 -0.011870649

linears.5.weight f4 [75, 75]
000000 c0 2c 6e 3d 0c f1 de 3d 0c f0 5f bd c3 6f a9 bd
       0.058148146 0.1088582 -0.054672286 -0.0827327
000010 7b 9d 7b 3d 50 17 01 bd ff a7 2a 3e 0a 0f 8f b9
       0.061429482 -0.031516373 0.16665648 -0.0002728629
000020 c0 d1 a3 3d 44 29 34 be 8d 50 bc bd 59 48 66 be
       0.07998991 -0.17593867 -0.09195051 -0.22488536
000030 bb cb e7 bd 8b df 67 bd bc 0b a8 bd ce 3c 5b 3c
       -0.113181554 -0.05660967 -0.08205363 0.013381196
000040 b6 e9 1c 3e e9 a5 51 3e 19 7c 56 be d4 95 38 3d
       0.15323529 0.20473446 -0.20945777 0.045064762
000050 32 3d 6e 3d a8 21 23 3d b5 c9 36 3e 07 07 22 bd
       0.05816383 0.03982702 0.17850383 -0.039557483
000060 7d 22 40 be c7 f1 12 bd 12 b0 30 be 60 44 21 3e
       -0.18763156 -0.035875108 -0.17254665 0.15748739
000070 f4 8c d7 bc 45 07 1e 3e ad 0b 87 3b 96 e7 17 3d
       -0.026312329 0.1543246 0.004121265 0.037086092
000080 c6 eb 0d 3e 08 95 60 be c5 91 a4 bd 94 ae 56 bd
       0.13859472 -0.21931851 -0.08035616 -0.052412584
000090 2a 81 f6 3d 3e 8d 29 3e 81 f1 bc 3d 36 19 aa bd
       0.12036355 0.16557786 0.09225751 -0.0830559
0000a0 a5 2d b2 bd 91 9e 1d be 14 b9 7e 3e dd b1 2d 3e
       -0.08700112 -0.1539252 0.24875289 0.1696238
0000b0 d9 88 87 ba e1 e3 95 3d 0f c5 65 bd 7c 8d 33 3e
       -0.0010340466 0.07318855 -0.056096133 0.17534441
0000c0 f8 21 df bd 7e 7e cf 3d 9c f8 b0 3e 28 6e e4 bd
       -0.10895151 0.10131548 0.34564674 -0.11153823
0000d0 98 7a 90 be c1 f6 d8 bc a4 14 8e bd 7b a9 31 be
       -0.28218532 -0.026484849 -0.06937531 -0.17349808
0000e0 00 ce c4 3d 8f 1e 5a be 85 f5 34 3e 7f a4 ca 3d
       0.09609604 -0.2130072 0.17671783 0.098946564
0000f0 54 38 84 3d 2d c9 78 3d f1 54 07 3e 5e e1 60 3d
       0.06456056 0.06073873 0.13215996 0.054902427
000100 8c bf 46 3d 3d 77 2c 3e 94 9b 01 be 74 56 1a 3e
       0.048522517 0.16842361 -0.12657005 0.15072042
000110 96 cc 84 3b a5 aa 62 be 02 70 cc bd 98 9c 8e 3d
       0.004052709 -0.22135408 -0.09982301 0.06963462
000120 fc be 6e 3d 7a 89 59 3e f8 b5 a1 3d a0 c9 2d be
       0.058287606 0.2124385 0.07896036 -0.16971445
000130 45 2e 2d be f8 32 7a bd cf b7 31 3e 73 e7 da bd
       -0.16912182 -0.061083764 0.17355274 -0.10688677
000140 8d 60 53 3d 0a 8e d1 3c 72 f1 f4 bd 51 db a9 bd
       0.05160575 0.025580425 -0.119601145 -0.082937844
000150 09 74 ba 3c 21 3b 1e be be e9 29 bc 66 f2 27 bd
       0.022760408 -0.15452243 -0.01037067 -0.041002654
000160 4d 1b 6c be 67 12 40 3d 2e 4f 65 bd 0f cf 21 3e
       -0.2305729 0.04689255 -0.055983715 0.15801643
000170 19 7e 7d be 53 5c 87 3c 80 b6 a5 3d 54 72 1a 3d
       -0.24755134 0.016523516 0.0809145 0.037706688
000180 e0 35 72 bc ea f9 58 be 67 4f 0f 3e 17 24 dd bd
       -0.014783353 -0.21189085 0.13995133 -0.10797899
000190 12 28 d6 bc b4 7a 3b 3d e0 ed 6f 3e ac 0a 30 3e
       -0.026142154 0.045771316 0.23430586 0.17191571
0001a0 82 1f 38 3b e8 7b 02 be 4a 63 34 be 99 ed 06 3e
       0.0028094952 -0.12742579 -0.17616001 0.13176574
0001b0 0f e5 17 3e c9 e1 5c be 68 9e 23 bc 02 59 7d be
       0.14833473 -0.21570505 -0.009986497 -0.24740985
0001c0 8d f1 b9 bd b4 53 f9 bd c9 10 46 3d d6 20 82 3e
       -0.09079275 -0.12174168 0.04835585 0.25415677
0001d0 8f 44 58 be 12 19 51 be 2d 75 bf bb 93 eb 8e 3e
       -0.21119903 -0.2041972 -0.005842826 0.27914104
0001e0 9a 40 ea bd 61 b6 f7 3a 00 53 59 be 2d 15 0d 3e
       -0.11438103 0.0018898958 -0.21223068 0.13777609
0001f0 8f 39 04 3e da 23 3b be 72 a7 88 3d a9 b5 4a be
       0.12912582 -0.18275395 0.06672563 -0.1979586
000200 27 6e 06 bd a5 ad 99 3d 72 eb 37 bd 2b 2b cb bc
       -0.032819893 0.07503823 -0.044902273 -0.024800858
000210 35 e9 55 3e 93 21 de bd 51 00 dc bd 7a 7e 7a bd
       0.20889743 -0.108462475 -0.10742248 -0.061155774
000220 eb f0 1b 3e 99 9c 30 be 25 0c ea 3c 06 27 40 3c
       0.15228622 -0.17247237 0.028570244 0.011728054
000230 2f dd c9 3d 3f 22 42 3e 7f 1e 0e 3e d4 7e d2 bd
       0.098566405 0.18958376 0.13878821 -0.10278097
000240 6a dc be 3c a0 6f e4 3d 22 19 a7 bd 8f 90 d9 bd
       0.023298461 0.11154103 -0.081590906 -0.106232755
000250 8a a1 98 bc 83 3a 80 bd 53 1e 88 bb 74 1c 22 be
       -0.018631715 -0.0626116 -0.0041540056 -0.15831167
000260 d2 39 e1 3c ee 86 f7 3d af f9 78 3b 7f c5 2e 3e
       0.027493391 0.12086283 0.003799062 0.17067526
000270 0a 25 a5 3d 65 c9 1a 3c 65 d0 eb bd 67 ae f3 3d
       0.08063705 0.00944743 -0.115143575 0.11898499
000280 62 6b c6 bd 8e ae 66 be 16 95 f9 bd 78 28 2d bd
       -0.096884504 -0.22527525 -0.12186639 -0.042274922
000290 b2 87 64 be c9 2d b4 3d 6d 59 66 3e 79 f3 fb 3c
       -0.22317389 0.08797795 0.2249505 0.030755745
0002a0 9b 84 c6 bd 66 d4 f8 bd 57 2c fb bd 79 98 10 be
       -0.09693261 -0.12149887 -0.122643165 -0.14120664
0002b0 ee e2 5a bc 5d 5d 1f 3c 36 aa ac 3d 2c ee 0d be
       -0.013359768 0.009726849 0.08430903 -0.13860387
0002c0 fe d2 82 bd 27 0e f1 3d 8b c6 ff 3d 2d d4 31 3e
       -0.063879 0.117702775 0.12489041 0.17366095
0002d0 5d 7d 1a be f5 7c 78 be 15 c5 12 be ff b1 54 bd
       -0.15086885 -0.24266417 -0.14332993 -0.051927563
0002e0 c4 b1 4e be d8 b2 42 be b1 ba 82 bc 17 c4 4e bb
       -0.20185 -0.19013536 -0.015958162 -0.0031549984
0002f0 61 34 f6 3d 0a 15 15 3e 4b ad 4f 3e ca 60 6b bd
       0.12021709 0.14558807 0.2028095 -0.057465352
000300 4f 0e 74 3e a1 25 f4 bd 8a 3a 3d 3d cc d9 ca bc
       0.23833583 -0.1192124 0.046198405 -0.024762057
000310 52 0e 9f 3d cd 54 93 bd a9 02 12 be e3 a7 63 be
       0.07766403 -0.07193909 -0.14258827 -0.22232012
000320 ec 12 1a 3d 3a a4 3a 3e 0d 69 e5 3d db c4 f6 bd
       0.0376157 0.1822671 0.112016775 -0.12049266
000330 e0 39 38 3e 08 b4 1e 3e de f2 f8 3d 9a d8 83 3d
       0.17990828 0.15498364 0.12155698 0.06437798
000340 75 3d 11 3d 28 2d 2c be 43 e0 3b bd 5c 40 b2 3c
       0.035459 -0.168141 -0.04586817 0.021759205
000350 c0 d6 0a 3e 38 df 9e 3d 38 83 83 bd 27 77 3f 3e
       0.13558483 0.07757419 -0.06421512 0.18697797
000360 67 81 58 3e 64 05 1d be 9f a9 87 3d 54 a3 01 be
       0.21143113 -0.15334088 0.066241495 -0.12659961
000370 c6 c7 56 3d a2 9b da 3d 93 c3 20 3d 94 8d 2c 3c
       0.052436613 0.10674216 0.039249014 0.010531802
000380 8d 13 47 3e c2 19 60 3b f5 64 67 be d7 c3 5f 3d
       0.19441052 0.003419504 -0.22597106 0.054630127
000390 27 16 72 bb f6 67 2c be cf 1b 05 be 46 36 47 3e
       -0.0036939473 -0.16836533 -0.1299889 0.19454297
0003a0 9f 27 48 3e 0c 6d 52 3e 2d 4e fa 3d 0a 54 b3 bc
       0.19546364 0.2054941 0.12221942 -0.021890659
0003b0 a5 22 d6 3c 88 55 66 3e 40 56 3c be 8e 91 a6 bd
       0.026139567 0.22493565 -0.18392277 -0.08133231
0003c0 8d b8 61 be eb 67 7e bd 9d 81 c9 3d 30 7d 1f 3e
       -0.22043057 -0.062110823 0.09839175 0.15575099
0003d0 19 36 3e be 67 b6 d5 bd af 26 2c be 80 db 2f bd
       -0.18575324 -0.10435181 -0.16811632 -0.04293394
0003e0 79 71 49 3e 16 dc 36 3e 38 20 2a 3e 47 2c 2c be
       0.19672193 0.17857394 0.16613853 -0.16813765
0003f0 e6 a0 14 3c 88 73 15 be c3 92 37 3e c0 27 95 3d
       0.009071564 -0.14594853 0.17927079 0.07282972
