forward/results/simplified_BVP/model-18000.pt (torch, 35143 bytes, 10 tensors)

linears.0.weight f4 [50, 2]
-0.19640945 -0.06356517 -0.08153811 0.18004405 -0.12846278 -0.28683046 -0.21378884 -0.0747143
0.31693697 0.2493987 0.22170906 -0.14941655 0.22089179 0.10853906 0.36042577 -0.25512233
0.13722986 0.17401862 0.12432537 -0.05334698 0.23379166 0.19375409 -0.068603806 -0.088532396
0.28603962 0.1508211 0.3793025 0.20827103 -0.32574466 0.25394472 -0.21190977 -0.08130623
-0.16908677 -0.12785247 -0.43419662 -0.2213202 0.17929915 0.3278474 -0.02357261 0.2563096
-0.14594612 -0.052586116 0.121399485 0.066843055 0.28227177 0.35680744 -0.23900345 0.4352701
0.29223984 -0.33149084 -0.21526463 0.049222093 -0.26536006 -0.105359785 0.4120683 -0.21661314
0.25296557 0.027581615 0.12951228 -0.06339713 0.18421407 0.06575647 -0.17571087 -0.048309002
0.096138984 -0.10751364 0.07729403 -0.51935637 -0.17295545 -0.104465306 0.3899145 0.23938273
0.19258861 0.13825698 -0.36838064 0.0056692054 0.2063184 -0.2527569 0.2640896 -0.111553736
-0.041885488 -0.35658687 -0.36659437 -0.30644646 -0.34822607 -0.13325383 -0.1584858 0.061476737
0.26632228 -0.13660224 -0.26790926 0.03821304 0.17301558 0.07290314 -0.096426055 -0.22843595
-0.14936042 -0.10685151 -0.034647368 0.13615699
00000000: 8f1f 49be 752e 82bd 74fd a6bd 785d 383e
00000010: bf8b 03be 71db 92be 76eb 5abe d003 99bd
00000020: 9045 a23e 5f62 7f3e b307 633e a700 19be
00000030: 7531 623e ba49 de3d ba89 b83e 659f 82be
00000040: fc85 0c3e f031 323e 4d9e fe3d 5d82 5abd
00000050: 1567 6f3e 7967 463e 2780 8cbd 7950 b5bd
00000060: c973 923e d970 1a3e f033 c23e 0045 553e
00000070: 01c8 a6be 0b05 823e e0fe 58be e183 a6bd
00000080: 1525 2dbe c2eb 02be 054f debe c3a1 62be
00000090: 329a 373e 9ddb a73e 591b c1bc 033b 833e
000000a0: e672 15be 8a64 57bd 4ba0 f83d 03e5 883d
000000b0: ed85 903e 77af b63e 52bd 74be b9db de3e
000000c0: 76a0 953e 2bb9 a9be 556e 5cbe 1b9d 493d
000000d0: 46dd 87be dfc6 d7bd 9efa d23e d6cf 5dbe
000000e0: b484 813e d7f2 e13c de9e 043e 5bd6 81bd
000000f0: 9da2 3c3e 54ab 863d 8ded 33be a9df 45bd
00000100: 84e4 c43d 1c30 dcbd 554c 9e3d 8af4 04bf
00000110: 3c1b 31be e8f1 d5bd e0a2 c73e bf20 753e
00000120: f335 453e 3d93 0d3e 639c bcbe bec4 b93b
00000130: 2145 533e 5a69 81be c136 873e 4976 e4bd
00000140: 1e90 2bbd 8e92 b6be 42b2 bbbe 8de6 9cbe
00000150: b04a b2be b173 08be 1a4a 22be 08cf 7b3d
00000160: 655b 883e 75e1 0bbe 672b 89be 4785 1c3d
00000170: ff2a 313e 3e4e 953d 067b c5bd 1deb 69be
00000180: f0f1 18be f7d4 dabd 66ea 0dbd bd6c 0b3e

linears.0.bias f4 [50]
-0.09740303 0.032563195 -0.44324178 -0.031209841 -0.07587831 -0.163399 0.0430724 -0.104290955
-0.23523813 0.042532507 0.026585538 -0.3453701 0.07115068 -0.045716554 -0.22411634 -0.15588674
0.12171613 -0.07035683 -0.11836112 0.23365851 0.28182754 -0.046506256 -0.13283163 0.035504393
-0.108592995 -0.041734852 -0.018769061 -0.1076791 -0.20925307 0.25702998 0.12814763 -0.04932602
0.17338581 -0.26490426 0.08232145 -0.05936009 -0.053588025 0.022017559 -0.08931355 -0.1089341
-0.19925864 0.006536468 -0.18453766 0.008465127 -0.07544035 -0.13967383 -0.03940712 0.021647347
0.0049380516 0.4459888
00000000: 3d7b c7bd fc60 053d 96f0 e2be c8ab ffbc
00000010: 1666 9bbd 1152 27be af6c 303d 7f96 d5bd
00000020: 44e2 70be 9136 2e3d eac9 d93c 5ad4 b0be
00000030: 73b7 913d 4841 3bbd c17e 65be c6a0 1fbe
00000040: 4e46 f93d 3e17 90bd 5167 f2bd 2d44 6f3e
00000050: b34b 903e 587d 3ebd 0405 08be 0e6d 113d
00000060: 0166 debd 2af2 2abd 93c1 99bc dc86 dcbd
00000070: 7046 56be 6f99 833e 2239 033e 150a 4abd
00000080: 0d8c 313e 88a1 87be 2698 a83d 9123 73bd
00000090: 1e7f 5bbd 2b5e b43c 06ea b6bd d718 dfbd
000000a0: 750a 4cbe de2f d63b 71f7 3cbe 51b1 0a3c
000000b0: 7880 9abd a806 0fbe 5c69 21bd c755 b13c
000000c0: 61cf a13b a558 e43e

linears.1.weight f4 [50, 50]
-0.40132248 -0.06447185 -0.075978145 -0.19261101 0.21533506 -0.27967522 0.39195758 0.2717564
-0.36741683 -0.14667444 0.12791678 0.19787481 -0.028240632 0.11331387 -0.12984449 0.08614668
-0.18042687 -0.17685366 -0.21753974 0.10482757 0.17783509 0.2178896 0.19646358 -0.14160228
-0.015024818 -0.3026109 -0.13398464 0.1138032 -0.23438723 0.2821268 0.22143885 -0.60076267
0.07427937 0.21355572 -0.053823974 0.27665052 -0.006754552 0.0023478444 0.22698009 0.27684757
-0.16128819 -0.2354407 -0.22180042 -0.33740965 0.01478522 -0.050074168 0.23215218 0.023068575
0.083095804 -0.038234867 -0.1290094 -0.026108077 0.16011976 -0.22965726 0.118991874 0.42115468
0.09372883 0.09525172 0.07187931 -0.0360948 0.036915466 0.204465 0.10470318 -0.058829386
0.07249584 -0.15142825 0.35904643 0.072056 -0.020604944 -0.2710201 -0.019058697 0.22372028
0.005754653 -0.042201914 0.11190911 -0.2877957 0.04730626 0.1120003 -0.14720827 0.24449414
-0.15402 -0.121795245 -0.21858852 -0.09521908 -0.39958742 0.32284498 -0.061042704 0.04292609
0.12230175 0.4101231 0.101892576 0.055577334 -0.15954651 -0.03370571 0.14888784 -0.17189811
0.46885505 0.044698425 -0.13747105 0.1144618 0.014645401 -0.015909053 0.06778935 -0.23357978
0.27774647 0.09664442 0.056737185 0.15237027 0.46910033 0.117074355 0.39625263 0.0027346753
0.0691444 0.14046805 0.09281476 0.002180127 -0.15054643 -0.033192113 0.10164885 -0.2980519
-0.23720124 -0.08905587 -0.048415978 -0.15373458 -0.05929301 -0.14822689 -0.0045192274 -0.014490812
0.19896436 0.09494697 -0.35597154 0.032019503 -0.7146738 -0.013217674 -0.19547902 0.22027108
0.21240199 -0.011900477 0.040954884 0.23849747 -0.2947372 -0.07644739 0.11075947 -0.15634297
-0.21025789 0.071000926 0.107928514 -0.24652407 0.02466071 -0.0059843226 -0.032200925 -0.12611246
0.22794999 0.14518262 0.3589945 0.26580513 0.20248124 0.20530823 0.17367306 -0.03897909
0.010768985 0.60520846 0.31551838 0.24545367 -0.049336962 0.19836022 -0.08617862 0.09316733
0.08493589 -0.23721859 -0.3231006 0.11397397 0.0018836645 -0.12319572 0.008512129 -0.20280886
-0.12769794 0.47530994 0.09409785 -0.37256232 -0.048987202 0.037771426 0.05406669 0.09305974
-0.4438689 -0.022517849 0.13002025 -0.026157381 -0.20062587 -0.16739203 0.23511808 -0.032677073
-0.062863424 -0.019704843 0.0052737673 -0.024385534 0.10645826 -0.1920016 -0.08331497 -0.2254667
-0.13086714 -0.21469672 0.0991481 0.064039 -0.0016456862 -0.10557148 0.07541612 -0.14486308
-0.17769109 -0.15392075 -0.3234345 -0.12709354 -0.22767517 -0.2545507 0.07144295 0.13476701
0.256357 0.08070199 0.011879175 0.0065733287 0.30634663 -0.2740824 -0.16451564 -0.052408908
0.26596338 -0.03340178 -0.3224319 -0.21333511 -0.0898587 0.084661946 0.12146381 -0.31726778
0.087610364 0.0897968 -0.09161757 -0.25259772 -0.26698583 0.102465026 -0.02443438 0.114100836
0.033757176 0.14942083 -0.1834713 0.089242406 -0.11050851 0.093344145 -0.13970746 -0.21248354
0.016209012 0.1005359 0.34252062 -0.03130072 -0.1636624 -0.043691978 -0.024135245 -0.19687548
00000000: 247a cdbe d109 84bd 6e9a 9bbd d23b 45be
00000010: cb80 5c3e 9731 8fbe aaae c83e a823 8b3e
00000020: 0f1e bcbe d331 16be 9efc 023e b29f 4a3e
00000030: e658 e7bc 1a11 e83d f4f5 04be ac6d b03d
00000040: d2c1 38be 2019 35be bdc2 5ebe d6af d63d
00000050: 671a 363e 741e 5f3e c02d 493e 3000 11be
00000060: a72a 76bc d1ef 9abe 4533 09be a711 e93d
00000070: 3503 70be ed72 903e dec0 623e 95cb 19bf
00000080: c81f 983d 5aae 5a3e 8776 5cbd 23a5 8d3e
00000090: 4a55 ddbb 4bde 193b 786d 683e f7be 8d3e
000000a0: bb28 25be 5e17 71be a61f 63be f5c0 acbe
000000b0: b53d 723c 921a 4dbd 4db9 6d3e 4ffa bc3c
000000c0: 222e aa3d 2a9c 1cbd 0a1b 04be 9be0 d5bc
000000d0: 6ff6 233e 462b 6bbe 03b2 f33d 96a1 d73e
000000e0: e7f4 bf3d 5513 c33d 7635 933d 24d8 13bd
000000f0: ac34 173d 465f 513e 9f6e d63d 15f7 70bd
00000100: b378 943d 0210 1bbe efd4 b73e 1992 933d
00000110: b3cb a8bc 26c3 8abe fc20 9cbc ee16 653e
00000120: 8791 bc3b eadb 2cbd 9a30 e53d f559 93be
00000130: 35c4 413d 6a60 e53d c4bd 16be ac5c 7a3e
00000140: 6bb7 1dbe c96f f9bd abd5 5fbe 3902 c3bd
00000150: b996 ccbe f04b a53e ea07 7abd 45d3 2f3d
00000160: 5779 fa3d a8fb d13e 0ead d03d 0fa5 633d
00000170: 2960 23be 000f 0abd 0e76 183e 0f06 30be
00000180: c50d f03e b215 373d 36c5 0cbe f36a ea3d
00000190: 44f3 6f3c b453 82bc 25d5 8a3d 8a2f 6fbe
000001a0: c934 8e3e 82ed c53d 4065 683d f406 1c3e
000001b0: eb2d f03e aec4 ef3d a0e1 ca3e 3d38 333b
000001c0: 949b 8d3d dbd6 0f3e aa15 be3d 76e0 0e3b
000001d0: d828 1abe 74f4 07bd 462d d03d 429a 98be
000001e0: e2e4 72be ed62 b6bd d54f 46bd 996c 1dbe
000001f0: 3add 72bd cac8 17be 0716 94bb df6a 6dbc
00000200: 50bd 4b3e 8f73 c23d e741 b6be e226 033d
00000210: ddf4 36bf f18e 58bc a72b 48be be8e 613e
00000220: e87f 593e 38fa 42bc 4fc0 273d ae38 743e
00000230: cbe7 96be 7390 9cbd dcd5 e23d 5f18 20be
00000240: d84d 57be ef68 913d a009 dd3d ce70 7cbe
00000250: 4205 ca3c 2318 c4bb 1ee5 03bd a023 01be
00000260: b96b 693e c1aa 143e 21ce b73e 9c17 883e
00000270: 3e57 4f3e 523c 523e 5ad7 313e 8aa8 1fbd
00000280: 6670 303c f1ee 1a3f a08b a13e 3558 7b3e
00000290: 8e15 4abd f11e 4b3e 6b7e b0bd 83ce be3d
000002a0: def2 ad3d 6ee9 72be 716d a5be 2f6b e93d
000002b0: 4be5 f63a 0a4e fcbd 7576 0b3c 20ad 4fbe
000002c0: 40c3 02be d35b f33e 60b6 c03d 7dc0 bebe
000002d0: cea6 48bd 36b6 1a3d 0975 5d3d 1b96 be3d
000002e0: c942 e3be 5a77 b8bc 0724 053e 0148 d6bc
000002f0: de70 4dbe d168 2bbe cbc2 703e 65d8 05bd
00000300: 8abe 80bd 0d6c a1bc 91cf ac3b 2cc4 c7bc
00000310: ca06 da3d 119c 44be 0aa1 aabd bee0 66be
00000320: 0902 06be 75d9 5bbe 290e cb3d e126 833d
00000330: 11b4 d7ba dc35 d8bd c473 9a3d fd56 14be
00000340: a7f4 35be 679d 1dbe 3599 a5be cf24 02be
00000350: ae23 69be 7854 82be ae50 923d 5d00 0a3e
00000360: 3a41 833e 1647 a53d dfa0 423c 1465 d73b
00000370: 77d9 9c3e 8754 8cbe ca76 28be b9aa 56bd
00000380: 5a2c 883e 4ed0 08bd cb15 a5be 8574 5abe
00000390: d707 b8bd 3e63 ad3d 05c2 f83d ec70 a2be
000003a0: 106d b33d 62e7 b73d fea1 bbbd 7d54 81be
000003b0: 5eb2 88be 2fd9 d13d 9c2a c8bc b3ad e93d
000003c0: f744 0a3d c601 193e e7df 3bbe b9c4 b63d
000003d0: 4952 e2bd 372b bf3d 790f 0fbe 4995 59be
000003e0: c3c8 843c c4e5 cd3d dd5e af3e 2f35 00bd
000003f0: 1e97 27be 5cf6 32bd 47b7 c5bc ba99 49be

linears.1.bias f4 [50]
0.14650019 -0.02710742 -0.14274652 -0.15649645 0.08367931 0.01868592 -0.123638995 -0.11793634
0.090211354 -0.21381107 -0.078303955 0.0138755785 0.23802345 -0.082495384 0.07811059 0.14107732
0.10991249 -0.055666532 -0.004333281 0.24974012 0.040420916 0.004874876 0.08799853 0.057101596
-0.19635163 -0.05589298 0.06147899 -0.090706155 -0.11262793 0.018209087 0.010224427 -0.10303695
-0.19991474 0.12176189 -0.16511008 -0.07780258 -0.23193608 -0.014170313 -0.19584456 -0.0027699645
0.10252511 -0.07402808 -0.28551757 0.11417293 -0.23077135 -0.029758459 -0.21224338 -0.14528313
0.10767436 0.12500614
00000000: 2504 163e 6110 debc 252c 12be 9b40 20be
00000010: 0f60 ab3d 3713 993c 7136 fdbd 9c88 f1bd
00000020: bbc0 b83d 4af1 5abe d35d a0bd 6556 633c
00000030: 6bbc 733e 57f3 a8bd 72f8 9f3d 9376 103e
00000040: cd19 e13d 9702 64bd 32fe 8dbb e0bb 7f3e
00000050: 6790 253d 6cbd 9f3b 9338 b43d 5de3 693d
00000060: 6710 49be 0af0 64bd 65d1 7b3d 26c4 b9bd
00000070: 79a9 e6bd 392b 953c 5b84 273c 0905 d3bd
00000080: 73b6 4cbe 4c5e f93d 9e12 29be f656 9fbd
00000090: a780 6dbe 9a2a 68bc 7a8b 48be 4b88 35bb
000000a0: aff8 d13d 099c 97bd 5c2f 92be 7fd3 e93d
000000b0: 534f 6cbe 03c8 f3bc 5456 59be 1ac5 14be
000000c0: 6084 dc3d 9c01 003e

linears.2.weight f4 [50, 50]
-0.12592143 0.026787708 0.16015056 0.09790193 -0.156334 0.106371775 0.05324262 0.035889767
0.1883609 0.044791862 0.17746387 0.27839032 -0.090027 0.21170664 0.098418884 0.0910875
0.017280528 0.1659287 0.3017558 -0.14897643 -0.003843844 0.27432027 -0.2388561 0.14382857
0.27178425 0.21308176 -0.3524821 0.27575526 0.051053505 -0.061870117 0.023119079 0.14479913
0.17006195 -0.075792015 0.15233026 0.018169625 0.2243218 0.41728878 -0.094186485 0.15537131
-0.25263602 -0.022367591 -0.1763124 -0.19854698 0.08202297 -0.029970966 -0.046889402 -0.010993005
-0.33963367 -0.38592938 0.2196935 0.26468006 -0.112222314 0.14507003 0.048738696 0.04322923
0.2660725 0.032797094 -0.043789685 -0.0075326506 0.16372044 -0.023207705 -0.03367713 -0.009052475
0.16315249 -0.0949542 -0.17837478 -0.24754532 0.061138608 -0.044786073 0.06833102 -0.092261195
0.24336162 -0.14385574 -0.36143386 -0.02924877 0.0067146937 -0.20304294 0.24608871 -0.2487878
-0.21434467 0.17600845 0.2303478 -0.17151065 0.08735707 -0.10392024 -0.30545247 -0.10210742
-0.022634443 0.3157666 0.044829316 -0.13490476 0.040949028 0.27538314 0.2594818 0.21137834
0.25575632 -0.19766907 0.24543668 -0.0765979 -0.24702728 -0.11476252 0.016074408 -0.058097593
0.048892274 0.15170074 0.5640153 0.25708997 0.11536795 0.38252968 0.311289 0.16107257
0.10511737 0.28388917 0.13845423 -0.07949559 0.09983374 0.011579158 0.16277657 0.007559793
0.09227513 0.21218051 -0.2968311 -0.13247713 0.09457275 0.12263244 -0.26496738 0.40212405
0.09917897 -0.20142864 -0.08387874 0.045981493 0.16888136 -0.142061 0.24773042 0.1044431
0.0897987 0.242263 -0.0921823 0.30183068 -0.44433898 0.2519899 0.1403212 -0.07177907
0.08882476 -0.018387083 0.0063516484 0.25545147 -0.27382675 -0.30366567 0.42059478 0.14116286
-0.14760965 0.24330874 -0.39988327 -0.1839813 0.009708885 -0.22053537 -0.29542348 0.3778639
-0.022213096 -0.34040925 -0.38416833 -0.23454593 0.042644903 -0.25101227 0.012517441 0.44260594
-0.17048995 -0.15603124 0.3756616 -0.15800226 0.5611871 0.15019192 0.36423576 -0.079744995
0.31550652 -0.33663368 0.43290856 -0.37649626 0.42501736 0.2711537 0.29246488 -0.031740516
0.5600949 -0.52497005 -0.07108312 -0.093872584 0.46415702 0.038582735 0.07729644 -0.19095272
0.5197877 0.31564936 0.3465029 0.34916005 0.5065747 0.2866287 0.4232492 0.236575
0.08457571 0.20321098 0.13273019 0.19261901 -0.36790994 -0.00049577793 -0.23716184 0.0054836515
-0.20671605 0.062393412 -0.042101145 -0.31237596 -0.5073821 0.21998192 -0.24526626 -0.35931897
-0.16184267 0.33949116 -0.25497082 -0.15481673 0.4373245 -0.07443998 0.42560852 -0.33282793
-0.040141374 -0.041605193 0.09133827 -0.12585221 -0.064679004 -0.0893502 0.051710512 -0.026212325
0.1362228 -0.14644544 0.27170104 -0.41520494 -0.14395003 -0.2043545 0.24268906 -0.116861425
-0.17165989 -0.016708868 0.30857688 -0.14377981 0.21184592 0.018392395 0.09483141 0.13947278
0.14546598 0.23232093 -0.027680486 -0.019616688 0.00844717 -0.0181142 -0.3973029 -0.06122557
00000000: 8cf1 00be e571 db3c 82fe 233e cf80 c83d
00000010: 0516 20be 72d9 d93d ef14 5a3d 2601 133d
00000020: aee1 403e ac77 373d 17b9 353e 2d89 8e3e
00000030: 1360 b8bd a0c9 583e d78f c93d 158c ba3d
00000040: e58f 8d3c 37e9 293e bc7f 9a3e 478d 18be
00000050: 00e9 7bbb b573 8c3e b296 74be cc47 133e
00000060: 4e27 8b3e 1b32 5a3e 8978 b4be cb2f 8d3e
00000070: 7b1d 513d 856b 7dbd 3964 bd3c 3946 143e
00000080: b824 2e3e d838 9bbd 77fc 1b3e 77d8 943c
00000090: 9db4 653e e0a6 d53e d8e4 c0bd a819 1f3e
000000a0: 8259 81be 3d3c b7bc 3d8b 34be e64f 4bbe
000000b0: a9fb a73d ac85 f5bc 1a0f 40bd 011c 34bc
000000c0: 77e4 adbe 8998 c5be 55f7 603e 2584 873e
000000d0: d0d4 e5bd 3d8d 143e 3aa2 473d 2211 313d
000000e0: a83a 883e 3f56 063d d05c 33bd 74d4 f6bb
000000f0: 55a6 273e 161e bebc 08f1 09bd d550 14bc
00000100: 7211 273e 5977 c2bd e1a7 36be 857c 7dbe
00000110: 7a6c 7a3d 9a71 37bd 22f1 8b3d 70f3 bcbd
00000120: ca33 793e eb4e 13be dc0d b9be 1e9b efbc
00000130: ef06 dc3b 7dea 4fbe aefe 7b3e 3bc2 7ebe
00000140: 2b7d 5bbe 8f3b 343e 4be0 6b3e 7da0 2fbe
00000150: 43e8 b23d 23d4 d4bd 4464 9cbe b21d d1bd
00000160: de6b b9bc 29ac a13e f29e 373d 7924 0abe
00000170: 2bba 273d 05ff 8c3e ccda 843e 9073 583e
00000180: 7ef2 823e c369 4abe c153 7b3e 5cdf 9cbd
00000190: b8f4 7cbe 9d08 ebbd 7aae 833c bef7 6dbd
000001a0: 4443 483d 7057 1b3e 4f63 103f 4ca1 833e
000001b0: 0846 ec3d eeda c33e 4661 9f3e 35f0 243e
000001c0: c747 d73d ec59 913e f2c6 0d3e 95ce a2bd
000001d0: a275 cc3d 82b6 3d3c e7ae 263e 24b8 f73b
000001e0: befa bc3d d945 593e 3ffa 97be 16a8 07be
000001f0: 5caf c13d b726 fb3d cea9 87be 34e3 cd3e
00000200: 581e cb3d 4f43 4ebe 9ec8 abbd 1757 3c3d
00000210: 3cef 2c3e 7078 11be 0bad 7d3e 44e6 d53d
00000220: 61e8 b73d cb13 783e 13ca bcbd 8d89 9a3e
00000230: 6680 e3be d204 813e 5cb0 0f3e e800 93bd
00000240: c1e9 b53d 82a0 96bc 7d21 d03b 89ca 823e
00000250: 0533 8cbe 117a 9bbe 3358 d73e ff8c 103e
00000260: fc26 17be ed25 793e 80bd ccbe 9865 3cbe
00000270: 0412 1f3c 06d4 61be bf41 97be 6177 c13e
00000280: 3df8 b5bc 1f4a aebe b6b1 c4be cf2c 70be
00000290: 6cac 2e3d ae84 80be f415 4d3c 3f9d e23e
000002a0: eb94 2ebe a7c6 1fbe b856 c03e 58cb 21be
000002b0: f5a9 0f3f e9cb 193e 1c7d ba3e 5851 a3bd
000002c0: 128a a13e 405b acbe 31a6 dd3e 1ec4 c0be
000002d0: e09b d93e a8d4 8a3e f5bd 953e 5802 02bd
000002e0: 6162 0f3f 7064 06bf 0794 91bd 4540 c0bd
000002f0: fda5 ed3e ee08 1e3d 994d 9e3d 1c89 43be
00000300: cf10 053f cb9c a13e d468 b13e 1bc5 b23e
00000310: e1ae 013f ffc0 923e 1fb4 d83e b840 723e
00000320: 0836 ad3d 8a16 503e 6cea 073e eb3d 453e
00000330: b15e bcbe 18f7 01ba 8eda 72be 34b0 b33b
00000340: 5fad 53be 3c90 7f3d 4072 2cbd beef 9fbe
00000350: cbe3 01bf f142 613e 1427 7bbe a8f8 b7be
00000360: 16ba 25be c9d1 ad3e 898b 82be 4788 1ebe
00000370: ffe8 df3e fd73 98bd 5ce9 d93e 6c68 aabe
00000380: 486b 24bd 356a 2abd 8f0f bb3d 67df 00be
00000390: 6d76 84bd 3dfd b6bd 67ce 533d 3bbb d6bc
000003a0: fd7d 0b3e cbf5 15be 661c 8b3e be95 d4be
000003b0: a367 13be 4e42 51be 7b83 783e 0b55 efbd
000003c0: 9cc7 2fbe 09e1 88bc cafd 9d3e 043b 13be
000003d0: 23ee 583e a6ab 963c f836 c23d f4d1 0e3e
000003e0: 09f5 143e 8ae5 6d3e 30c2 e2bc 2db3 a0bc
000003f0: 0066 0a3c 3b64 94bc 496b cbbe aac7 7abd

linears.2.bias f4 [50]
-0.09095073 -0.09865381 -0.24160251 -0.14631975 -0.07055075 -0.029180737 -0.065079525 -0.17232086
-0.013446694 0.10241024 0.25845212 -0.28113097 -0.01011806 0.048955232 -0.12732604 -0.00080586877
0.03155643 0.09840663 -0.031359076 -0.111035 -0.107802525 0.037423182 0.08332902 -0.10642144
-0.068860374 0.16266635 -0.023712972 -0.023446493 -0.22954315 -0.1038655 -0.10621724 0.13272344
0.10426543 0.1482986 -0.0010804156 -0.024983976 0.25597897 0.17637762 -0.06434629 0.08190558
-0.023699 0.08946135 -0.003489328 0.14553912 0.10807611 0.024121944 0.12694381 0.05223611
-0.07388863 -0.100719914
00000000: 6044 babd 020b cabd a666 77be d8d4 15be
00000010: e97c 90bd 710c efbc 6a48 85bd e174 30be
00000020: 864f 5cbc 76bc d13d d653 843e 66f0 8fbe
00000030: 38c6 25bc 4885 483d c261 02be f040 53ba
00000040: 5141 013d 6a89 c93d 6072 00bd 5166 e3bd
00000050: 92c7 dcbd 0d49 193d 68a8 aa3d 7cf3 d9bd
00000060: ab06 8dbd 0292 263e b541 c2bc dc12 c0bc
00000070: 5c0d 6bbe 6fb7 d4bd 6d88 d9bd a7e8 073e
00000080: 1d89 d53d 97db 173e bb9c 8dba 32ab ccbc
00000090: ad0f 833e 569c 343e fdc7 83bd 1dbe a73d
000000a0: 6824 c2bc 8337 b73d 36ad 64bb 3508 153e
000000b0: 0257 dd3d 629b c53c 8ffd 013e 88f5 553d
000000c0: ec52 97bd 3e46 cebd

linears.3.weight f4 [50, 50]
-0.039272565 -0.35217494 0.38868994 -0.15743783 -0.11469215 -0.30121675 0.0157704 0.09825186
-0.389378 -0.03626648 -0.20165835 -0.026420113 0.07456291 0.35861453 -0.16721712 0.040819656
-0.47386724 -0.3797051 0.23744147 -0.13151725 -0.0906342 -0.26336798 -0.009689751 -0.10967514
0.14203608 -0.02428355 -0.046145264 -0.27195683 0.23817381 -0.16693696 0.3474582 -0.09156638
-0.09692895 -0.2875331 -0.014725286 -0.19526768 0.0985686 0.05712936 -0.06868684 -0.27858105
-0.09836573 -0.19896251 -0.18254693 -0.08371887 -0.030925056 0.04613701 0.10791148 0.26001623
0.33815268 0.063114345 0.06992536 -0.07644532 0.08013579 -0.034296956 -0.14825545 -0.25445038
0.34684202 0.28916967 -0.35797802 -0.14854038 -0.17278785 -0.008747362 -0.20225789 0.15185708
-0.3254322 -0.29871204 -0.3602728 0.28026825 0.2089662 -0.10123409 -0.2484777 -0.09595046
-0.31515712 -0.27376905 0.050308507 -0.19251902 -0.06403898 -0.338913 0.30179065 -0.23817372
-0.37687173 0.21060102 -0.32607445 -0.20576063 0.29193595 -0.3505677 0.06280825 0.1569211
-0.22537412 0.43149868 -0.15139322 -0.12075069 -0.20031986 -0.39174572 0.27156517 0.05856318
-0.332148 0.017627489 0.039836023 0.33524352 0.021732904 -0.16001596 -0.09171175 -0.20193417
-0.25669444 -0.48738793 -0.11505665 0.13685219 -0.30743918 0.31399074 -0.026992507 -0.6052547
-0.29167435 0.335358 -0.48939675 0.10683087 -0.14046492 -0.08877234 0.08861437 -0.23854466
0.03646638 0.017724132 0.058455285 -0.8966707 -0.15492533 -0.15596211 0.11804399 0.2586465
0.135059 -0.14018166 0.18416537 1.2300705 -0.48930514 0.38540083 -0.08486603 0.8360015
0.32623804 0.26279938 0.26887327 0.53456205 -0.17901166 0.32870287 -0.041924886 -0.3549433
0.07616814 0.061979573 -0.20711143 0.3842946 -0.09316142 0.20128496 -0.009632931 -0.10385279
-0.13174824 0.25880474 -0.008556786 0.116173856 -0.07615959 0.07582177 0.18920459 0.21031767
-0.043690905 0.076515585 0.3324439 -0.18536776 0.15548435 0.06484492 0.30777612 0.33104226
-0.15497997 0.39148152 0.023474783 0.12632553 0.14656425 0.08314665 -0.2607017 0.18041235
-0.29445672 0.24268258 -0.25156078 0.2211345 -0.3945659 -0.08511159 0.15799412 0.06143475
-0.04837622 0.17446144 -0.00032996197 -0.10517372 0.3001422 -0.36331233 0.075361855 -0.098490275
0.32867408 0.16387653 -0.25261214 -0.10538367 0.0608816 0.012039426 0.08868252 -0.1749722
0.17573501 -0.24119402 0.08980249 -0.2470961 -0.25011632 -0.30114514 0.0752299 0.16780636
-0.2480508 -0.1183876 -0.03495072 -0.27684256 -0.008053617 0.08765254 -0.20274775 -0.18518995
0.059802514 -0.18874136 0.24294293 -0.45445746 -0.15352915 -0.35673174 -0.13697413 -0.2177298
-0.032137994 -0.16931248 0.11331374 0.004428523 0.15189251 -0.104991466 0.14983588 0.3517222
-0.3995226 -0.12104491 -0.09856643 -0.27332613 0.27141553 -0.03639077 -0.057352964 0.37023264
-0.15272783 0.07533253 -0.34194398 -0.3172375 0.2312796 0.3743643 -0.2271793 0.010643761
0.15269168 0.27239752 -0.100464106 -0.429996 0.1433791 -0.57948893 -0.6396999 -0.27336243
00000000: 45dc 20bd 4650 b4be 5e02 c73e 6237 21be
00000010: b8e3 eabd 1539 9abe ed30 813c 4538 c93d
00000020: 8e5c c7be 298c 14bd 877f 4ebe fe6e d8bc
00000030: 70b4 983d 539c b73e f73a 2bbe 8332 273d
00000040: ba9e f2be b568 c2be db23 733e 75ac 06be
00000050: 6c9e b9bd 2bd8 86be c3c1 1ebc 5c9d e0bd
00000060: e871 113e 4cee c6bc d102 3dbd ed3d 8bbe
00000070: d6e3 733e 86f1 2abe 0be6 b13e 2787 bbbd
00000080: af82 c6bd 8a37 93be 5342 71bc 40f4 47be
00000090: 56de c93d 7a00 6a3d b0ab 8cbd 2da2 8ebe
000000a0: f973 c9bd d4bc 4bbe 95ed 3abe cd74 abbd
000000b0: 8b56 fdbc 29fa 3c3d b200 dd3d d920 853e
000000c0: 5922 ad3e 1842 813d 0735 8f3d 5d8f 9cbd
000000d0: 3c1e a43d f77a 0cbd 47d0 17be 5247 82be
000000e0: 4795 b13e 0c0e 943e e548 b7be f81a 18be
000000f0: 4cef 30be 1851 0fbc b11c 4fbe 6c80 1b3e
00000100: 0d9f a6be c9f0 98be ad75 b8be 527f 8f3e
00000110: 3cfb 553e d253 cfbd f070 7ebe ad81 c4bd
00000120: 465c a1be 752b 8cbe 4b10 4e3d b523 45be
00000130: de26 83bd 0186 adbe 4e84 9a3e d0e3 73be
00000140: 55f5 c0be cba7 573e 3bf3 a6be eab2 52be
00000150: a178 953e 9c7d b3be 9da1 803d edaf 203e
00000160: 79c8 66be 65ed dc3e d306 1bbe 234c f7bd
00000170: a620 4dbe e592 c8be 970a 8b3e f2df 6f3d
00000180: 4d0f aabe 8667 903c 192b 233d 0aa5 ab3e
00000190: 3409 b23c 39db 23be 5fd3 bbbd d5c7 4ebe
000001a0: 746d 83be e98a f9be d2a2 ebbd fb22 0c3e
000001b0: ab68 9dbe 65c3 a03e 641f ddbc f9f1 1abf
000001c0: 5756 95be 0bb4 ab3e 3692 fabe 25ca da3d
000001d0: 09d6 0fbe 46ce b5bd 737b b53d 0d45 74be
000001e0: c55d 153d 3332 913c cf6e 6f3d 368c 65bf
000001f0: bfa4 1ebe 88b4 1fbe 0cc1 f13d 506d 843e
00000200: e84c 0a3e c88b 0fbe d995 3c3e f372 9d3f
00000210: 3486 fabe 4253 c53e 3ece adbd 3204 563f
00000220: ac08 a73e a48d 863e c2a9 893e 0fd9 083f
00000230: d54e 37be be4b a83e 6eb9 2bbd 21bb b5be
00000240: 0bfe 9b3d 4bde 7d3d 0515 54be 43c2 c43e
00000250: 6acb bebd a51d 4e3e 71d3 1dbc c6b0 d4bd
00000260: 03e9 06be 0e82 843e c331 0cbc 8fec ed3d
00000270: 8ff9 9bbd 7248 9b3d d9be 413e 845d 573e
00000280: 3cf5 32bd 34b4 9c3d 1636 aa3e 0cd1 3dbe
00000290: 4a37 1f3e 6acd 843d d594 9d3e 5f7e a93e
000002a0: 12b3 1ebe 4470 c83e 304e c03c 7b5b 013e
000002b0: f014 163e ca48 aa3d b17a 85be 04be 383e
000002c0: 08c3 96be c881 783e 93cc 80be 1571 623e
000002d0: 8b04 cabe fc4e aebd 36c9 213e 01a3 7b3d
000002e0: 2526 46bd 05a6 323e bffe acb9 5265 d7bd
000002f0: 3dac 993e 1304 babe 5157 9a3d 45b5 c9bd
00000300: f847 a83e 40cf 273e 6156 81be 65d3 d7bd
00000310: fc5e 793d 0341 453c 2e9f b53d ea2b 33be
00000320: e1f3 333e 91fb 76be 5eea b73d c306 7dbe
00000330: 3f0f 80be b22f 9abe 2212 9a3d 6ed5 2b3e
00000340: 0701 7ebe 3375 f2bd 7c28 0fbd 4fbe 8dbe
00000350: 51f3 03bc 2d83 b33d 1b9d 4fbe 6fa2 3dbe
00000360: 7bf3 743d 6a45 41be 08c6 783e a6ae e8be
00000370: bf36 1dbe 8ba5 b6be f242 0cbe 90f4 5ebe
00000380: 21a3 03bd 4060 2dbe 0911 e83d 251d 913b
00000390: b689 1b3e c405 d7bd 946e 193e ef14 b43e
000003a0: 3a8e ccbe 65e6 f7bd 32dd c9bd 67f1 8bbe
000003b0: faf6 8a3e 7d0e 15bd f1ea 6abd 228f bd3e
000003c0: af64 1cbe f147 9a3d 4813 afbe f46c a2be
000003d0: 8fd4 6c3e adac bf3e b1a1 68be 2b63 2e3c
000003e0: 355b 1c3e b077 8b3e 20c0 cdbd 7028 dcbe
000003f0: f9d1 123e 6359 14bf 5fc3 23bf 29f6 8bbe

linears.3.bias f4 [50]
-0.12666082 -0.059500065 0.1568652 0.033084903 -0.036055803 0.19546881 0.10418145 0.07103886
0.24527386 -0.05816511 -0.05923454 -0.11833419 -0.14058962 -0.060507342 -0.02691102 0.09150461
-0.0004442965 -0.020719739 -0.15432297 0.060322776 0.04172936 0.14360625 -0.16065064 0.0700042
-0.055893555 -0.055735417 -0.20206434 -0.013201407 0.033857513 -0.24958642 -0.11308778 -0.12813066
0.08223147 0.028563922 -0.11867359 0.052543815 -0.17806655 -0.049555182 -0.025896506 -0.04480005
0.035040215 0.07355454 0.06643057 -0.09284763 -0.019785943 0.17039521 0.02343615 -0.21154864
-0.06625626 0.12838453
00000000: 60b3 01be 57b6 73bd 45a1 203e 0984 073d
00000010: 40af 13bd fa28 483e 165d d53d d27c 913d
00000020: 1229 7b3e 8a3e 6ebd eb9f 72bd 3259 f2bd
00000030: baf6 0fbe 8cd6 77bd 8074 dcbc c566 bb3d
00000040: 77f0 e8b9 71bc a9bc d706 1ebe 0415 773d
00000050: 68ec 2a3d 840d 133e 9a81 24be 5d5e 8f3d
00000060: a4f0 64bd d24a 64bd f4e9 4ebe b74a 58bc
00000070: 2dae 0a3d 9593 7fbe 919a e7bd af34 03be
00000080: f968 a83d e3fe e93c 240b f3bd 2f38 573d
00000090: 1457 36be 60fa 4abd e924 d4bc 4280 37bd
000000a0: 5486 0f3d c3a3 963d c00c 883d e626 bebd
000000b0: 2116 a2bc 157c 2e3e 2bfd bf3c 35a0 58be
000000c0: 5db1 87bd 3c77 033e

linears.4.weight f4 [2, 50]
0.52064615 0.47720242 -2.549924 -0.80662644 0.23332445 -2.421227 -0.39144766 -0.2307144
2.7275612 0.55514365 1.9533514 0.43661478 0.34402195 -0.7023602 0.5253759 -0.055043716
-0.54630715 0.6797662 0.3616186 -0.3382288 0.03148853 -0.36329514 -2.2659101 -0.3686108
0.009739719 -1.7406789 -2.7819896 -0.07337967 -0.38071868 -2.6349018 2.213541 0.40422925
0.5737135 -2.1583827 -0.6018466 -0.25284883 0.4073304 0.2131105 0.6062277 -2.3525705
-0.87230617 -0.23647471 -0.5811259 0.4269855 2.0125334 -0.3217853 0.90968317 1.6634052
0.68741256 -0.49274388 0.12806864 0.16932029 -0.43580887 -0.0134709105 0.09193942 -0.9591162
-0.3607335 -0.7169498 -0.19267894 0.57007354 -0.44515142 0.083043985 -0.06748678 1.8958917
0.090622 -1.1421118 0.21239454 -0.37052572 0.07124867 -0.30952615 -0.84849966 0.46195796
0.56497705 -0.11188236 0.7279177 0.7011639 -0.11411737 -0.99657863 -0.069256105 1.150319
-0.9651846 0.1587265 -0.67603445 -2.462134 0.6936518 -0.08162559 -0.75902176 0.082178764
-0.13002662 -1.5818746 -0.09681758 -0.6967158 -0.2546085 0.38256225 -0.10170496 0.18977119
0.22060809 0.2087923 -0.06996772 0.23323667
00000000: 1149 053f e053 f43e f431 23c0 127f 4ebf
00000010: 9bec 6e3e 62f5 1ac0 d46b c8be 6540 6cbe
00000020: 5d90 2e40 e51d 0e3f 6b07 fa3f f98b df3e
00000030: a523 b03e e1cd 33bf 097f 063f 8575 61bd
00000040: c9da 0bbf 2805 2e3f 1326 b93e 532c adbe
00000050: 1efa 003d d201 babe ac04 11c0 8eba bcbe
00000060: 5893 1f3c 91ce debf 1e0c 32c0 1548 96bd
00000070: 8fed c2be 3ba2 28c0 a8aa 0d40 23f7 ce3e
00000080: e3de 123f f122 0ac0 9e12 1abf 6775 81be
00000090: 9c8d d03e a439 5a3e bd31 1b3f 8490 16c0
000000a0: 754f 5fbf 6d26 72be abc4 14bf d89d da3e
000000b0: 59cd 0040 0bc1 a4be ffe0 683f 76ea d43f
000000c0: 45fa 2f3f ed48 fcbe 6d24 033e 4c62 2d3e
000000d0: 5722 dfbe 18b5 5cbc bc4a bc3d a488 75bf
000000e0: 10b2 b8be 068a 37bf a14d 45be 57f0 113f
000000f0: e3ea e3be f712 aa3d 8236 8abd 94ac f23f
00000100: 0798 b93d b830 92bf f47d 593e 8cb5 bdbe
00000110: d3ea 913d 367a 9ebe 4637 59bf c185 ec3e
00000120: 56a2 103f 9422 e5bd d058 3a3f 7a7f 333f
00000130: 5eb6 e9bd c71f 7fbf 25d6 8dbd a73d 933f
00000140: 5716 77bf 3389 223e 9810 2dbf 9a93 1dc0
00000150: 2a93 313f 512b a7bd 404f 42bf 574d a83d
00000160: b325 05be de7a cabf 4c48 c6bd f75b 32bf
00000170: 0c5c 82be 33df c33e b14a d0bd 6153 423e
00000180: 16e7 613e a6cd 553e 3c4b 8fbd 98d5 6e3e

linears.4.bias f4 [2]
0.9738275 -0.41742
00000000: c24c 793f 13b8 d5be
