HPO/wandb/run-20230331_010831-4rgi2ier/files/model-3000.pt (torch, 258973 bytes, 24 tensors)

linears.0.weight f4 [100, 2]
00000000: 7ced a4bf ad9d 16bf b048 073f a562 ca3f
00000010: ed2e 183f f73f d43f 8c2a d13f 0bfe 55bf
00000020: f26f adbf c7e2 da3f 4995 dc3f 0771 4c3f
00000030: 5810 c8be 8792 d93f df3f b53f c4ef 7abf
00000040: 9b91 a5bf dfc7 1ebf 9cef a33f b1ba 933f
00000050: bf58 493f c321 bb3f 1874 963f 4bb9 ac3f
00000060: c1d6 2fbf cc67 6fbf 4b4a 40bf 3381 c83f
00000070: 8ff2 3cbf 8273 c43f da54 b83f e52d 873f
00000080: ad00 983f b9a4 b13f a910 6ebf a52f c33f
00000090: 5c42 d7be f497 cb3f 247e 8c3f ee50 99bf
000000a0: 2897 353e 950f 0240 220f 853e 5644 ed3f
000000b0: f18b 99bf 044c f9be 23f4 a83f 0046 983f
000000c0: 6b48 f9be d5c0 d53f 9f5f aebf 5389 8a3f
000000d0: e0fa 67bf dfd4 c63f 2be2 8abf d9a9 b73f
000000e0: 05e3 a5bf 3401 22bf d7aa 843f 05ea 91bf
000000f0: 90bc b73f 9f21 7ebf 9d90 b3bf 57eb 9b3d
00000100: f367 e53f 86ec 693f c41f 9d3f 09a8 81bf
00000110: f4cb 5dbf 8fe9 60bf c700 b5bf 6ac7 2cbe
00000120: 6063 ee3f deef 7a3f 276e e93f 493e 8c3e
00000130: d4e5 3a3f 6686 cb3f 7d06 63bf 34f9 70bf
00000140: 674b b13f 14f9 80bf c61e 5abf 69a7 bf3f
00000150: 5613 d53f 7e4a 3f3f e9ab 78bf 8d4c b63f
00000160: 078b b73f 4d73 71bf cc90 b63f e83a 58bf
00000170: b216 8f3f e5d2 97bf 82be bb3f 30e6 833f
00000180: 76e7 15bf ffa9 dd3f b369 973f 2a6f 9b3f
00000190: 0700 e8be 2b60 cd3f 34ac 36bf 24c5 93bf
000001a0: 33d5 8abf 14d6 a63f d741 98bf 3f78 4ebf
000001b0: 4986 48bf 79f5 c03f 7bec 063d a89e ebbf
000001c0: 9c94 87bf feeb d43f 002c 45bf e823 56bf
000001d0: ae93 b53f 0fe1 8d3f bc64 ed3f a25f 623f
000001e0: 923d be3f 7b6b 71bf e788 e13f 229d ac3d
000001f0: 132a 7dbf 6ea0 4bbf 1244 863f 2d0b b03f
00000200: 49fb 503f 2323 9bbf 8e07 82bf 9fcb b63f
00000210: 25f1 993f 283e 97bf 8948 273f 0a2d bd3f
00000220: 9c62 d13f 5743 9bbf 4786 e33f 25cf aebd
00000230: 4793 40bf 5a13 79bf 1548 b5bf 1333 e5be
00000240: 42ce 97bf c606 36bf 8498 8b3e c097 db3f
00000250: 8330 dd3f 8091 713f ade0 60bf 8e90 b33f
00000260: 8dd3 d93f 964c 183f 73de 983f 6a0c 83bf
00000270: 1603 933f 3d3f a93f 2684 8dbf 8426 723f
00000280: 2a93 b13f 78e1 9b3f 535f a53f 2e12 80bf
00000290: 554e 9fbf 50df 7bbf d144 1cbf 2da3 ca3f
000002a0: e633 91bf 9df5 7d3f 6816 8fbf a086 a43f
000002b0: a5ca adbf fdba 31be 22a1 e03f c758 533e
000002c0: f4e7 72bf 7a13 d43f 6d2e 9e3f fcbd 78bf
000002d0: 7a2a ab3f e51c 9e3f 894d 37bf 1293 c83f
000002e0: b7a3 aebf 692c d33c 7869 98bf 06f8 5ebf
000002f0: 6cf3 a23f 58bb 77bf d4cb 4ebf 029a 70bf
00000300: 73b1 8d3f 282d 97bf 8da4 c3be bb62 b5bf
00000310: 16aa 9b3f 4ed0 a93f 4ca3 bc3f c39a 51bf
-1.2884974 -0.58834344 0.5284529 1.5811354 0.59446603 1.658202 1.6341109 -0.83590764
-1.3549788 1.7100457 1.7233058 0.79859966 -0.3907497 1.6997842 1.4160117 -0.98022103
-1.293506 -0.6202373 1.2807498 1.1541349 0.7865104 1.4619678 1.1754179 1.3494047
-0.68687063 -0.93517756 -0.7511336 1.5664428 -0.73807615 1.534775 1.4400895 1.0560881
1.1875206 1.3878394 -0.9299417 1.5248915 -0.42042816 1.5905747 1.0975995 -1.1977823
0.17733443 2.032201 0.25988108 1.853648 -1.1995832 -0.48690808 1.3199505 1.1896362
-0.48688063 1.6699473 -1.3622931 1.0823158 -0.9061718 1.5533713 -1.0850271 1.4348708
-1.2959906 -0.63283086 1.0364636 -1.1399542 1.435442 -0.9927005 -1.4028507 0.07613247
1.7922348 0.9137653 1.2275319 -1.0129405 -0.8663933 -0.8785638 -1.4140862 -0.16872945
1.8624077 0.9802226 1.8236741 0.2739127 0.7300694 1.590039 -0.88681775 -0.94130254
1.3851136 -1.0076013 -0.85203207 1.4972965 1.6646526 0.7472304 -0.97137314 1.4242111
1.4339303 -0.9431656 1.4262938 -0.84464884 1.1178801 -1.1861235 1.4667513 1.0304623
-0.58556306 1.7317504 1.1829132 1.21433 -0.4531252 1.6044973 -0.7135651 -1.1544538
-1.0846313 1.3034081 -1.1895093 -0.8065223 -0.783299 1.5074912 0.03294037 -1.8407793
-1.0592227 1.6634519 -0.77020264 -0.8364854 1.4185693 1.1084307 1.8546367 0.88427174
1.486254 -0.9430463 1.7619904 0.08428408 -0.98892325 -0.7954167 1.0489523 1.375341
0.8163343 -1.2120098 -1.0158556 1.428089 1.2026716 -1.1815844 0.65345055 1.477937
1.6358218 -1.2129925 1.7775353 -0.085356034 -0.7522473 -0.97295153 -1.4162623 -0.4476553
-1.185982 -0.71104085 0.27264798 1.7155685 1.728043 0.9436264 -0.8784283 1.402849
1.7017685 0.5949186 1.1942886 -1.0238163 1.1485317 1.3222424 -1.1055954 0.9459002
1.3873036 1.2178183 1.2919716 -1.0005548 -1.244578 -0.9838762 -0.61042506 1.5831047
-1.1343963 0.992029 -1.1178713 1.2853584 -1.3577467 -0.17356487 1.7549174 0.20639335
-0.9488518 1.6568444 1.2357918 -0.97164893 1.3372338 1.2352568 -0.71602684 1.5669882
-1.3643712 0.025778012 -1.1907187 -0.87097204 1.2730536 -0.9677024 -0.8077977 -0.93985
1.1069778 -1.1810656 -0.3821148 -1.4170755 1.2161281 1.3266695 1.4737334 -0.8187677

linears.0.bias f4 [100]
00000000: 6c54 a43f d4f0 6ebf 9d5e 91bf 0ea5 96be
00000010: a71a 233e 557b 57bf 48bc 31bf e326 b1bb
00000020: 027a 9c3f af71 86bf 0622 8ebf 7c3b 98bf
00000030: 59d6 883f 216d 63be 4539 88be 2702 7bbf
00000040: 3637 98bf 9ff9 24be 1d29 09bf 7052 ea3e
00000050: 1cdf 8bbf 04ac 8ebf 1987 9f3f af2e 9bbf
00000060: b377 07bf 7b26 013f 97bb 12be 8cd5 863d
00000070: dfc2 7c3f 1509 bc3e 1da5 863e d24c 883f
00000080: d73b 87bf be9b a83e f28e 8e3f d2d0 a33f
00000090: fe46 93bf e667 e4be 752c a9bf a64d 8e3f
000000a0: 9191 7e3d f608 87be 7268 6cbf d7b0 3f3e
000000b0: 3052 a83d 5b25 363e 9948 903e 3e21 72bf
000000c0: f1dc 86be b840 88bf 3912 08bf 920b 8b3f
000000d0: 74cb 273e 3c17 963f 3e77 b0bd 714e 8d3f
000000e0: 0437 afbc a1d1 703f 27e9 81bf 6771 8bbf
000000f0: 0f5e 4cbd 9b31 e0bd c714 893f 2fac 67bf
00000100: ae1f e83e fc25 91bc 1edf ad3e 29d1 88bf
00000110: 2a24 57bd 0d00 02bf d2da 833f 60fd 873f
00000120: 476a 933f 458b 80bf b600 8ebf a027 80be
00000130: f143 37bf 377e 983e 1220 73bf 1446 db3e
00000140: fb0a 9ebf f5a5 063e f2db a33f 0f18 b5be
00000150: d3cc 013f 09cc 3d3e f3be 913f 787c 10bf
00000160: 49a1 23be 5fa7 da3d 8e6c a5bf 34b4 99be
00000170: 2d8c 833f 0d24 9e3f 5e05 303e 6363 813f
00000180: eab0 a83d 0722 933f eee4 98bf 2ccc c83d
1.2838264 -0.93336225 -1.1356999 -0.29422802 0.15928136 -0.84172565 -0.6942792 -0.005406247
1.2224734 -1.0503443 -1.1104133 -1.1893153 1.0690414 -0.22209598 -0.26606193 -0.9805016
-1.1891849 -0.16110848 -0.5357836 0.4576602 -1.0927463 -1.1146245 1.2463104 -1.2123622
-0.5291702 0.5044934 -0.14329372 0.065836996 0.9873485 0.3672568 0.26297846 1.0648444
-1.0565137 0.32931322 1.1137373 1.2798102 -1.150604 -0.44610518 -1.3216692 1.1117446
0.06215054 -0.26374024 -0.9234687 0.18719803 0.08218801 0.17787687 0.28180388 -0.94581974
-0.2634044 -1.064475 -0.53152806 1.0862906 0.16386205 1.172584 -0.08616494 1.1039563
-0.021388538 0.9406987 -1.0149277 -1.0893983 -0.04989439 -0.109469615 1.0709466 -0.90497106
0.4533667 -0.017718308 0.33959287 -1.0688831 -0.052524723 -0.5078133 1.0301154 1.0624199
1.1516808 -1.0042502 -1.1093967 -0.2503023 -0.71588045 0.29783794 -0.9497081 0.42826903
-1.2347101 0.13149245 1.2801497 -0.35369918 0.5070316 0.18534864 1.1386398 -0.56439924
-0.15979494 0.10676455 -1.2923753 -0.30020297 1.0277153 1.2354752 0.17189547 1.0108455
0.08236869 1.1494759 -1.1944864 0.09804568

linears.1.weight f4 [100, 100]
00000000: e901 a9be c681 ab3e 6292 543f cba5 64be
00000010: ac88 c0ba a906 ea3e 9c6f 0f3f de87 c0be
00000020: b8b8 31bf a97b cb3e a6bd 2f3f 84e9 073f
00000030: 38a2 dcbe 45a1 703e 73fa c63e 0f4a 133f
00000040: f58b 293f dec5 b93e 69f9 0a3f 509e 07bf
00000050: dad1 763f 6ee7 1f3f 4332 5ebe fa7c 173f
00000060: e69f 253f b1f1 9f3d fcb3 b63e 156a 793e
00000070: 8497 26bf 09ac a8be 84fe afbe cde5 a8be
00000080: 0931 ae3e 1d4e 3fbe 9fe0 11bf 9da0 e4be
00000090: 0563 e33e fbca 9f3e 65de 2d3f 584a 07bf
000000a0: 2c0f 24be ab70 303e d246 df3e baeb 873e
000000b0: 6185 cbbd ede1 b2be 257f c8be 0135 8b3e
000000c0: 5862 853e af1a 203f 52b6 c93e c3bd 33bf
000000d0: d2da 6c3e 89c5 11bf 2677 903e f471 35bf
000000e0: 2124 6b3e 11e1 31bf 0113 133f c02f 063f
000000f0: ce16 85be 4a50 19bd 256e 04bf 3a6c e33e
00000100: ed14 04bf 4377 ec3d e6b8 eabe eb05 f53e
00000110: 9161 a1bd 2dfc 4f3d f8be debe 0567 2abf
00000120: 3d2a 28bf bf3f 103f f26a 013f d392 6a3e
00000130: de38 a33e 97ae 9ebe a02b cb3e 6f90 bcbd
00000140: e3f3 e63e fc4a 9fbe 2ba6 40bf a218 dc3e
00000150: 0b52 303e 544b f23d 5421 86be 6d54 a03e
00000160: d167 6a3e f38d 62be 9887 083f 68d5 833e
00000170: f702 a5be f754 06bf 66eb f9bd ac77 17bf
00000180: 3436 0bbf 7b6c cebe 4d81 053f 16f1 18be
00000190: 20cb 1fbf e322 b63e bdc5 2d3f 20ec 233f
000001a0: fd6b 0dbf 6105 0d3f b9f2 d9be 33af 363f
000001b0: a3db 32bf 71a6 1b3f 288e 2f3f 9e1a 423f
000001c0: 639c 0dbf 52ef d8be b543 cebe d589 5c3f
000001d0: 1ff2 503f d2bd f3be 4e30 a8be 4b31 d63e
000001e0: 3077 5e3e a1ce d83e 4c72 02bf e5c6 163f
000001f0: 1047 e2be e6d6 33bf 6ec0 2cbf d91e f2be
00000200: 212b 6dbf 77d4 aa3e a5a4 d13e fe21 44bf
00000210: 75f8 5e3f b24c bd3e edb8 10bf dff8 3abf
00000220: 7745 373f 3bea 2e3f 02f3 0e3f 302f 48bf
00000230: 33c4 c93e 229a f0be 0016 4d3f 7b8b debe
00000240: 4469 cf3e bbfd 223f a7de 0d3f f078 4b3f
00000250: 854d d5bd 6e00 283f 92fe fcbe 11d6 0ebf
00000260: 67b0 1abf e464 31bf ccf5 11bf 03a3 0cbd
00000270: 5d1f 3ebf 9ff5 36bf 8646 2d3f 3d0b 433f
00000280: 9c38 073f b729 283f 2fda 2abf 819f 183f
00000290: d845 b23e 413e 39bf 575e fe3e 42fc 323f
000002a0: 8e3d 2c3f 061d 423f 6bcb 44bf c409 5ebf
000002b0: 60ec 70bf 9585 3c3e 0a75 5f3f 6bac debe
000002c0: 1735 223f a809 143f cb95 e13e 1f9e 3fbf
000002d0: 04c2 423f 0e98 dd3e 533c 5abf a60e eabe
000002e0: 2cfb ddbe 42a6 26bf 8dbd 17bf 1ec3 323f
000002f0: 4c1a 20bf 714d 1f3f 4d7f 553f 89ed a1be
00000300: 6b2b 13bf abd7 57bf 23ef bf3e dcfb 18bf
00000310: f7bb 183f 3fd5 d6be b241 603f e901 ca3e
00000320: 8580 6c3f d2c2 18bf 3233 77bf f3ec a5be
00000330: fef2 433f 2525 41bf 4066 4f3d bfac d6be
00000340: 2759 6b3f 375c 2fbf e7aa 43bf 569b 84bf
00000350: cae6 a73f 4d79 da3e 680d ce3e 0bcb 68bf
00000360: db15 61bf c0ba 003f c523 503e 4885 87bd
00000370: b580 7dbf 0dab 7cbf 492b 6d3f 2d2c 68bf
00000380: 7ad6 423e f640 2c3f 5b57 d53e 96fd 293f
00000390: dffe 803f 9c70 fabd 5840 60be 73d8 483f
000003a0: 9c5f 3ebf e952 ac3d 8d1d 773f 13fe 583f
000003b0: 437f 62bf b08a f3be 8541 7cbf aeef 993f
000003c0: b0d6 67be 9b0b 113f f78a 56bf f969 4f3f
000003d0: 6d5e b0be 8d01 d0be 2c72 8ebe 4adf 61bf
000003e0: c5e5 d83e 73c5 48bf 2997 c63e 3ac6 913f
000003f0: 2c17 553f ae95 8d3f 038f e53e 2ddd fa3e
-0.3300927 0.33497447 0.8303586 -0.2232887 -0.0014689169 0.45708206 0.5602968 -0.37603658
-0.69422483 0.39742783 0.68648756 0.5309069 -0.43092513 0.2349902 0.38862953 0.5753488
0.6622918 0.36283773 0.5428682 -0.5297594 0.9641396 0.6246251 -0.21698861 0.59175074
0.6469711 0.07809771 0.35684192 0.24356873 -0.65074944 -0.32943752 -0.34373868 -0.32987824
0.34021786 -0.18682142 -0.5698337 -0.44653788 0.44411483 0.3120955 0.6791747 -0.52847815
-0.16021413 0.1723048 0.4360872 0.26547033 -0.099375494 -0.34937993 -0.39159504 0.27188876
0.26051593 0.62540716 0.39396912 -0.7021143 0.23130348 -0.5694204 0.28215903 -0.70877004
0.22963001 -0.6948405 0.5745087 0.5241661 -0.2599396 -0.037430085 -0.5173057 0.44418508
-0.5159443 0.11546185 -0.4584419 0.47856078 -0.078799374 0.050777603 -0.43505073 -0.66563445
-0.6568945 0.5634727 0.5055381 0.22907571 0.31879324 -0.30992576 0.3968172 -0.09207236
0.45107946 -0.31111896 -0.7525355 0.42987543 0.17218797 0.11830774 -0.26197302 0.31314412
0.22891165 -0.22124462 0.533319 0.25748754 -0.32228824 -0.52473396 -0.12203102 -0.5916698
-0.5437958 -0.4031714 0.5215042 -0.14935717 -0.6241932 0.3557349 0.6787985 0.64032173
-0.552429 0.5508633 -0.42567995 0.7136108 -0.6986639 0.60800844 0.6857629 0.75821865
-0.5531675 -0.42370087 -0.4028603 0.86147815 0.8161945 -0.4760576 -0.32849354 0.41834483
0.21725154 0.42345145 -0.50955653 0.5889724 -0.4419484 -0.70249784 -0.67481124 -0.4728916
-0.92643934 0.33365223 0.40945926 -0.7661437 0.87097865 0.36972576 -0.56532174 -0.73036
0.7159037 0.6832616 0.5583955 -0.78197 0.394075 -0.46992594 0.80111694 -0.4346579
0.4051 0.6366841 0.55417866 0.7948141 -0.10415176 0.65625656 -0.49412972 -0.5579539
-0.6042542 -0.6929457 -0.5701568 -0.034335148 -0.74266607 -0.7146854 0.67685735 0.76189023
0.52820754 0.6568865 -0.6673917 0.59618384 0.34818912 -0.72360617 0.4968135 0.69916165
0.67281425 0.75825536 -0.7687289 -0.8673365 -0.9411068 0.18410333 0.8728796 -0.4349092
0.6336226 0.57827234 0.44059595 -0.7485065 0.76077294 0.4328007 -0.852483 -0.457143
-0.4335569 -0.6509744 -0.59273607 0.69828975 -0.62540126 0.6222754 0.8339737 -0.31626537
-0.57488126 -0.8431346 0.37487134 -0.59759307 0.5966181 -0.4195957 0.87600243 0.39454582
0.92383605 -0.5967227 -0.9656249 -0.3240734 0.7654265 -0.75447303 0.050634623 -0.4192867
0.9193291 -0.68500084 -0.7643265 -1.0359905 1.3117306 0.4267067 0.40244603 -0.9093482
-0.87923974 0.5028496 0.20326145 -0.06617218 -0.99024516 -0.986985 0.9264417 -0.90692407
0.19027129 0.6728662 0.4166821 0.66402566 1.007778 -0.1222851 -0.21899545 0.78455275
-0.7436464 0.08414251 0.96529466 0.84762686 -0.88475436 -0.47566748 -0.98537475 1.202627
-0.2264049 0.56658334 -0.83805794 0.81021076 -0.3444704 -0.40626183 -0.2782148 -0.8823134
0.423628 -0.78426284 0.387872 1.1388619 0.8323848 1.1061304 0.44835672 0.4899687

linears.1.bias f4 [100]
00000000: fb4e acbe 2c27 67be a2c4 513f e235 b8be
00000010: 031f 1d3e 4f4b dbbe e752 873d 55df 51be
00000020: 2c89 3abc 629a 37bf 7303 9bbd c7d0 6e3e
00000030: 36b8 18bf b3d8 9ebe fe18 8b3e 95bf 5e3d
00000040: 80f6 e73c ed54 f13d 956c bb3c ffd2 03be
00000050: 89d5 843d a5a4 5e3e 515e 5abe 932c fd3c
00000060: 0617 653d dfad 8cbd d2f9 45be 34a7 43bf
00000070: b829 95be 13fd 49be e2e5 c8be 9033 febc
00000080: f599 b3bd ab84 79bd c31a d03e 306d 05be
00000090: a1b4 dfbd 8fbe 13be 40e0 36be 1953 4b3d
000000a0: 4ed0 e2bd 01e5 86be 1f3e 5e3d fd60 f43d
000000b0: 5aa5 cc3d cd68 8fbe 5761 cabd 23ae e9be
000000c0: d544 55bc b56a a83d ab2c c53e 451d f4be
000000d0: 6a27 b3be b7eb 0dbe b679 b3be 603c d1be
000000e0: 1f6c 27bd 6c23 13bf c63d 523f a97a 2cbd
000000f0: 55db 64be 959a 583d e791 9dbe 7f8a e3bd
00000100: 0f4c abbe b913 c2bd 3f6d 993e 7cd1 de3e
00000110: d0b2 d5bd 4734 9cbe 1b77 a23d f589 16bd
00000120: 39da e8be 1f55 20be 29f0 7cbe 897c 563f
00000130: 8bb1 153e 20e1 2f3e 1b5d ad3e 4517 e0be
00000140: eede c7be 2c0c 983e 3e10 193e 065d bdbe
00000150: b7bb da3d 8d4a 3cbd ed38 cf3e 8d27 6abe
00000160: a764 14be b785 b63d 3565 6abe d700 5b3d
00000170: b535 a1be 34b8 4abe e52d 623d 5c8d a5be
00000180: e6c1 b9bd 0941 36be 1cfe aabd e765 523d
-0.33654007 -0.22573537 0.8194066 -0.3597861 0.15343861 -0.42830893 0.06607609 -0.2049535
-0.011385243 -0.71719944 -0.07569017 0.2332183 -0.59656084 -0.31024703 0.27167505 0.054381926
0.028315783 0.117837764 0.022878924 -0.12873457 0.06486041 0.21742494 -0.21325041 0.030905044
0.05593016 -0.06869101 -0.1933358 -0.76427007 -0.2913339 -0.19725446 -0.39237887 -0.031030446
-0.08769599 -0.060917538 0.40645418 -0.13029933 -0.10923124 -0.14428161 -0.17858982 0.049639795
-0.11074887 -0.2634659 0.054258462 0.119325615 0.09992476 -0.28009644 -0.09881847 -0.45640668
-0.013016899 0.08223478 0.3851064 -0.4767858 -0.34991008 -0.1385945 -0.35053796 -0.40866375
-0.040874597 -0.57475924 0.8212551 -0.042109165 -0.22349294 0.052881796 -0.30775377 -0.111104004
-0.33456466 -0.09476418 0.2996616 0.435192 -0.104344964 -0.30508634 0.07932874 -0.03675266
-0.4547899 -0.15657471 -0.24700989 0.83783776 0.14618509 0.17175722 0.33860096 -0.43767753
-0.3903727 0.29696786 0.14947602 -0.36985034 0.10680335 -0.045969535 0.40473118 -0.2286665
-0.14491521 0.08912223 -0.2289017 0.053467598 -0.31486288 -0.1979683 0.05521955 -0.3233441
-0.09070186 -0.17798246 -0.08349249 0.051366713

linears.2.weight f4 [100, 100]
00000000: 7eb2 86be e108 f5be 7863 3cbf 8269 bc3e
00000010: e3c8 69be 2269 e8be 7af0 723c 2b67 6a3e
00000020: 6c63 c7bd 9bea 1ebf 9fe4 b23e 3648 10bf
00000030: 9c17 02bf e206 6fbe 2235 a33f c000 723e
00000040: a01f 223f f103 2dbf 60b5 3c3d b3ea 8e3e
00000050: 23d1 803e 70bc f73e 0406 9bbe 7a69 243f
00000060: cf49 15bf 6ef1 963e 014f 173f be8e b8be
00000070: ece2 a8be 4e2b 303e 0240 a2be 398c 0e3f
00000080: a2c1 5e3f a417 503c c580 b23d 3d7b 153e
00000090: 577e 06be 0962 a0be 8321 1e3f 9e73 d03e
000000a0: 5835 1fbe 3f5f d0be fa7b 973e ea25 753d
000000b0: 35ca ec3d 222b 7abe c1b4 a3be 1324 1abf
000000c0: 3125 103e fa72 af3e cf85 d03e 9ff3 27bf
000000d0: 0873 02bf c2e3 c1be 51ae 0dbf 3cb5 6a3d
000000e0: 3cf8 a83c d2ef fe3e 73ce 6b3f 57b3 3a3e
000000f0: 12ff 24be a4e5 c13e dd0a 88be 897c 65be
00000100: 0847 95be 4d91 773e f17f 8abe c3fb fabe
00000110: 14a0 a2bd 7712 31bf 527d 8c3d 3bf2 4bbd
00000120: 3db3 78be c726 833e 2bd8 c53e 2e9a 6d3f
00000130: f723 cf3d f205 063f 25af 66be bf03 fdbe
00000140: 8979 803f 9d89 6a3f f512 f83e 046d 0abf
00000150: 46c4 553f 15f2 84be b46e 113f 1080 98bd
00000160: 403c 4bbe 7162 183f 6f34 fc3b 4957 7c3e
00000170: 5cb6 cebe c207 c4be e740 2b3e 82f3 f4be
00000180: bf44 97be c4dd 203f c866 f4bd 55a4 aa3e
00000190: 59cb 033f c8d1 8e3e c255 23bf 00c8 973e
000001a0: 0e8f 833e 1782 973e 4db1 23be fb52 44bf
000001b0: 7e17 8bbd e81c 9b3e ef67 88bd d9f3 093f
000001c0: efc9 51bf 7cca 2f3f 2008 8ebf c346 353e
000001d0: 8fc1 4c3e dec5 cf3e c745 e9bd 1da9 84bf
000001e0: c0cd 52be e8ff 783e 4a68 6bbf 1e16 0abf
000001f0: 9675 853e 020e 75be 2e72 36bf fa13 87bf
00000200: f7ca b23e 3eda b93c bc6c f53e d637 a4be
00000210: ff79 19bf 1ad9 3f3e bb5d 3a3f 01e7 a23d
00000220: eb7f 9c3e 2d02 edbe 619c 32bf bfb3 dfbd
00000230: 4dff cfbe 3693 9f3e 4f46 89bd fe3b adbd
00000240: 6e37 9e3d ca49 e03e 376a dd3e e874 0b3f
00000250: 418e a5be f886 1fbe bfae 18bf f262 923f
00000260: cf74 db3e 4b62 4dbe d32c a73e 4120 70bf
00000270: 1458 003e 6e6c ddbd 0c42 96be 6f6f 44be
00000280: 72d6 c43d 0e5e 0cbe 261f 59bf 7e76 963e
00000290: e203 eabe 7204 f9bc 49bb 0d3f b8e6 393f
000002a0: 3e35 01bf e764 0a3f e2c0 75bd 4b0c d1bd
000002b0: 8425 89bf 8a82 363f 7f6d 2bbf 5186 0fbf
000002c0: c15c 08bf 960d 7cbf db69 57be 9844 a03e
000002d0: a6a0 4bbf 7e5e 24bf 2f92 f03e abb4 db3e
000002e0: 6068 a8be 303f 3abe 4151 f4be 4fe9 0b3f
000002f0: c1b3 1bbf 5ec4 e7be 8fbb 46bf 5684 83be
00000300: fe24 97bf f329 17bf 7650 bfbe 3957 b03e
00000310: 4baf f3be a906 60bf f7ca e33c 5991 1bbf
00000320: ed67 c83e fcd5 d03d 68f3 debe c8f2 753e
00000330: afd6 47bc ff17 263f 3769 ffbd b510 96bd
00000340: 8c49 0abe 62e0 363f 4c6c 8ebd 5de6 b6be
00000350: 5d65 243f 2797 12be 439b 35bf 63b2 263d
00000360: 3bc4 f9bd f86e 6e3e 0fdf 9fbc dd46 46be
00000370: 1229 5ebe 096e b0be d671 dd3e 3f03 86bd
00000380: dd3f ba3d 7bed 233e ebb1 0b3e a8d3 a03e
00000390: 7953 073f 0a75 d83e 70ba 373e 86c6 22be
000003a0: 8744 9cbe 76b4 e8be 5115 a4be 0552 553e
000003b0: 2e86 b03d dfb4 703e a886 9dbc 2417 ecbd
000003c0: fb26 d43d 9eb6 863e 5009 1d3e 75c2 22bf
000003d0: 3a04 dbbe e7d4 013f ac17 e83d e450 063e
000003e0: f70c 19be 0fe9 e8bd 557d d2be aa5a 4c3f
000003f0: e68a c03e 0986 d03e cc1a dc3e c7b7 44be
-0.26308054 -0.47858337 -0.7358928 0.36799246 -0.22830538 -0.4539271 0.014827842 0.22890918
-0.0973576 -0.6207673 0.3494005 -0.56360185 -0.50817275 -0.2334247 1.275059 0.23633099
0.63329506 -0.6758414 0.04607141 0.27913436 0.2515956 0.48385954 -0.30278027 0.64223444
-0.5831575 0.2948107 0.59104925 -0.36046404 -0.32985628 0.1720402 -0.3168946 0.5568271
0.8701421 0.012700949 0.08715967 0.14597793 -0.13134132 -0.31324795 0.61769885 0.4071321
-0.15547693 -0.40697667 0.29586774 0.05985061 0.115620054 -0.24430516 -0.31973842 -0.60211295
0.14076687 0.34267408 0.40727088 -0.6560611 -0.50956774 -0.37869078 -0.5534411 0.057301745
0.02062618 0.49792343 0.9211189 0.18232475 -0.16112927 0.37870514 -0.26570788 -0.22410788
-0.29155755 0.24176522 -0.27050737 -0.49020204 -0.07940689 -0.691688 0.068598405 -0.049791556
-0.24287124 0.25615522 0.38641486 0.92813385 0.101142816 0.5235282 -0.2252775 -0.4941692
1.003709 0.9161623 0.48451963 -0.54072595 0.83502614 -0.25965944 0.56809545 -0.07446301
-0.19847202 0.5952521 0.0076966803 0.24642672 -0.40373504 -0.3828717 0.16723977 -0.47842032
-0.29544637 0.6283839 -0.119336665 0.333285 0.5148216 0.27894425 -0.6380273 0.29644775
0.2569508 0.29591438 -0.15985604 -0.7668912 -0.0679159 0.3029549 -0.06660449 0.53887707
-0.8194875 0.6866834 -1.109623 0.17702775 0.19995712 0.40580648 -0.11390262 -1.0364109
-0.205863 0.2431637 -0.9195601 -0.5394 0.26066273 -0.23931125 -0.71267974 -1.0552971
0.34920475 0.022687074 0.4793452 -0.3207385 -0.59951776 0.18735161 0.7279927 0.07954217
0.30566344 -0.46290722 -0.69769865 -0.10922956 -0.40624467 0.31167 -0.067028634 -0.08458708
0.07725416 0.43806297 0.43245098 0.5447526 -0.32335094 -0.1557883 -0.5964164 1.1436446
0.42862555 -0.20057027 0.32651386 -0.93799216 0.12533599 -0.10811697 -0.29347265 -0.19183134
0.09611215 -0.13707754 -0.84813154 0.29387277 -0.45706087 -0.030397628 0.553639 0.72617674
-0.50471866 0.54060215 -0.0599984 -0.10207423 -1.0714574 0.71292937 -0.6696395 -0.56064326
-0.5326653 -0.9845823 -0.21036474 0.31302333 -0.79542005 -0.64206684 0.4698653 0.42911276
-0.32892132 -0.18188167 -0.47718242 0.54652876 -0.6082116 -0.45267004 -0.7762994 -0.25686902
-1.1808164 -0.59048384 -0.37366074 0.34441546 -0.47594675 -0.8751016 0.027806742 -0.6076866
0.3914179 0.10197064 -0.4354508 0.24018395 -0.012197181 0.64880365 -0.1247124 -0.07327405
-0.13504618 0.7143613 -0.0695425 -0.35722628 0.6421717 -0.14315473 -0.70940036 0.040697467
-0.12195631 0.23284519 -0.019515542 -0.1936297 -0.21695355 -0.3445895 0.43250912 -0.06543588
0.09094212 0.1600856 0.13642089 0.3141148 0.52861744 0.42276794 0.17942214 -0.15896043
-0.30521032 -0.4545018 -0.32047513 0.20832069 0.08619343 0.23506497 -0.019229248 -0.11527851
0.103589974 0.263112 0.15335584 -0.6357797 -0.42776662 0.5071549 0.1133264 0.13116795
-0.14946352 -0.113725774 -0.41111246 0.7982584 0.3760597 0.4072726 0.42989194 -0.1921073

linears.2.bias f4 [100]
00000000: e314 a93d dba5 4abe c8a8 23bd 78c6 003e
00000010: dbc4 adbe 0699 0f3e e6ec 493e b934 0b3d
00000020: b91a d5bd 81d9 e8bd 0e24 723e 13b6 29bb
00000030: 8111 b43b 6a90 91bd 893d 0f3e f8b9 1bbd
00000040: bfd1 2f3d a607 4f3d c2d8 523b 95b9 6c3d
00000050: c4a8 c4bd 9ea6 753d c5bb e23c 9d64 dcbd
00000060: 21ed 34bd d00e 1abe 301e 463c e0c2 75bd
00000070: 3564 183e b9ef f9bd 472d 95bd 855f 663e
00000080: c8ae cdbd c8e5 b53e 1013 44be 3346 033e
00000090: f282 d23c 7d86 d5bd 58df d8bc bc07 633e
000000a0: 4cf2 42bd 5f7d f3bc 4a39 a9bc bb6e e83d
000000b0: 38dc 7abe 6f5c eb3c 5958 043d 65d9 223d
000000c0: f9da b3bb bdd1 b53c 79ff 603c 2d58 b0bd
000000d0: 7d22 bbbd e28e 883c 9fad 96bd 7ab0 be3d
000000e0: 29cb bf3c cc25 323d d3cc 8dbc 9f63 cf3d
000000f0: e56a 5ebd 9856 11bd 5579 953c d059 42bd
00000100: cebf 7b3d 53da 57bd ab25 cbbd 49ce a63e
00000110: 76ec 803c 40e8 103f 4f49 c8bd a17a ee3b
00000120: 1700 3b3d 7e5c a43d d243 83bd 8e06 babe
00000130: 269a bcbd 687e 11be 9dd9 02bd ee2d 423e
00000140: 2171 cdbd 4e05 b23c 5781 323e 3ff8 0abe
00000150: eec9 723e 9ab9 3b3d a8c5 f93d f5a2 9ebd
00000160: 5dec 113d 6d84 b93d 1c86 90bd ee59 95bd
00000170: f659 c8bd f46e 163d ff34 403d 1ecd e2be
00000180: ba13 d43c 7d7b 5ebd e69e c7bc 1282 4e3b
0.08255937 -0.19789831 -0.039955884 0.1257571 -0.3393925 0.14023218 0.19719276 0.033985827
-0.104054876 -0.113696106 0.23646566 -0.0025895878 0.0054952507 -0.07107623 0.13988318 -0.03801915
0.04292464 0.050544403 0.0032172655 0.057794172 -0.09602502 0.05997335 0.027677426 -0.10761378
-0.044171456 -0.15044713 0.012092158 -0.0600003 0.14881976 -0.122039266 -0.072840266 0.22497375
-0.100431025 0.35526872 -0.19147897 0.12819748 0.025697205 -0.10426042 -0.026473686 0.22170919
-0.047594354 -0.029722868 -0.0206572 0.11349245 -0.2449807 0.0287306 0.032310817 0.039758105
-0.00548875 0.022194738 0.013732784 -0.08610568 -0.091374375 0.016669694 -0.07357334 0.09311004
0.023412304 0.043493077 -0.017309582 0.10126423 -0.05430116 -0.035482973 0.018246332 -0.047448933
0.061462216 -0.052698445 -0.09919294 0.32579258 0.015737753 0.56604385 -0.097796075 0.007277802
0.045654383 0.08025454 -0.0640942 -0.36333126 -0.09209089 -0.14208376 -0.031945813 0.18962833
-0.10031343 0.021731045 0.17432152 -0.13571261 0.23709843 0.0458313 0.12195903 -0.07745925
0.035625804 0.09058461 -0.07056829 -0.07292543 -0.09782784 0.036726907 0.04692554 -0.44297117
0.025888313 -0.054316986 -0.02436776 0.0031510633

linears.3.weight f4 [5, 100]
00000000: 8776 35be b396 66be 32d3 c13e 5b32 d53e
00000010: 91bc 623f f8ab fa3d 6ee8 8039 bf0c adbf
00000020: 7f75 e2bd 14db 013f ee07 27be 3c08 45be
00000030: e578 b6bf 298d 0cbe bc88 553f b6d4 8f3f
00000040: 3b59 073d 3505 df3d c9dd c1bd 2321 093f
00000050: b863 2ebf a39f d3be 77de 20bf 48e7 20bf
00000060: 3c53 cfbe 7244 22bf e319 c63e 5313 b43d
00000070: e73d 9bbe 6a11 0b3f 6451 65bf 71cf 543f
00000080: cba0 1ebf 0eb2 00bf f72f fe3e 6f9f 393f
00000090: c4d3 d1be c3f1 b63d 5d13 2f3f 0939 04bd
000000a0: 1e2a 573f cdb8 b7be 6474 803d ed86 b93d
000000b0: 79d0 b93f 8823 1c3f cf42 e8be cadb be3e
000000c0: 5b3c 9abf ccf7 a43e a59b 8b3e 56d1 8bbd
000000d0: 6643 a03f 22e9 503f 6e45 cdbe 5f02 6b3f
000000e0: 5864 5cbe d8df 283f 40c8 75bf b00e 26bf
000000f0: a5b9 403f e346 433f 8942 443f 86fe 3c3e
00000100: 9ca4 863f 3a2c 2c3f bb12 05bf 5464 6b3f
00000110: bea5 33bf 17d3 adbe 919e 8f3e 2cad 5abf
00000120: a7c4 98be 495a bdbe fcc8 093e a5f0 33bf
00000130: 6dc4 953f 7c46 2fbe 09b4 873e 2596 2e3f
00000140: 6af4 28bf cefd 29bf e81f 29bf 1b62 debe
00000150: f116 b43d e1fe d73d 260c e93d d4b5 cd3e
00000160: 393e 873f 2dec 733e 0eac b83c f1c5 13be
00000170: c2ef 4f3e 4855 b9bd 33e0 563f da0b e7be
00000180: 8443 c3be 1d5e 833f d7df 6cbf cbb6 e73e
00000190: 6099 6e3e 1d80 9d3d e122 243e f272 de3d
000001a0: 6482 3abd 602f bc3b 6b3b 35be 4df0 a5be
000001b0: cf85 e33e 7d6a c8bc 9b85 53be 217a 7a3d
000001c0: 0a08 febe 095c 453e 43d2 c23e d6db b1bd
000001d0: 5c30 093e bc98 43be 56c4 523e 76e7 79be
000001e0: 7d47 0a3e efe9 09be e833 aa3e 168f 4fbd
000001f0: 907d 8c3e 102b c43c 72a7 dd3c 5b30 82be
00000200: a86d 39be b8e3 613d fa15 7d3e b6df 3b3e
00000210: e829 a03e 236c 0b3d 43e2 45bc 0a1f bbbc
00000220: 83c7 b4bd ba11 a9bd 3f3e 653d 65ea 1b3d
00000230: 1d73 c4bd d12a b13e 5ff7 47bc 03bf 1cbe
00000240: 323e cf3d 9c95 a7be a367 883e 4db9 953d
00000250: 3bc4 4c3e 8669 013e 610e c53d e13b 483e
00000260: 6ca4 183e b748 7dbe 6278 803e 7818 19bd
00000270: 36c8 1ebe ad66 7dbe 38b0 103e 8610 403d
00000280: cc2a 82be d920 d3be 2172 553e 598f fa3d
00000290: f028 8ebe 7c87 9e3e 57cc 033e f578 883e
000002a0: 8452 8a3e 75f9 69bd ceee 9fbd 899b 183e
000002b0: 129b 9fbd 5cb3 ef3c 749f 0b3e c988 e4be
000002c0: e9f5 303d 89ee 2d3f ee87 413e 92bc 363e
000002d0: dd9f 653e d4af bc3e 2cd2 053e b5ad 363d
000002e0: 6000 b5be 1626 5dbe db21 f23d ed3d f93d
000002f0: 1029 9d3d 5df3 9abe 84a4 0f3e 0b15 32be
00000300: 7edd fabd 97a4 873e 0d0d d5bd cf2d d33d
00000310: 7bdb 253e 8b68 7cbe 69dd 0e3e 9600 67be
00000320: 55da cebf ef5a b03f 4e0d ce3f aab1 b9bf
00000330: cb0b aa3f 1635 e4bf ff5b b8bf d803 00c0
00000340: 1504 c0bf 23d8 bb3f 951e cdbf 5e06 bfbf
00000350: 4ab2 fabf 7888 bfbf abc4 11bf 2c94 c33f
00000360: 2b68 bfbf c19d eebf b459 b43f 6947 d7bf
00000370: 90b4 b83f 0ec9 903f 4932 833f de33 c13f
00000380: 676a 11bf c780 b33f efcb 9f3f c04c cd3f
00000390: b14d ab3f c5a4 af3f c2f2 b63f bf0b cdbf
000003a0: edbe ab3f ad9b ac3f f63f debf a78b c3bf
000003b0: 84ea b43f fb2e cb3f 5606 b93f 16d2 a2bf
000003c0: 670d cebf 0b0e b93f 2098 c8bf 9707 c0bf
000003d0: a0a9 863f 4a45 efbf 6a46 c2bf d448 b23f
000003e0: f2cf 8b3f b83a be3f 1fbf b23f bfe9 cdbf
000003f0: f128 c13f 8b28 d6bf 40c5 c1bf 39a4 ab3f
-0.17720996 -0.22518425 0.37856442 0.4163998 0.8856898 0.12239832 0.00024587236 -1.3519515
-0.11057567 0.5072491 -0.16311619 -0.19241422 -1.4255644 -0.13725723 0.83411765 1.1236789
0.03304408 0.10889665 -0.0946613 0.5356619 -0.6812091 -0.4133273 -0.62839454 -0.6285291
-0.4049319 -0.6338569 0.38691625 0.08792748 -0.30320665 0.54323447 -0.8957732 0.8312903
-0.619641 -0.5027169 0.4964597 0.725089 -0.40981877 0.08932831 0.6838892 -0.032280955
0.8404864 -0.3588318 0.062722 0.09058938 1.4516746 0.60991716 -0.4536347 0.3727706
-1.2049669 0.32220304 0.27267185 -0.06827037 1.2520568 0.8160573 -0.40092033 0.91800493
-0.21522653 0.6596656 -0.9600868 -0.6486616 0.7528327 0.7628004 0.76664025 0.18456468
1.0518985 0.67254984 -0.51981705 0.91949964 -0.7017478 -0.3395011 0.28050664 -0.8542049
-0.29837534 -0.36982945 0.13455576 -0.7028907 1.1700569 -0.17116731 0.26504543 0.6819785
-0.65997946 -0.664029 -0.6606431 -0.43434224 0.08793438 0.10546661 0.1137927 0.40177786
1.0565864 0.23820563 0.02254298 -0.14430977 0.20306304 -0.09049469 0.8393585 -0.4512623
-0.38137448 1.0263096 -0.9252905 0.45256647 0.23300695 0.07690451 0.1602893 0.10861768
-0.045534506 0.005742952 -0.17698447 -0.32409897 0.44438025 -0.02446484 -0.20656435 0.061151627
-0.49615508 0.1927339 0.38051042 -0.086845085 0.13397354 -0.19101232 0.20582709 -0.24404702
0.13503833 -0.13468145 0.33242726 -0.050673567 0.27439547 0.023946315 0.027057383 -0.25427517
-0.18108237 0.05514881 0.24715415 0.18347058 0.31281972 0.034038674 -0.012077871 -0.022841949
-0.08827116 -0.08255334 0.055967566 0.038065333 -0.095922686 0.3460298 -0.012204974 -0.1530724
0.10119285 -0.3273133 0.2664157 0.07310734 0.19996731 0.1263791 0.09621883 0.19554092
0.14906472 -0.2473477 0.25091845 -0.03737685 -0.15506062 -0.24746199 0.14129722 0.046890758
-0.25423276 -0.41235998 0.20844318 0.12234373 -0.27765608 0.3096274 0.12870918 0.26654783
0.2701608 -0.057122666 -0.0780922 0.14903082 -0.07793249 0.02926033 0.13635045 -0.4463561
0.04320327 0.679421 0.1889951 0.17845371 0.22424264 0.36852896 0.13068455 0.044599254
-0.3535185 -0.2159656 0.11822864 0.121700145 0.07673848 -0.30263796 0.14027601 -0.1739084
-0.122492775 0.2649276 -0.1040288 0.10311472 0.16197006 -0.24649255 0.13951649 -0.22558817
-1.616038 1.3777751 1.609781 -1.4507344 1.3284849 -1.78287 -1.4403075 -2.0002346
-1.5001246 1.4675335 -1.6024958 -1.4923818 -1.958566 -1.4963522 -0.56940717 1.5279593
-1.4953665 -1.8641893 1.4089875 -1.6818668 1.4430103 1.1311357 1.0249721 1.5093954
-0.5680298 1.4023675 1.248411 1.6039047 1.3383085 1.3722159 1.4292834 -1.601921
1.3417641 1.3485008 -1.7363269 -1.5276994 1.4134068 1.5873712 1.4455059 -1.2720363
-1.609784 1.445741 -1.5671425 -1.5002316 1.0520515 -1.869302 -1.5177739 1.3928475
1.0922835 1.486167 1.3964576 -1.6086959 1.5090619 -1.6731123 -1.5138321 1.3409492

linears.3.bias f4 [5]
00000000: 3000 133e 66a8 f0ba 26c3 3cbf 93b2 ea3b
00000010: 28ae 593c
0.1435554 -0.0018360734 -0.7373527 0.007162401 0.013286151

exp_avg f4 [100, 2]
00000000: f619 843c d0aa d53c f9c1 5a3b 83ed 09bd
00000010: 3d27 d73b c3af 24bd cff6 51bc cec0 923c
00000020: 1eee 613b 8047 d1bc 270e f2bc 729a 51bc
00000030: 426c 653a e97b 1cbd 93f4 03bc 9675 d13c
00000040: 93ba 823c 567f f13c 621e 0ebc 6ba1 adbc
00000050: b2fd 813b 3b2d 18bd 420d 0bbb 3c9d f0bc
00000060: 03a1 4d3b 5ad5 343d d10c 653b d387 f6bc
00000070: 5bae 8e3b 1474 fdbc a626 82bc 3d85 b6bc
00000080: 18d3 94ba 4e98 01bd bc33 333b 1ead f3bc
00000090: 8250 af3a 74eb 0fbd 0941 d83a 0065 163d
000000a0: 72bf 5a3b 2a1a 1abd 66ca 873b 725d 25bd
000000b0: d418 923c 7343 a33c a53a a7bb 4e2d edbc
000000c0: 3bce d0b9 e2b7 15bd 9152 a03c c8c9 6dbc
000000d0: a665 de3a 23c8 ebbc dab4 003c 7129 debc
000000e0: bc67 943c 1090 da3c 3f79 a83a 61e8 163d
000000f0: 0a15 51bc cba5 cc3c 5809 f73c 72a5 b43b
00000100: c4bd ddbc 9f35 88bc e3b2 d8bb a9a5 ee3c
00000110: cd03 b23b 07f8 273d 38e7 e63c 21b2 433c
00000120: b95d c6bc 5757 93bc 81a4 22bd df93 9cba
00000130: e977 b33b 76fa 24bd 620b dc3b 44fb 373d
00000140: d7a2 d4bb 15b7 d53c 5f87 8d3b 9317 f1bc
00000150: 7801 e9bc a03c 53bc e72e 323c 0cde dfbc
00000160: 7920 15bc 55d9 b83c dfeb 7bbc 17e7 a63c
00000170: 9916 1d3b 0b3b 173d 3d8a 8cbc df34 9dbc
00000180: 1a0e 4a3b b6aa e7bc 99d7 65bb 4e8d f1bc
00000190: e6cc ab38 3fe4 11bd 0981 823a 574e 583d
000001a0: e21d 423c bc49 c1bc ef22 3e3c 50e1 143d
000001b0: 828e af3b aacf ebbc a880 2a39 9b65 513d
000001c0: 5b75 153b 0b46 f4bc 222d 873b 1557 1d3d
000001d0: e435 43bc 84c7 b5bc 7670 e5bc c703 6abc
000001e0: 5fa7 12bc b778 b73c c582 17bd 7f23 453b
000001f0: b341 e83b efad 203d 97d8 89bb a15c dabc
00000200: 65b2 623b 41eb 2f3d 9252 ca3b 6e77 cdbc
00000210: b28a 8639 ccca 093d 95a6 3d3b 414e 12bd
00000220: dd41 fdba 4e02 cd3c 11b8 00bd 294b 093b
00000230: ec82 1a3b 7a22 313d d0fb c93c 3052 b13c
00000240: d612 583c b072 0b3d e907 573b a523 27bd
00000250: d3e0 cabc bcbc 94bc 4d89 a13b 818e d9bc
00000260: ba56 01bd 4d84 0fbc 8562 90bb a1af e93c
00000270: 74e9 c2bb ab67 c1bc 4b67 9e3c a317 82bc
00000280: b2ad 03bc 1bcf d3bc bfa2 9abb 7fd0 ef3c
00000290: 62a5 053c f33b 2c3d adb1 d13a 43ea 0bbd
000002a0: b54b 9f3c 8f4c 89bc 2c14 473c 3465 b3bc
000002b0: eedb d23c c4f4 403c ae1e 0ebd 39fc b5ba
000002c0: e5eb 203b a5bb fbbc 4570 b7bb e57c e23c
000002d0: 4ea1 afbb 5b24 e3bc 697a 803b 506e edbc
000002e0: eed3 e63c 756c ec3b dd5b 263c ecbd 133d
000002f0: 703f 07bc 93ad cd3c 33e3 8d3b 6dd4 323d
00000300: ffca 823b bdf9 153d 5a69 57ba 5c31 203d
00000310: 7072 3fba 412c f4bc 5b19 77bc 7540 983c
0.01612566 0.026082426 0.0033379777 -0.033673774 0.006565957 -0.040206682 -0.012815191 0.017914202
0.0034474204 -0.02554679 -0.029547764 -0.01279317 0.00087517884 -0.038204107 -0.0080539165 0.025568765
0.015958106 0.029479664 -0.008674236 -0.021195134 0.0039670104 -0.03715251 -0.002121762 -0.02937185
0.0031376488 0.04414878 0.0034950266 -0.030094063 0.004354281 -0.03093914 -0.01588757 -0.02228033
-0.0011354415 -0.03163939 0.0027344069 -0.029745635 0.0013375434 -0.035136655 0.0016498874 0.036717415
0.003337827 -0.03762261 0.004144001 -0.04037232 0.017834105 0.019929623 -0.0051034265 -0.028952267
-0.00039826505 -0.036552317 0.01957062 -0.01451344 0.001696755 -0.028781956 0.007855618 -0.02711937
0.01811587 0.026680022 0.0012853517 0.036842708 -0.012761364 0.0249814 0.030155823 0.0055128867
-0.027068026 -0.016627131 -0.006613122 0.029131727 0.005432582 0.04100802 0.028186426 0.011944325
-0.024214612 -0.017985983 -0.039707664 -0.0011945924 0.005476941 -0.04027792 0.006715224 0.04491736
-0.0064891386 0.026088277 0.004319116 -0.029430186 -0.028443083 -0.012892872 0.01087544 -0.02732756
-0.00910198 0.02256457 -0.01537606 0.020373864 0.0023969768 0.036921542 -0.01715576 -0.01919025
0.003083116 -0.028279644 -0.0035071133 -0.029486325 8.192081e-05 -0.035618063 0.0009956668 0.052809086
0.011847945 -0.02359473 0.0116050085 0.036347687 0.0053575644 -0.028785545 0.00016260392 0.05112229
0.0022805545 -0.029818555 0.0041252533 0.038413126 -0.011914704 -0.022189863 -0.028007727 -0.014283127
-0.008951037 0.022396429 -0.036989946 0.0030080972 0.00708791 0.039228376 -0.0042067277 -0.026655497
0.0034591195 0.042948965 0.006174394 -0.025081363 0.00025661808 0.033640668 0.0028938402 -0.03571916
-0.0019321997 0.025025513 -0.03142554 0.002094934 0.002357657 0.04324577 0.024656206 0.021645635
0.013188085 0.03404492 0.0032811111 -0.040805478 -0.024765408 -0.018156402 0.0049296976 -0.026557209
-0.03157685 -0.00875957 -0.0044062757 0.02852613 -0.00594824 -0.023609003 0.019336363 -0.015880411
-0.008037018 -0.025855592 -0.004719108 0.029274223 0.008157106 0.04204936 0.0015998386 -0.034158956
0.01944528 -0.016760139 0.012150805 -0.021898843 0.025739636 0.011777107 -0.034697227 -0.0013884372
0.0024554667 -0.030729124 -0.0055981004 0.027647445 -0.005359805 -0.027727297 0.0039208424 -0.028983265
0.028177228 0.0072150775 0.010153738 0.036069795 -0.008254871 0.02510718 0.004330063 0.043659616
0.003991484 0.036615122 -0.0008217298 0.039109573 -0.00073031243 -0.029806258 -0.015081729 0.018585423

exp_avg_sq f4 [100, 2]
00000000: 2320 2b3d bebe cd3d d278 983a 2521 0c3d
00000010: 06d8 c83b 272c 813e 67e8 093d 6186 3b3d
00000020: 6377 8f3d 0cca d33d 208d f83c 3df3 413d
00000030: 89f7 af3b 402a 1f3e b230 253d e209 883d
00000040: 4a21 863d 42eb 2d3e 7d3f 6a3c 987d 393d
00000050: b8a1 c63b f784 fe3d d296 523c b490 0b3e
00000060: 6083 013c 9976 f43d 0a10 303c c6ca da3c
00000070: 28b5 633c d78d fa3c 9420 bf3c e563 aa3d
00000080: 5200 743c 7f60 f33d f641 db3c 8e93 733d
00000090: 6982 4e3b 7286 8c3d 7216 483c 223f 213e
000000a0: 6139 a03b 558f a23e 06fd 863b 4758 883e
000000b0: d478 e03c 40e7 1b3d d0c0 a23c fdbf 263e
000000c0: 3e6f 0a3c fc34 f03d 80ea 3e3d 99f7 bd3c
000000d0: bf80 bd3c 6418 3e3d bc3c 383d 0012 413d
000000e0: 04fe 713d 5833 e93d e2e8 603c 6dca db3d
000000f0: 8a6e df3c c078 913d 7e17 873d c738 1e3d
00000100: 6a34 543d 8433 933d 6f52 183c c608 563d
00000110: 8d8d 943c 4ca1 1b3e 56de 5f3d 4d48 033d
00000120: 90e7 323d cfa5 e13d 9e42 da3c e73a 933c
00000130: c423 ce3b 4197 6c3e eb4d d93c 3643 7e3e
00000140: f67b fb3c e9c0 7c3d 34b2 9e3c 0c40 323d
00000150: 3a75 393d 9a6b 293d 7282 b03c 40b0 d23c
00000160: 1757 c83c 5ec4 503d e5be fc3c 652d 263d
00000170: 58a4 e63c b4bc 173e 7a7f b03c ab0b 573d
00000180: 06c2 2b3b c119 593c f05a 473c e45d ca3d
00000190: f761 003c 7c25 ce3d 8faa 883c 9d27 ae3e
000001a0: 9241 223d 040f 0b3d fd52 653d ad97 6b3e
000001b0: a825 423c 86e0 a63c b835 1c3b 68e0 273f
000001c0: 9d4e 1e3d 4a55 9e3d 5f90 b23c 3124 eb3d
000001d0: 0ca7 853c 6b52 673d 7414 3d3d 3333 9c3d
000001e0: e6ea 2a3d 13e1 a93d 548e fd3b fb7d 363b
000001f0: 7f1a 173d 623a 333e 280c bc3b 806e a93c
00000200: df2c 1c3c e339 253e 21d8 033d ae7c 3e3d
00000210: 6ea9 c03c 7fb1 0e3e b238 633b 8b78 bd3d
00000220: 2437 763d cb19 013e de65 0d3d a343 953c
00000230: 6616 203c 728a 103e b383 cb3d 6f54 043e
00000240: 3918 6c3d 2d6d 283e fce9 263b 5333 4d3e
00000250: 356c 473d 61f6 c23d 8eab b33c e5be 213d
00000260: 258c f43c 9037 c33c 0811 633c ee6a 6c3d
00000270: 7650 b03b aa72 f43c 7a88 013d 9f57 8a3c
00000280: e5f5 db3c 56a2 f23d bfc5 ee3c b5a4 d33d
00000290: 1c04 aa3d d728 bf3e 475c 0e3c 32c5 803d
000002a0: 911b e43c 39b6 823c 3dab 233d dfa7 ff3c
000002b0: fddc 463d 0c8f 2b3d d294 ff3c 5344 ac3c
000002c0: 0394 003d 893c 9d3d 8774 c53c e150 903d
000002d0: a2b2 dd3c e607 f13d 8b51 f53b 68c6 df3c
000002e0: e012 793d cd69 253d d9f6 7c3d f84a 6d3e
000002f0: 0e22 d73c 4972 523d 7786 c23c 1198 493e
00000300: f9ab cd3c 0a5d e53d 4be7 aa3a edd4 8e3c
00000310: 7d77 393c c342 263e daae 513c 7bc1 a73c
0.041778695 0.10046147 0.0011632687 0.034211297 0.0061292676 0.25228998 0.0336689 0.04578245
0.07005193 0.10341272 0.030340731 0.04735111 0.0053700847 0.15543461 0.040329643 0.0664251
0.06549318 0.16984275 0.014297363 0.04528579 0.006061759 0.12427705 0.012853341 0.13629419
0.007904857 0.11936683 0.0107460115 0.026708018 0.0138981715 0.030585213 0.023330964 0.083198346
0.0148926545 0.118836395 0.026764851 0.05946689 0.0031510836 0.06861581 0.012212383 0.1574674
0.0048896526 0.3174998 0.004119518 0.2662985 0.027401365 0.038062334 0.01986733 0.16284175
0.008449374 0.11728856 0.046610355 0.023189353 0.02313268 0.04640998 0.044979796 0.047136307
0.05908014 0.11386746 0.013727399 0.10731969 0.027274389 0.07103109 0.06596278 0.038628366
0.0518078 0.0718756 0.009296997 0.05225446 0.018133903 0.15198249 0.054655395 0.032051373
0.043677866 0.110179536 0.026643094 0.017972423 0.0062908847 0.23104574 0.026526412 0.24830326
0.030698758 0.06170741 0.019372083 0.04351811 0.04527781 0.041362382 0.021546576 0.025718808
0.02445559 0.05096852 0.030852744 0.040570635 0.028154537 0.14818078 0.02154516 0.05250136
0.0026208176 0.013250769 0.012167677 0.098811895 0.007835857 0.10065743 0.016682891 0.34014598
0.039613314 0.033949867 0.055987347 0.23007078 0.011849798 0.020370733 0.002383573 0.6557679
0.03864919 0.07731111 0.021797357 0.11481512 0.016315006 0.056475084 0.046162084 0.07626953
0.041727923 0.082948826 0.007737914 0.0027846086 0.036890503 0.1750274 0.005738754 0.020682573
0.0095321825 0.16135363 0.03218854 0.046505623 0.02351829 0.13934897 0.0034671244 0.09251507
0.06011118 0.12607495 0.034520976 0.018220728 0.009770965 0.14115313 0.09937229 0.12922834
0.057640288 0.16447897 0.0025469055 0.2003911 0.04868718 0.09519649 0.02193239 0.03948869
0.029851982 0.023830205 0.013859041 0.057719164 0.0053806854 0.029839832 0.031624295 0.016887484
0.02685065 0.118473694 0.029147027 0.1033415 0.08301565 0.37335846 0.008688993 0.06287612
0.027845176 0.015956031 0.039958227 0.031207977 0.048550595 0.041884467 0.031198893 0.021028673
0.031391155 0.07677562 0.024103416 0.070466764 0.027062718 0.11769085 0.0074865273 0.027316287
0.060809016 0.040384103 0.06175885 0.2317313 0.026261356 0.051378522 0.023745758 0.19686915
0.025106417 0.111993864 0.0013038901 0.017435515 0.011319992 0.16236405 0.0127980355 0.020478

exp_avg f4 [100]
00000000: 592d 8cbb 2629 8a3b 8166 c63b f7b3 79bb
00000010: 958b cf3a 4829 19bb 5317 713a b8dc 73bb
00000020: 3726 abbb 1183 3b3b 44db b33b f54f 463b
00000030: d6c4 9ebb c099 433a 6fe3 853a 0803 fcb9
00000040: ba2e 593b ab05 393a 2ce6 783a 85cd e6ba
00000050: 3c72 c23b baa2 983b 2b66 63bb d51a a13a
00000060: beb9 c939 3d4a 863a a904 cb39 e287 c43a
00000070: 61fb a8bb f15b 03bb 40d0 afbb f470 fbba
00000080: 97fa 62bb 54ec 72bb 5571 aebb a8d9 20bb
00000090: b7d9 34bb 7adb 8abb 3bbe 383b 6e23 d1bb
000000a0: 8b24 69bb a2ac 293a 3ea3 12bb 125e 8a3a
000000b0: c5df 9fbb eacc a5bb 7276 feba a2d8 f4b9
000000c0: 12f4 b33a 9b5b 283b 5d3f 7e3a 53b6 b7bb
000000d0: 1689 bf3a e50a b9bb 77d4 6a3a a546 76ba
000000e0: c1a8 2e3a 43a1 edbb 94a4 af39 d363 4bbb
000000f0: fbb5 99bb d4d1 b1ba 297f b3bb 43f8 333b
00000100: d5c0 b7b9 e135 9a3a 15b2 0dbb 2eea ab3b
00000110: fd27 c2bb 6b1c 77bb adfb c1bb 9a51 76bb
00000120: aa16 b9bb cd97 b53b aaab 33bb 10c6 4c3a
00000130: ffd9 2bbb 71b0 37bb 2573 a83a 6cb6 743a
00000140: 62b2 103b 0b18 53bb 0a4f a2bb 2074 543a
00000150: ef9e 0fb9 81f7 923a 4eab 89bb 242b 6bbb
00000160: 9937 bf3a 5ef6 53bb 5244 f53a 0e2d 143a
00000170: 2cd3 2abb b863 b0bb 0421 61bb 4ea0 e8bb
00000180: f966 c7b8 68af 51bb bc3b 533b 852c 8bbb
-0.004277867 0.004216331 0.0060547 -0.0038101652 0.0015834445 -0.0023370553 0.0009196896 -0.0037210416
-0.0052230614 0.0028612057 0.005488785 0.003026006 -0.004845242 0.000746157 0.0010214875 -0.00048067444
0.0033139423 0.00070580345 0.00094947475 -0.0017608857 0.005934028 0.0046580704 -0.0034698348 0.0012291322
0.00038476096 0.0010245513 0.0003872265 0.001499411 -0.00515692 -0.0020043815 -0.0053654015 -0.0019183443
-0.0034634226 -0.0037067132 -0.005323569 -0.0024543796 -0.0027595588 -0.0042375894 0.0028189558 -0.0063823974
-0.003557476 0.00064725627 -0.0022375132 0.00105566 -0.0048789703 -0.005059828 -0.0019413962 -0.0004670071
0.0013729355 0.0025689367 0.0009698773 -0.0056064515 0.0014612998 -0.0056470507 0.00089580513 -0.0009394682
0.00066627195 -0.00725189 0.0003350122 -0.0031034842 -0.004690883 -0.0013566562 -0.005477805 0.0027461208
-0.0003504815 0.0011765325 -0.0021621038 0.0052464223 -0.005925177 -0.0037706147 -0.0059198947 -0.003758526
-0.0056484537 0.0055417777 -0.0027415552 0.0007811496 -0.0026222465 -0.0028028751 0.0012851699 0.00093350443
0.002207898 -0.0032210376 -0.00495327 0.0008104462 -0.0001369675 0.0011212678 -0.0042013293 -0.0035883868
0.0014588713 -0.0032342891 0.0018712378 0.00056524656 -0.002606581 -0.005382981 -0.0034351954 -0.007099188
-9.5082396e-05 -0.003199542 0.003223165 -0.0042472505

exp_avg_sq f4 [100]
00000000: 2fba be3a 5759 003b 3ceb 903c 3cee a73a
00000010: 7ddb 803b 0592 433b 4bd8 663b 13c2 943a
00000020: 8599 353b 00e2 183b 60dc 9f3b 2d20 a03b
00000030: c56b 9a3a 2355 223a 24b8 2e3a 5f68 1c3b
00000040: 3119 9b3b 3db9 b03a 8a3c a73a fb38 1b3b
00000050: a9f1 163d 7c90 b73c 5001 1f3a 05f2 793b
00000060: edc1 2b3b 690e ec39 add4 9f3a f671 a23a
00000070: aff6 683b a2bc f73a f8f4 fc3a 36e3 723a
00000080: 50ab 3f3b 6883 da3a 56c3 cf3a c976 473a
00000090: a9ba b13b 11aa e43a 1649 3a3b acd8 113b
000000a0: 1cec 9b3a 8d0a 9a3a f0da 733a d6d9 0e3a
000000b0: 89e5 b63a 7e36 913a bf3d 1b3b b105 233b
000000c0: 415d 9039 1b72 423b da60 223b bf5a 3f3b
000000d0: 2e19 823a 164f 593b 4f7a fd39 a0e8 013a
000000e0: 3a5b 353b 866a 3f3b 2339 f33a 64de 123b
000000f0: ca21 2a3b 3f62 5239 d6ad 113b 8a1d 5c3a
00000100: 846b 073b 4b42 923a 428a 223b 92ba 973b
00000110: 88dd 263b 2847 563a 25c2 fa3a 53f7 6a3b
00000120: 6d01 3b3b f9c7 6f3c 1bb7 773b 5f66 843a
00000130: b7ab e83a 9d6c b03a 5d2b 4a3a 2d71 f839
00000140: 5a2d 7f3b 7830 2b3b 084c 8c3b 5266 a73a
00000150: f763 0a3a 22eb 603a 8889 af3a d7e6 953a
00000160: 9235 3b3b 3947 1d3b ee5d 2b3b b3c1 093a
00000170: 6541 9c3a de05 413b 1a1e 943a fbf4 603b
00000180: 73f4 d13a cccd 8b39 6edd 913b cb14 293a
0.0014551337 0.00195845 0.017690293 0.0012812088 0.003932415 0.0029841673 0.0035224135 0.0011349343
0.0027709913 0.0023328066 0.0048785657 0.004886648 0.0011781385 0.0006192496 0.00066650123 0.002386592
0.0047332277 0.001348294 0.0012759131 0.0023685086 0.03685156 0.022407763 0.0006065564 0.003813864
0.0026208118 0.00045024164 0.001219412 0.0012393582 0.0035547426 0.0018900821 0.0019299081 0.00092654245
0.0029246397 0.0016671242 0.0015851061 0.0007608948 0.005423863 0.0017445703 0.002842491 0.002225439
0.0011895928 0.0011752412 0.00093023386 0.000544933 0.0013953905 0.0011078862 0.0023687927 0.0024875219
0.000275353 0.0029670063 0.0024776966 0.0029198376 0.0009925717 0.003315871 0.00048347047 0.00049556233
0.0027672783 0.002920778 0.0018556457 0.0022410387 0.0025960081 0.0002006376 0.0022228858 0.00083967356
0.002066345 0.0011158673 0.0024801646 0.004630395 0.0025461633 0.0008174055 0.0019131346 0.0035852983
0.0028534785 0.01463508 0.0037798348 0.001010131 0.001775137 0.0013460104 0.000771215 0.0004738657
0.0038936944 0.002612142 0.0042815246 0.0012771583 0.0005279178 0.00085799594 0.0013392428 0.0011436593
0.0028565866 0.002399875 0.0026148516 0.00052549987 0.0011921345 0.002945296 0.0011300475 0.0034325707
0.0016018286 0.00026665477 0.0044514453 0.0006449937
