inverse/saved_model/USnet_lmbd-1.0_mu-0.5-1000.pt (torch, 23595 bytes, 45 tensors)

layers.0.0.weight f4 [10, 2]
000000 70 03 b9 3e dd a9 56 bd 4b 4c 68 3f 29 93 48 3f
       0.36135435 -0.052408088 0.90741414 0.7834955
000010 af a6 41 bf b5 e8 4b bd 13 e9 77 3f fd 22 80 bf
       -0.75644964 -0.049782474 0.9684002 -1.0010678
000020 81 e9 13 bf 8a 72 8f be 74 43 67 3f 96 2f 3b bf
       -0.57778174 -0.28017074 0.903373 -0.73119485
000030 5a 61 25 3f 78 ff 32 3e 03 c9 f7 be 51 12 4a bf
       0.6460167 0.17480266 -0.48395547 -0.789342
000040 99 eb 1e 3f ed 5b 98 3e 93 27 f6 3e 6b ee 05 3e
       0.62078243 0.29757634 0.48077068 0.1307923

layers.0.0.bias f4 [10]
000000 e8 8e e1 be 4c d8 2d be 77 a8 1d be b0 ed 98 3e
       -0.4405434 -0.16977042 -0.15396295 0.2986884
000010 cb 48 1b 3f 0c be be be 68 d4 32 bf 90 77 36 be
       0.6065795 -0.3725437 -0.69855356 -0.17819047
000020 c4 6d bd be 36 17 12 bf
       -0.36997807 -0.5706667

layers.0.1.weight f4 [10, 2]
000000 da be f8 be b0 6f eb 3e 4a 23 71 bd f2 67 aa 3e
       -0.48583108 0.45983648 -0.058871545 0.3328243
000010 05 f4 56 3f af f0 8f bd 4b 2b 09 3f 73 2e 18 3e
       0.83966094 -0.070283286 0.53581685 0.14861469
000020 d8 86 3d 3d 19 82 86 be 3b 69 1f 3f ca 73 0f bf
       0.046271175 -0.26271132 0.62269944 -0.56036055
000030 d7 f7 a1 be a7 6e d1 be 64 6f 84 be c4 76 df be
       -0.316344 -0.40904734 -0.25866234 -0.43645298
000040 1a 25 9e be 87 12 86 bd 8e 4a 45 3f ae 0e f6 3d
       -0.3088768 -0.065465026 0.77066886 0.12014519

layers.0.1.bias f4 [10]
000000 c0 92 77 be 07 83 eb bd e0 5c 42 3d 9e 94 00 be
       -0.24177074 -0.11499601 0.047451854 -0.12556693
000010 cc 85 bd 3e d7 01 34 3d a7 bf 25 3e 74 44 72 3e
       0.3701614 0.043947067 0.16186391 0.23658925
000020 dd 43 0f 3e 18 2b 0f 3e
       0.13990732 0.13981283

layers.0.2.weight f4 [10, 2]
000000 46 2c dd bf 6f 6a 2a 3f c1 14 87 3e 45 88 69 bf
       -1.7279136 0.66568655 0.2638302 -0.91223556
000010 8e f6 04 bf ac a0 8c 3e c4 cc 09 bf 12 d6 87 bf
       -0.5193871 0.27466333 -0.5382807 -1.0612204
000020 0b cc 43 bf b4 85 1d bf 2d 14 0d bf d2 db 5a 3c
       -0.7648322 -0.6153214 -0.5510891 0.013358073
000030 35 18 99 3e 25 a2 8a 3f c1 90 50 bf c5 5e ce 3f
       0.2990128 1.0830733 -0.81470877 1.6122671
000040 b8 cb 31 3c 66 73 ed bf e0 af da 3e 28 56 18 3f
       0.010851793 -1.8550842 0.42712307 0.59506464

layers.0.2.bias f4 [10]
000000 9f e3 19 bf 6e f9 78 3e 98 ac 66 3e 17 d9 95 3e
       -0.6011295 0.243139 0.22526777 0.2926719
000010 dd c8 32 3f 95 53 b0 3c 6d 31 8b be 24 7b ea bf
       0.69837743 0.02152423 -0.27186146 -1.831883
000020 dd cb bf be ca 90 f1 be
       -0.37460223 -0.47180778

layers.0.3.weight f4 [10, 2]
000000 f4 07 9c 3f be 5d 48 be 68 89 5a 3f f5 8e e7 bc
       1.2189927 -0.1956701 0.85365915 -0.02826641
000010 f9 c6 24 bf 65 86 d9 3d e9 94 0f 3f ad 6f ce bf
       -0.6436611 0.10621337 0.56086594 -1.6127831
000020 54 a5 be bf 4c 75 47 bf f1 5c 87 3f 17 b1 37 bf
       -1.4894204 -0.77913356 1.0575238 -0.7175459
000030 9f 3a 12 bf 6b 8a 63 3e 42 a0 83 3f 22 b2 bf be
       -0.571207 0.22220771 1.0283282 -0.37440592
000040 0b 97 9d 3f 5b 9b 0d bc 60 64 b3 3e 7f ef 9a 3f
       1.231172 -0.008642997 0.35037518 1.2104338

layers.0.3.bias f4 [10]
000000 ac 1c aa bf f3 de 2f 3e 96 bf 70 bd d8 64 44 3f
       -1.329 0.17174892 -0.05877646 0.76716375
000010 04 ea 2c 3d f1 3c 98 3e 92 5a 82 be 18 f9 cf 3c
       0.042215362 0.29733995 -0.25459725 0.025387332
000020 bd 9c 70 3d 5c fd d2 3d
       0.058743227 0.10302231

layers.0.4.weight f4 [10, 2]
000000 9c ef 28 bf d1 4c 09 bf 69 54 0a be 10 52 e3 be
       -0.65990615 -0.5363284 -0.13508762 -0.44398546
000010 dd 74 11 bf 7a a5 ec 3f 1c 25 ea be e8 e8 c0 be
       -0.56818944 1.8488 -0.45731437 -0.37677693
000020 1a 80 98 be 9b 4c fc 3e 1b ba 69 bf be 35 4a 3d
       -0.29785234 0.49277195 -0.912996 0.04936766
000030 96 f5 d2 3e 79 d8 d7 3e 52 66 41 3f f9 95 5d 3e
       0.41202992 0.42157343 0.75546753 0.21639241
000040 8d 34 47 3f a9 37 42 bf c1 88 f8 3e 2f 6d 80 bf
       0.7781456 -0.7586618 0.48541835 -1.003332

layers.0.4.bias f4 [10]
000000 3e 9e ec 3e 96 14 09 3f c2 c5 63 3f 5e 34 3b 3e
       0.4621448 0.53547037 0.8897363 0.18281695
000010 dc 97 1b bf 54 7b 7f 3d 0e 6c 8b bd a3 d3 28 bf
       -0.60778594 0.062373474 -0.06807719 -0.6594793
000020 56 a9 00 3e 5a c4 72 be
       0.12564597 -0.23707715

layers.1.0.weight f4 [10, 10]
000000 01 04 22 3e 5e 86 9e 3e be 29 61 bf 0f 3c 12 3f
       0.1582184 0.3096189 -0.8795432 0.5712289
000010 27 8b b4 be 6e a4 ba 3e de f7 f4 bd 6b a7 95 be
       -0.35262415 0.36453575 -0.119613394 -0.29229292
000020 45 bb 10 3f 00 cf f3 bd 43 e8 54 be a1 5d c7 3e
       0.5653575 -0.119047165 -0.20791726 0.3893862
000030 20 60 c3 3e 00 d2 61 3d da 0f 0a bf f1 8f 63 3e
       0.38159275 0.055131912 -0.5393044 0.22222878
000040 95 a8 f9 3e c1 47 2b bd 25 db 2e 3f 79 29 dd 3e
       0.4876143 -0.041816477 0.6830314 0.43195704
000050 43 97 6b bf a3 84 4a 3e 09 0b 14 3e fd f9 f9 be
       -0.9202768 0.1977716 0.14457335 -0.48823538
000060 12 e3 2f 3f 81 68 c1 be 30 27 4f bf cc d8 d6 be
       0.68705857 -0.37775043 -0.8091917 -0.41962278
000070 7f 1c e8 be 4d bf 36 bf 13 40 0a 3d e1 d2 00 be
       -0.4533424 -0.7138565 0.033752512 -0.12580444
000080 f4 7f 04 3f 99 fb 2d bf ce 36 96 be b2 03 8c be
       0.5175774 -0.6796203 -0.29338688 -0.2734657
000090 3a 14 ab 3d 85 a4 35 3e f7 5d 20 bf b9 63 a0 be
       0.08353467 0.1773854 -0.6264338 -0.31326082
0000a0 0b 95 db 3e b6 59 f7 3c 33 ed ea bc ee bb 25 3f
       0.42887148 0.030194145 -0.028677559 0.6473988
0000b0 96 4a 44 bd 0a ca b8 bd 46 e2 e5 3e 76 9b 82 3d
       -0.047922693 -0.09022911 0.44899195 0.06377308
0000c0 27 54 cf 3e 38 87 95 3f 3e ec ad 3e af 58 17 3f
       0.4049389 1.168189 0.339693 0.59119695
0000d0 0a 35 57 bf 63 21 ad 3e f9 37 78 be ee b9 66 3f
       -0.84065306 0.33814535 -0.24240102 0.90127456
0000e0 8a a0 5f bd e0 a7 2c bf 5b 63 04 3f c8 29 85 3d
       -0.05459646 -0.67443657 0.51714104 0.0650211
0000f0 55 27 17 3f a7 e2 c5 3e 49 83 4b be 11 26 39 be
       0.5904439 0.38649485 -0.198743 -0.18080927
000100 18 56 06 bf 65 27 b8 bc df 6f 88 3d 5b da de be
       -0.5247512 -0.022479722 0.06661963 -0.43525967
000110 0c b2 06 3f aa 7e de 3e a7 0d 54 3e 09 69 1b 3e
       0.5261543 0.43456012 0.20708333 0.15176786
000120 ad ed d1 be f6 11 39 bf f1 12 1e bf 4e 52 1c 3f
       -0.41001645 -0.7229303 -0.6174765 0.61063087
000130 27 f9 5d 3f e4 e5 64 bc cc 23 1b 3f 5c 82 44 3e
       0.867083 -0.013970826 0.60601497 0.19190353
000140 c1 be d8 be ad a5 69 3e ec 8b 0f 3f 05 94 2b bf
       -0.42333034 0.22817107 0.5607288 -0.67022735
000150 36 75 b3 3e 87 41 85 bf 36 84 12 be 0d 83 04 bf
       0.35050362 -1.0410622 -0.14308247 -0.5176247
000160 fe 92 fb be 19 53 41 bf 6d 1b 26 bf 1b 19 f8 be
       -0.49135584 -0.7551742 -0.648856 -0.48456654
000170 1b 2a 91 be c3 5c 31 bf ca 68 2f be 70 15 ec be
       -0.28352436 -0.6928217 -0.17129818 -0.46110106
000180 73 7f 3c 3d 9c be ce 3d 27 f8 a1 be 40 3b 53 3b
       0.046019983 0.100949496 -0.31634638 0.003223136

layers.1.0.bias f4 [10]
000000 10 a2 28 3e 5a 13 af bd fd 6f 10 3f bc 66 ce be
       0.16468072 -0.08548613 0.5642088 -0.40312755
000010 0f 34 81 be bd 9c 96 3e 82 11 3d be 4d 9e bc be
       -0.2523503 0.29416457 -0.1846371 -0.36839524
000020 12 c2 b4 3e 18 63 35 be
       0.35304314 -0.17713583

layers.1.1.weight f4 [10, 10]
000000 11 30 08 bf 16 57 89 3e 13 eb b0 3e 4c 83 cf bc
       -0.53198344 0.26824254 0.34554347 -0.025331162
000010 7f fe a7 3e 05 04 06 3e bc 7d 9d bd 1d 8d 1f 3e
       0.32811353 0.13087471 -0.076899976 0.15581174
000020 58 ec f8 3d 3f c5 f4 3e 44 a0 1d bf 86 30 72 3d
       0.12154454 0.47806737 -0.6157267 0.059128307
000030 17 85 23 bf 18 2f e0 be bf 1a 07 3f b5 a4 25 3d
       -0.63874954 -0.4378593 0.52775186 0.04044028
000040 2d b4 03 3f 83 5e bf be d9 3f d9 bd c6 c2 8c 3e
       0.514468 -0.37376794 -0.10607881 0.2749235
000050 71 4d db be 70 45 36 3e fb 9c 72 be 4e 03 dc be
       -0.4283252 0.17799926 -0.23692696 -0.4297127
000060 74 b2 59 3f 77 1d 03 3f bf 1e ab 3e 12 1c 1c be
       0.8503792 0.51216835 0.33421895 -0.15245083
000070 53 8e d8 3e 98 e5 a0 3e 78 dc cd 3e 29 49 50 3e
       0.42296085 0.31425166 0.40207267 0.20340408
000080 6f 80 a5 3d dc d1 d3 3c 39 0e 52 bf 16 cc 8b 3e
       0.080811374 0.025856905 -0.8205295 0.27304143
000090 d6 b1 b0 3d 38 da 31 bd 05 27 db 3d 9b 55 b3 bb
       0.086276695 -0.043421 0.10700802 -0.0054728515
0000a0 8f 44 e8 3e f1 e5 ab 3e 6a 82 54 3e f5 2e ac 3e
       0.45364806 0.3357387 0.20752874 0.33629575
0000b0 07 e2 a1 be a0 04 b8 be fe b2 cd be 5a ff 08 3f
       -0.31617758 -0.3594103 -0.40175623 0.53514636
0000c0 5d 0a 3b bf 38 e5 01 be e8 71 2b 3f 66 80 1a 3f
       -0.7306269 -0.12685096 0.6697068 0.6035217
0000d0 25 71 00 bc 1a a9 53 3e ff ae f0 be 10 09 2c 3e
       -0.007839476 0.20669976 -0.4700851 0.16800332
0000e0 d7 ce 69 be 9d 62 a1 bd 6d 71 40 bf 3e 05 9c bc
       -0.2283281 -0.07880137 -0.75173074 -0.019045468
0000f0 dc 92 10 3e 5f 7f 4f 3e 31 f9 8f be 92 64 3e be
       0.14118522 0.20263432 -0.28119805 -0.18593052
000100 9d f6 be be 94 4b 99 be b2 d4 37 bd 41 d8 2d bf
       -0.37297526 -0.29940474 -0.044880576 -0.679081
000110 3b 53 89 3e 61 14 d5 bd 44 97 d4 bd 26 bd 60 bf
       0.26821312 -0.104042776 -0.10380414 -0.8778862
000120 23 cb fd 3e f5 e4 3e bb 83 2e c8 3e 80 bf 99 3e
       0.49569044 -0.0029128168 0.39097986 0.30028915
000130 ab b9 5d 3e 74 66 c6 3e d4 61 42 3b a9 34 ee 3d
       0.21652858 0.3875004 0.002966036 0.11631138
000140 cf e2 33 3e 53 7f ee be 43 9d c3 bd 8b 82 45 3f
       0.1756699 -0.46581516 -0.0955148 0.7715232
000150 b2 27 0c be 2d 41 bd be f0 4d c2 3e 68 b5 00 bf
       -0.13687018 -0.36963788 0.37950087 -0.50276804
000160 25 3a dd 3d df b3 05 be a7 21 18 3f 8d 9d 2a be
       0.10802106 -0.13056897 0.5942635 -0.16661663
000170 0b 01 38 be 49 21 83 be 6a 73 03 3e 47 1a 53 bf
       -0.17969148 -0.25611332 0.12836996 -0.8246197
000180 68 66 e0 3e e5 43 e6 3e f2 9c 18 3f 01 c3 c0 be
       0.4382813 0.44973674 0.5961448 -0.37648776

layers.1.1.bias f4 [10]
000000 27 42 4c 3e 0e 28 4f 3c f7 b3 20 3e 0e 26 17 be
       0.1994711 0.012643827 0.15693651 -0.1476061
000010 0e b4 81 3c 47 3e b3 be 0a 42 6e bd 5b 84 99 3c
       0.015832927 -0.3500845 -0.05816845 0.01873987
000020 30 24 22 bd 30 3e 91 3d
       -0.039585292 0.070919394

layers.1.2.weight f4 [10, 10]
000000 dc bf 85 bf 0d 6b ec bf 7e d7 fc be 06 cc 4e be
       -1.0449176 -1.8470169 -0.49383157 -0.20195016
000010 bb 8b eb 3e de 65 60 be 2c d1 87 3f 00 b6 75 3f
       0.46005043 -0.21913859 1.0610709 0.95980835
000020 60 45 89 bf 34 ff e7 3e fb db 32 bf d8 c4 36 3f
       -1.0724297 0.45311892 -0.69866914 0.7139411
000030 ff fb b0 bf c0 87 51 3e c9 81 8f bf bc 33 bf be
       -1.3826903 0.20461941 -1.1211482 -0.37344158
000040 3c 7b 21 3f 4c b7 21 3f 8a b8 b5 3f 89 0b 52 3f
       0.63078666 0.63170314 1.4196942 0.8204885
000050 fd f8 a9 bf 4b 9a b3 bf 78 ba 96 3e 69 67 94 be
       -1.327911 -1.4031461 0.2943914 -0.28985146
000060 3c 4b 4b be 72 7b a5 be 96 c9 ec 3d a6 ed 15 3e
       -0.19852918 -0.32320744 0.11561887 0.14641437
000070 9a 96 48 be 85 94 f7 3f 65 25 87 3d 35 cb 4e 40
       -0.195887 1.93422 0.06598929 3.2311528
000080 56 8d 50 bd 6d 27 a0 3e ac bf bc bf 7e 3c 92 3f
       -0.05091604 0.3128008 -1.4745994 1.1424711
000090 87 82 21 be d9 1c 5e 3e fe 55 fc 3f 8e 8d 0d be
       -0.15772448 0.21690692 1.9713743 -0.1382353
0000a0 54 d2 e4 3d 8d 72 a7 be 5e 3b 85 bf a2 68 80 bf
       0.111729294 -0.32704583 -1.0408742 -1.0031931
0000b0 02 ed fb be 1c 5e 9f 3d a0 c2 9b 3f 41 50 97 3f
       -0.4920426 0.07781622 1.216877 1.1821367
0000c0 13 f1 84 be b2 f0 45 3f 83 b5 50 be 68 9e b4 3f
       -0.25965175 0.77320397 -0.20381741 1.4110842
0000d0 71 5a 77 3d 84 dc d2 3e 92 bf ff be 1c 20 98 3e
       0.060388986 0.41183865 -0.49950844 0.29711998
0000e0 9a ab 2a bf 9d 68 07 c0 7f 32 bb 3f ef ed 75 bd
       -0.66668093 -2.11576 1.4624785 -0.060041364
0000f0 cd 7c 97 3f dd 4e ad 3e aa bf 0b 3f 79 7b 90 3f
       1.1834961 0.3384923 0.5458933 1.1287681
000100 53 15 7a bf 69 63 a7 3f 8b c5 cf bf 15 bc d0 bf
       -0.9768879 1.3077213 -1.623216 -1.6307398
000110 67 0b 93 bc 27 98 c6 3d 4a ee 18 3f 4c d6 22 bf
       -0.017949773 0.096969895 0.597386 -0.6360824
000120 0a 81 07 3e 98 c9 0e bf ea d8 97 3e 46 46 b9 3e
       0.13232818 -0.5577636 0.2965768 0.36186427
000130 c4 a1 bf 3f 9c 67 98 3f dd f4 8f bd 36 df 06 3f
       1.4971242 1.1906619 -0.07029126 0.5268434
000140 cf b0 ad 3e eb 96 be be 18 dd e3 3e a9 90 1b be
       0.33923957 -0.37224516 0.4450462 -0.15191902
000150 10 4a 0f 3d 07 8e ba 3e 2e 0c 29 3f 5c bf 15 40
       0.03498274 0.36436483 0.6603421 2.3398046
000160 af 2e a0 bf c2 6e 13 be 28 0c 57 3d 5e 10 d7 3e
       -1.2514247 -0.1439772 0.052501827 0.42004675
000170 cc e6 26 3e ab 82 85 3f b5 e6 98 3d 2e 7b 18 3f
       0.1629898 1.0430502 0.07465879 0.5956296
000180 e0 49 8f bf 80 18 b2 bf 39 40 09 3f 10 4e 17 be
       -1.119442 -1.3913727 0.5361362 -0.14775872

layers.1.2.bias f4 [10]
000000 91 75 21 bf b7 a5 c8 be ee 3d 24 bf 74 d0 45 bf
       -0.6307002 -0.3918893 -0.64157 -0.772712
000010 fe 6c e2 be 40 b5 5e bd 09 6f 40 bd e8 db 55 be
       -0.4422378 -0.054372072 -0.04698089 -0.20884669
000020 c3 c3 e2 3e 2a e4 a3 3d
       0.4428998 0.08002503

layers.1.3.weight f4 [10, 10]
000000 a3 84 8e bf 64 ad 8a 3e fc 45 aa 3f 46 37 49 3f
       -1.1134228 0.27085412 1.3302608 0.78599966
000010 14 80 36 3f 88 4d e0 be 3d 22 c7 3e 64 85 03 bf
       0.7128918 -0.43809152 0.3889331 -0.5137541
000020 18 f5 cf be 09 a4 44 bf d4 88 40 bf 7b 1f e9 bf
       -0.4061668 -0.768128 -0.75208783 -1.8212732
000030 82 ea ec 3e 5e b4 c0 be df e9 a1 bd c7 c2 37 bf
       0.46272665 -0.3763761 -0.079059355 -0.7178158
000040 1d 55 12 3f 3d a7 69 bf 1b 40 1d 3e 11 0f 77 be
       0.5716112 -0.9127081 0.15356486 -0.24126841
000050 f9 eb dc be 74 59 cd bf f2 a5 5f 3f 1c 8a 03 3f
       -0.43148783 -1.6042924 0.8736259 0.51382613
000060 6c a2 62 3f 43 a6 7d bf 50 77 8b 3f 65 17 b6 bf
       0.88529086 -0.9908182 1.0895786 -1.422589
000070 6f d3 98 bf 49 b4 72 bf ce 22 e2 3f d7 1f 6a 3e
       -1.1939524 -0.94806343 1.7666872 0.22863708
000080 b2 19 d0 be 24 c6 4f 3d 01 f7 32 be 3a 98 f5 3d
       -0.40644604 0.05072607 -0.17477037 0.119919255
000090 90 99 56 bf 0c ff a8 bd cb 23 ff 3d f2 94 90 bf
       -0.8382807 -0.08251771 0.12457999 -1.1295455
0000a0 82 39 84 bf f3 9e c5 be b5 36 84 3b 96 ad 2b be
       -1.033005 -0.3859783 0.004034842 -0.16765437
0000b0 ea 26 d4 be 70 26 c0 bf e1 fc 98 be c6 f4 45 bf
       -0.4143594 -1.501173 -0.2988043 -0.7732662
0000c0 a9 79 6e bd d7 18 c4 3e c1 76 f9 bd d6 f4 ce be
       -0.058221493 0.383002 -0.12180854 -0.4042117
0000d0 39 f1 94 3f 6c 5e 8b be 50 fa 08 3e 1a ad 4c bf
       1.1636115 -0.27220476 0.13376737 -0.7995163
0000e0 eb 12 8d 3f f2 9f fc be 20 30 27 bf 19 82 40 3d
       1.1021398 -0.4934078 -0.6530781 0.04699907
0000f0 28 e1 1d c0 98 fb b9 be 1c 44 4f 3e d9 8f ae be
       -2.4668674 -0.36324763 0.20240825 -0.34094122
000100 d0 ab 7c bd bf a5 37 bf 9d 7a 58 3d c5 b8 4a be
       -0.06168729 -0.71737283 0.052851308 -0.19797046
000110 71 c4 7c be 30 eb 84 be 4a f7 af 3e 46 61 03 c0
       -0.24684311 -0.25960684 0.34368354 -2.052812
000120 72 6d c0 3e d4 c4 32 3d bd fa 56 3e 82 ab ce bf
       0.375835 0.04364474 0.20994087 -1.614609
000130 81 ff 0c c0 c8 3a 12 bf 54 21 a5 be 51 12 0a 3e
       -2.2030947 -0.57120943 -0.3225199 0.1348355
000140 28 7d cf 3f ab a2 5e bf 59 a7 8f be c6 9a 82 bf
       1.621007 -0.8696696 -0.28057364 -1.0203483
000150 5c 45 68 bf 67 e9 c7 3d ef 91 27 bf 61 59 b6 3e
       -0.90730834 0.09761315 -0.6545705 0.35615066
000160 24 a9 3f 3e 31 59 17 3e 90 ec 67 3f 44 3f 28 bf
       0.18716866 0.14780118 0.9059534 -0.65721536
000170 17 56 79 3f b3 52 6a bf e6 a6 b1 bf 11 19 74 bf
       0.9739699 -0.9153244 -1.3879058 -0.9535075
000180 1a 8c 37 3e 58 10 83 bf 22 12 8e bd 7a c1 95 3f
       0.17924538 -1.0239363 -0.06937052 1.1699669

layers.1.3.bias f4 [10]
000000 61 ab 90 bd af 68 2a be 53 1a d7 bd c4 72 43 3d
       -0.07063938 -0.16641496 -0.10503068 0.04771687
000010 d8 6f 98 bd a8 0e 0e bf ca a7 38 bd be 03 1a bf
       -0.074432075 -0.55491114 -0.04508189 -0.6016196
000020 a2 d9 91 3c 13 64 ae be
       0.01780397 -0.34060726

layers.1.4.weight f4 [10, 10]
000000 e5 2c 0f 3e 24 83 09 bd 64 87 e9 3d c9 73 11 3f
       0.1398197 -0.03357233 0.11402777 0.568173
000010 8c 03 5f 3f a0 e9 f1 3f e9 35 47 be 95 08 43 bf
       0.8711479 1.8899422 -0.19454159 -0.7618497
000020 7b 7d 7d bf dd e6 be bd e2 f8 22 3e 29 f7 9a 3f
       -0.99019593 -0.093213774 0.15915254 1.2106677
000030 6b a5 29 bf 3f bd c6 3e 2b 9b 81 bc fe 75 36 3f
       -0.6626803 0.38816258 -0.01582106 0.7127379
000040 d8 48 20 bf cf 70 27 3e 0b 1d 77 bf 7d 84 26 bd
       -0.6261115 0.16351627 -0.9652869 -0.040653694
000050 8d 73 11 bf 05 a9 5e bf 14 db 00 3d f2 87 ed be
       -0.5681694 -0.86976653 0.03145893 -0.4639278
000060 00 db 79 be d1 9f 87 3e c1 09 25 3f 28 c3 2b 3f
       -0.24399948 0.26489118 0.6446801 0.6709466
000070 9e b5 88 bf 4c f0 da be 2e 1b fb 3f 07 ad 94 3f
       -1.0680425 -0.42761457 1.961767 1.1615304
000080 7c 23 67 bc 9e 79 0a 3e ba 84 07 c0 d6 5c 37 be
       -0.014107581 0.13522956 -2.117476 -0.17906508
000090 90 70 8f be ea 33 7c bf f8 80 1e 3f 62 86 9d be
       -0.28015566 -0.98516715 0.6191554 -0.30766588
0000a0 72 8d a7 3d 6c 91 95 3e 0c 96 b1 3d 19 97 00 be
       0.081812754 0.2921251 0.08671197 -0.12557639
0000b0 ca 9c 55 3f f4 27 69 be f2 ef ab be b7 ff c9 3e
       0.83442366 -0.22769147 -0.335815 0.39452907
0000c0 06 77 9b bf 60 32 4d bd ab f2 60 bf de f1 86 bf
       -1.2145698 -0.05009687 -0.8787028 -1.0542562
0000d0 15 03 a1 3d 40 a4 e5 bf 3b a9 3e be 58 3a 76 bf
       0.07861916 -1.794075 -0.18619244 -0.96182775
0000e0 4a 9f 0d 3f 5e e6 7a 3e 87 bc 15 3f 91 50 22 3e
       0.5532118 0.2450194 0.58490795 0.15851046
0000f0 c3 c5 bd be 8c 21 d4 3e 75 7f 52 bf 44 8c 12 3f
       -0.37064943 0.41431844 -0.82225734 0.5724528
000100 a5 f0 32 bf a2 c9 ea bc 98 be 20 bf af 31 26 3f
       -0.69898444 -0.0286606 -0.62790823 0.6491956
000110 e0 6b af 3e a0 31 8c 3f 77 38 18 3f 3a c0 15 3f
       0.3426199 1.0952644 0.5946116 0.5849644
000120 6b e6 21 bf 4e 34 db 3e 16 d7 9b bf 6d 79 04 bf
       -0.63242215 0.42813343 -1.2175014 -0.5174778
000130 be cc 44 be e3 b1 76 3c e8 04 be 3e 66 80 1c 3f
       -0.19218728 0.01505706 0.37113118 0.6113342
000140 5a 4f be 3f 3b 6f 22 3e 2f 38 2c 3f 6e 88 9e 3e
       1.4867966 0.15862744 0.6727323 0.30963463
000150 2a a5 9e bf b2 bf d4 3e bd 1a 08 bf 81 e3 1c c0
       -1.2394154 0.41552502 -0.531658 -2.4513857
000160 03 ae e6 3e c0 6e c0 be cd 41 ce bf 09 de d0 3e
       0.45054635 -0.37584496 -1.6113831 0.407944
000170 9d cd ef be 41 39 22 bf 91 42 4b bb 76 be 6c bf
       -0.46836558 -0.6336861 -0.0031015018 -0.9247812
000180 e2 27 30 be b5 b8 b1 3f c2 0a 4a 3d 2d 0e 85 3f
       -0.17202714 1.3884493 0.049326666 1.0394951

layers.1.4.bias f4 [10]
000000 c3 99 c2 3c a0 05 aa be 79 0d 6b be d5 62 96 3f
       0.02375496 -0.33207417 -0.22954358 1.1748911
000010 aa 14 eb be c1 10 c4 3e e5 3e 8f bd b2 69 b5 3d
       -0.45914203 0.38294032 -0.06994418 0.088580504
000020 1e be 0b 3f 90 ab 10 bf
       0.5458697 -0.56511784

layers.2.0.weight f4 [10, 10]
000000 cd 0e aa be b7 28 af be 88 fa 98 be 1b da 81 3f
       -0.33214417 -0.3421075 -0.2987864 1.0144686
000010 de 61 45 bc 16 00 2c bf 9d d1 08 3e 74 2e 43 bd
       -0.012047259 -0.6718763 0.13361211 -0.047651723
000020 23 fc b9 bd 57 ff 78 be d7 08 cf bd e4 53 54 3d
       -0.090812944 -0.24316154 -0.10109108 0.051837817
000030 76 b4 b7 3f c7 62 f4 bd 49 a6 1b be c7 c4 6e be
       1.4351947 -0.11932903 -0.15200152 -0.23317252
000040 df 14 2e be 7f e0 8c bf d8 4c 99 3e f3 ad 3d 3d
       -0.17000149 -1.1006011 0.2994144 0.04630847
000050 6c 4b d8 bd a0 65 1d bf 15 22 aa be 64 ee 09 3f
       -0.105612606 -0.6148319 -0.33229128 0.5387938
000060 ef 21 29 3f 38 d9 20 bf a2 26 2c be 27 63 c6 3e
       0.66067404 -0.6283145 -0.16811612 0.38747522
000070 c6 b7 74 be f4 a0 bb 3e 88 53 ff 3e 80 1b 26 3e
       -0.23898229 0.36646235 0.49868417 0.16221428
000080 fc ec 3a bf 81 84 ae bd 7b 71 70 3e 3a fe 69 3f
       -0.7301786 -0.08521367 0.2348079 0.91403544
000090 84 21 66 3f ba 2b 54 be 4a 35 8e 3e c1 af 37 bf
       0.8989489 -0.20719805 0.2777503 -0.71752554
0000a0 b9 81 96 be 31 ec 46 3f ef 6d 0c bf 6f 8b d0 bd
       -0.29395846 0.7770415 -0.54855245 -0.10182845
0000b0 b7 c9 a5 3e bd 9c f2 be 98 bf 73 3f 83 11 33 3f
       0.3238046 -0.47385207 0.95214224 0.69948596
0000c0 09 20 0c bf e4 e1 40 be ea c8 4e be 57 48 83 3e
       -0.5473638 -0.1883617 -0.2019383 0.25641128
0000d0 68 9a 50 be b1 99 2d 3d 7e 3c 91 3e 5a 7b fc 3e
       -0.20371401 0.0423829 0.28366464 0.4931286
0000e0 a7 bd 76 3f 36 cf 4f 3e dd f0 38 bf 37 11 9c bd
       0.96383137 0.20293888 -0.7224253 -0.07620471
0000f0 fe 38 da be 63 9d 6b be e5 11 f8 3e 49 a4 30 3f
       -0.42621607 -0.23009257 0.48451152 0.6900068
000100 10 c2 3d be 40 19 12 be 16 5a 96 be ef ae 0b bf
       -0.1853106 -0.14267445 -0.29365605 -0.545638
000110 63 dd 5d 3f af fa f0 3d 19 2f fc 3e b5 cc b4 3d
       0.86665934 0.11766564 0.49254683 0.08828107
000120 85 79 f8 bc 17 ce 8e bf c3 8a 09 3f 15 e1 36 3f
       -0.030331383 -1.1156644 0.5372736 0.714372
000130 6a fe b8 3d 6f 77 7f be 44 1a 18 bf bb dd 25 be
       0.09032901 -0.24947904 -0.5941508 -0.16197865
000140 f6 c6 90 3f 68 f6 8b 3f c1 6b 06 bf c2 9f 15 bf
       1.1310718 1.0934572 -0.5250817 -0.58446896
000150 e0 ee 46 3f 97 13 ce bd 46 7e 51 3f 69 7e 68 be
       0.77708244 -0.1006233 0.818333 -0.22704472
000160 12 3e 96 bd 39 59 61 bf 19 e1 e5 3e da a1 fd bd
       -0.07336058 -0.8802677 0.44898298 -0.12384386
000170 89 6d 59 3f 78 1d 36 3f 59 ac 5b bf fd b8 b7 3e
       0.8493276 0.71138716 -0.85809857 0.35883322
000180 19 bc c7 be 37 4b 2f bf b9 5b 6e 3f 04 43 94 3e
       -0.39010695 -0.68474144 0.9310871 0.2895738

layers.2.0.bias f4 [10]
000000 04 d1 a8 be 9b 52 c1 3e 2e b1 08 be 33 a4 74 3e
       -0.32971966 0.37758335 -0.13348839 0.23890762
000010 22 62 85 3e 47 ff 62 bd 3f 60 cc be b4 c7 34 3e
       0.26051432 -0.055419233 -0.3991718 0.17654306
000020 42 b8 25 3e d6 81 19 3e
       0.1618357 0.14990935

layers.2.1.weight f4 [10, 10]
000000 96 5c 09 bf a3 cf 0b 3f 06 a2 66 3f c3 14 4a bf
       -0.536569 0.54613703 0.9009098 -0.7893793
000010 70 b7 63 3e 69 5d 8c bf fd 97 e3 be d2 0d 32 3f
       0.22237945 -1.0966007 -0.44451895 0.6955234
000020 a4 8b cf bd ce 2e 29 3e 70 11 15 3f 0c 74 8e be
       -0.10134056 0.16521761 0.5822973 -0.27822912
000030 52 7f a8 bd 92 17 d5 be 35 66 91 3d d9 cc f3 be
       -0.082274094 -0.41619545 0.070995726 -0.47617224
000040 6c d1 2a 3e 03 85 c0 be aa f3 83 be 17 21 a3 be
       0.1668145 -0.3760148 -0.25771838 -0.31861183
000050 7a 9f 12 3f dd e7 f3 be 00 19 33 bf 13 66 fb 3e
       0.5727459 -0.47637835 -0.6996002 0.49101314
000060 7b a3 25 3f 11 11 5c 3f 54 0b f5 3e e6 66 f1 be
       0.64702576 0.8596354 0.47860205 -0.47148818
000070 71 27 e5 bd 15 20 df be e1 61 09 3f 65 15 7d be
       -0.111891635 -0.43579164 0.53664976 -0.24715193
000080 92 14 a9 bb ed e2 d6 be 5b e9 c9 3e 60 70 da be
       -0.005159923 -0.41970006 0.3943585 -0.4266386
000090 28 ca 69 be b4 29 5f be 2a 72 58 3e 66 0f cc be
       -0.22831023 -0.21793252 0.211373 -0.39855498
0000a0 ed 82 d0 3e d7 36 39 be 58 ff 17 3e 86 e1 51 be
       0.40724888 -0.18087326 0.148435 -0.20496187
0000b0 8a 38 05 bd 34 c6 6a bf 08 cd a9 be df b6 7b be
       -0.032524623 -0.91708684 -0.3316424 -0.24581479
0000c0 71 65 b5 3c 74 b7 fc be 13 f8 1c be f6 73 85 bf
       0.022143098 -0.49358714 -0.15329008 -1.0426013
0000d0 74 43 96 bf 63 a6 81 3f bf ab 88 3f 15 3f ca 3f
       -1.1739335 1.0128902 1.0677413 1.5800501
0000e0 de b4 17 3f 1e da ea be 43 77 a4 3e 4f 86 32 bf
       0.59260356 -0.45869535 0.3212224 -0.6973619
0000f0 38 58 cb 3d 11 02 60 3e 93 83 9a 3e 59 fb ab bd
       0.09928936 0.21875788 0.30178508 -0.0839755
000100 ab ec 05 be 36 21 a3 3d 0b d0 2b bf 67 4e 0e 3f
       -0.13078563 0.07965319 -0.67114323 0.5558838
000110 8f df 9e be ec 7a 0e be f1 fa 01 bf 99 98 ff bd
       -0.31029937 -0.13914078 -0.5077353 -0.124802776
000120 e2 7a 67 bd 74 07 09 3f 8e 61 44 3f 9e f8 46 3e
       -0.056513675 0.53527 0.76711357 0.19430777
000130 35 a5 bb 3d b2 d2 56 3e 3b c0 01 be a4 97 95 3e
       0.0916237 0.20978811 -0.12670986 0.29217255
000140 0c 66 99 be 45 8e f6 bd ac 7c 58 be 9b 52 74 3e
       -0.29960668 -0.120388545 -0.21141309 0.23859636
000150 09 58 8e bd 9e 4b 9d 3e 2c d5 6b 3e 58 c7 b3 3e
       -0.06950385 0.30721754 0.23030537 0.35113025
000160 a1 d1 53 bf 36 7b 43 3b 66 8d 22 3f 4c 41 d2 be
       -0.82741743 0.0029828078 0.63497007 -0.41065443
000170 94 86 77 3e 92 8a 38 bf e1 f2 c5 3e 01 f0 57 bf
       0.24172431 -0.7208644 0.38661864 -0.8435059
000180 d1 c3 39 be 42 9e 89 3e 14 12 6e bd 6a 03 32 bd
       -0.18141104 0.26878554 -0.05812271 -0.043460287

layers.2.1.bias f4 [10]
000000 64 19 81 3e 98 d5 c6 3d 3f 4e 38 bc 55 e8 1a 3d
       0.25214684 0.097087085 -0.011249124 0.037819225
000010 7d 35 e9 3d 7f eb 1c bf 2e 5f 04 39 59 52 9c bd
       0.11387155 -0.6129684 0.00012623958 -0.07632894
000020 74 11 f1 bc fd 67 49 3e
       -0.029427268 0.19668575

layers.2.2.weight f4 [10, 10]
000000 f2 98 fa 3e 12 b3 a5 bf 6d e9 76 3e 40 e7 4c 3c
       0.48944813 -1.2945273 0.24112482 0.012506306
000010 21 a7 15 3e 1c 6f d5 3e 02 59 2a bf e3 3d 96 3f
       0.14614536 0.41686332 -0.66542065 1.1737636
000020 93 4f 6f be 52 f8 31 be a1 5f fb 3e e6 b1 1a 3f
       -0.23370199 -0.17379883 0.49096397 0.604277
000030 d9 09 8f 3e 58 2b 54 3e 6a 61 96 bc 24 ed 99 bf
       0.279372 0.2071966 -0.018356998 -1.2025495
000040 0c c8 b5 3f 4e ac 39 be af 38 1c 3f 12 4a 92 3f
       1.4201674 -0.18132135 0.6102399 1.1428854
000050 33 b1 a4 3f d1 be d9 3e af f6 55 be 74 8c 8c 3f
       1.2866577 0.42528394 -0.20894884 1.0980363
000060 da d9 24 bf 97 65 50 bf 61 51 cd 3e 32 d1 2c bf
       -0.64394915 -0.81405014 0.4010115 -0.67506707
000070 29 5c 94 3f 0f 4e e5 3e 76 2b 12 3f 36 df fa be
       1.1590625 0.44786116 0.57097566 -0.4899842
000080 29 61 75 bf 86 04 1b bf f6 2c de bf 75 d1 f3 bf
       -0.9585138 -0.6055378 -1.7357471 -1.9048296
000090 d9 73 1a 3f d5 e7 77 bf 69 40 9d 3f de 13 60 bc
       0.6033302 -0.9683812 1.2285281 -0.013676612
0000a0 6e 1d 4b 3f fb 46 a5 3f 8e 67 32 3f 7d ef a6 be
       0.7934178 1.2912287 0.6968926 -0.3260459
0000b0 51 0f 79 be df ec e8 be e5 7e e5 3e 5b 51 30 be
       -0.24322249 -0.45493218 0.44823375 -0.17218535
0000c0 a4 3f 7e 3e 91 e8 42 3f ac ec c9 bf c3 99 ee bf
       0.24828964 0.7613612 -1.5775352 -1.8640674
0000d0 db 00 00 3f 94 77 5f 3f c0 e0 87 3f 2d 8c 4f 3f
       0.50001305 0.87291837 1.0615463 0.81073266
0000e0 51 26 02 3f 8b 2a 8c 3f c6 8b 77 bd 2f 42 0a be
       0.50839716 1.0950483 -0.060436033 -0.1350181
0000f0 74 5d a2 3f d7 98 9e 3f f8 4d 34 bf 56 8f 62 3e
       1.268477 1.2390393 -0.7043147 0.22124991
000100 85 a9 b6 bd 37 7c 84 3e c4 72 ce 3e 07 a6 8b bf
       -0.08919052 0.25876018 0.40321934 -1.0910043
000110 c6 46 16 3f 66 93 2b 3f 6e 4d 46 bf 2d 1f 8f be
       0.5870174 0.6702179 -0.774619 -0.27953473
000120 9c 96 52 3f dd 66 57 3f 5a 12 70 3f 90 7d a2 3f
       0.8226106 0.8414133 0.93778 1.2694569
000130 e7 41 2e bf 0f 0b ad 3d d9 d2 83 bf 81 f0 8f bf
       -0.6806931 0.08449375 -1.0298721 -1.1245271
000140 0f 3b 1b c0 92 8c f2 bf 70 be 1b c0 0e 1b 1d c0
       -2.4254797 -1.8949149 -2.4334984 -2.4547763
000150 47 95 18 be 04 47 9a 3f b2 d1 91 bf 34 e4 06 40
       -0.14900695 1.2052922 -1.1392119 2.1076784
000160 b3 4e 00 bf 5a 19 21 c0 c6 40 8d bf d7 84 64 bf
       -0.50120085 -2.5171723 -1.1035392 -0.892652
000170 71 d7 ca 3f 6a 03 fb 3e 37 82 79 3f 01 db 95 3f
       1.5846997 0.49026042 0.9746432 1.170746
000180 5d 68 8e 3e 34 e4 fd 3e e8 cb fd be a7 cc 55 be
       0.27813998 0.49588168 -0.4956963 -0.2087885

layers.2.2.bias f4 [10]
000000 a5 9a 65 bf 02 f1 33 bc 86 b7 60 be c8 ce 2f 3f
       -0.89689094 -0.010982754 -0.21945009 0.686749
000010 c9 12 4d 3c eb 30 84 bf eb 83 8b be fe 69 52 bf
       0.012516686 -1.0327429 -0.27249083 -0.8219298
000020 81 41 e0 3f fa 98 87 bf
       1.751999 -1.059356

layers.2.3.weight f4 [10, 10]
000000 64 0d e2 bd 64 7f f3 3f 14 8c 96 3e 48 ff dd be
       -0.1103771 1.9023252 0.29403746 -0.43358827
000010 ed 36 66 3f 86 32 df be 9d 76 d1 3e a3 28 2a bf
       0.8992756 -0.43593234 0.40910807 -0.66468257
000020 cd df cc bf 68 98 47 3d 0c 8a d6 bb d9 45 28 3f
       -1.6005799 0.04872933 -0.006547218 0.6573158
000030 a3 7b 1d bf 3f e6 5a 3f 33 08 b8 3f ff 19 06 bf
       -0.6151678 0.8550758 1.4377502 -0.52383417
000040 a6 38 4f 3d 89 ac e3 be 53 e3 de bf 89 20 2b bd
       0.050591134 -0.4446757 -1.7413124 -0.041779075
000050 37 99 06 3f 17 53 d6 3e 27 56 6b 3e 0b 00 80 bf
       0.5257754 0.41860268 0.22982083 -1.0000013
000060 7e ef bc be 87 67 c3 3e c2 df 2a 3e 3c 5c 8e 3e
       -0.36901468 0.38164923 0.1668692 0.27804744
000070 b3 21 65 bf a6 38 65 3d 53 c5 ce bf 89 d1 f2 3e
       -0.89504546 0.055962227 -1.6153969 0.47425488
000080 ca 54 bb bf 8b 1a 6c 3f 31 cc ad bf 7b 69 c4 bf
       -1.463525 0.92228 -1.3577939 -1.534469
000090 1f 29 75 3e de 4f c5 bf f1 ca 3b be 1a e4 eb 3e
       0.23941468 -1.5414999 -0.18339135 0.46072465
0000a0 73 a3 b1 3f 42 ec 48 bf 06 e0 02 3f 3b ca 12 3c
       1.3878006 -0.784855 0.5112308 0.008959348
0000b0 07 4a 82 3f 47 e8 77 bd da 8d 26 be a3 68 6c 3f
       1.0178841 -0.06052425 -0.1626505 0.9234716
0000c0 a0 74 b8 be 7d da 18 3f 1b 1f 45 3f 82 a0 31 bf
       -0.36026478 0.59708387 0.7700059 -0.6938554
0000d0 16 46 f0 be 9c b1 68 bf 41 72 07 3e c7 6a 49 3f
       -0.4692847 -0.9089601 0.13227178 0.78678554
0000e0 12 f6 ae bd 95 ba 3f be 41 0a 77 bf 26 99 26 be
       -0.08543028 -0.18723519 -0.9650002 -0.16269359
0000f0 da 52 b0 3e 10 ca 0e bf 7b fc 4b 3e 92 60 c6 bc
       0.3443821 -0.5577707 0.19920532 -0.02421597
000100 07 12 31 be 66 66 96 bf 4f 6f 1b 3f cf e2 bf 3d
       -0.17292033 -1.175 0.6071672 0.09369432
000110 71 04 00 bf 59 69 58 bf 12 52 d8 be ef 19 b7 3e
       -0.5000678 -0.8453575 -0.42250115 0.35761973
000120 66 27 ca bf 20 97 89 3f 40 27 27 3f 16 1c 11 bf
       -1.5793273 1.0749245 0.65294266 -0.5668348
000130 87 24 d6 3f 56 12 7f 3e 37 2e fe 3f 64 77 8e bf
       1.6729897 0.24909338 1.9857854 -1.1130185
000140 09 43 a9 bb 08 c4 80 be d5 5f 80 3e 67 54 23 bd
       -0.005165462 -0.2514956 0.25073114 -0.039875414
000150 65 da 21 bf 02 61 9f be 87 ae eb be 9f eb f3 be
       -0.6322387 -0.311287 -0.4603159 -0.47640702
000160 cf a7 0b be f7 ba a3 bd 3b 30 a9 3e a7 0b c5 bd
       -0.13638233 -0.07994645 0.3304461 -0.09621363
000170 24 fb 49 3e b6 22 45 3f 88 7a a1 3d 24 d5 2f bf
       0.19724709 0.7700609 0.07884699 -0.686846
000180 fc 78 c4 3f ee fe dc bd 1c 21 3b 3f 5d cc a1 be
       1.5349422 -0.107908115 0.73097396 -0.3160123

layers.2.3.bias f4 [10]
000000 c3 6e 8c bd 2e 53 08 3f 80 0b 9a bd 8a 5d cd be
       -0.068570636 0.5325192 -0.07521725 -0.40110427
000010 c4 c9 10 bf 00 86 81 3e ab aa 42 3d 0f 16 38 bf
       -0.5655787 0.25297546 0.047526043 -0.7190866
000020 46 10 d0 3e a5 39 0c 3f
       0.40637416 0.5477546

layers.2.4.weight f4 [10, 10]
000000 48 43 53 bf db d5 22 bf 5e 74 5c 3f 1c 4d 92 bf
       -0.8252454 -0.6360757 0.8611506 -1.1429782
000010 5e 1a f0 3e 41 32 bd bf da 08 a2 bf cd 1b cd 3d
       0.46895117 -1.4780961 -1.2658951 0.10015068
000020 0c 59 65 3e ed e2 08 3f 7f d1 96 bf 91 f3 85 bf
       0.2239725 0.5347126 -1.1782683 -1.0464956
000030 84 eb 20 3e f4 2f bb 3e 14 f4 3f 3f ca e1 1e be
       0.15714842 0.36560023 0.7498181 -0.15515819
000040 f4 ec 87 3d 41 51 80 3e 43 5a 3e bf 13 01 73 3f
       0.06636992 0.25061992 -0.7435648 0.94923514
000050 78 3e 05 3f f5 14 83 bf 2b ce ad 3e da 69 9b be
       0.52048445 -1.024077 0.33946356 -0.30354196
000060 99 0c 07 be ef ff ca 3e f4 c3 0b bf 56 84 29 bd
       -0.131884 0.39648387 -0.54595876 -0.04138597
000070 f3 44 92 bf ed 1e 14 bf db ae 8b bf 85 1f 48 3f
       -1.1427292 -0.5785969 -1.0912737 0.78173095
000080 9e bc 44 3e bb a0 38 3f ab 13 99 3f be da ba be
       0.19212577 0.72120255 1.1959127 -0.36495012
000090 2e d0 fb 3e 9d cf 62 3f 7e 42 0f 3e b5 30 8e 3e
       0.49182266 0.8859804 0.13990209 0.27771536
0000a0 dd d3 a6 bf 86 2f 46 3f ba 57 da bd 7c a8 28 3e
       -1.3033406 0.77416265 -0.10661264 0.16470522
0000b0 69 69 30 bf 2e 1a d5 3e dc dc 86 bc c0 24 6c 3f
       -0.68910843 0.41621536 -0.016462736 0.92243576
0000c0 46 f0 8e bf 16 b3 69 3e ed d2 ec 3d d4 c7 00 bf
       -1.1167076 0.22822222 0.115636684 -0.50304914
0000d0 fd fb b2 bf 80 b3 90 bd 20 0a 9d bf 97 c3 c0 3f
       -1.3983151 -0.07065487 -1.2268715 1.5059689
0000e0 84 31 5a 3f 64 81 47 3e b6 24 fc be 54 43 b1 3d
       0.85231805 0.19482952 -0.49246758 0.0865542
0000f0 31 e2 fb 3e ea be d3 3e 1b ab 87 3e 0d 7f 61 be
       0.49196008 0.41356593 0.2649773 -0.22021122
000100 3f b9 91 3f 4a 9a 86 be df 81 fc be 91 4c 1b bf
       1.1384658 -0.26289588 -0.49317834 -0.60663706
000110 9b a2 14 bf 46 b5 01 3f 42 90 00 3f c9 fb 9d 3f
       -0.58060616 0.50667226 0.5022012 1.2342464
000120 76 0f 93 bf 83 b7 82 3f 2c fe 6b bf f0 cb 7c 3e
       -1.1489093 1.0212253 -0.9218471 0.24687171
000130 e3 21 ba 3e 20 32 bf be 83 a1 e0 bf 65 ed 3f bf
       0.3635398 -0.3734293 -1.754929 -0.7497161
000140 9c a9 61 bf 47 38 89 be 8a de ce 3e de e9 ab 3e
       -0.8814943 -0.2680075 0.4040416 0.33576864
000150 9d d0 df 3e 59 c0 18 3f 6d 14 4b 3f 1c d6 af bf
       0.43713847 0.596685 0.7932804 -1.3737216
000160 bf 1a 99 3f 28 9b 96 bf 06 81 b9 3e ba 5c 27 3f
       1.1961287 -1.17661 0.3623125 0.65375865
000170 df 93 73 bf ae 93 70 3f ea 07 c4 3e ab 5b b7 be
       -0.9514751 0.9397534 0.38287288 -0.35812125
000180 f1 71 19 3f 87 7a 22 be 56 4d 68 3e a6 c4 34 bf
       0.59939486 -0.15867053 0.22685751 -0.7061256

layers.2.4.bias f4 [10]
000000 8b 7e b6 be 5d ea 28 bc bd 4b 5a bd 4d 06 80 bf
       -0.3564342 -0.010309783 -0.053294886 -1.0001923
000010 bc ce 0f bf 7a c4 03 3f 09 56 94 be 36 00 b1 3c
       -0.56174827 0.51471674 -0.2897189 0.021606546
000020 a9 44 b0 3d de 1f 24 3e
       0.08606846 0.16027781

layers.3.0.weight f4 [10, 10]
000000 04 5c 87 3e 44 e2 93 3f ab 17 c0 be c9 f6 1a bf
       0.2643739 1.1553426 -0.37518057 -0.60532814
000010 c1 40 21 3e e1 45 9a be 01 9e 2e bf 88 c0 dc bc
       0.15747358 -0.30131438 -0.68209845 -0.026947275
000020 0c 45 6b bf 42 0e a8 bd 0c a1 ea be d5 67 80 3c
       -0.9190223 -0.082058445 -0.45825994 0.015674511
000030 7d 8a 47 bf 6a d7 c1 be 0e da ab 3e 2b 2e 4f 3f
       -0.7794569 -0.3785966 0.335648 0.8092982
000040 41 39 29 bf 9f 2c 15 be df e0 2e bf d9 c3 83 be
       -0.6610299 -0.14567803 -0.68311876 -0.25735357
000050 85 ca 23 bf 4e 7d 78 3d 6b 88 30 bd 68 26 b8 bd
       -0.63980895 0.060666375 -0.04309885 -0.089917004
000060 57 5a e9 3e 5b 1e 55 3f 70 35 42 be 99 04 a6 be
       0.45576736 0.83249444 -0.18965697 -0.32425383
000070 1b c0 9b 3b 04 f7 ea be 3c 73 b2 3e d0 d5 c3 bd
       0.0047531254 -0.45891583 0.34853542 -0.09562266
000080 8d 37 26 3f d2 26 58 3e 9f 92 c6 be 2f 63 32 bf
       0.64928514 0.21108559 -0.38783738 -0.6968259
000090 d7 db 4b 3f 03 21 e8 3e 13 ad 64 3e 1e 32 b2 bd
       0.79632324 0.45337686 0.22331648 -0.08700965
0000a0 ed 46 37 bf 42 4f 55 bf 3f f0 7d bf 02 2d 35 bf
       -0.715926 -0.8332406 -0.9919471 -0.707718
0000b0 67 f4 ce 3e 03 f6 09 3f 93 37 d8 be d5 73 90 3d
       0.4042084 0.5389101 -0.422299 0.07053343
0000c0 18 18 e7 be ff ec 09 bf 70 9d 25 bf 3e 37 98 3e
       -0.4513557 -0.5387725 -0.64693356 0.29729646
0000d0 9e 51 94 be 08 3e 24 3f 49 d3 27 bf f7 6c 91 3e
       -0.2896852 0.6415715 -0.6555677 0.28403446
0000e0 1a 4d 47 be 23 94 a5 3f 76 81 fa 3e c8 3a 36 3e
       -0.19463006 1.2935833 0.48926896 0.17795861
0000f0 75 b9 61 3f 03 da c1 be 0d 90 4b 3f 10 d2 ed 3e
       0.8817361 -0.37861642 0.7951668 0.46449327
000100 f5 29 38 bf 3e 80 a1 be df e7 40 3f c8 6a 4d 3f
       -0.7193902 -0.31543154 0.7535381 0.8024106
000110 60 30 2a 3e 9a 0e 28 3f 0f 65 75 be 1d 87 2e 3f
       0.16620016 0.6564728 -0.23964332 0.68174917
000120 00 dd bf 3c 45 97 5b bf e7 d4 77 3f 3e 32 22 3d
       0.02342081 -0.85777694 0.9680924 0.039598696
000130 b7 8e 58 3e 9f 4a eb bc ec dc 11 bf 33 b0 7b be
       0.21148191 -0.028722106 -0.56977725 -0.24578933
000140 65 6e 85 be 12 b8 49 be d5 d5 04 bf 38 51 0b 3f
       -0.26060787 -0.19699124 -0.5188878 0.54420805
000150 49 89 99 3e 41 10 23 3f 83 31 82 be 53 72 53 3f
       0.29987553 0.63696676 -0.254284 0.8259632
000160 8e 05 0f 3f f2 f7 9a bd 61 83 9a be 70 0a f3 3e
       0.5586785 -0.07566823 -0.3017836 0.474689
000170 a0 42 d1 bd 77 a3 42 bf fe a6 5d 3f 34 c4 d1 be
       -0.10217786 -0.7603068 0.86582935 -0.40970004
000180 73 bd f6 be 08 1a 34 bf 8a 2c 85 be 2e 63 f3 be
       -0.48191413 -0.7035222 -0.26010543 -0.47536606

layers.3.0.bias f4 [10]
000000 cb 5a 82 3e 02 f9 d6 3e 64 6f f8 3e 03 58 e1 be
       0.25459895 0.41986853 0.48522484 -0.4401246
000010 8e 02 be 3e 22 44 82 3e 12 bb 96 be bc a0 81 3e
       0.37111324 0.25442606 -0.29439598 0.25317943
000020 18 70 ac 3d e3 f6 af 3e
       0.08419818 0.34368047

layers.3.1.weight f4 [10, 10]
000000 f5 0a d3 bd 87 4e 9b be 0d f5 93 3e f1 05 35 bf
       -0.10304824 -0.3033335 0.28897896 -0.7071219
000010 55 9b 29 bb 03 f5 88 3e 83 c1 ec 3e c6 69 db 3e
       -0.0025879939 0.2674943 0.46241388 0.42854136
000020 a1 a9 ef 3d c0 64 3f bf 3b 2e 72 be f7 b8 3d 3e
       0.11702276 -0.7476311 -0.23650448 0.1852759
000030 d8 6e fe 3e 22 ae 96 3e 14 39 b9 3d 04 4e 57 bd
       0.49693942 0.29429728 0.0904409 -0.052564636
000040 f7 0a 04 bf 38 70 19 3f f8 2a 68 be dd f1 5d be
       -0.5157923 0.5993686 -0.22672641 -0.21674295
000050 cf 2b f8 3d 98 0d dd 3e b2 f9 06 bf b6 e1 5e 3f
       0.12117731 0.43174434 -0.52724755 0.8706316
000060 0c 2b db 3e ba 13 fd bc 57 bf a0 3e f3 e1 44 bf
       0.4280628 -0.030893195 0.3139598 -0.7690727
000070 56 56 94 be 19 36 a2 3e ac a5 14 bf 4b 3c db 3e
       -0.2897212 0.31681898 -0.58065295 0.42819437
000080 89 95 50 3f 61 ab b7 3c af fb 58 3e 50 a9 a7 3e
       0.8147817 0.022420587 0.2118976 0.32746363
000090 49 d0 8e be 5b bb 44 3d 00 d5 4d be cb c5 0a 3e
       -0.27893284 0.04803024 -0.20100784 0.13552015
0000a0 0f f5 3c 3d db f8 62 bc 9b 07 8e 3e 9b b1 a3 3e
       0.046132144 -0.013853277 0.27740178 0.3197144
0000b0 6d 95 30 be 78 24 03 bf f5 30 88 be 22 cd 9e 3d
       -0.17244501 -0.5122752 -0.2659985 0.0775397
0000c0 13 de 11 bf c8 20 21 3f 45 73 3b bf a9 97 ac be
       -0.56979483 0.62940645 -0.7322276 -0.33709458
0000d0 6c b1 e5 be 55 b1 30 3e 04 b2 a6 3d a2 4e 5f bd
       -0.44861925 0.17255147 0.081394225 -0.05451835
0000e0 03 17 05 3e 29 4e ce be c8 b8 df 3e 6e 25 2c bf
       0.1299706 -0.40294006 0.43695664 -0.67244613
0000f0 3f a4 85 3e 6c 31 b6 be c5 ce 63 bf a1 09 2e 3e
       0.26101872 -0.3558458 -0.8898738 0.1699586
000100 88 f9 20 be 44 1a 82 bd 68 89 a4 3e fc 89 29 3e
       -0.15720189 -0.06352666 0.32136083 0.16556543
000110 13 21 52 be 1c 17 92 be 77 76 0f bf 3d 31 3d bd
       -0.2052043 -0.28533256 -0.5604014 -0.046189535
000120 f8 b6 08 3f 1e 86 4a bf 38 65 1d bf 42 8d a9 bb
       0.5340419 -0.79110897 -0.6148257 -0.00517431
000130 6c f9 09 3f ee 00 ba 3e bc 67 0c 3f 86 c7 ce bc
       0.5389621 0.36328834 0.54845786 -0.025241625
000140 9c 90 16 3f 96 5c 10 bc d3 04 4b bf 3d da ba be
       0.58814406 -0.008811137 -0.79304236 -0.36494628
000150 e3 c2 02 be 52 d9 6b bf bd 7c 31 3f 2d 02 88 bd
       -0.12769656 -0.9212848 0.6933096 -0.0664104
000160 c0 19 00 3f 91 47 23 3f 3e 8f c2 be ae c0 bb be
       0.5003929 0.63781077 -0.3799991 -0.3667044
000170 c4 58 d6 3e 67 a2 ea 3e 0a e1 b9 3d 20 7c 9d 3e
       0.41864598 0.45827028 0.09076126 0.30758762
000180 64 f9 80 bf ed 61 20 bf 45 23 f6 3c 79 18 a2 be
       -1.0076108 -0.6264942 0.030046115 -0.31659296

layers.3.1.bias f4 [10]
000000 35 a7 b6 bd 67 16 e5 3d 0a ee dd 3d c4 e4 d6 3c
       -0.08918611 0.111859135 0.10836418 0.02623213
000010 94 40 19 3e f9 66 f7 bd 8c 98 e2 bd 8d 78 e1 bd
       0.14966041 -0.12080187 -0.11064252 -0.11009321
000020 63 b0 65 3d 0f dd 03 3d
       0.05607642 0.03219324

layers.3.2.weight f4 [10, 10]
000000 08 79 80 bf 4f bf 19 3e c9 ad 2e 3f 54 c5 59 3f
       -1.0036936 0.15014385 0.68233925 0.85066724
000010 84 4c c1 3f e1 8f 7a bf 09 b0 4d 3f 56 8b 85 bf
       1.5101476 -0.9787579 0.80346733 -1.0433147
000020 ed 19 3e bf 85 0c 81 be bd b2 6c bf a6 c7 cd bf
       -0.7425831 -0.25204864 -0.9246023 -1.6076553
000030 89 dc 5e 3c 44 94 40 3f 04 83 13 40 44 58 3d bf
       0.013602384 0.75226235 2.3048716 -0.7396281
000040 37 fa 90 be 0e bf 85 bf 3d 2b 28 c0 7f b1 b4 be
       -0.283159 -1.044893 -2.627639 -0.3529167
000050 fb e2 21 3f 71 35 26 bf a4 09 22 bf b2 15 14 bf
       0.6323697 -0.64925295 -0.6329596 -0.57845604
000060 fc be e5 bf 8c 9e ce 3f 0c 2a 0e bf 53 8f 7e 3f
       -1.7948909 1.6142135 -0.5553291 0.99437445
000070 b6 b7 95 3e e5 32 aa 3f 2a 5a 1b bf 1b ce 56 3f
       0.29241723 1.3296782 -0.60684454 0.8390824
000080 0e dc 5d 3f 82 a8 60 3f e0 8d 8a 3f 53 c4 6d 3d
       0.866639 0.8775712 1.0824547 0.058048557
000090 42 35 62 3f b1 9f 91 bf e6 48 4d bf 38 f3 88 bf
       0.88362515 -1.1376859 -0.8018936 -1.0699224
0000a0 ae 14 40 3f bf d0 dc be 72 4c 27 bf fd 72 14 bf
       0.75031555 -0.4312801 -0.6535102 -0.5798796
0000b0 fb 8c a6 bf 8a 53 61 3f 9a e0 f5 bd d4 4a 27 3f
       -1.3011774 0.88018095 -0.1200573 0.65348554
0000c0 73 b1 36 3f 52 32 b4 3f 8b b1 a2 bf b4 be d0 be
       0.71364516 1.4077857 -1.2710432 -0.40770495
0000d0 f5 75 87 3f c2 60 b8 3f 46 8b 31 40 71 32 ff be
       1.0582873 1.4404528 2.7741256 -0.4984317
0000e0 8e 76 57 3f e4 2a ed be fb 5f f9 bf bd 6e 41 bf
       0.84165275 -0.46321785 -1.9482416 -0.755596
0000f0 c1 d1 e1 bf 81 f5 b5 3d 01 50 f3 3e 04 33 b6 3f
       -1.7642137 0.08884717 0.47521976 1.4234319
000100 20 68 84 40 b8 9f 3c c0 dd 8b af 3e af fe 11 bf
       4.1377106 -2.9472485 0.34286395 -0.5702924
000110 67 7f 16 bf ae 39 97 bf 34 39 82 bf 00 f0 a1 3e
       -0.5878815 -1.1814477 -1.0173707 0.31628418
000120 c2 6e 21 3e 5b 42 4b 3f 9b d8 16 40 08 35 d4 bf
       0.15764907 0.79398125 2.3569705 -1.6578684
000130 7b 71 ce 3e a9 09 53 bf 85 2a ca be 0c 57 f3 bf
       0.40320954 -0.82436615 -0.39485565 -1.901094
000140 b9 c0 f4 3e 24 b9 a6 bf f4 63 30 bf 15 95 1b bf
       0.47803286 -1.302525 -0.68902516 -0.60774356
000150 85 6f 2e bf 9d 71 ac 3e d4 a0 6b bf f5 78 a9 3f
       -0.68138915 0.3368043 -0.9204228 1.3240038
000160 62 4e 1e 3f ae 1d 59 3f 48 6d a2 be b6 58 ef bb
       0.6183835 0.8481091 -0.31724 -0.0073042763
000170 99 b2 9e 3f 6c dd 78 3f 48 79 64 3f b4 97 2c bf
       1.2398254 0.9721286 0.8924756 -0.6741898
000180 83 ae 80 3f 64 52 81 bf 31 9d 3a bf 79 a1 43 bf
       1.0053257 -1.0103269 -0.72896105 -0.7641826

layers.3.2.bias f4 [10]
000000 27 58 2a 3e 32 86 da 3d b9 4e 9d be 47 e2 1f 3f
       0.1663519 0.10670127 -0.30724123 0.62454647
000010 c2 45 09 be 99 6f 29 3f 3d b7 f6 3e 18 ee a3 bd
       -0.13405517 0.6618591 0.48186675 -0.08004397
000020 d2 f4 bc be 23 75 45 3e
       -0.36905533 0.19282965

layers.3.3.weight f4 [10, 10]
000000 05 69 42 be 1c e9 19 3f d8 cb 4b bf cc 90 19 3f
       -0.18985374 0.6012132 -0.79607916 0.5998657
000010 c5 5b a0 bf 11 99 19 bf 09 59 fa 3d 57 76 bf be
       -1.2528006 -0.59999186 0.12224013 -0.37394974
000020 c5 c8 f9 3f 80 81 2a 3f 86 f8 d9 bf 8e e5 ad bf
       1.9514395 0.6660385 -1.7028968 -1.358568
000030 8d aa 04 3d 58 76 17 bf dd 9d 5e 3f 4f 5c 70 3c
       0.032389212 -0.59164953 0.8695963 0.014670446
000040 a5 a7 1d 3c 3f 43 57 3e 8f 56 d9 3e 6b d9 53 3f
       0.009622489 0.21021746 0.4244885 0.8275363
000050 ca 5a b2 3d 04 93 4b 3e a7 4a 84 bf cf eb d2 3e
       0.08708723 0.19880301 -1.0335282 0.41195533
000060 2c 7e 23 bf 0e d1 32 c0 af a8 bd 3f 90 e5 14 3f
       -0.638644 -2.7940097 1.4817103 0.58162785
000070 79 83 c8 be 46 6e 8e bf 54 66 8e 3f 21 29 05 40
       -0.39162806 -1.1127403 1.1124978 2.0806353
000080 b5 8e c0 be 96 0a ac bd 9b 95 aa bb fe 14 6f be
       -0.37608877 -0.084004566 -0.0052058226 -0.23347852
000090 8f 29 ae be 37 25 06 bf 5b 69 16 bf 7e fa bf be
       -0.34016082 -0.52400535 -0.5875451 -0.37495798
0000a0 5e 3d 1c 40 6b 44 9d 3e 30 21 20 3f 95 54 b2 3d
       2.4412456 0.3071626 0.6255064 0.08707539
0000b0 d2 7f a4 3e 27 23 6f 3f 64 0a 1b bf fd 7d 51 3f
       0.3212877 0.93413013 -0.6056273 0.8183287
0000c0 1b 9f fa bf 90 ca ef bf ba 2e b2 3f 9a fd b8 3f
       -1.9579805 -1.8733692 1.392051 1.4452393
0000d0 62 1f 54 bd ce ed 69 3f c4 ff d6 be 81 32 5e bd
       -0.05178774 0.91378486 -0.4199201 -0.054247383
0000e0 0c a0 a4 bf ec 69 53 3f 03 93 99 3e 3f c9 f4 be
       -1.2861342 0.825835 0.29994974 -0.4780979
0000f0 7a 9e 88 3e 26 c3 ad bc 2d e6 19 3f 57 d3 cd be
       0.26683408 -0.021211218 0.60116845 -0.40200302
000100 20 e4 a4 3f 7b d1 db 3f db c8 01 bf 30 72 92 bf
       1.2882118 1.7173303 -0.50697106 -1.1441097
000110 2e 2e cd be 70 a4 31 3f 1a 9e ad 3f f9 53 c4 3f
       -0.40074295 0.69391537 1.3563874 1.5338126
000120 8a b5 7c bf 1e 59 2f bf 23 c5 1d be 8b fe 25 bf
       -0.98714507 -0.6849536 -0.15407233 -0.64841527
000130 9e db cd be b5 f1 6d bf fd 6f 7b be c3 fb 7e be
       -0.40206617 -0.9294694 -0.24554439 -0.24900727
000140 e3 76 01 40 a0 89 5a bf f6 31 29 bf 36 f5 34 3f
       2.0228813 -0.8536625 -0.6609186 0.7068666
000150 53 cc 89 bf 91 fc 77 bf 50 9a a8 3e 03 66 75 3e
       -1.076548 -0.9686976 0.3293023 0.23964696
000160 9f 5b 3c bf 20 23 09 c0 f2 05 b5 bd 41 66 a2 be
       -0.735773 -2.1427689 -0.088390246 -0.3171864
000170 d0 e7 77 3f 14 80 3a bf 46 cf 90 3e 6a 89 95 3f
       0.9683809 -0.7285168 0.28283137 1.168256
000180 65 64 b0 be 3f 71 2c bf fe d1 f8 be 01 48 52 bd
       -0.34451595 -0.673603 -0.4859771 -0.0513382

layers.3.3.bias f4 [10]
000000 71 15 38 3e 75 1a 19 be 2f 7a 8c 3e 77 99 0d bb
       0.17976929 -0.14951499 0.2743697 -0.0021606365
000010 57 fe 67 bf 71 ae 9c 3e db 97 81 3e b1 5e 79 3d
       -0.90622467 0.30601838 0.2531117 0.06088132
000020 4d c7 f3 be 7e cc 39 bd
       -0.47612992 -0.045361035

layers.3.4.weight f4 [10, 10]
000000 78 30 38 3d 47 63 6f bf a7 41 92 3f 8a 24 ee be
       0.0449681 -0.9351086 1.1426286 -0.46512252
000010 17 48 81 bf c9 ad f2 3f a6 12 1c bf 2e 11 c2 3d
       -1.0100125 1.8959285 -0.60965955 0.09475933
000020 89 18 b6 3f 7a 74 de 3f 10 84 94 bb 77 0e 8c be
       1.4226238 1.7379296 -0.0045323446 -0.27354786
000030 ab ba 89 3f de 71 75 bf c2 a4 0e 3f 65 0d 15 be
       1.0760092 -0.9587687 0.5572015 -0.14555891
000040 75 f1 e5 3f 3f c7 44 bf 54 b2 4b 3f db fe 57 3f
       1.7964312 -0.76866525 0.7956898 0.84373254
000050 59 7c e4 bf c3 2c bc 3f 56 d2 99 3f 74 0f 43 3e
       -1.7850448 1.470116 1.2017314 0.19048864
000060 22 cb be bd 58 69 61 3f 56 c3 74 3f 52 32 63 be
       -0.09316088 0.88051367 0.9561056 -0.22187164
000070 fc 4b 77 3f d4 df ca 3f 6d f6 02 bf 50 25 ee 3f
       0.9660032 1.5849557 -0.51157266 1.8605137
000080 3b 7b f5 be 35 67 9f bf 97 74 0c bf 98 8c 83 3f
       -0.4794558 -1.2453371 -0.548654 1.0277281
000090 dc 34 bd bf ce 4e 4a 3f 01 10 db 3e 29 6b 24 3f
       -1.4781756 0.79026496 0.42785648 0.64226013
0000a0 9d 71 16 3f ca fc 26 3f 7e 0d bd 3d 48 dc b0 be
       0.5876711 0.65229475 0.09231089 -0.3454306
0000b0 c5 d8 9c 3e f1 c6 26 be 13 db ac 3f 51 fc 9c 3d
       0.30634132 -0.16286828 1.3504356 0.07665313
0000c0 5d 2a f9 3f e5 31 70 3f 4a 7d 2c bf 50 22 e8 3e
       1.9466053 0.93826133 -0.67378676 0.45338678
0000d0 1d 9a 7b bf 8a 19 8d be 1c d6 90 3f 29 43 8b 3f
       -0.98282033 -0.27558547 1.1315341 1.0879871
0000e0 bd e7 14 bf a4 4c ef be 5e d7 83 bf df 19 8b 3e
       -0.58166105 -0.4673816 -1.03001 0.27168176
0000f0 70 7c 8d bf 27 0f 05 bd f4 fd d8 3e bf d3 8b 3f
       -1.10536 -0.032485154 0.4238125 1.0923995
000100 fd df b4 bf a8 06 9b bf 33 36 80 3f 7d ff 3a bf
       -1.4130856 -1.2111406 1.001654 -0.73046094
000110 2c c4 b6 3f dd 6d 72 bd 07 dc 86 3e bd 5d f1 bd
       1.4278617 -0.059186805 0.26339743 -0.11785457
000120 a9 63 13 bf 76 8f f9 3e 1a e3 a6 3f ce d8 9e 3f
       -0.57573944 0.48742265 1.3038056 1.2409914
000130 10 75 e1 bf 91 a8 5d bd 47 dc 12 c0 82 cc 1c bf
       -1.761385 -0.054115836 -2.2946947 -0.61249554
000140 f1 70 5b bf 07 0d a8 3f 58 8f 41 3e 4f 08 a3 bf
       -0.8571921 1.3128976 0.18902338 -1.273691
000150 1a 5f 26 3f 96 b1 09 bf 4f d4 59 3f 0f 64 25 40
       0.64988863 -0.537866 0.8508958 2.584232
000160 90 a8 07 be 42 aa 1c bf 77 b1 a7 bf 20 e2 c7 bd
       -0.13247895 -0.6119729 -1.3101033 -0.09759927
000170 06 58 f8 3f d5 7e de 3f c2 32 1f be 33 65 09 bd
       1.9401863 1.7382456 -0.15546706 -0.033543777
000180 9b 0e a9 3f a1 76 10 40 51 cd b4 bf e3 02 c4 3e
       1.3207582 2.2572405 -1.4125158 0.38283452

layers.3.4.bias f4 [10]
000000 cd 7e c1 bc 81 f2 f3 be 4e cd e8 be 22 d6 bb 3e
       -0.023620034 -0.47645953 -0.45469135 0.36686808
000010 79 42 0d bf 6d b7 7b 3c 13 78 74 bf 73 31 35 bf
       -0.55179554 0.015363556 -0.9549572 -0.7077858
000020 9d 83 34 bb 13 d0 b8 bd
       -0.0027544268 -0.09024062

layers.4.0.weight f4 [1, 10]
000000 41 f3 aa 3f b7 75 88 3f 1f 90 73 3f 0b 43 57 bf
       1.3355485 1.0660924 0.95141786 -0.84086674
000010 77 ad 94 3f b3 b3 ce be ac d8 96 bf 33 09 59 3f
       1.1615437 -0.40371475 -1.1784873 0.8477966
000020 a6 a8 35 bf 45 79 df 3e
       -0.7096046 0.4364721

layers.4.1.weight f4 [1, 10]
000000 e0 40 b5 bf 79 29 0c 3f 26 a7 bc 3e c6 52 1c 3f
       -1.4160423 0.5475078 0.36846274 0.610638
000010 ad 8e b3 3e 1e fe 3e be 5c f8 74 bf 79 b3 2c bf
       0.3506979 -0.18651626 -0.95691466 -0.67461354
000020 9e 3d 82 bf 2e a6 17 3f
       -1.0175054 0.59237945

layers.4.2.weight f4 [1, 10]
000000 3c b0 0c c1 36 4d 42 c1 2f 5a 08 41 c2 73 08 c1
       -8.793026 -12.14385 8.5220175 -8.528261
000010 cb 0d 1a 41 18 8f 0d c1 cf 65 f7 c0 2e 0e 09 c1
       9.628367 -8.847435 -7.731178 -8.565962
000020 5d d1 09 41 8f 3b 00 c1
       8.613614 -8.014541

layers.4.3.weight f4 [1, 10]
000000 b7 a8 82 c0 4b 59 59 40 15 44 28 c0 4b 34 7a c0
       -4.083095 3.396075 -2.6291554 -3.9094417
000010 0d 3f f7 bf a7 ba 5f c0 c3 0c 8b 40 eb 8a 9e c0
       -1.9316117 -3.4957674 4.345308 -4.9544578
000020 9c 9a cd c0 ac c7 94 40
       -6.425123 4.649374

layers.4.4.weight f4 [1, 10]
000000 27 09 06 bf ef 67 e1 bf 4d 18 db bf 07 51 cf bf
       -0.52357715 -1.7609843 -1.7116791 -1.6196603
000010 d6 b2 92 bf 77 3b bd be 9f 6e eb 3e 28 a5 66 3f
       -1.1460826 -0.3695943 0.45982835 0.9009576
000020 0b 3a 14 c0 60 fb f8 bf
       -2.3160427 -1.9451714
