inverse/saved_model/USnet_lmbd-1.0_mu-0.5-100.pt (torch, 36127 bytes, 10 tensors)

linears.0.weight f4 [50, 2]
0	0xbe2cd7a0	-0.1687913
1	0x3e398d59	0.18120326
2	0xbb9606d0	-0.004578449
3	0x3da972a1	0.08273817
4	0x3e36a0cd	0.17834778
5	0xbea811f3	-0.32826194
6	0x3e1729bb	0.14762013
7	0x3c793683	0.0152107505
8	0x3d00bbbf	0.03142905
9	0x3e5ea0f6	0.21741089
10	0xbeca9b55	-0.39571634
11	0x3e290f1f	0.16509674
12	0xbe60cf37	-0.21954046
13	0x3edf1539	0.4357088
14	0x3e92419b	0.28565678
15	0x3e8a0272	0.2695499
16	0xbce4a722	-0.027911726
17	0xbda0a44a	-0.07843836
18	0xbd104dda	-0.035230495
19	0x3d994a10	0.074848294
20	0xbe4c78c6	-0.19967946
21	0x3d36fc7d	0.044674385
22	0x3d0a421c	0.033754453
23	0xbea9a5ab	-0.33134207
24	0x3dae0a12	0.084980145
25	0x3ef57e07	0.47947714
26	0xbf14292e	-0.57875335
27	0xbe45fe9c	-0.19335407
28	0xbe156319	-0.14588584
29	0x3d783b49	0.060603414
30	0xbec468c0	-0.38361168
31	0xbe85cb72	-0.2613178
32	0xbdb09470	-0.08622062
33	0xbd9d4b5d	-0.0768039
34	0x3dd1bb07	0.10240751
35	0x3d897259	0.06711263
36	0x3e303df0	0.17211127
37	0xbe442e8e	-0.19158384
38	0x3c031b5a	0.008002127
39	0x3bae4137	0.005317833
40	0x3e5fccc2	0.21855453
41	0xbe8303f6	-0.2558896
42	0xbde55095	-0.111970104
43	0xbec605f0	-0.38676405
44	0x3e8c85f1	0.2744594
45	0x3e58ee92	0.21184757
46	0x3de1a3ed	0.110175945
47	0x3dcde4d1	0.10053409
48	0xbe17acf2	-0.14812067
49	0xbe9b48ab	-0.3032888
50	0x3e5872e3	0.21137576
51	0x3d27ace4	0.040936366
52	0xbbeddb4f	-0.0072588096
53	0xbeb9f44d	-0.363192
54	0xbe4fd486	-0.20295915
55	0xbb17ca67	-0.0023161413
56	0x3e707bce	0.23484728
57	0xbe6d41d4	-0.23169643
58	0x3dc2a6e3	0.09504487
59	0x3e19805a	0.14990368
60	0xbd9656db	-0.07340785
61	0x3cd28b02	0.02570105
62	0x3d7640f5	0.06012054
63	0x3e36309a	0.17791978
64	0xbd8f0b91	-0.06984628
65	0x3d540071	0.051758233
66	0xbe13bfeb	-0.1442868
67	0x3d230e3a	0.03980849
68	0xbe6852c5	-0.22687824
69	0x3d9c51d6	0.076327965
70	0x3da392f9	0.07987017
71	0xbe5eab56	-0.21745047
72	0x3f191230	0.59793377
73	0xbe5ea229	-0.21741547
74	0xbdd8b7bd	-0.1058192
75	0x3dbe4ae8	0.09291631
76	0xbeeaf605	-0.45890823
77	0x3d8a5137	0.06753772
78	0x3d407b05	0.04699232
79	0x3df9b44c	0.12192592
80	0xbe7b532d	-0.24543448
81	0x3de7a01b	0.113098346
82	0xbea7adf1	-0.32749894
83	0x3e8e3f7a	0.27782804
84	0xbe594511	-0.21217753
85	0x3ca00a00	0.019536018
86	0xbda158c5	-0.078782596
87	0x3e0f823b	0.14014523
88	0x3d745c2c	0.059658214
89	0xbdc216b8	-0.094769895
90	0x3ea92fec	0.33044374
91	0x3e8ad019	0.2711189
92	0x3e71fd96	0.23631892
93	0x3eb86eef	0.36022136
94	0x3e4bfcb0	0.19920611
95	0x3e1721ec	0.14759034
96	0xbf04088d	-0.5157555
97	0x3e19d341	0.15021993
98	0xbe67e9dd	-0.22647806
99	0x3deccea7	0.11562853

linears.0.bias f4 [50]
0	0x3bbdcc7f	0.0057922
1	0x3dbe97ce	0.09306298
2	0x3daf8a3a	0.085712865
3	0x3c1d43cc	0.009598684
4	0x3d797b83	0.060908806
5	0x3dd03d7b	0.101679765
6	0x3d12c546	0.035832666
7	0x3d7b5ebd	0.061369646
8	0x3d618fea	0.055068888
9	0xbd1309d9	-0.035898063
10	0x3c88ea64	0.016713329
11	0xbd9094ac	-0.07059607
12	0xbd31ca3a	-0.04340575
13	0xbb865461	-0.004099414
14	0x3dd48d18	0.10378474
15	0xbc126619	-0.008935475
16	0x3dcebe1f	0.100948565
17	0x3d966f4d	0.07345448
18	0x3d8a6c39	0.06758923
19	0x3db17a45	0.08665899
20	0xbb5ec30d	-0.003399077
21	0xbd3e46e0	-0.04645431
22	0xbc827881	-0.015926601
23	0xbe06e42c	-0.13172978
24	0xbd417e98	-0.04723987
25	0xbda43e02	-0.080196396
26	0xbd6c79a2	-0.057733186
27	0x3e07d859	0.13266124
28	0x3c9ff1ef	0.019524543
29	0x3d2fb42c	0.042896435
30	0x3dea5f51	0.114439614
31	0xbd1882bd	-0.037234057
32	0xbd24bab7	-0.040217128
33	0xbd3289a7	-0.043588307
34	0x3dcfd200	0.10147476
35	0xbda506f2	-0.08057965
36	0xbe140101	-0.14453508
37	0xbd4a1980	-0.049340725
38	0x3d08369c	0.033255205
39	0x3d0d1760	0.03444612
40	0xbc398f0b	-0.011325608
41	0x3e01f1f6	0.12689957
42	0x3c7811d6	0.015140971
43	0xbd1709ab	-0.036874454
44	0xbb970ca7	-0.0046096626
45	0xbd83034f	-0.063971154
46	0x3d40ac2a	0.04703919
47	0x3ae96b41	0.0017808453
48	0x3dac69bf	0.08418607
49	0x3d1dd8d4	0.03853686

linears.1.weight f4 [50, 50]
0	0xbe11825e	-0.14209887
1	0x3d75fbe5	0.06005468
2	0x3e258c6e	0.16166851
3	0x3de342ec	0.11096749
4	0xbe10411c	-0.14087337
5	0xbdd3d0c8	-0.10342556
6	0xbe353ddb	-0.17699377
7	0x3d23193b	0.039818984
8	0xbde3d86b	-0.11125263
9	0xbd76ae55	-0.06022485
10	0xbdbbee68	-0.09176332
11	0x3da97c1f	0.08275627
12	0x3d4bab9a	0.0497242
13	0xbeaacd5f	-0.3335981
14	0xbe908009	-0.28222683
15	0x3dfa1f53	0.12213006
16	0x3bbb03a1	0.0057072197
17	0x3db0283e	0.086014256
18	0xbd7cfce3	-0.06176461
19	0xbca001c0	-0.019532084
20	0xbe69cc6a	-0.22831884
21	0xbe2ab8ce	-0.1667206
22	0xbe3fece2	-0.18742707
23	0xbe82443a	-0.25442678
24	0xbe355098	-0.17706525
25	0xbcf3635e	-0.029710468
26	0x3de5032a	0.11182244
27	0xbdc9ed91	-0.09859765
28	0x3d3096cb	0.043112557
29	0x3ccc4329	0.024934368
30	0x3d4c724b	0.049913686
31	0xbe4869d4	-0.1957162
32	0x3c93c4d4	0.01803819
33	0xbdf477a3	-0.119368814
34	0xbebf435a	-0.37356073
35	0x3e0b32da	0.13593617
36	0x3e43f9f2	0.19138315
37	0xbe34857e	-0.17629048
38	0xbeb78a6d	-0.35847798
39	0x3df8998c	0.12138662
40	0xbe689fc3	-0.22717194
41	0x3c8615e4	0.01636786
42	0x3d9859c4	0.074389964
43	0xbe5c2a0c	-0.21500415
44	0xbd5d0cc6	-0.05396726
45	0x3db72dc2	0.089442745
46	0xbcb7e911	-0.022450002
47	0x3ea92b67	0.33040926
48	0xbe882abc	-0.26595104
49	0xbe837720	-0.25676823
50	0x3d2db3f9	0.042407963
51	0x3db8cef3	0.090238474
52	0xbda8c162	-0.0824001
53	0x3e00fbef	0.12596105
54	0xbe06aa33	-0.13150863
55	0xbdde52bb	-0.10855623
56	0x3e29311c	0.1652264
57	0x3d4b4331	0.049624626
58	0xbe11e790	-0.1424849
59	0x3de31bf1	0.11089314
60	0x3d062483	0.032749664
61	0x3e0441fc	0.12915796
62	0x3dd1e418	0.102485836
63	0x3e48e793	0.19619589
64	0x3ab0b370	0.0013481211
65	0xbe604ed9	-0.21905078
66	0x3e00667e	0.12539098
67	0x3d11e4c5	0.035618562
68	0xbe16bed2	-0.1472123
69	0xbe3cc8e4	-0.18436009
70	0x3e05a8c0	0.13052654
71	0xbe723f9a	-0.23657075
72	0x3e271122	0.1631513
73	0xbd3642f1	-0.044497434
74	0xbea892c5	-0.32924476
75	0x3dc15623	0.094402574
76	0x3d4c8d3f	0.04993939
77	0x3c3fa688	0.011697419
78	0x3dde18de	0.10844587
79	0x3ecfbd26	0.40573996
80	0xbde3e415	-0.111274876
81	0x3dc7021f	0.097172014
82	0xbdac3b08	-0.08409697
83	0xbe09c20b	-0.13452928
84	0x3b4fe6b7	0.003172321
85	0x3dff5c96	0.12468831
86	0x3e33968a	0.17537895
87	0x3df7a067	0.12091141
88	0xbd1d945e	-0.038471572
89	0xbe3018eb	-0.17197005
90	0xbe3c7555	-0.18404134
91	0x3e5550d3	0.20831613
92	0xbcc7c6b8	-0.024386749
93	0x3ecc5322	0.39907175
94	0x3da2111f	0.07913422
95	0x3e92679c	0.28594673
96	0x3cf24e60	0.029578388
97	0x3e2b154f	0.16707347
98	0x3a904862	0.00110079
99	0xbdf6a2e1	-0.120427854
100	0x3d5f73eb	0.054553907
101	0xbd0d9a9f	-0.034571286
102	0xbce2fd23	-0.027708596
103	0xbe26c9af	-0.16287874
104	0xbe3005e2	-0.17189744
105	0x3ddca6e3	0.107740186
106	0xbeba69fb	-0.36408982
107	0x3d2db39d	0.04240762
108	0x3dc7deb6	0.097592756
109	0xbe3e4717	-0.18581806
110	0x3ec81f42	0.39086348
111	0xbcfa7b63	-0.030576413
112	0xbdfedf12	-0.12444891
113	0x3e277fce	0.16357347
114	0x3e95be4b	0.29246745
115	0x3dd5c00c	0.10437021
116	0xbd0203db	-0.031741958
117	0x3d87bd5b	0.066279136
118	0x3d0e3654	0.03471978
119	0x3ec27349	0.3797858
120	0x3de0c029	0.10974152
121	0x3e0a2af4	0.13492948
122	0xbdf2d69d	-0.118573405
123	0xbb0da70c	-0.002161446
124	0x3cc1550a	0.02360012
125	0xbd8e5c07	-0.069511466
126	0x3ee387fb	0.44439682
127	0x3e27d437	0.16389547
128	0xbd70a181	-0.058747772
129	0x3e6d7a27	0.23191129
130	0x3da89c6e	0.082329616
131	0xbd65d912	-0.056115218
132	0x3d6bedf0	0.05759996
133	0xbe4357e5	-0.19076498
134	0x3e07d8d9	0.13266315
135	0xbe8eaead	-0.27867642
136	0xbe63451b	-0.2219433
137	0x3d4d22c3	0.05008198
138	0xbdef172f	-0.11674344
139	0x3e3c0bcc	0.18363875
140	0xbd9eb7bb	-0.077498876
141	0xbd830bb9	-0.0639872
142	0xbd4eab58	-0.050456375
143	0xbe87617f	-0.2644157
144	0x3e88bb2b	0.26705298
145	0xbe5b4780	-0.21413994
146	0xbdc9052e	-0.09815441
147	0x3c836306	0.016038429
148	0x3e8a1677	0.26970264
149	0xbcd8ad92	-0.026449952
150	0xbd9794a3	-0.07401397
151	0x3eb7fa7f	0.359333
152	0xbe076b17	-0.13224445
153	0xbd9c8896	-0.07643239
154	0x3e338d13	0.17534284
155	0x3e0e444a	0.13893238
156	0xbe8fbe98	-0.280751
157	0x3e4d7b2e	0.2006652
158	0xbe4f74c9	-0.20259394
159	0x3e2bec26	0.16789302
160	0x3e058958	0.13040674
161	0xbde4d328	-0.11173087
162	0x3ea9a4f4	0.33133662
163	0x3e68b4c6	0.2272521
164	0x3dfb5ab1	0.122731574
165	0x3e4ce0a8	0.20007575
166	0x3de37d76	0.11107914
167	0x3e3f1140	0.18658924
168	0x3d7f9dae	0.062406234
169	0xbe206e09	-0.15666975
170	0xbe445d50	-0.19176221
171	0x3de9b46a	0.114113644
172	0xbe938b5f	-0.2881727
173	0xbd4e4715	-0.050360758
174	0xbd169059	-0.036758754
175	0xbe75ef99	-0.2401718
176	0xbe81dc9c	-0.25363624
177	0x3c29e19a	0.010368729
178	0xbe765f84	-0.24059874
179	0x3e67511d	0.22589536
180	0x3c74ff0b	0.014953385
181	0x3dca307b	0.09872528
182	0x3cd421d5	0.025895039
183	0x3e1495c2	0.14510253
184	0x3e65c057	0.22436653
185	0xbdce7bdc	-0.10082218
186	0xbe7eea94	-0.24894172
187	0x3daedfe0	0.085387945
188	0x3daf6c1c	0.08565542
189	0xbdf94c15	-0.121727146
190	0x3e328e33	0.17437057
191	0xbd87a67a	-0.0662355
192	0xbcbda207	-0.02314855
193	0xbda20c99	-0.07912559
194	0x3e14fb2a	0.14548936
195	0xbe67fffe	-0.22656247
196	0x3db6e92b	0.08931192
197	0x3dbd7e85	0.09252647
198	0xbd7bc1fb	-0.06146429
199	0x3de46d92	0.111537114
200	0xbea2075f	-0.3164625
201	0xbdb0a680	-0.08625507
202	0x3e504d0b	0.2034189
203	0xbd242846	-0.04007747
204	0xbe890a80	-0.26765823
205	0xbed0f994	-0.40815413
206	0xbd113ab5	-0.035456378
207	0xbe0e6999	-0.1390747
208	0x3e439777	0.19100748
209	0xbda79eb1	-0.08184565
210	0x3bc565c4	0.0060240943
211	0x3ecc593f	0.3991184
212	0x3b7c9a16	0.003854399
213	0xbdcb134b	-0.09915789
214	0xbe98aad1	-0.29817823
215	0x3e182174	0.14856511
216	0x3d56e019	0.05245981
217	0x3b2598c6	0.0025268062
218	0x3e4e9b9a	0.20176545
219	0x3e5bb709	0.21456541
220	0xbcd83e11	-0.026396783
221	0x3e607bd8	0.21922243
222	0x3e1d7446	0.15376386
223	0x3e2ad57f	0.16683005
224	0xbd929380	-0.0715704
225	0x3e4c3d31	0.19945218
226	0x3e2e6e77	0.17034326
227	0xbe4f262a	-0.20229402
228	0x3d159d59	0.03652701
229	0x3d62fdd7	0.05541786
230	0x3dba9254	0.09109941
231	0x3e5326bf	0.20620249
232	0x3e19cfbc	0.1502065
233	0x3cc04967	0.023472501
234	0xbef03ed8	-0.46922946
235	0x3e337531	0.17525174
236	0x3e2b89d8	0.16751802
237	0xbe728efc	-0.23687357
238	0xbe60cbf7	-0.21952806
239	0xbcc00725	-0.023440907
240	0xbdbfba63	-0.09361722
241	0xbd2cc578	-0.04218051
242	0x3da22632	0.079174414
243	0xbd8b38a3	-0.06797912
244	0xbca0db29	-0.019635754
245	0xbe14f80b	-0.14547746
246	0x3d88f9d2	0.066882744
247	0xbda78b31	-0.081808455
248	0xbe989d46	-0.2980749
249	0x3cef9b1e	0.02924877
250	0x3ddf7e78	0.10912794
251	0xbdfb9350	-0.12283957
252	0x3dc08502	0.09400369
253	0xbc90894b	-0.017643591
254	0xbe00621a	-0.12537423
255	0x3db1a05f	0.086731665

linears.1.bias f4 [50]
0	0x3d01a7af	0.031654056
1	0xbd71bd5b	-0.059018474
2	0xbd99c464	-0.07508162
3	0x3e1d7a6e	0.15378734
4	0xbd9e10dd	-0.0771806
5	0x3d5fa923	0.05460466
6	0xbda0d041	-0.07852221
7	0x3e113078	0.14178646
8	0x3d8f8b59	0.07009
9	0xbd1fc76b	-0.03900854
10	0x3dcd37db	0.10020419
11	0x3d715084	0.058914676
12	0xbdc5e6fb	-0.09663197
13	0x3dd19ecb	0.102353655
14	0xbd5ce7dd	-0.05393206
15	0x3d907d7d	0.07055185
16	0x3d882cb4	0.066491514
17	0x3d78f589	0.060781036
18	0xbd7ff724	-0.06249155
19	0x3de61d1b	0.1123602
20	0xbda4606d	-0.08026204
21	0x3da53227	0.080662064
22	0x3e4327c5	0.1905814
23	0x3e04a9f9	0.12955464
24	0xbdc7eb74	-0.09761706
25	0x3b84da6e	0.004054359
26	0x3dd3c743	0.103407405
27	0x3d38dbe6	0.045131586
28	0xbdae728c	-0.08517942
29	0xbc5c743d	-0.013455448
30	0xbdffae2f	-0.12484395
31	0xbd241d40	-0.040066957
32	0x3c600842	0.013673844
33	0x3db51699	0.08842201
34	0xbd4f41e2	-0.05059994
35	0xbd879929	-0.0662101
36	0x3d7eff2c	0.06225507
37	0x3e0ab09b	0.13543932
38	0xbc20fa0f	-0.009825244
39	0xbd4c3f03	-0.04986478
40	0xbd9c67a5	-0.07636956
41	0x3cc5d8c4	0.024151213
42	0xbe1cec51	-0.15324523
43	0xbdb485d3	-0.088145874
44	0x3d9d2680	0.07673359
45	0xbdaf0c9e	-0.085473284
46	0xbca75cc3	-0.020429974
47	0x3d363b0f	0.044489916
48	0xbddbe4b7	-0.10736983
49	0x3d317be9	0.04333106

linears.2.weight f4 [50, 50]
0	0xbdaa0fc1	-0.08303786
1	0xbd310483	-0.043217193
2	0xbe2ccce0	-0.16875029
3	0x3e3a8cc0	0.18217754
4	0x3e068249	0.13135637
5	0x3d40c494	0.04706247
6	0x3d4f13a9	0.05055586
7	0xbe90edcc	-0.28306425
8	0x3e3d590d	0.18491001
9	0xbd918982	-0.07106306
10	0x3dd17daf	0.1022905
11	0x3d58990f	0.052880343
12	0xbd82b2a3	-0.063817285
13	0xbe8dc201	-0.27687076
14	0xbdad1795	-0.084517635
15	0x3e0cc5e0	0.13747358
16	0x3e7137ba	0.23556414
17	0xbe1af7b5	-0.15133555
18	0x3ba1fc4b	0.0049434057
19	0x3d913403	0.070899986
20	0x3e77a986	0.24185762
21	0xbe6526ac	-0.22378033
22	0xbd87a237	-0.06622737
23	0xbd45d2de	-0.0482968
24	0xbe3a513a	-0.18195048
25	0x3e3a0249	0.18164934
26	0x3e0236f7	0.1271628
27	0x3e528f6e	0.20562527
28	0xbe332623	-0.17495017
29	0xbe05a4b0	-0.13051105
30	0x3e991ff1	0.29907182
31	0xbc5699b9	-0.013098174
32	0xbe62406a	-0.22094885
33	0x3d83f874	0.06443873
34	0xbe260513	-0.16212873
35	0xbc4ef8f6	-0.012632599
36	0xbdb7f1c8	-0.08981663
37	0x3db157b8	0.08659309
38	0xbba168f9	-0.004925844
39	0xbcaff627	-0.02147968
40	0x3df832e5	0.12119082
41	0xbdd1276d	-0.10212598
42	0x3cda2522	0.026629034
43	0x3f063a08	0.524323
44	0xbe3605ae	-0.17775604
45	0xbe45011a	-0.19238701
46	0x3da5b119	0.08090419
47	0x3e013f36	0.1262177
48	0x3e33970c	0.17538089
49	0xbd93222a	-0.07184251
50	0x3e87ed36	0.26548165
51	0x3e961366	0.29311675
52	0x3d524418	0.05133447
53	0xbe235395	-0.15949853
54	0x3ea7327b	0.326557
55	0x3d8dd8bc	0.069261044
56	0xbd70145f	-0.058613177
57	0x3d248e30	0.040174663
58	0x3e2e5c07	0.17027293
59	0xbe8a373c	-0.26995265
60	0x3dd1b9f1	0.10240544
61	0x3e3f9cf5	0.18712218
62	0x3e3b3472	0.18281725
63	0xbd564b7b	-0.052318078
64	0xbe25ecfc	-0.16203684
65	0x3dbc4725	0.09193257
66	0x3db5cc1e	0.08876823
67	0x3e120ab5	0.14261897
68	0x3e69c7b4	0.22830087
69	0xbdf7621e	-0.12079261
70	0x3df55a92	0.119801655
71	0xbdaca92d	-0.08430705
72	0xbe128daa	-0.14311853
73	0x3d87c3a9	0.06629116
74	0x3e200205	0.1562577
75	0x3e77e243	0.24207406
76	0x3df23773	0.11826982
77	0x3e9c6791	0.30547765
78	0x3dc8c181	0.09802533
79	0x3ebaef4d	0.36510697
80	0x3e40a244	0.188119
81	0xbdcfc0d3	-0.101442
82	0xbe8222eb	-0.25417265
83	0xbd01b6cb	-0.031668466
84	0xbe4e7bff	-0.20164488
85	0x3dec0130	0.11523664
86	0xbc4e0a65	-0.01257572
87	0xbe4ab264	-0.19794613
88	0xbdaa1065	-0.08303908
89	0xbc901512	-0.017588172
90	0x3dc6e882	0.09712316
91	0x3d54b63c	0.051931605
92	0x3da59127	0.08084326
93	0x3e8d3091	0.27576116
94	0xbe89376d	-0.268001
95	0xbd58920b	-0.052873652
96	0x3d97eddd	0.07418416
97	0xbe361947	-0.1778308
98	0x3e6742dc	0.22584099
99	0xbdae3f36	-0.0850815
100	0xbe4307f8	-0.19046009
101	0xbea11723	-0.31462964
102	0x3e812c7e	0.25229257
103	0x3d5e3b0c	0.05425553
104	0xbbb2181d	-0.0054350034
105	0x3eb4f773	0.3534504
106	0x3e0bb0ad	0.13641615
107	0xbebc084a	-0.36725074
108	0x3d243b9a	0.040095903
109	0x3d664291	0.056215826
110	0xbe4225db	-0.18959753
111	0xbeaf751a	-0.3426903
112	0x3e381361	0.17976142
113	0x3d973d0d	0.073846914
114	0x3e5766bc	0.21035284
115	0xbe4f15f3	-0.20223217
116	0xbe181e1c	-0.14855236
117	0xbee8c6bd	-0.45464125
118	0x3e427172	0.18988588
119	0xbd7c7421	-0.061634187
120	0x3df37e22	0.11889292
121	0xbe106673	-0.14101581
122	0xbe6db970	-0.2321527
123	0xbe9bfd32	-0.3046661
124	0x3e92c447	0.28665373
125	0xbe0e32ca	-0.13886562
126	0xbe88bcf0	-0.26706648
127	0xbe5f5f7a	-0.21813765
128	0x3e9ace19	0.30235365
129	0xbca0a261	-0.019608678
130	0xbc6df428	-0.014523543
131	0xbee43ddd	-0.44578448
132	0x3e9a3102	0.30115515
133	0xbdb476b4	-0.08811703
134	0xbc4188fd	-0.011812446
135	0x3db39425	0.08768491
136	0xbea66653	-0.32499942
137	0x3d76fa77	0.060297456
138	0x3d47109c	0.048599824
139	0x3e1c426f	0.15259717
140	0xbe5a7f06	-0.21337518
141	0xbc09d505	-0.008412604
142	0xbed9c032	-0.42529446
143	0xbdf96e89	-0.12179286
144	0xbd9a98a6	-0.07548647
145	0xbdfc1f54	-0.12310663
146	0xbe333c4c	-0.1750347
147	0x3dd849de	0.10560964
148	0xbdfcccc0	-0.123437405
149	0x3b23cb5f	0.0024993045
150	0x3e0a61e0	0.13513899
151	0xbc66dab4	-0.014090229
152	0x3d77622e	0.060396366
153	0xbea54b48	-0.32283998
154	0xbc66bf08	-0.014083631
155	0xbd9241ff	-0.07141494
156	0xbca3a849	-0.019977706
157	0xbe266767	-0.16250382
158	0x3dc899f5	0.0979499
159	0xbd454418	-0.048160642
160	0x3d9be5fd	0.07612226
161	0x3ea391f7	0.319473
162	0xbd2a7075	-0.041611154
163	0x3dc85550	0.09781897
164	0xbe831090	-0.25598574
165	0x3e8fd8de	0.28095144
166	0x3ebd46eb	0.3696817
167	0x3e4a21e4	0.19739491
168	0xbe3b770c	-0.18307132
169	0xbcec9d23	-0.028883522
170	0x3d3aedbb	0.045636874
171	0x3ebe6c65	0.37192073
172	0x3e37a4af	0.17933916
173	0xba3288d7	-0.0006810552
174	0xbe89e779	-0.26934412
175	0xbe001328	-0.12507308
176	0x3e2908ee	0.16507313
177	0x3dddef49	0.10836656
178	0x3dcbb677	0.09946912
179	0x3db73594	0.08945766
180	0x3e71b409	0.23603834
181	0x3e1b18b8	0.15146148
182	0xbea211bb	-0.31654152
183	0x3ed5e53e	0.4177646
184	0x3df3aef9	0.11898608
185	0x3b09bd2b	0.0021017294
186	0x3dfcff64	0.123533994
187	0xbe9ee33e	-0.31032747
188	0xbe40923e	-0.18805787
189	0xbea4e835	-0.3220841
190	0x3dd90e49	0.10598428
191	0x3ebb78f3	0.36615714
192	0x3de017c1	0.10942031
193	0x3ce7a13c	0.028275125
194	0x3e3b0417	0.18263279
195	0xbd8a53e8	-0.06754285
196	0x3e4a3314	0.19746047
197	0xbe627ba0	-0.22117472
198	0x3dc9a3ba	0.098456815
199	0x3c90c9a5	0.017674277
200	0x3ecc11f3	0.39857444
201	0x3ea91b98	0.33028865
202	0xbe2b30ad	-0.16717787
203	0xbe440aea	-0.19144788
204	0x3e660b22	0.22465184
205	0xbe94aa46	-0.29036158
206	0x3cbd2ec0	0.023093581
207	0x3dc72c07	0.097251944
208	0xbde3778c	-0.11106786
209	0x3d8e384d	0.06944332
210	0xbe566f64	-0.2094093
211	0x3da87f36	0.082273886
212	0xbbb59b93	-0.0055422275
213	0xbdf41e00	-0.119197845
214	0xbe0eea49	-0.1395656
215	0xbe216be3	-0.15763812
216	0x3e12499e	0.14285895
217	0x3db5f1c6	0.08884005
218	0xbd55b1c1	-0.052171472
219	0x3d83aab8	0.064290464
220	0x3aad8fd6	0.0013241719
221	0xbd641ee9	-0.05569354
222	0x3e53c890	0.20681977
223	0xbe7ecbd3	-0.2488244
224	0x3d8967db	0.06709262
225	0x3df32582	0.118723884
226	0xbd805f08	-0.06268126
227	0xbd860fd9	-0.065459915
228	0x3c9ac1d5	0.018891254
229	0x3e838ba3	0.25692472
230	0x3d5b530e	0.053546004
231	0x3e1e9342	0.15485862
232	0xbe0a9134	-0.13531953
233	0xbbfaab93	-0.007649848
234	0x3df5e08a	0.12005718
235	0xbca53d90	-0.020170957
236	0x3e1e8a58	0.15482461
237	0xbe295b18	-0.16538656
238	0xbddc2d95	-0.107508816
239	0x3d9fdab5	0.07805387
240	0x3dd5b7f0	0.10435474
241	0xbdb530d2	-0.08847202
242	0x3e73b28e	0.23798582
243	0x3e2a1b7a	0.16612044
244	0x3e8d3f50	0.27587366
245	0x3dd4a204	0.103824645
246	0xbc55a6ed	-0.0130402865
247	0x3cea8e2f	0.028632252
248	0x3df49444	0.11942342
249	0xbd406ba4	-0.046977654
250	0x3e1b4e2e	0.15166542
251	0xbe438217	-0.19092594
252	0xbe78a01c	-0.24279827
253	0x3de219cc	0.110400766
254	0x3c803d43	0.015654212
255	0x3d735fbf	0.059417482

linears.2.bias f4 [50]
0	0x3cde0535	0.027102092
1	0xbd7ca36c	-0.06167929
2	0xbe0fec2a	-0.14054933
3	0x3da148f0	0.0787524
4	0xbd8fbc95	-0.07018391
5	0xbd8c1e6b	-0.06841739
6	0xbd9be7ab	-0.076125465
7	0xbd1e12dc	-0.038592204
8	0xbd565bfc	-0.052333817
9	0x3dabde19	0.08391971
10	0x3d99d8c1	0.07512046
11	0x3de896d2	0.11356892
12	0xbda7ebbe	-0.08199261
13	0xbd749e4d	-0.05972128
14	0xbd86a4e7	-0.065744214
15	0xbdce44b2	-0.10071696
16	0xbcb9b08b	-0.02266719
17	0x3dbcf0ef	0.09225642
18	0xbdab2991	-0.083575375
19	0xbd803b84	-0.06261352
20	0x3e0318d9	0.12802447
21	0x3ddbb934	0.10728684
22	0x3d9f4239	0.07776303
23	0x3dae8e2c	0.08523211
24	0xbe0db8e2	-0.13840058
25	0x3ce6c658	0.02817075
26	0x3de9d283	0.11417105
27	0xbda6b969	-0.08140833
28	0x3db5a0a9	0.08868534
29	0xbe037fa6	-0.12841663
30	0xbe48995f	-0.19589756
31	0x3dba1ead	0.09087882
32	0x3db3ef68	0.087858975
33	0xbb4b521a	-0.0031024278
34	0x3d8551bf	0.065097325
35	0xbe0320e3	-0.12805514
36	0x3d67137f	0.056415077
37	0xbd9d0f58	-0.07668942
38	0xbdb1ccc3	-0.08681633
39	0xbc0f0c21	-0.008730919
40	0xbdaae869	-0.0834511
41	0xbdc71bf7	-0.09722131
42	0xbe009590	-0.12557054
43	0x3d7f0ffe	0.06227111
44	0xbd26c015	-0.040710527
45	0x3df51453	0.11966767
46	0x3da6dd78	0.081477106
47	0xbdce4c90	-0.10073197
48	0x3d55877e	0.05213117
49	0x3e0e252e	0.1388137

linears.3.weight f4 [50, 50]
0	0x3f1d4491	0.6143275
1	0xbe3ca4ff	-0.18422316
2	0x3dddb82d	0.10826144
3	0x3ded0e70	0.11575019
4	0x3efdf964	0.49604332
5	0xbbe0d143	-0.0068608834
6	0x3e5fe03d	0.21862884
7	0xbdba7868	-0.09104997
8	0xbd80f8d5	-0.06297461
9	0xbe479f3a	-0.19494334
10	0xbe6ef609	-0.23336042
11	0x3da54eb3	0.08071651
12	0xbc443b34	-0.011977006
13	0xbe1c57e2	-0.152679
14	0x3d9e1938	0.07719654
15	0xbe15f606	-0.14644632
16	0xbd9c0b6c	-0.07619366
17	0x3e1b3423	0.15156607
18	0x3d81addd	0.0633199
19	0xbe2a08ba	-0.16604891
20	0xbd9f9f0b	-0.07794007
21	0x3e9aa644	0.30204976
22	0xbe5f7113	-0.21820478
23	0x3e15efc9	0.14642252
24	0xbe2dfe09	-0.16991438
25	0x3ee32f28	0.44371915
26	0x3e956d44	0.29184926
27	0xbe1bb5e5	-0.15206106
28	0x3e7279c0	0.23679256
29	0x3ec39975	0.38203016
30	0x3ecac029	0.39599732
31	0xbd5ba73c	-0.053626284
32	0x3e71a28d	0.23597164
33	0xbe6faeef	-0.23406576
34	0xbe91c6b1	-0.28471902
35	0xbe36f25e	-0.17865893
36	0x3e8b00fc	0.2714919
37	0xbe533d2c	-0.20628804
38	0xbe4f4a2a	-0.20243135
39	0x3e5b41d8	0.21411836
40	0x3c3f57c8	0.0116786435
41	0x3d2129f3	0.039346647
42	0x3e970651	0.29497007
43	0x3e310b4b	0.17289464
44	0x3ddebee7	0.108762555
45	0xbe3bc241	-0.1833582
46	0xbde26e1b	-0.11056157
47	0xbdefd3a9	-0.11710293
48	0x3d6a6217	0.057222452
49	0xbe6cad2c	-0.23112935
50	0x3dc107fc	0.09425351
51	0x3c43f0cb	0.011959265
52	0x3c80657c	0.015673392
53	0x3dc6818b	0.09692677
54	0xbea4910e	-0.32141918
55	0x3d877354	0.06613794
56	0xbe02e4ea	-0.12782636
57	0xbe61b688	-0.22042286
58	0x3db088fd	0.086198784
59	0xbe22f0e0	-0.15912199
60	0xbe9b740f	-0.30361983
61	0xbe285042	-0.16436866
62	0x3e80492b	0.25055823
63	0xbdd24130	-0.1026634
64	0x3e121607	0.14266215
65	0x3c827ebd	0.015929574
66	0x3eb9a0c2	0.3625546
67	0xbd134cad	-0.035961796
68	0x3e284d4d	0.16435738
69	0x3e137edb	0.1440386
70	0xbd08c3e0	-0.033389926
71	0xba6a9240	-0.00089481845
72	0xbd286bba	-0.04111836
73	0xbc6357e4	-0.013875935
74	0xbe5985d5	-0.21242459
75	0x3e006cef	0.12541555
76	0x3da399d4	0.07988325
77	0x3e6cd0e8	0.23126566
78	0xbde3221f	-0.110904925
79	0x3d6f9d53	0.058499645
80	0x3c937d60	0.01800412
81	0xbd9f84ae	-0.077889785
82	0x3c03a6e2	0.008035393
83	0x3ea51cb6	0.32248467
84	0x3d486ce6	0.04893198
85	0xbdcf3d89	-0.10119159
86	0xbc948bb3	-0.01813302
87	0xbe2b7c1c	-0.16746563
88	0x3da37faf	0.07983338
89	0x3df4c762	0.11952092
90	0x3e0b852d	0.13625021
91	0xbea62242	-0.32448012
92	0xbe66bcdd	-0.22532983
93	0x3e26df48	0.16296113
94	0x3e614feb	0.22003143
95	0x3dbe5fe9	0.09295637
96	0x3e135c98	0.1439079
97	0xbd5bd222	-0.053667195
98	0xbd79a6c0	-0.06095004
99	0xbdbf6aa9	-0.09346516
100	0xbd27f02a	-0.041000523
101	0x3e80e100	0.2517166
102	0x3ea58aa8	0.3233235
103	0xbeeee849	-0.46661595
104	0xbd80ca03	-0.06288531
105	0x3e54fb57	0.20799004
106	0xbd6cdff4	-0.057830766
107	0x3e038df0	0.12847114
108	0xbca27851	-0.019832762
109	0x3c7a1262	0.015263172
110	0xbe378a8b	-0.17923944
111	0xbee4064f	-0.44536063
112	0xbe5873dd	-0.21137948
113	0x3caec9e9	0.021336513
114	0x3dc45537	0.09586566
115	0x3ecb7f33	0.39745483
116	0x3ca7f30c	0.020501636
117	0x3e8c4f72	0.27404362
118	0x3d1eddd9	0.03878579
119	0x3e394ae8	0.1809498
120	0xbe7c6970	-0.24649596
121	0x3df3e894	0.11909595
122	0xbdd25125	-0.10269383
123	0xbecb2929	-0.3967984
124	0xbd4aa583	-0.04947425
125	0xbe75bc43	-0.23997597
126	0xbee773c7	-0.4520552
127	0xbe7a1895	-0.2442344
128	0xbea8db60	-0.3297987
129	0xbeaa121d	-0.33216944
130	0x3e647dda	0.22313634
131	0xbd891135	-0.06692735
132	0xbc1d8046	-0.009613102
133	0x3e5d8e3c	0.2163629
134	0xbe75c983	-0.24002652
135	0x3ef1df99	0.47240904
136	0xbe014220	-0.12622881
137	0x3dec6857	0.11543339
138	0x3e8b94e8	0.27262044
139	0xbe97f9c0	-0.29682732
140	0xbc9bc302	-0.019013885
141	0x3eb5db0e	0.35518688
142	0x3e215a92	0.15757206
143	0x3ddfa57e	0.10920237
144	0xbd33aace	-0.043864064
145	0x3e0399e6	0.12851676
146	0xbdda4e4e	-0.10659467
147	0x3d80a9bd	0.06282375
148	0xbcf96085	-0.030441532
149	0xbdeea91a	-0.11653347
150	0x3d9be96c	0.07612881
151	0x3deac353	0.114630364
152	0x3ea21c27	0.31662104
153	0xbe772248	-0.24134171
154	0x3e8fe670	0.28105497
155	0x3e52ba36	0.20578846
156	0x3de5257a	0.11188789
157	0x3e5e8baf	0.21732973
158	0x3d6e17be	0.05812811
159	0x3e7183ba	0.23585406
160	0xbc9f91ae	-0.019478645
161	0xbe17da18	-0.1482929
162	0xbd92994b	-0.071581446
163	0x3d120380	0.03564787
164	0xbe2fbb7d	-0.17161365
165	0xbd66bf69	-0.056334887
166	0x3e0f4fb6	0.13995251
167	0x3d50d96d	0.050988603
168	0xbcbd4539	-0.023104297
169	0x3e1eb096	0.1549705
170	0x3bcaa3ec	0.006184092
171	0x3e952690	0.29130983
172	0xbea12877	-0.31476185
173	0x3e70f1f7	0.23529802
174	0xbd219491	-0.039448325
175	0xbd29e913	-0.041482043
176	0xbe806340	-0.25075722
177	0xbedf2aa7	-0.4358723
178	0x3e31fca9	0.17381538
179	0x3db49a5e	0.08818506
180	0x3e2d716c	0.16937798
181	0x3c82b32c	0.015954576
182	0xbdc295c8	-0.09501225
183	0xbd684f5c	-0.056716308
184	0xbea1fe9a	-0.31639558
185	0xbe7e22b2	-0.24817923
186	0x3e18d578	0.14925182
187	0xbe2edc41	-0.17076208
188	0x3d3f7ebc	0.046751723
189	0x3cd6e7d2	0.026233587
190	0xbd2e1241	-0.042497877
191	0x3dad94ec	0.0847567
192	0x3e0a8bbb	0.13529865
193	0x3dccd29b	0.10001107
194	0xbd81b0e7	-0.063325696
195	0x3e2dfc01	0.16990663
196	0xbe902b25	-0.28157917
197	0x3dd83342	0.10556652
198	0x3cb789a4	0.0224045
199	0xbe722752	-0.23647812
200	0xbe0b66e1	-0.13613464
201	0x3d654e6c	0.055982992
202	0x3eb88ede	0.360465
203	0xbdfabb55	-0.12242762
204	0x3dc98c8b	0.098412596
205	0x3dcb58fa	0.0992908
206	0x3cd94b9f	0.026525317
207	0x3d7c9aae	0.06167095
208	0xbce7ca93	-0.028294837
209	0x3e0ea4e3	0.13930087
210	0xbe634644	-0.22194773
211	0xbe46c4d5	-0.19411023
212	0x3eb934c2	0.36173064
213	0x3e6172f9	0.22016515
214	0xbe5a31b4	-0.21308023
215	0x3df261bc	0.118350476
216	0xbd83f6b4	-0.06443539
217	0xbd2d69f8	-0.042337388
218	0x3acf3bf9	0.001581072
219	0x3f260688	0.64853716
220	0xbe2bec08	-0.16789258
221	0x3e814cb6	0.25253838
222	0x3d8e3d55	0.06945292
223	0xbe0067ed	-0.12539645
224	0x3ea1478b	0.31499895
225	0xbc0091c7	-0.007847256
226	0xbdd19ac0	-0.10234594
227	0xbcc1ea69	-0.023671346
228	0xbd8de997	-0.06929319
229	0x3c7db602	0.015485289
230	0x3e1e59b3	0.15463905
231	0xbe81aab8	-0.2532556
232	0xbdb58b4a	-0.08864458
233	0x3daab842	0.08335926
234	0xbe354f48	-0.17706025
235	0x3ea6f396	0.32607716
236	0x3d6cd8f9	0.05782411
237	0x3d996c70	0.07491386
238	0x3e0da698	0.13833082
239	0x3e7560f2	0.23962763
240	0xbdc16e77	-0.094448976
241	0x3ddc5796	0.10758893
242	0x3edb0f46	0.4278509
243	0x3eca1b99	0.3947418
244	0xbd785129	-0.060624275
245	0xbebbf8a1	-0.36713126
246	0x3dff73dc	0.1247327
247	0x3ee46ec7	0.44615766
248	0xbd0423eb	-0.032260817
249	0xbe8b02f9	-0.27150705
250	0xbd79f57d	-0.06102513
251	0xbd2801ba	-0.04101727
252	0xbeba3769	-0.363704
253	0x3e5eda56	0.21762976
254	0xbeb625f2	-0.35575825
255	0xbde22cef	-0.11043727

linears.3.bias f4 [50]
0	0x3c70bb5d	0.014693108
1	0xbd8aad3d	-0.06771324
2	0xbca9a40f	-0.020708112
3	0x3c8aec58	0.0169584
4	0xbe198ac4	-0.14994341
5	0x3dcbd1bd	0.09952114
6	0x3d4bd053	0.04975922
7	0xbe072055	-0.13195927
8	0x3ce81067	0.028328134
9	0xbd509d34	-0.05093117
10	0x3da73e8a	0.08166225
11	0xbd60ea18	-0.05491075
12	0xbe055551	-0.13020827
13	0xbdf074fe	-0.117410645
14	0x3de37283	0.11105826
15	0x3dcaf276	0.09909527
16	0xbe0d2de1	-0.13787033
17	0x3da3e30d	0.08002291
18	0x3da8d883	0.08244421
19	0xbe188092	-0.14892796
20	0x3daff91b	0.08592435
21	0x3d9fefd9	0.07809419
22	0x3de65bd5	0.11247984
23	0xbd4d1de3	-0.05007733
24	0xbddae85b	-0.106888495
25	0x3d3627b5	0.04447146
26	0xbd5e54f9	-0.054280255
27	0xbda0acb7	-0.07845443
28	0xbdb2dbbd	-0.08733318
29	0x3b1b4408	0.0023691673
30	0x3d931615	0.07181946
31	0xbd395eef	-0.04525655
32	0x3dcb0df2	0.09914769
33	0xbd87d58e	-0.06632529
34	0x3d9ba7e4	0.07600382
35	0xbe19acbe	-0.15007302
36	0x3da60425	0.08106259
37	0xbe30921c	-0.17243236
38	0xbdca94c7	-0.09891658
39	0xbd9e0aff	-0.07716941
40	0xbe00926e	-0.12555858
41	0xbd158244	-0.036501184
42	0x3da8c95b	0.082415305
43	0xbe157e98	-0.14599073
44	0x3db23fd3	0.0870358
45	0x3ddbca56	0.10731952
46	0xbd58c969	-0.052926455
47	0xbde87aa0	-0.11351514
48	0xbda1fbe5	-0.07909373
49	0x3d405e5e	0.046964996

linears.4.weight f4 [5, 50]
0	0xbe8b5303	-0.2721177
1	0x3ef7555f	0.4830732
2	0xbf1b9a8f	-0.6078271
3	0xbe3af123	-0.18256049
4	0xbd310312	-0.04321582
5	0xbef0e62f	-0.47050616
6	0xbe672c4e	-0.22575495
7	0xbe652d9d	-0.22380681
8	0xbdd06f6c	-0.10177502
9	0x3ebc5b15	0.3678824
10	0xbe431d4b	-0.19054143
11	0x3ea87084	0.32898343
12	0x3e58658c	0.21132487
13	0x3deeffbf	0.116698734
14	0xbe823900	-0.25434113
15	0xbea5899a	-0.32331544
16	0x3e10b42d	0.14131232
17	0x3e9b5375	0.3033711
18	0xbf068ad6	-0.52555597
19	0xbe51f3ce	-0.2050316
20	0xbebae7f3	-0.36505088
21	0xbe406032	-0.18786696
22	0xbd5505d3	-0.052007508
23	0xbde9239a	-0.113837436
24	0x3ecfd6eb	0.40593657
25	0xbe02fa74	-0.12790853
26	0x3ea3f4d8	0.32022738
27	0x3f06be36	0.5263399
28	0x3e9a8b9d	0.3018464
29	0x3e2143b3	0.15748481
30	0xbe81c76c	-0.2534746
31	0xbd553a66	-0.052057646
32	0x3d2ca22b	0.042146843
33	0x3ed34b1a	0.41268235
34	0xbdbb3c53	-0.09142365
35	0xbe6628fd	-0.22476573
36	0xbe0013d7	-0.12507568
37	0xbe23d3ee	-0.15998814
38	0xbc5cdf23	-0.013480934
39	0xbdadd0a4	-0.08487061
40	0x3cf52562	0.029925052
41	0xbd3c184c	-0.04592161
42	0xbe0e8bd8	-0.13920534
43	0x3e2e3425	0.17012079
44	0x3ce4f95f	0.02795094
45	0x3edc8f10	0.43077898
46	0xbd46b758	-0.048514694
47	0xbe9d5031	-0.30725244
48	0x3efefd2f	0.4980254
49	0xbe38b5e1	-0.18038131
50	0x3e2ea4d3	0.17055063
51	0xbe914f38	-0.28380752
52	0xbe998db4	-0.29990923
53	0x3d1aef42	0.03782583
54	0xbd155b88	-0.036464244
55	0xbd66ed4b	-0.056378644
56	0x3e87b01a	0.26501542
57	0xbeb7c355	-0.35891214
58	0x3ebb6ce5	0.36606517
59	0xbe998076	-0.2998082
60	0x3efc17ee	0.49237007
61	0xbeef8938	-0.46784377
62	0x3e38c4b4	0.18043786
63	0xbd45c39f	-0.048282262
64	0x3e0c2377	0.13685404
65	0x3f11a8a4	0.5689795
66	0xbe3a3a20	-0.18186235
67	0x3ed5995b	0.41718563
68	0x3db2638a	0.08710392
69	0xbed6ea2c	-0.41975534
70	0x3f08058b	0.5313346
71	0xbd77a5f8	-0.060461015
72	0xbeab1a15	-0.33418337
73	0xbd711e42	-0.058866747
74	0xbf07070c	-0.5274513
75	0x3ead15a1	0.33805564
76	0xbdb1e9dc	-0.08687183
77	0xbe3ed465	-0.1863571
78	0xbed50eb5	-0.41612783
79	0x3cfb6a2d	0.030690277
80	0x3f34e877	0.70667213
81	0xbda4bb60	-0.080435514
82	0x3ed1ca1a	0.40974504
83	0xbed42bad	-0.41439572
84	0x3ee03fb1	0.43798593
85	0xbdbfdfb3	-0.09368839
86	0x3e94cc61	0.2906218
87	0xbeb74227	-0.35792658
88	0xbe744971	-0.2385614
89	0xbdd1419b	-0.102175914
90	0xbeb9fbae	-0.3632483
91	0x3f08eec6	0.5348934
92	0x3e6643bf	0.2248678
93	0x3d5e1db7	0.054227557
94	0x3e96466d	0.29350606
95	0x3ef65519	0.481118
96	0xbeac4670	-0.3364749
97	0xbf3615d2	-0.71127045
98	0x3e27256d	0.1632287
99	0x3cd923c4	0.026506312
100	0xbf3bdc71	-0.7338324
101	0xbf900345	-1.1250998
102	0xbf6bd5a6	-0.92122877
103	0x3f8f0047	1.117196
104	0xbf8e23bd	-1.1104656
105	0xbf7725c1	-0.9654198
106	0x3f8a8c7a	1.082412
107	0xbf90d4c0	-1.1314926
108	0x3f969f84	1.176743
109	0xbf78bd5f	-0.9716396
110	0x3ed7ab7e	0.42123026
111	0x3f303747	0.68834347
112	0xbf79352c	-0.9734676
113	0xbf711a86	-0.94181097
114	0xbf70adf5	-0.9401544
115	0x3f59afc3	0.85033816
116	0xbf92872b	-1.14475
117	0x3f844dec	1.033628
118	0x3f7ea44d	0.99469453
119	0xbf9f05e8	-1.2423677
120	0x3f8f6f96	1.1205928
121	0x3f78b48f	0.9715051
122	0xbf41bf70	-0.75682735
123	0xbf7ba247	-0.9829449
124	0x3c063c82	0.008193137
125	0x3f850dba	1.0394814
126	0xbf85a398	-1.044055
127	0x3f8f7522	1.1207621
128	0x3f63e2c9	0.8901792
129	0xbf5df19f	-0.8669681
130	0x3d0b7f8c	0.034057185
131	0x3f2dcf94	0.67894864
132	0x3ec04bbd	0.37557784
133	0x3f07f4b3	0.53107756
134	0x3f88db33	1.0691894
135	0x3f5dae23	0.86593837
136	0x3f62ab70	0.8854284
137	0xbf79a03c	-0.97510123
138	0x3f73d022	0.9523946
139	0xbf5a3e63	-0.85251445
140	0xbf8f253f	-1.1183242
141	0xbf8b4bba	-1.0882485
142	0xbf8186a1	-1.011921
143	0xbf94cf68	-1.1625795
144	0x3f7bc1c6	0.9834255
145	0x3ec3866c	0.38188493
146	0x3f9a8cf6	1.2074268
147	0xbf69981b	-0.9124772
148	0xbf76f7f1	-0.9647208
149	0x3f580caf	0.84394354
150	0xbf09dbb9	-0.53850895
151	0x3ef361b4	0.4753548
152	0xbf3b54e1	-0.7317639
153	0x3e2a0e88	0.16607106
154	0xbe1debbb	-0.15421955
155	0xbe1991d4	-0.14997035
156	0x3c02f6e3	0.007993433
157	0xbe5ec59a	-0.21755067
158	0x3e2c89d9	0.1684946
159	0x3d6d2cf7	0.05790421
160	0xbf1f28a7	-0.62171406
161	0x3e8033da	0.2503956
162	0xbe06677c	-0.13125414
163	0x3edb654d	0.42850724
164	0xbed16355	-0.40896097
165	0xbf70ef9c	-0.94115615
166	0xbe68b7d0	-0.22726369
167	0xbec36806	-0.381653
168	0xbea4f095	-0.322148
169	0xbe2a560a	-0.16634384
170	0xbf2e0c8a	-0.67987883
171	0x3d846f35	0.064665236
172	0xbf2b8b6d	-0.6700962
173	0x3ebe8a2c	0.37214792
174	0x3f04bcfc	0.5185087
175	0xbec9090e	-0.3926472
176	0x3e1614cf	0.14656375
177	0x3f128a1b	0.5724198
178	0x3ef3eba3	0.47640714
179	0xbed91b5d	-0.4240369
180	0xbf080df8	-0.53146315
181	0x3ec84ab3	0.3911949
182	0xbf5efefb	-0.8710782
183	0x3f1142fb	0.5674283
184	0xbf0ff58f	-0.5623407
185	0x3f07053b	0.52742356
186	0xbe9cb279	-0.30604914
187	0xbeb8cfb5	-0.36095968
188	0x3f08e6c4	0.5347712
189	0x3c730e71	0.014834986
190	0x3ef1e5c1	0.472456
191	0xbe8dea7b	-0.27717957
192	0xbf15d81f	-0.585329
193	0x3e44a98e	0.19205305
194	0x3e79c9f6	0.24393448
195	0xbf4cf00c	-0.8005378
196	0x3ed92929	0.42414215
197	0x3f39f150	0.7263384
198	0x3e599aae	0.21250412
199	0x3ea00eb1	0.3126121
200	0xbebd832f	-0.37014148
201	0xbde19e93	-0.11016574
202	0x3efd3fdd	0.49462786
203	0xbeeb5098	-0.45959926
204	0xbdfacdf2	-0.12246312
205	0xbf0e532a	-0.5559565
206	0xbe867d34	-0.26267397
207	0x3ea80687	0.3281748
208	0xbe12995e	-0.14316317
209	0xbe0f9c82	-0.14024547
210	0xbd7e9906	-0.062157653
211	0xbecb922f	-0.39759967
212	0x3f1e945e	0.6194514
213	0xbf007eb8	-0.5019336
214	0x3ea7f5e5	0.3280479
215	0xbe6f7b26	-0.23386821
216	0xbe6a745d	-0.22895952
217	0xbe3e6a34	-0.18595201
218	0x3db99c64	0.09063032
219	0xbd1ec286	-0.03875973
220	0x3db7b257	0.089695625
221	0x3e9dc006	0.30810565
222	0xbf050ae5	-0.5196975
223	0xbd95e112	-0.073183194
224	0x3e6e7510	0.23286843
225	0xbe9340e2	-0.2876044
226	0x3e192d03	0.14958577
227	0xbec52178	-0.38502097
228	0x3ec34ebb	0.38146004
229	0x3ed7339c	0.42031562
230	0xbf17bc4b	-0.5927169
231	0x3ea9c7aa	0.33160144
232	0x3e4e43fb	0.2014312
233	0xbe9c1789	-0.30486706
234	0xbd2f6421	-0.0428201
235	0x3f3d8c63	0.7404234
236	0x3f1d4077	0.6142649
237	0x3ca94ec2	0.020667437
238	0x3e552b77	0.20817362
239	0x3f26c886	0.65149724
240	0xbda697ec	-0.081344455
241	0x3e13c26d	0.14429636
242	0x3ee2ee81	0.4432259
243	0xbf12d19d	-0.57351094
244	0xbed3caf7	-0.41365787
245	0x3ec38f42	0.38195235
246	0x3e41b92a	0.1891829
247	0xbde2e4fa	-0.1107883
248	0x3c20120b	0.009769927
249	0xbecf3bf9	-0.40475443

linears.4.bias f4 [5]
0	0x3e23ba3a	0.15989009
1	0x3e22a7e7	0.15884362
2	0x3f052f41	0.5202523
3	0xbe6efc12	-0.23338345
4	0xbda02808	-0.07820135
