inverse/saved_model/USnet_lmbd-1.0_mu-0.5-18000.pt (torch, 36151 bytes, 10 tensors)

linears.0.weight f4 [50, 2]
00000000: 250e e8bd fae9 323e 7c68 7ebe f402 9c3d
00000010: 2bf7 50be 5513 343c 0e1e d0bb b0c1 fe3d
00000020: 5656 1dbe a40d 38be 4f3e 143d ba9c 25bd
00000030: 4046 8f3e a398 1c3e be9f 053e f91e 703e
00000040: 71da 82be 2449 62bd 287e b9bd 7866 21be
00000050: 2bea a43d 4a67 7cbd 84bb 38be 577a 84bd
00000060: a70c e63d 728b cebd 6a17 c2bb 5598 803d
00000070: 1a64 5d3d e59d 54be 10d4 4cbd 6584 65bd
00000080: 7ce4 ccbd 1fdb ecbd d617 413a 1231 903d
00000090: c73d f0bd 7549 b3bd d720 29bd ff4a 5bbd
000000a0: 3ab7 46be 3f06 ef3d 6d98 893d c784 25bc
000000b0: 892d 97bc 937f 873d 6aa7 a83e ea3a d6bc
000000c0: e5cd 293c e47e 093e 8714 5fbc 41fe 30be
000000d0: 74f7 063d 0a1e 0e3e 9290 19be 7093 7e3d
000000e0: b3d4 6d3d 53a9 f23d 3ab6 84bd cd88 2a3e
000000f0: 3906 7d3e a03f 8b3e 3c30 d13e 1bff 913d
00000100: eb6a e03c d5fa 27be 6c52 8eba b21a 4a3d
00000110: 1df2 f2bc 267c 0a3e 46f8 dcbc 1d5c 38bd
00000120: 748f 2b3e 2214 c9bc 27cd 4e3c 08f6 01be
00000130: 24ce 24be 0f94 363d 59a7 6abd 2017 4fbc
00000140: 2d5c 31be fdba a4bd f116 89bc 2d6d 8f3d
00000150: c64e 0abe 0ba9 a4be 3269 4fbe b96d 03bd
00000160: 538a 20bc f3da b6bd 19e7 9cbe 86f5 713e
00000170: 3309 9e3e ef31 773c 4b99 013e 6a53 4a3d
00000180: a474 713e e69a 8e3e 768b 02be 0ea4 ea3c
-0.11330823 0.17472067 -0.24844545 0.07617751 -0.20406787 0.010990937 -0.006351239 0.12439287
-0.15364966 -0.17973953 0.036192235 -0.04043267 0.27983284 0.15292601 0.13049218 0.23449315
-0.25557283 -0.055245534 -0.090572655 -0.15761745 0.080524765 -0.06162194 -0.18040282 -0.06468647
0.11232882 -0.10085191 -0.0059232013 0.06279055 0.054050542 -0.20763357 -0.050006926 -0.056034464
-0.100045174 -0.115652315 0.00073659176 0.070406094 -0.11730533 -0.08754245 -0.041291084 -0.05353832
-0.19405833 0.11671113 0.06718526 -0.010102457 -0.01845433 0.0661613 0.32940227 -0.02615114
0.0103640305 0.13427311 -0.013615734 -0.1728449 0.032950833 0.13878646 -0.14996555 0.062152326
0.058064174 0.11848702 -0.064800695 0.16653748 0.24709405 0.2719698 0.40857112 0.07128736
0.027394732 -0.16404279 -0.0010858304 0.049341865 -0.029656464 0.13523921 -0.026973855 -0.04500972
0.16753942 -0.024545733 0.012622154 -0.1269151 -0.16094261 0.044574793 -0.0572885 -0.012639791
-0.17320319 -0.08043478 -0.016734572 0.070032455 -0.13506612 -0.3216022 -0.20254973 -0.03208706
-0.009798604 -0.0892848 -0.30645064 0.23628816 0.30866393 0.015087589 0.12656133 0.049395956
0.23579651 0.27852553 -0.12748513 0.02864268

linears.0.bias f4 [50]
00000000: fd74 7c3d cdf3 c23b cff9 273b bdd7 36be
00000010: af65 273e f03a 0f3e a72f e63d 7103 473e
00000020: e7d3 b9bc 5491 9b3c 74ca 6a3c ecac 85bd
00000030: 1f42 603e ce59 573d 69d8 85bc 18d1 53be
00000040: 00d0 e2bd ac89 5a3e 4b85 7c3b 14d0 33be
00000050: 546d 1cbd e712 78bd 207f 203e 07f5 87be
00000060: f640 90bd dd08 573e 08b9 3d3d fc6c 26bd
00000070: 3e46 3fbe eae5 443e ac84 b3bd fa56 1e3e
00000080: c324 c03d 9b6f 773e a880 3b3e 5654 11bb
00000090: 612b cd3d 8440 633e 401a 033d 2430 173e
000000a0: d68e 0fbd 2db3 073e 1d46 aa3b bed1 7cbd
000000b0: 8536 263d b24a 6c3b 3239 f83d cd50 f63d
000000c0: 6879 293e 3e22 333d
0.061635006 0.0059494735 0.0025631075 -0.17855735 0.16347383 0.13987327 0.11239558 0.19434907
-0.02268405 0.018990196 0.014330495 -0.06527123 0.21900223 0.05257588 -0.016338544 -0.20685232
-0.11074829 0.2134158 0.0038531597 -0.17559844 -0.0381902 -0.0605649 0.15673494 -0.2655413
-0.0704364 0.20999475 0.046319038 -0.04063128 -0.18679139 0.1922833 -0.087655395 0.15462866
0.09382012 0.24163668 0.18310797 -0.0022175512 0.100180395 0.2219258 0.032007456 0.14764458
-0.03504833 0.13251944 0.0051963464 -0.061723463 0.040579338 0.0036055264 0.12120284 0.1202713
0.16550219 0.043733828

linears.1.weight f4 [50, 50]
00000000: f0b9 cd3e 06cc 6e3e 43bd 0b3d 12d2 7d3e
00000010: 9489 6ebe 68ea 2fbe 7824 f13c bf86 f8bd
00000020: 34d4 ebbd e4a3 f5bd 7ffc bdbc 68cd 933e
00000030: fd37 8a3e f1f8 75be 3af3 d9bc d9c7 c53c
00000040: a8bc b4be 3377 1ebe 6feb aabc 8324 d93d
00000050: 7943 f83d ff25 b2bd f5a1 8f3d d66d 0f3e
00000060: f4c4 ca3d 3dcd febe 09ec a7bd 3466 283e
00000070: 0531 c8be 3ef2 f93d cfd2 b53e 6c81 b7be
00000080: e38f 07be fe0f a0be 81ca 33be 0d86 1b3e
00000090: d2e1 86bd 1a2f e1be 72b9 ba3e 8c4c 173d
000000a0: 15bd b83e 4698 53be e674 bebe 2a58 dd3b
000000b0: e12c eebe d9e1 ac3d 92b2 42be 6fb0 7ebe
000000c0: 45ff dbbe 753d 36bc 28cf 03be c5f2 813d
000000d0: c34b 5e3e 2083 d93e fb2d abbe 4e95 cfbe
000000e0: a23e df3d f07c 123e eaed f83e 32ca 3fbd
000000f0: 5931 3ebe 1e83 ae3c 9fcf ccbe c21b 4a3e
00000100: cb3b 32be 7fcf 27bd bd7d 093e 5f1c 48be
00000110: 7ff7 be3d 6ab0 60be 47a6 913e 4c61 cfbd
00000120: 635a 99bc 8985 df3e 7931 873e 40a7 99be
00000130: 2e39 6b3e 7dbf 063e df22 a2bd e125 643e
00000140: 491a c53c a924 8dbe 4708 a93c 1af6 ca3d
00000150: 32f2 1e3d 19df cb3b e4f5 0ebf ba1c d0be
00000160: 2958 87bd 1bbb d0be e65d b33d c883 483c
00000170: 1600 153e 46b7 e13e fc24 3bbe 3708 c2bd
00000180: b162 803e d5c6 13be cec6 39be 5179 383e
00000190: b4c1 9d3e fd48 503c d255 313e 86bd 2e3e
000001a0: 7082 d83b 674e e5be 96fc 953e 3970 fd3e
000001b0: 5207 4b3e bdb0 693d b8ce 4cbe 3247 7fbe
000001c0: e69a 58be a83e 9c3d 3683 d7bd 6aa9 ffbc
000001d0: 6cde 18be 0812 3b3e 3b6c ed3d 6f8a fdbe
000001e0: de6a f53e 628d d63d a045 913e 9cdf 0bbd
000001f0: a056 743d 232b 59be bf84 a93e 6ddd afbb
00000200: 228e a83d b902 cabc 8da7 c13c f617 5c3e
00000210: 8e47 6d3e e9b3 8f3e 0b04 ae3e a460 a6bc
00000220: f87e 66be 5c69 4c3d 5024 dbbd 9fb4 a2be
00000230: a12e 26be cae6 e33d 8767 c239 aed9 993e
00000240: 5410 c03d 43bf 99be ff72 2b3f 39a3 2c3e
00000250: fe6b d23d 348c 0a3c 4784 66be 130c c1be
00000260: ddee a0be 5316 b33c 0697 d9bd f10f 3b3e
00000270: 42cf 0bbe 7cff 28be b9fc 8ebd 210d 8b3e
00000280: 5d78 6dbe e578 c33d f82a d93e d329 8d3d
00000290: f263 a3bd af06 f7bd b12d 3a3e 33e9 aebe
000002a0: dda2 123e 3a6d c03d ffbd 58be 07d9 a23d
000002b0: edc9 c1be dfaf 033f 06ae 4ebe 56c4 ffbd
000002c0: 8bc0 b7be 77c3 423e be45 3d3e c078 8ebe
000002d0: 62fe 563b d3ed c2bd 4324 a4be 7724 91be
000002e0: 3620 cabe f2f4 863e 4d34 153e be34 a53c
000002f0: ebfd 60be 61cb 543d dc36 22be c398 383e
00000300: 2b60 18be 83e4 9dbd de0d c6bd e864 143e
00000310: 70c9 44be a845 aebe 19ce 223d 2e6d 05be
00000320: eb4c 8d3c e448 a83e cd03 283f 64c8 fe3d
00000330: 4d15 923e 5158 0bbf de66 333e 8360 ae3e
00000340: 0f28 343e 8c17 14bd 1ac5 533d 223c b6be
00000350: bfe6 b0be f569 86bd 6a61 b53e a0e1 093e
00000360: ce0c 29bc 91b0 e33d 6a8d 8ebc 4764 56be
00000370: 246a 60bd 0f6d c1be 468f 10be 97ac 253e
00000380: 6199 923e 4731 bcbd a630 273e 1214 203e
00000390: 4040 413c 7e81 1ebe f9d6 d8bd e456 20bd
000003a0: 2c72 733c 742f 8f3b d7ca 933e 693c 2a3d
000003b0: 1e6a a2be 67c5 64be a914 10bd 831e c83c
000003c0: 7cf0 8ebd a517 efbd 8776 cd3d 2ad7 533e
000003d0: a89d 7f3d eaa0 6dbd d854 893e 49a7 a33e
000003e0: 24f1 5cbe e49a a43e 62a6 45be 35e7 dc3e
000003f0: 654c 093f e0bd cbbc f598 43be 6e2c 3dbe
0.40180922 0.23320016 0.03411604 0.24787167 -0.2329467 -0.17179263 0.029436335 -0.12135076
-0.11515084 -0.1199415 -0.023191689 0.2886765 0.2699584 -0.24020745 -0.026605237 0.024143146
-0.35300183 -0.15475158 -0.020864217 0.10602667 0.121222444 -0.086986534 0.07013313 0.14006743
0.09900847 -0.4976596 -0.08199317 0.16445237 -0.390999 0.12204407 0.35512397 -0.3584093
-0.13238482 -0.312622 -0.17557718 0.15187855 -0.065860406 -0.43981248 0.3646961 0.036938235
0.36081758 -0.20663556 -0.3719856 0.0067548947 -0.46518615 0.084415145 -0.19013432 -0.24871992
-0.42968193 -0.011123051 -0.12871993 0.06345133 0.21708588 0.42482853 -0.33433518 -0.40543598
0.10900618 0.14305472 0.48619014 -0.046823688 -0.18573512 0.021302756 -0.40002152 0.19737151
-0.17405622 -0.040969368 0.13426872 -0.19542073 0.0932455 -0.21942297 0.28447172 -0.1012598
-0.018719858 0.43656567 0.26404932 -0.30010414 0.22971031 0.13158984 -0.079168074 0.22280075
0.024060385 -0.27567032 0.02063383 0.099102214 0.038805194 0.0062216637 -0.5584395 -0.40646917
-0.06608612 -0.4076775 0.08758144 0.01223845 0.14550814 0.4408514 -0.18275827 -0.09474223
0.25075296 -0.14431317 -0.18142244 0.18015029 0.30811846 0.012712714 0.17317894 0.17064485
0.0066073462 -0.4478638 0.2929427 0.49499682 0.19827011 0.057053316 -0.20000732 -0.24929503
-0.21152839 0.07629138 -0.105230734 -0.031208713 -0.14928597 0.18268597 0.11592909 -0.4951968
0.47933096 0.104761854 0.28373432 -0.034148797 0.059652925 -0.21207862 0.3310909 -0.005366972
0.08230235 -0.024659501 0.023639465 0.21493515 0.23171827 0.28066948 0.3398746 -0.020309754
-0.22509372 0.049905166 -0.107002854 -0.31778428 -0.16228725 0.11128004 0.00037079697 0.3004889
0.09378114 -0.30028734 0.66972345 0.1685914 0.10274504 0.008456279 -0.22511397 -0.37704524
-0.31432238 0.021861231 -0.106245086 0.182678 -0.13653281 -0.1650371 -0.06981797 0.27158454
-0.23190446 0.09544543 0.42415595 0.06892743 -0.079780474 -0.12061822 0.18181492 -0.34162292
0.1431994 0.09395833 -0.21166228 0.07951551 -0.3784937 0.51440233 -0.20183572 -0.1248862
-0.35889086 0.19019876 0.18483636 -0.278265 0.0032805433 -0.095180176 -0.32058915 -0.28348133
-0.394777 0.26358753 0.14570732 0.020166751 -0.21971862 0.05195177 -0.1584124 0.18027024
-0.14880435 -0.07709601 -0.09670614 0.14491618 -0.19217467 -0.34037519 0.03974733 -0.1302993
0.017248591 0.3286811 0.656308 0.12440565 0.28531876 -0.54431635 0.1751971 0.34058008
0.17593406 -0.03615527 0.051701643 -0.35592753 -0.34551045 -0.065631784 0.35425884 0.13464975
-0.010317994 0.11117662 -0.017401416 -0.2093669 -0.054788724 -0.37778518 -0.14117154 0.16179119
0.28632644 -0.091890864 0.16327152 0.15632656 0.011795104 -0.15479085 -0.10587878 -0.039145365
0.014858764 0.0043696705 0.28865692 0.041561518 -0.31721586 -0.22340928 -0.035175953 0.024428612
-0.069794625 -0.11674432 0.10032373 0.20687547 0.062406212 -0.058014788 0.26822543 0.31963566
-0.21576363 0.32149422 -0.19301751 0.43145147 0.53632194 -0.024870813 -0.19101317 -0.1847398

linears.1.bias f4 [50]
00000000: 4a20 26be 1569 16be 0bc1 333c 582b 833d
00000010: 51a9 52ba 167d a73e aba3 b53e 3090 723e
00000020: e10f 863c ffeb cd3e 7d56 4d3e 47b8 65be
00000030: 145c cdbe d53b 8b3e 1881 99be cfea 13be
00000040: e032 f7be 6468 c7be 210d f7bd 2f56 09be
00000050: 3d38 e1be f34e 53be ea7d 923e 7d44 1cbe
00000060: d56d 393e 30a1 c33d f10d 8cbd 34d2 ce3e
00000070: 64e0 64be e916 a7bd 6d3b f93d 54c4 e5be
00000080: 41ac 54be 87b8 3a3e fe6c 27bc eb4c b83d
00000090: 7b23 aebe d944 1bbe 3c9a ee3d 5a88 ca3e
000000a0: a2ca 6a3e ea1e b9be 3121 99be 27e5 77be
000000b0: 92a0 22be 236a c33e 08d3 c93e bc13 9c3e
000000c0: c1f4 dc3d cc47 043f
-0.16223255 -0.14688523 0.010971318 0.064047515 -0.00080360944 0.3271262 0.3547643 0.23687816
0.016364994 0.40219113 0.20052524 -0.22433577 -0.40109313 0.27194086 -0.29981303 -0.14445041
-0.48281002 -0.3894683 -0.12063051 -0.13411783 -0.4398822 -0.20635585 0.2861169 -0.15260501
0.18108304 0.095522285 -0.068385966 0.40394747 -0.22351223 -0.08158667 0.12169538 -0.4487635
-0.20768835 0.18234454 -0.010218857 0.08999046 -0.34011444 -0.15162982 0.116505116 0.39557153
0.22928861 -0.36156398 -0.29908136 -0.24208508 -0.15881565 0.38166913 0.39418817 0.30483806
0.107888706 0.51672053

linears.2.weight f4 [50, 50]
00000000: d080 34bf 9cd8 633e 082e 933d 8727 033f
00000010: 3d05 ae3e 6adb 4d3f d108 513f 41b1 233f
00000020: 2e52 863d 16fa 463f 00b9 873f 70a3 53bf
00000030: fb85 d6be dab9 4e3e be22 b9be c310 acbe
00000040: d3df b6be 07fd 59bf c388 39bf 4bd2 863e
00000050: fab1 09bf 116a 1bbf 6b9d f43e ddad 00bf
00000060: e625 d43e cfb4 493e f4c3 2abf 4597 283b
00000070: 430b adbe af14 72be 0549 0abe ad42 39bf
00000080: da2a 3cbe 4558 513f 29e6 883e d0ec c8bd
00000090: 86ab 44bf cc42 48bf fb93 1dbd 1426 503f
000000a0: 6df9 173f e401 17bf 98aa f4be b633 52bf
000000b0: 89b5 a5be 233d 9cbd f5a3 8d3f 0f47 743e
000000c0: 3daa b7be 89a7 1a3f 7947 9b3e 6b7d e53d
000000d0: 39ef 27bd 291a 7cbe 3d80 f8bd e545 22bb
000000e0: e5cf e9be ce02 70bd 8af9 c1be 5728 01be
000000f0: f35b f5bd 6558 933e 2899 2a3e fdfa a63e
00000100: 4c1b 8a3e ba07 8ebd 2785 df3d 7ae8 d53d
00000110: 948d 903c a61b 6d3e e60e 37bd 1c94 c13d
00000120: bb64 643e f1fd f63d 6f17 0ebf 632e c8bd
00000130: 0504 723e c4b1 7bbe 1bbc 38be 93ac 1b3e
00000140: f092 cdbd 81cb c9bd 99e1 84be 694a b3bc
00000150: c657 863c f688 823e bce0 503c 5d44 833e
00000160: 9baf e43e 139f 13be ba1d aebe 69ee e43e
00000170: 9d6f 93bc 7ecc 993e c1ed c2be 496e f5be
00000180: f5c1 c73e bce4 f4be a47b b33b 0498 053e
00000190: 5225 8dbe 4e51 a53e 916d c33e 66e9 9ebe
000001a0: 66d9 cc3d 61ad 6bbf 3e43 e03e 0d1a ba3c
000001b0: ffb8 0fbe ce61 753d 4588 b0bd dd9c 2fbe
000001c0: c682 7bbe 45e8 0b3f 1618 4cbe 457d bb3c
000001d0: d814 b8be c583 de3e f6ea e23d b852 05bf
000001e0: 322b 87bd 1cf5 b33c 9a7c 1cbf 3eba 96bc
000001f0: 8f06 87bd ce91 913e a223 02bf edf4 79be
00000200: f9c3 d43c 4e04 943e 416a f5be 79fe 953f
00000210: cfc3 993e 6b0b b2bd 4fbb afbe 00d0 fdbe
00000220: 8ba9 45bb a594 a73e eeec dabe aaef cebe
00000230: 4ab5 7dbd 4128 b63e 79bf d2be 9e8a c43d
00000240: 8f2f a53e 3a66 163e b90e 4dbf 12ae 103f
00000250: 7851 15be 31a3 61bd 0024 863d a018 21be
00000260: ab99 8e3e 9cf4 063f 969b 87be 46bf 2d3e
00000270: b36e cebe 7cc2 593f b73d c4be e674 8abe
00000280: 40f0 153c 2563 4d3e 4b9e 0abf 40be b4bd
00000290: eff7 df3e acfb 4d3e ad40 8d3e 825a d83d
000002a0: 261d 1abd 250a bb3e 938b 403e ce15 993e
000002b0: ae3c 353f c377 333e e143 58be 28b2 b6be
000002c0: 7ec5 4f3f ba6c 923d 49c0 51bf 90d3 8f3b
000002d0: 740c ad3e 698b aabd 5ffd 0ebf f899 61be
000002e0: 36d8 c5bd 4109 e13d 92e4 ecbd feb4 be3e
000002f0: e09d 753f 2935 2b3e 3029 5b3e 2f0c e23e
00000300: b41b d3be 4f9e 55be f78b 18bf 4093 99be
00000310: 1fec 453f aa3c 1dbe 51a9 9c3e 030c f2bd
00000320: 35c9 5cbf a169 02be fcd0 5d3f 48fe 8c3f
00000330: 1ab8 f73d a4a2 da3c ee2f 2ebe 4640 413f
00000340: 6d53 e1bd cbf4 e9be aa19 51bd e583 c6bd
00000350: b6c5 85bf 456c 9e3e b0ad 34bc fb1c c0be
00000360: b5d2 403e 6ee5 96be 4026 18bf d556 c93e
00000370: 09f1 313e e7d6 da3d ee0f df3e df72 793e
00000380: 47a7 7abe d2b4 3b3d 053c 333f 6567 a7be
00000390: f16f 1cbf 677b 363e b32a 3e3e a2b1 f5bd
000003a0: 0f8f 12bf 3ea4 7bbe f5a3 0abf 2a2e bb3e
000003b0: b31a 12bf 0e63 84be 4062 063f 8e44 5a3e
000003c0: 917e 413f 66c5 f73e 3c70 59bf dda3 7bbf
000003d0: 0392 32bf f2b5 2b3e 88b6 383f 7bdf 4c3f
000003e0: 94fb c33e 81e8 8f3d b678 bdbe 07e1 0f3e
000003f0: 3f8f 96be 905b 583e c1df ae3e abae 083f
-0.7050905 0.22250599 0.07186514 0.5123219 0.33988371 0.80412924 0.8165408 0.63942343
0.06558643 0.7772535 1.0603333 -0.8267126 -0.41899094 0.20188084 -0.3615932 -0.33606538
-0.3571764 -0.85151714 -0.72474307 0.26332316 -0.53787196 -0.6070872 0.4777635 -0.50265294
0.41435164 0.19697879 -0.6670525 0.002572493 -0.33797655 -0.23640703 -0.13504417 -0.72367364
-0.18375722 0.81775314 0.26738098 -0.098107934 -0.76824224 -0.78226924 -0.038471203 0.813081
0.5936497 -0.5898726 -0.47786403 -0.82110155 -0.32365063 -0.076288484 1.1065661 0.23855232
-0.3587207 0.6041189 0.30327967 0.11205562 -0.040999625 -0.24619354 -0.121338345 -0.0024760899
-0.45666423 -0.058596425 -0.37885696 -0.12613045 -0.119804285 0.28778377 0.16659987 0.32613364
0.2697395 -0.069350675 0.10914069 0.10444732 0.017645635 0.23155078 -0.044691943 0.09452078
0.2230405 0.12060154 -0.55504507 -0.097744726 0.23634346 -0.24579531 -0.18040507 0.1520255
-0.10037792 -0.098532684 -0.25953367 -0.021886067 0.016399276 0.25495118 0.012748893 0.25638095
0.44665226 -0.14416151 -0.34007055 0.44713143 -0.017997557 0.30038828 -0.38072017 -0.47935703
0.39015165 -0.4783076 0.0054773856 0.1304627 -0.27567536 0.32288593 0.3816953 -0.31037444
0.10002403 -0.9206143 0.43801302 0.0227175 -0.14035414 0.059907727 -0.08619741 -0.17149682
-0.24561605 0.5465129 -0.19931063 0.022886882 -0.35953403 0.43459907 0.110799715 -0.52079344
-0.06600036 0.021967463 -0.61127627 -0.018399354 -0.06593048 0.28431553 -0.5083562 -0.24409838
0.025972353 0.28909534 -0.47932628 1.1718284 0.30032203 -0.08693584 -0.34322593 -0.49572754
-0.003016087 0.32730594 -0.42758888 -0.40417224 -0.06194047 0.35577586 -0.41161707 0.09596752
0.32262847 0.14687434 -0.8010059 0.5651561 -0.14581859 -0.055087272 0.06549835 -0.1573205
0.27851614 0.52716994 -0.2648589 0.16967496 -0.40318832 0.85062385 -0.38328335 -0.2704231
0.009151518 0.20057352 -0.54147786 -0.0882535 0.43743846 0.20115536 0.27588406 0.10564138
-0.037625454 0.36531177 0.18803243 0.29899448 0.70795715 0.17526154 -0.21119644 -0.35682797
0.81160724 0.07149644 -0.8193403 0.004389234 0.33798563 -0.083273716 -0.55855364 -0.2203139
-0.096603796 0.10988093 -0.11567034 0.3724746 0.95944023 0.16719498 0.2140243 0.4414992
-0.41232073 -0.20861171 -0.5958857 -0.29995155 0.7731342 -0.15355173 0.30597928 -0.11818697
-0.8624452 -0.12735607 0.8664701 1.10151 0.120956615 0.026688881 -0.17010471 0.754887
-0.1100224 -0.45694575 -0.051049866 -0.09693126 -1.0450962 0.30941978 -0.011027738 -0.3752211
0.18830378 -0.29471916 -0.59433365 0.3932406 0.17377104 0.106855206 0.4356684 0.24360226
-0.24477874 0.04582674 0.7001346 -0.3269607 -0.6110831 0.17820512 0.18570976 -0.119967714
-0.5724954 -0.24574372 -0.5415643 0.36558658 -0.5707199 -0.25856823 0.5249367 0.21315214
0.7558375 0.4839279 -0.8493688 -0.9829691 -0.69754046 0.16768625 0.7215352 0.80028504
0.38277876 0.070267685 -0.37006158 0.14050685 -0.29406163 0.21128678 0.34155086 0.5339152

linears.2.bias f4 [50]
00000000: 2b6d 693f d337 efbd 8f57 2abe f802 e33e
00000010: 8d96 803f 4fb7 603e c069 013d 2d4c bebe
00000020: 875e 813d 43fe cf3e b99e 053e 3cb2 0bbe
00000030: f0fd 4d3d ffb5 a5be 69c2 f73e 69c5 dbbe
00000040: 950e 78be 592a adbe 83a2 12bf 1d40 6f3e
00000050: 1960 873e ffb5 e33c 16c0 acbe 1fa1 6b3d
00000060: 45ba 6b3e f53e c53e 7d81 30be 9390 233c
00000070: 072c 94bd 3d3a c1be e112 423e 5487 e6be
00000080: 92bf 093f b7b0 5ebe 37e1 943e a4bc b53d
00000090: 19f3 9b3e 9b94 e73e 3502 bbbd 7f7e 9bbd
000000a0: 0282 203f f0a4 31be e899 e1be ede1 5fbf
000000b0: 9065 bdbe 8277 f1be 3da4 1bbf c0f5 083f
000000c0: 3b44 bcbe b35b a23e
0.911822 -0.116805695 -0.16634963 0.44338202 1.0045944 0.21944927 0.03159499 -0.37167493
0.06316858 0.40623674 0.13048829 -0.1364221 0.050291 -0.32365415 0.4839051 -0.4292405
-0.24224313 -0.3382137 -0.57279223 0.23364301 0.26440504 0.027796743 -0.337403 0.057526704
0.23020275 0.38524595 -0.17236896 0.0099832 -0.0723496 -0.37739745 0.18952514 -0.45025122
0.5380794 -0.21747099 0.29078075 0.08873871 0.30458906 0.45230564 -0.0913128 -0.075924866
0.62698376 -0.17348075 -0.44062734 -0.8745411 -0.3699155 -0.4716149 -0.6079748 0.53499985
-0.36770806 0.31710586

linears.3.weight f4 [50, 50]
00000000: 2180 abbe 24fb 81bf a338 703e 6166 9b3e
00000010: 6e67 6f3f de05 c93e bc90 33bf f6a3 fc3e
00000020: f3fb 9fbe c699 3b3f 81c0 8e3f 3bd6 943f
00000030: ad92 983f 3bd7 39be fe6e 5abe 0367 bfbe
00000040: 1b7c 53bf 9c9d 6a3d 6023 06bf d6ce 8f3f
00000050: 613a 8a3e 3a93 043f 57bb e73e a3e6 95be
00000060: 7703 343f 1e69 f93c 551c 1c3e 6d77 95be
00000070: ceb6 833f 8157 d3bd 48cd 34bf c8c2 76bf
00000080: a998 4b3f 289e 0e3f 2a4c b2be 3d0e 0d3e
00000090: d762 b23e 41d1 2e3f 53cf f83e 3266 01bf
000000a0: 20be b3bd c730 d1bd 7a43 3cbd fdb3 083f
000000b0: f07e 023f 910f 043e c8c8 af3e df68 8abe
000000c0: 8113 02bf 0654 653f c200 35bd 7535 12bf
000000d0: 82fb 9a3e 0520 c1be 640b 11bf 63b4 f1be
000000e0: 20d7 a0be 3f88 82be b75d 2ebf aa36 6a3e
000000f0: f522 613e ef59 2c3e 8a9c 13be 6b4e e63e
00000100: 0153 073c 6612 a93c 4073 ac3e e159 2fbf
00000110: 8a1e 8cbd d431 20bd 4933 823c c70d cbbe
00000120: c466 173f 00e2 2b3e e53e 28be a19f fa3e
00000130: 602e 08be a33b 123e 13b7 d1bd 5db6 83bf
00000140: e1ae bc3c 7739 4ebe f2a5 b2bd be82 97be
00000150: cda8 243e a6d2 c0bd 97a9 7abe 9792 2e3f
00000160: 81af 5cbd 7855 abbe fb60 79be ccba 12be
00000170: e870 9e3e 3d7f b53e 273b 0fbd 1e7c b1be
00000180: f44f f33e 4570 033f ff57 2c3f 276d 9a3c
00000190: ecde 8a3c c2b0 86be 0729 39bf a6a3 56bf
000001a0: 066c 163f f9c0 43bf 307c d33e 8eff 203f
000001b0: a2ff a2bf d6a5 1fbf 4ee5 963e 576f 8f3e
000001c0: 154b 8a3d 9c28 c83e 8ebf 37bf 93fe 4b3f
000001d0: e192 20be d926 3fbf b065 063f 102f e33e
000001e0: b2d8 223b 39a0 883e 28c9 90be 2518 073e
000001f0: a746 02bf 8e72 99be 9400 40bf e25e a23d
00000200: 11f0 cd3d ba4c eabe 209d 00bd b458 11bf
00000210: 3733 d73b 5b5f ccbe a439 a9be c14a 433f
00000220: 5731 7a3f f79a c93e 5172 64bf 0b06 1c3f
00000230: 90ad 8dbe 8516 eebe d583 cbbe c764 3d3e
00000240: 4d22 f63e 18ed babd 60ac 263f 1e67 24bc
00000250: b110 733d 6ede ecbe f78e 863e 8e1d 683e
00000260: 2e5e 3b3e 63d7 05bf d54b c63b 48e2 23bf
00000270: ecb8 c2be 8afd e0be 45e1 3bbe 2ad1 7b3e
00000280: 549b b23d 1c16 833e 2851 cdbe c3e1 963c
00000290: 94e4 aabe 42b7 163f 11f2 babe 39d6 2bbd
000002a0: 9030 123e a5cf 33bf 0948 30be b494 fabe
000002b0: 4098 90bd abaa 473f e2e4 773e b7b5 abbd
000002c0: c089 a0be f36c 4a3e 1160 c43d c04e 703e
000002d0: 5667 97be 2f3b 10be e103 403e 5a8b cf3d
000002e0: 74c5 76bd 6d7b f0bd 9742 f03d 982c 803e
000002f0: e932 ef3c 44bd 163f 30d3 833e 12cf b0bd
00000300: 1264 b73e c7cb 0b3f cd84 913c be6b b63d
00000310: a911 f43d dcff 103e 1ce9 493e 6bf4 793e
00000320: 2a25 f1be b57a a23e 488b 28bf 7afe 31bf
00000330: 7af2 b6be 604c 7bbe 4826 063f 9c3f 84bd
00000340: daf3 07bf f899 12bf 9943 8b3e ec55 8e3e
00000350: f5bb a0bc 1e38 173c 1cb1 a2bf 591b 483f
00000360: 5ec1 75bf 6b76 a4bd a918 113e 910b 03bf
00000370: 0dc0 c43d f97a cebd 8e81 62be 2b1c 803f
00000380: e224 213e 69f6 1fbf 44b7 57be f6bb 403f
00000390: c838 3f3e ce1d 90bd dd64 04be 2656 19bd
000003a0: 7e09 eabe d4b3 efbe 4f4c 6cbe 2a66 aa3e
000003b0: 23e9 b2be 1af0 b33c a043 1cbf ab81 023e
000003c0: 1ad8 263f 41ff 08be cf89 063f 3fd4 473c
000003d0: f0b8 243e 7fc5 e83e f804 0dbe 9251 8e3d
000003e0: 296f 3bbe 7155 b63d d033 0ebe b2ca 00bf
000003f0: 3707 9ebe bd16 39be 479a fbbe 10da abbe
-0.33496192 -1.0154767 0.23459105 0.30351546 0.93517196 0.3926229 -0.7014272 0.49343842
-0.3124691 0.73281515 1.1152498 1.1627878 1.1919762 -0.1814851 -0.21331403 -0.3738328
-0.82611245 0.057279214 -0.5239773 1.1234996 0.26997665 0.5178715 0.45260116 -0.29277524
0.70317787 0.030445632 0.15245183 -0.29192677 1.0290163 -0.103194244 -0.70625734 -0.9639096
0.79529816 0.5571008 -0.34823734 0.13774963 0.34841034 0.68288046 0.48595676 -0.5054656
-0.08776498 -0.10214382 -0.04596279 0.5339964 0.5097494 0.12896563 0.3433287 -0.27033135
-0.5081101 0.89581335 -0.044190176 -0.5711282 0.3027001 -0.3771974 -0.56658006 -0.47207937
-0.31414127 -0.25494573 -0.6811175 0.22872415 0.21985991 0.16831182 -0.14415184 0.44981703
0.008259536 0.020638656 0.3368168 -0.6849652 -0.06841762 -0.03911002 0.015893595 -0.3965895
0.5914118 0.16785431 -0.16430242 0.48949912 -0.1329894 0.14280562 -0.10239997 -1.0290028
0.023032608 -0.20139109 -0.08723058 -0.29591936 0.16080017 -0.09415178 -0.24478756 0.6819243
-0.05387831 -0.33463645 -0.24353401 -0.1432907 0.30945516 0.35448638 -0.03496852 -0.34665006
0.47521937 0.51343185 0.6732177 0.018850876 0.016952 -0.2630673 -0.7232823 -0.8384346
0.5875858 -0.7646633 0.41305685 0.62889946 -1.2734263 -0.6236242 0.2947182 0.28014633
0.06752602 0.39093482 -0.71776664 0.79685324 -0.1568103 -0.7466865 0.5249891 0.44371843
0.0024848399 0.2668474 -0.2827847 0.13192804 -0.50889057 -0.2997021 -0.7500088 0.07928254
0.10055555 -0.45761663 -0.031399846 -0.56775975 0.0065673846 -0.399165 -0.3305179 0.7628594
0.97731537 0.3937604 -0.89236933 0.6094672 -0.2767148 -0.46501556 -0.39749017 0.18495475
0.48073044 -0.09127253 0.65106773 -0.010034351 0.05934209 -0.4626345 0.2628095 0.22667524
0.18297645 -0.5228178 0.0060515204 -0.6401715 -0.3803171 -0.43943435 -0.18347652 0.24591509
0.08721033 0.25602806 -0.4010098 0.018418198 -0.33377516 0.5887338 -0.36512807 -0.041952346
0.14276338 -0.70238715 -0.17214979 -0.48941576 -0.070602894 0.77994794 0.24208406 -0.08384269
-0.31355095 0.19768123 0.09588636 0.2346754 -0.29571027 -0.14085077 0.1875148 0.10134001
-0.0602469 -0.117422916 0.11731451 0.25034022 0.02919908 0.58882546 0.2574706 -0.086332455
0.35818535 0.54607815 0.01776352 0.08907269 0.11917431 0.14160103 0.1971783 0.24409644
-0.47098666 0.31734243 -0.65837526 -0.69528925 -0.3573187 -0.24540854 0.5240216 -0.06457445
-0.5310646 -0.5726619 0.2720001 0.27799928 -0.019620875 0.009229688 -1.27103 0.7816673
-0.9599818 -0.08030399 0.14169563 -0.51189524 0.09606943 -0.10082049 -0.22119734 1.0008596
0.15736726 -0.6248537 -0.21066004 0.75286806 0.18674004 -0.07036935 -0.12929101 -0.037435673
-0.45710367 -0.46816885 -0.23075984 0.3328107 -0.34943494 0.021965075 -0.6104069 0.12744777
0.65173495 -0.13378622 0.5255403 0.0121965995 0.16086173 0.45463178 -0.13771427 0.06949152
-0.18304123 0.089030154 -0.13886952 -0.5030929 -0.3086488 -0.1807508 -0.49141142 -0.33564806

linears.3.bias f4 [50]
00000000: 4234 0c3f 05c2 e1bd 0487 b2be 0fc8 3dbe
00000010: fb0d b1be 14dc d8be 4059 5e3e 3e1b 433f
00000020: b3a8 aabd a5f8 153e a0bb fe3e f614 1dbe
00000030: 4d65 6ebe 6cfc 0b3f b793 54be a9e9 523f
00000040: 15ef 7bbf 2db6 083e 47a3 1b3f 63d7 2dbf
00000050: e6c6 6e3f 81d3 b73d 53d7 363f 03fb b43e
00000060: 5bbf 8ebd 3d64 57bf 83f4 3e3f a761 9c3e
00000070: abac 95bd 9a48 10bf 32a5 9ebe 1b05 b7bf
00000080: 27cc 083d dfae 68be a530 493e dc0e ef3e
00000090: 42d6 3d3f 7531 dfbe 186f 6bbe 29b2 28bd
000000a0: 59a2 213f 1741 84be 953f 3cbf b9d1 c33d
000000b0: f3f3 14be 61cc 453e 329c ac3e 81c3 813d
000000c0: 9cd3 0f3f 4eea 233f
0.5476724 -0.110233344 -0.34868634 -0.18533348 -0.3458098 -0.42355406 0.21713734 0.76213443
-0.08332958 0.14645632 0.49752522 -0.15340027 -0.2328083 0.5468204 -0.20759474 0.8238779
-0.98411685 0.13350745 0.60796016 -0.6790678 0.93272245 0.08975888 0.7142231 0.35347757
-0.06970092 -0.84137326 0.74591845 0.30543253 -0.073083244 -0.5636078 -0.3098541 -1.4298433
0.03339782 -0.22722958 0.19647463 0.46691024 0.74155056 -0.4359242 -0.22991598 -0.04118553
0.6313835 -0.2583091 -0.7353452 0.09561486 -0.14546184 0.19316246 0.33712918 0.063361175
0.56182265 0.64029396

linears.4.weight f4 [5, 50]
00000000: d748 333e 7f91 023f 6258 843f ad95 e63e
00000010: 8206 863e 4e33 b83e db34 023f ce1e 85bf
00000020: cea1 3f3f a47f 0c3e 0116 333e f63a 6f3f
00000030: 4914 e73e 2cd8 1b3d ab1f 473f c003 86be
00000040: 3b00 cebe 5b36 f73d 1c69 88bd cd24 09bc
00000050: a86b 35bf 31f0 ff3e a4f0 903b 898e 20bf
00000060: fed2 10bf f102 4d3e 2e08 dcbe 897f dabe
00000070: 8fd9 dc3d 05ab 1fbe b859 703e 067c 723e
00000080: bd7d c4bd 26d2 07bf 31ef cabe 1c19 4a3e
00000090: d91a c43e 3fae edbe 00ec 2fbe a43b 2dbf
000000a0: 118f fcbe 1b64 983f 3552 983f 052a 433e
000000b0: e504 4f3f 7a09 9ebe f5de adbe d300 fc3d
000000c0: cd12 42be 46a5 5cbe bdd8 08bf 72d0 dbbe
000000d0: 4bf1 123f 1683 813c 0c67 3a3f ac43 1bbe
000000e0: a537 1cbd 33e8 ae3f 35b1 f93e 8d12 193f
000000f0: 5ea8 99be 8a4e fa3e 7e33 94be e544 dcbe
00000100: 1af9 e23e fd4d 163e 1f06 a7be cbd2 0abe
00000110: c247 97be 89c1 b3be 6576 103f a509 c43e
00000120: 629d 6f3f 5a54 bb3e cc60 163f 1270 04be
00000130: 2575 09bf 24e2 86bf 1fbb d93e f2e6 763c
00000140: 3975 713d 92f8 0bbf 6f3b a1be 5af9 e1bd
00000150: 0e0f fabd 6e06 113e b5a7 633e 193b 483c
00000160: e137 f73e c172 3ebf 713b c93e cef2 f33d
00000170: 389c 813d c1df 143e fb16 3fbf 86c2 10be
00000180: 603f 153f bdf6 34bf 5842 56be 5946 52be
00000190: 8a1f 4240 d541 3dc0 e25b 1a40 fb1b 34c0
000001a0: 5f14 aabf 0476 25c0 a8a5 2540 9372 bc3f
000001b0: db32 3040 378d 1ec0 e3c9 36c0 8d0e 3140
000001c0: 77cc ea3f 7235 b53f adfe da3f ac54 be3f
000001d0: 8ee5 27c0 3da0 13c0 6862 1240 4c70 18c0
000001e0: 2dbc 85bf 89fe d6bf 9d93 12c0 47b0 3940
000001f0: 3c70 eb3f 8c93 1cc0 7ece 28c0 42b7 0640
00000200: 4813 1cc0 2809 11c0 78d4 4440 de92 4dc0
00000210: 63ef fcbf 3ac7 1640 c228 993f 4bf2 0c40
00000220: 08f3 14bf 5430 2e3f 7acc e53f d323 19c0
00000230: f36a 5b40 ccca 24c0 89e1 0540 84d4 34c0
00000240: fd84 1ac0 097f 2ac0 d7eb 44c0 73a3 4c40
00000250: 9670 0440 d5f8 4e40 623a 91bd 10b9 0e40
00000260: f25e 973f bf3c a93e 09a7 0b40 7862 c83d
00000270: 8010 1ec0 5437 03c0 6cce 803e e6de 8bbf
00000280: be21 113e fd48 673f ff94 563f 45d4 8b3f
00000290: 135d 59bf 91e1 be3f e426 ad3f 72da a4bf
000002a0: c8f0 0140 5c43 ff3f f19b ebbf 9f79 913f
000002b0: d894 87bf 71b3 07c0 b5c3 ac3f 09eb 8abf
000002c0: a56e c0bf 92ed e93f b8f7 63bd 6042 3b3f
000002d0: 2f6f 72be 08f8 193e 9bc3 2140 2ff7 b13f
000002e0: 44d7 09c0 420a 813f 6a1b 1c40 6302 f13f
000002f0: f2e8 383f e652 fbbf 4be7 e1be a40c f53d
00000300: e854 823f b6f2 7abf 35c4 eb3f d74a 153f
00000310: 85ca 51bf e24e 5ebf c58c e63f 0a1f e7be
00000320: a2b8 913e 82a0 8cbd 67c5 d73e 3408 9d3c
00000330: a79e e63d 5ab1 67bf fa4a f0bc 3edd 513d
00000340: f271 57be 64ab 8c3e 73b2 fc3d c9c3 9c3e
00000350: 1c7d 11bd cde7 26bf 883c 693e 6d80 503f
00000360: 3246 ec3d cc84 c33e 9cf3 8cbe e390 eb3e
00000370: adb2 b63d b9a6 2cbf bcd4 223f 9e1e cbbd
00000380: 49b9 193f 583f 06be 66b7 e43e 05d0 053f
00000390: 44b6 683f e43a 8dbd d622 14bf 4357 febe
000003a0: a5d3 08bf 83b3 353e ea0e 293f 346f 9a3c
000003b0: 31e4 b93c 407a 863e 98fb 3dbe b5f8 623e
000003c0: 13aa df3e 2011 903e 0bcf 44be e38a 323d
000003d0: 7787 f73e 291a 2c3e 1f13 853e 9ece 5ebe
000003e0: fef1 073d e2be 303f
0.17508255 0.5100326 1.0339472 0.4503607 0.2617684 0.35976642 0.508619 -1.0400026
0.7485627 0.13720566 0.17488863 0.9344934 0.45132664 0.038047954 0.77782696 -0.26174736
-0.4023455 0.12070914 -0.06660673 -0.00837059 -0.70867395 0.4998794 0.004423218 -0.6271749
-0.5657195 0.20020653 -0.4297499 -0.42675427 0.107836835 -0.15592583 0.23471725 0.23680124
-0.09594295 -0.53055036 -0.39635614 0.19736141 0.38301733 -0.46422002 -0.1717987 -0.6766913
-0.493279 1.190555 1.1900088 0.19058998 0.80866843 -0.30866605 -0.33959165 0.12304845
-0.18952484 -0.21547422 -0.53455716 -0.4293247 0.57399434 0.015809577 0.7281349 -0.15162534
-0.038139004 1.3664612 0.4876801 0.5979393 -0.30011266 0.48888046 -0.28945535 -0.43021312
0.44330674 0.14678188 -0.32621858 -0.13556974 -0.29546934 -0.35108593 0.56430656 0.38288608
0.9359952 0.36587793 0.5874145 -0.12933376 -0.53694373 -1.0537763 0.42525575 0.01506971
0.058949683 -0.54676163 -0.31490657 -0.11033888 -0.12209903 0.14162609 0.22231944 0.012221121
0.4828482 -0.7439385 0.39303163 0.11911546 0.063286245 0.1453848 -0.7464444 -0.14136705
0.5829983 -0.7068899 -0.20923746 -0.20534648 3.033175 -2.957143 2.411858 -2.8142078
-1.3287467 -2.585328 2.5882359 1.4722465 2.753104 -2.477369 -2.8560722 2.766513
1.8343648 1.4156935 1.7108971 1.486959 -2.623386 -2.3066552 2.2872562 -2.381854
-1.0448052 -1.6796428 -2.2902596 2.901384 1.8393626 -2.4465055 -2.6376033 2.1049352
-2.4386768 -2.2661839 3.075468 -3.212089 -1.9760555 2.3559098 1.1965563 2.2022884
-0.58183336 0.6804249 1.7953026 -2.3928115 3.4284027 -2.5748777 2.0918906 -2.825471
-2.414367 -2.6640036 -3.0768945 3.1974761 2.0693717 3.2339375 -0.07091214 2.2300453
1.182585 0.33054158 2.18207 0.097844064 -2.469757 -2.050252 0.25157487 -1.0927398
0.14173028 0.90345746 0.838211 1.0924155 -0.84907645 1.4912587 1.3527493 -1.2879164
2.0303211 1.9942431 -1.8406965 1.1365241 -1.0592299 -2.1203272 1.3497225 -1.0852977
-1.5033766 1.8275626 -0.055656165 0.73148155 -0.23675226 0.15036023 2.5275638 1.390356
-2.1537638 1.0081255 2.4391732 1.8828853 0.72230446 -1.9634674 -0.44121775 0.11965302
1.0182161 -0.980266 1.8419253 0.5831732 -0.81949645 -0.86839116 1.801171 -0.45140868
0.28461176 -0.06866552 0.42142794 0.01916895 0.11260729 -0.9050499 -0.029332627 0.051236384
-0.2103956 0.2747451 0.12338724 0.30618122 -0.035519704 -0.6519745 0.22776997 0.8144596
0.11536826 0.38187253 -0.2752961 0.46008977 0.089207985 -0.674419 0.63605857 -0.09917949
0.6004835 -0.13110101 0.44671172 0.5227054 0.90903115 -0.06895998 -0.57865655 -0.4967595
-0.53447944 0.1774426 0.6603838 0.018851854 0.022691818 0.26265144 -0.18553007 0.22165187
0.43684444 0.28138065 -0.19219606 0.043589484 0.4834554 0.16806854 0.2599115 -0.21758506
0.033189766 0.69041264

linears.4.bias f4 [5]
00000000: 46fd 1740 578b b03f 15eb de3e 488b 05c0
00000010: ed02 eebd
2.3748336 1.3792523 0.43538728 -2.086626 -0.11621652
