inverse/saved_model/USnet_lmbd-1.0_mu-0.5-12000.pt (torch, 36151 bytes, 10 tensors)

linears.0.weight f4 [50, 2]
000000 0d 58 53 be 98 6e a6 bd 4b 95 74 bc 8f 35 cc bc
       -0.20639057 -0.08126563 -0.014928172 -0.024927882
000010 7c 64 30 3e a8 d7 fb 3d 27 75 2c be 52 71 67 3d
       0.17225832 0.122969925 -0.16841565 0.056504555
000020 94 dc 91 3d 97 37 61 3d c2 12 99 3d 3f a5 c3 bd
       0.0712215 0.054984655 0.07474281 -0.095530026
000030 60 65 9d bd 1e af a1 bb 4b 7d 11 3e e7 57 47 bd
       -0.07685351 -0.0049342057 0.14207952 -0.048667815
000040 20 31 79 3d 9e dd 4f 3d ca c1 bd bc d7 2c b2 3e
       0.060837865 0.05074846 -0.023163695 0.34799835
000050 d8 a3 05 be a8 89 28 3d cc 51 38 3b 8c b7 35 be
       -0.13050783 0.041146904 0.0028124927 -0.17745799
000060 70 98 2e bd 39 34 b4 bd 11 fb 25 be 21 da ae bd
       -0.042625844 -0.08799023 -0.16209055 -0.085376985
000070 d0 d8 ae bd bf ff 0e be 06 1c d5 bd af c9 a1 3e
       -0.085374475 -0.13964747 -0.10405736 0.31599185
000080 94 0e 57 3e f5 36 50 be e9 41 23 be 71 b8 e1 3c
       0.21001655 -0.20333464 -0.15943111 0.027553769
000090 e8 aa af bc 42 68 60 be 9e 1a 6d 3d 42 93 4d 3d
       -0.0214438 -0.21914771 0.057886712 0.050189264
0000a0 7b a7 e2 bd 8e 08 fc bd fc 9c 7a bd a9 7f 05 3d
       -0.110671006 -0.12306319 -0.06118487 0.03259245
0000b0 71 60 c0 3d 09 36 7a 3d cb 6d b8 3d 10 e6 b9 3d
       0.09393395 0.06108669 0.09005316 0.09077084
0000c0 d8 92 6c 3e 50 f5 4a bd 98 ea 44 bd 2e f4 0f be
       0.23102891 -0.049550354 -0.04807529 -0.14057991
0000d0 02 63 f5 3d ef f2 56 be 92 c7 48 3d 4f 08 dd bd
       0.11981775 -0.2099111 0.04901845 -0.107926
0000e0 07 37 4a 3d 6e bf 2b bd 0c 3f 54 3d 5a 7c 8f bd
       0.049368884 -0.04193061 0.05181794 -0.0700614
0000f0 e6 1b 06 3e 70 6b b2 3d 63 2c 34 3e d5 f3 fc 3d
       0.1309658 0.08711898 0.17595057 0.12351195
000100 a6 67 6c be 29 a2 8b 3e 10 da a9 bb d5 d1 8c 3d
       -0.23086414 0.27272156 -0.005183466 0.0687596
000110 69 d9 15 be 29 12 0b 3e e3 55 33 be 91 ce 45 be
       -0.14633717 0.13581146 -0.17513232 -0.1931708
000120 8c 8c bd bd b6 d0 04 3e 14 a9 ba 3d 7e a9 55 3e
       -0.09255323 0.12970242 0.0911428 0.20865437
000130 4f ee 0f 3e f0 d4 ee bd 38 e2 af bd bc 45 38 3d
       0.14055751 -0.11661708 -0.0858807 0.04498838
000140 97 c4 d4 3d da 0e 04 be a2 1e b4 bd 73 d7 81 3e
       0.10389059 -0.1289629 -0.08794905 0.25359687
000150 a9 01 0f 3e e0 6e 01 3e af fe 7a be 31 ea 35 3e
       0.13965477 0.12639952 -0.24511217 0.17765118
000160 7a d6 87 be 57 8c f6 3c dc c2 ae bd ce 96 1a be
       -0.2653082 0.030096216 -0.0853326 -0.1509659
000170 b8 cc 1a 3e f0 ed 0e 3e 85 bd 1d be 55 23 47 3d
       0.15117157 0.13957953 -0.15404327 0.04861768
000180 f5 91 b4 3e 60 6a db bd 7c 53 db 3d 98 3e 8c bd
       0.35267606 -0.10713649 0.10709283 -0.06847876

linears.0.bias f4 [50]
000000 45 76 23 3d 8a ad 05 3b 1d 1f ff bd 8d 1f 51 bd
       0.039907712 0.0020397627 -0.12457106 -0.05105548
000010 f9 ae 13 3e dc 01 18 3e 69 9b 10 3b 46 42 a6 3e
       0.14422216 0.1484446 0.0022065288 0.32472438
000020 31 ce ed 3e 4c 53 61 3d 13 e0 46 be b2 fb 70 3e
       0.46446374 0.05501108 -0.19421415 0.23533514
000030 89 43 8c bd 3f be 44 bd 6e e8 79 bd 9b 84 ea 3c
       -0.06848819 -0.048032995 -0.061012678 0.028627684
000040 29 59 fb 3d 56 9e 67 be 90 76 c1 3d 04 8e 41 3e
       0.12272865 -0.22618994 0.09446442 0.18901831
000050 bb 1d 91 be a1 53 f8 bd c3 f2 e5 3e 2a b4 6b be
       -0.28342995 -0.12125326 0.44911775 -0.23017946
000060 6d 42 b1 3d 95 80 7a be 57 0b 81 3e 19 9b 33 3d
       0.08655248 -0.24463113 0.25203964 0.043849085
000070 e3 bd 55 bd 75 f4 ad 3e 7a 29 f0 3d 90 ff 62 3e
       -0.052183043 0.33975568 0.11726661 0.22167802
000080 23 6d 32 be 77 b8 18 3f 60 c0 4b bd 40 36 8a be
       -0.17424445 0.5965647 -0.04974401 -0.26994514
000090 0d 06 da bd 77 8b c6 be ca 0c 38 3d 7b 50 90 be
       -0.10645685 -0.38778278 0.04493407 -0.28186402
0000a0 a6 c1 a5 3c f8 4b ae be df 45 df bd b6 cd 09 be
       0.02023394 -0.34042335 -0.10901999 -0.13457379
0000b0 9e a4 c0 bd 68 44 83 3d 4b e4 33 3e 14 6a 47 3c
       -0.09406398 0.06409532 0.17567556 0.012171287
0000c0 9e 80 20 be 58 89 81 bd
       -0.15674064 -0.06325024

linears.1.weight f4 [50, 50]
000000 13 55 8a be 3d 73 22 be a3 84 d3 3d 42 9a 8f bd
       -0.2701803 -0.15864272 0.10328033 -0.07011844
000010 66 6e 7e 3e 76 ac 7b 3b 0e ad ff bd 7e 29 c7 bd
       0.24846801 0.0038402355 -0.124841794 -0.09724711
000020 aa 7c 2d be 84 4e 89 be 2c 1a 80 3e 70 24 12 be
       -0.16942087 -0.26817715 0.25019968 -0.14271712
000030 19 da 73 3d bd 5f a2 3e f2 f6 57 3d 07 c9 8b 3d
       0.059534166 0.31713668 0.05272574 0.06825452
000040 7e 7d da be 4d de 69 3e f1 ed 3d be 7d da 95 be
       -0.42673868 0.22838707 -0.18547799 -0.29268256
000050 64 dc 0f 3e 37 6c 01 3f a3 21 af bd 09 c5 2c be
       0.14048916 0.5055575 -0.085513376 -0.16872038
000060 8c 37 0e bd 21 62 76 bd 93 c1 58 bd 04 7a a7 bd
       -0.034720942 -0.060152177 -0.05291898 -0.081775695
000070 b9 8b 8e 3d 72 fb b9 bd 6c 29 3a be 67 4c d2 bc
       0.06960244 -0.090811625 -0.18179864 -0.025671197
000080 34 9d cd bd 97 e7 05 be c7 0a 55 bd 96 44 c5 3d
       -0.1003975 -0.13076626 -0.05201223 0.09632222
000090 52 4b 34 3d 3d 18 a0 3e 20 a1 b4 be 24 40 69 3e
       0.044017144 0.31268492 -0.3527918 0.22778374
0000a0 55 92 80 bd b4 04 b6 3e c3 b7 0f bd d7 eb 22 3e
       -0.062779106 0.35550463 -0.03508736 0.15910278
0000b0 dd b0 2b 3e 92 c0 ef 3d c3 af 85 be 1e 65 9e 3d
       0.16766687 0.11706652 -0.26110658 0.0773413
0000c0 64 82 30 3d 57 11 d8 3e 3e a5 7f 3d 0a 97 38 3e
       0.0430931 0.4220073 0.062413447 0.18026367
0000d0 c8 79 0f be 20 ae 13 be ec 11 29 3c 20 c0 a4 3b
       -0.140113 -0.14421892 0.010319214 0.005027786
0000e0 6f 1c 6a be 55 71 69 be a6 98 9d bd 5e 33 0e 3d
       -0.22862409 -0.22797139 -0.07695131 0.034716956
0000f0 29 7c b7 3d 13 d9 58 bd 7d 94 87 3e 12 a2 86 3d
       0.089592285 -0.052941393 0.26480475 0.06573881
000100 10 e4 21 3e 2c 1f 2f 3e 30 ea 23 be d1 77 7e 3d
       0.15809655 0.17101735 -0.16007304 0.062125985
000110 de ae 16 3e 52 8f 53 3a b2 17 80 3e 8c 04 d8 3d
       0.14715144 0.00080703676 0.25018078 0.10547742
000120 61 6c 2a be d7 62 23 3d 2c f5 08 bd a8 7a a0 3d
       -0.16642906 0.039889183 -0.03343694 0.07835895
000130 ae 62 e5 3d 23 fa 1c 3d 39 a2 bc 3d d5 c3 2a 3e
       0.11200462 0.038324486 0.09210629 0.16676266
000140 10 8f 79 3e f7 87 9f 3c e1 71 03 3d fe 20 e5 be
       0.2437098 0.019474013 0.032091025 -0.44751734
000150 64 fe 44 3d e5 7f e6 bc c0 51 8f 3d e0 99 05 be
       0.04809417 -0.028137157 0.069980145 -0.1304698
000160 e4 f4 15 bc c2 a2 6f 3c bb d7 e3 3d 7a 19 81 bd
       -0.009152625 0.014626207 0.11125132 -0.063036874
000170 6d 51 88 bc 9f 1a 94 be 98 bd 8f 3d 28 cf c5 bd
       -0.01664039 -0.2892656 0.07018584 -0.096586525
000180 1b bf 28 be 7e 30 ac be 31 d3 b5 bd d0 aa c5 3d
       -0.16479151 -0.33630747 -0.08878172 0.096517205
000190 32 a0 5e 3e a2 d0 8c be f6 57 98 3d ee 3b 28 bd
       0.21740797 -0.27502924 0.07438652 -0.04107278
0001a0 81 ec 4b bc ac cd 73 3d 26 c2 37 be 73 9c 4d be
       -0.012446524 0.059522316 -0.17945156 -0.20079212
0001b0 b1 2f be be cd 6c 35 be aa 0d 26 3c af 6e 2d be
       -0.3714576 -0.17717285 0.010135094 -0.16936754
0001c0 01 36 21 be 09 29 e6 bc ae 92 cb 3e 33 e7 f4 bc
       -0.15743257 -0.028095739 0.39760345 -0.0298954
0001d0 f9 5c 85 be c6 4f 25 3e cf 7f 51 3e 56 46 44 be
       -0.26047495 0.16143712 0.20458911 -0.19167456
0001e0 49 e2 8c 3e 36 c9 35 3e 7f 27 32 be 11 56 8c 3d
       0.27516392 0.17752537 -0.17397879 0.06852353
0001f0 97 b6 4c be 75 4b c4 3d ba 32 1e bd ca e1 55 be
       -0.19991527 0.09584705 -0.038622595 -0.20886913
000200 f2 a4 1f bc cd da a3 bd a1 e0 88 3e fc 74 85 be
       -0.009743916 -0.08000717 0.26733878 -0.26065814
000210 84 16 85 bd fc d7 f4 be 5c 08 f0 3d 16 dd d1 bd
       -0.06498435 -0.47821033 0.117203444 -0.10247247
000220 fa 5c 1c 3e 56 c5 90 3e 7f 85 45 be b3 b5 00 bd
       0.15269843 0.28275555 -0.19289206 -0.031423282
000230 60 e6 f3 bb cf ba 38 3e 0e 10 52 3c 55 4b 2e 3e
       -0.0074432343 0.18040012 0.012821211 0.17020924
000240 4f d3 40 bb 3d 0a 4e 3d fe 0d a2 bd f3 63 0f bd
       -0.0029422825 0.050302733 -0.07912825 -0.03500743
000250 be 94 28 3e 39 4c b0 bd a0 16 98 be f7 a8 dd 3e
       0.1646299 -0.08608288 -0.29704762 0.43292972
000260 16 9f 24 bf ff 87 c7 bd 49 ac a9 3d d5 bc f7 3e
       -0.64305246 -0.09742736 0.08284814 0.48386255
000270 7d 46 50 3e c5 27 c7 3e 0f b5 3b 3f 62 e3 28 3e
       0.20339389 0.3889753 0.7332315 0.1649299
000280 01 8c 6d 3e bb 16 22 3f 3f 4b 13 3e 52 f9 f2 be
       0.23197939 0.63315934 0.14384173 -0.4745584
000290 2d 89 b1 be 83 d5 3d 3e 11 94 c5 3e 96 6c 9a be
       -0.3467497 0.1853848 0.38589528 -0.3016097
0002a0 75 2a bb be 64 4d 88 3e 0d 08 21 bf 3f 67 f7 be
       -0.3655583 0.26621544 -0.6290291 -0.48320958
0002b0 a7 de 17 3f b7 ed 0a be 4e d3 0f 3f f4 e9 16 bf
       0.59324116 -0.13567244 0.561818 -0.58950734
0002c0 47 7e 8a 3e f1 79 27 3e 44 63 86 3e d5 a7 03 3e
       0.27049467 0.1635511 0.2624761 0.12856992
0002d0 b7 e0 8f be 17 47 58 3e 0c f1 d2 be 38 c5 40 3f
       -0.2810113 0.21120869 -0.4119953 0.7530093
0002e0 cf 58 d8 bd 0c 2b ee 3d dc 9b b3 be 5b be a9 be
       -0.10563814 0.11629304 -0.3507985 -0.33153042
0002f0 f6 c2 1e 3e c9 e4 54 3d 69 ea ae 3e 10 a6 f9 bd
       0.15504059 0.051976 0.34163216 -0.12189877
000300 4f c3 7e be e3 e7 17 be 1a b2 2b be 0c 2a 7e be
       -0.24879192 -0.14834552 -0.16767159 -0.24820727
000310 ed bf a7 be ba 36 4e be dd 91 0b bf 7a 35 18 be
       -0.32763615 -0.20138064 -0.54519445 -0.1486415
000320 de f4 1f 3e 3d 3f 8d be 55 77 a5 bd 9a 93 38 3e
       0.15620753 -0.2758731 -0.080794014 0.18025056
000330 41 71 61 be 59 6f ce bd c5 66 bf be 9a 28 83 be
       -0.22015859 -0.10079832 -0.37383094 -0.25616914
000340 44 73 1f be 49 2d c4 be 62 91 06 3e 7f d2 9a 3d
       -0.15571314 -0.383158 0.13141397 0.0755968
000350 34 1f db 3e de fb b0 3d bf 68 20 bd fc 9d 7f be
       0.42797244 0.0864179 -0.039162394 -0.2496261
000360 2e 4a aa 3d 5a 12 58 3e 9c 74 c8 bd 7f 0e cf be
       0.0831493 0.2110075 -0.097878665 -0.40440747
000370 b0 a3 93 3e e1 60 7c 3e 4f 5d 31 be 1f 60 92 3e
       0.2883582 0.24646331 -0.1732075 0.2858896
000380 2c 99 a2 be 60 a7 60 3d 94 19 a6 bc b4 90 0f 3e
       -0.31757486 0.05484712 -0.020275868 0.14020044
000390 b4 31 05 be 3d f5 3d 3e 40 9d f7 3d b0 8e 64 bd
       -0.13007241 0.18550582 0.1209054 -0.05580014
0003a0 49 5b 27 be 99 56 16 3d ec d8 ac be ad 83 a2 be
       -0.16343416 0.03670368 -0.33759248 -0.31741086
0003b0 fc 10 76 3e fe 5e 86 bc a7 0d f6 3d 29 27 5e 3e
       0.24029917 -0.016402718 0.12014323 0.21694626
0003c0 d1 f5 8a bd d1 bf a1 be 0e 8c 4a 3e df 29 5d 3e
       -0.06785167 -0.31591657 0.19779989 0.21598004
0003d0 9e b8 03 3e 9a 86 5a 3d 62 77 3e 3e c3 f3 63 3e
       0.12863395 0.053351022 0.18600228 0.22260956
0003e0 f9 70 06 3d 85 f1 c4 be 82 90 81 bd 17 40 33 be
       0.032822583 -0.38465515 -0.06326391 -0.17504917
0003f0 23 5c 20 bc 7c 05 53 3d 9d 99 93 bc f7 fd 50 be
       -0.009787592 0.051518902 -0.018017584 -0.2040938

linears.1.bias f4 [50]
000000 be 78 e4 be 35 19 ab be aa 2d 79 be 2a 04 cd 3e
       -0.4462337 -0.3341767 -0.24333826 0.4004224
000010 bf ac c5 be ee 20 85 3e fe 1c a7 3e 3e 91 42 be
       -0.38608357 0.26001686 0.32639307 -0.19000718
000020 fd 6f 36 3e c7 aa 62 3e 05 43 0f be 6e 6d 65 bd
       0.17816158 0.22135459 -0.1399041 -0.056012563
000030 0d 52 39 be 86 c5 b5 be 97 8a a5 3e 90 40 94 3e
       -0.18097706 -0.3550226 0.32332298 0.28955507
000040 66 35 98 be 71 9e 72 3d c8 e2 95 bd 6b 0f d0 3e
       -0.2972824 0.059233133 -0.07318646 0.40636763
000050 4f 32 01 3f fd 50 a7 be 51 eb 42 3e c5 e0 dd bd
       0.5046739 -0.32678977 0.19035079 -0.10833887
000060 08 69 a3 be 6d f1 c4 3d bb 7c f4 3d d1 f9 c9 be
       -0.3191607 0.09616361 0.11937853 -0.39448407
000070 d0 a7 e1 bd 13 a3 ad be c3 a9 db be d3 19 d1 3d
       -0.11018336 -0.33913478 -0.42902955 0.10210004
000080 16 ae 4d 3e fb 4d 49 3e 87 dc c1 be 92 04 71 3e
       0.2008594 0.19658653 -0.37863562 0.235369
000090 f0 5a 67 3e 83 7d 3c be 12 95 8d 3e ce 13 0e 3e
       0.22593284 -0.18407254 0.27652794 0.13874742
0000a0 be b7 1e 3e e8 0b 77 3e ff a5 3c 3e 20 96 5e bd
       0.1549978 0.24125636 0.18422697 -0.05434239
0000b0 ae 58 6c bd 23 5c 82 be 8e 26 a6 3d 48 5e 40 be
       -0.05770176 -0.2546092 0.081128225 -0.18785965
0000c0 dc 00 ab bd 5b 66 e1 3e
       -0.08349773 0.44023404

linears.2.weight f4 [50, 50]
000000 ba fd 15 bf 66 2e 8d be 8d 15 2c be f2 15 c5 3e
       -0.5859028 -0.27574462 -0.16805096 0.38493305
000010 02 5f 47 be 14 86 da bd a8 e7 33 be dc 6e 79 be
       -0.19469836 -0.106701046 -0.17568839 -0.24358696
000020 0b 5a 3f bd 11 05 02 3e e9 22 a1 3e 56 4e d7 3d
       -0.04671673 0.12697245 0.31471947 0.10512988
000030 27 e0 af be 45 d7 5c be 7f e5 21 be 80 2f e2 3d
       -0.34350702 -0.21566494 -0.15810202 0.11044216
000040 09 0f e9 bd d7 42 0a 3e 56 bd 87 3d 9f 18 1d 3e
       -0.11379821 0.1350206 0.0662791 0.15341423
000050 c9 4d 79 3e fe 38 3a bb 83 76 80 bd 30 c2 35 bc
       0.24346079 -0.0028415318 -0.06272604 -0.011093661
000060 9a cc 0d be 61 23 54 be 85 ce 44 be fc 56 be be
       -0.1384758 -0.20716621 -0.19219406 -0.3717574
000070 86 56 19 be 09 18 02 bd 7a 32 a6 be cc 49 6a 3d
       -0.14974412 -0.031761203 -0.32460386 0.057199284
000080 a2 9d b9 3d f7 6a 3e 3e a3 99 59 3e 68 dc 47 3d
       0.09063269 0.18595491 0.21250014 0.04879418
000090 67 94 bd 3e dd 7b 7f bb 09 e4 d8 bd 68 73 cc 3e
       0.37027285 -0.003898374 -0.10590369 0.39931798
0000a0 54 26 41 be 86 f2 8e be 5b c9 c7 bb 95 bf 31 bd
       -0.18862277 -0.27919406 -0.0060970015 -0.043395597
0000b0 eb 36 9f be 56 c0 a9 bd ab 91 6f be 76 95 76 be
       -0.31096587 -0.08288638 -0.23395412 -0.24080452
0000c0 2b 8f eb be ed 57 a0 bd cd 9a d3 3e f5 2a a1 bd
       -0.46007666 -0.078292705 0.4132904 -0.078695215
0000d0 b5 ea 41 bd 9a ee cd bd c8 43 80 be 05 7c cc 3d
       -0.047342975 -0.10055275 -0.25051713 0.09984592
0000e0 35 fa cd be a3 b6 2b be de 9d e5 bd 3d dc a0 3e
       -0.40229955 -0.16768889 -0.112117514 0.31418028
0000f0 d5 64 85 be 28 30 0a 3d 71 75 2f be 72 53 32 3c
       -0.2605349 0.03373733 -0.17134644 0.010884153
000100 db 3d c8 bb 94 2d 68 bb a9 2e 53 3f 9e 3a d8 3d
       -0.0061108894 -0.0035427557 0.8249307 0.10558055
000110 67 bd 9f be dc 6a 81 3c bc 05 be 3d 91 31 58 3e
       -0.3119919 0.015798025 0.092784375 0.21112658
000120 c3 0e 4f bd 39 f8 33 bd 5e ab c1 be b3 91 39 3f
       -0.050551187 -0.043937895 -0.37826055 0.72487944
000130 bc 1d 2d 3e 77 86 cd 3e 00 59 a8 3c c8 03 ae bd
       0.16905874 0.4014165 0.020550251 -0.08496815
000140 5c be f2 3d 51 42 88 be 88 ee f6 be 8f 5b 88 3e
       0.118527144 -0.26613095 -0.4822886 0.26632354
000150 db 7f 1c be 85 ec 3c 3c 96 b3 a7 be 27 11 95 be
       -0.15283148 0.011531 -0.327542 -0.2911465
000160 ba 13 1f 3e 41 49 99 bd ff e3 da bb 4f 7b c1 3d
       0.15534869 -0.07484675 -0.0066800113 0.094473474
000170 82 22 12 be 1a db 2c 3f 08 de b8 be 59 89 bc be
       -0.14270976 0.6752182 -0.36106896 -0.36823538
000180 b6 f7 01 3f 11 5a a8 3e 0d 65 fb 3e 20 54 d9 3d
       0.507686 0.32881215 0.49100533 0.10611749
000190 09 5c 64 3e 84 b3 0c 3f 97 45 b6 3e b5 97 28 bf
       0.22300734 0.5496142 0.35599968 -0.65856487
0001a0 6a 44 70 3e 33 c1 c8 be d1 c9 29 be 9e 2f 6a 3e
       0.23463598 -0.392099 -0.16580893 0.22869727
0001b0 1a c8 ef bd e0 47 0e bf 7a 43 14 3e fc f6 5b 3e
       -0.11708088 -0.5557842 0.14478865 0.21480936
0001c0 1f b6 c3 3e aa f1 0e 3e 23 a5 88 be ec f9 dd be
       0.38224885 0.13959375 -0.2668849 -0.43354738
0001d0 72 ef bf 3e 61 73 b0 be 9e 9c a7 bd 56 51 36 be
       0.3748737 -0.34463027 -0.08184169 -0.17804465
0001e0 5b 81 21 bf 4a 87 12 3f 59 47 09 bf 16 7d d0 3e
       -0.63088006 0.57237685 -0.5362449 0.40720433
0001f0 de 2c 13 3f ac ef fa be 53 7b a0 be 98 84 eb 3d
       0.57490337 -0.4901098 -0.3134409 0.114998996
000200 85 60 0c 3f 2a 05 5c 3a 91 a6 05 3f 89 ca 34 3e
       0.5483478 0.00083931035 0.52207285 0.17655386
000210 89 31 7f be 58 1c fa be 17 23 3c 3e 05 84 fb be
       -0.2492124 -0.4884975 0.1837276 -0.4912416
000220 89 50 9c be 0b c0 56 3e 1a fd 2c bd 47 86 33 be
       -0.30530193 0.20971696 -0.042233564 -0.17531691
000230 cd 02 2b be 59 29 4f be eb 2f 80 3c 78 f7 87 be
       -0.16700287 -0.20230617 0.015647849 -0.2655599
000240 5b 3d 13 3f 62 83 3b 3f a3 1c 04 3d 00 a5 19 3f
       0.57515496 0.7324735 0.032253873 0.60017395
000250 c9 c5 f5 be ba 0f eb bd 3f 46 64 3e fb e3 55 bd
       -0.4800246 -0.11477609 0.22292422 -0.052219372
000260 aa 72 c9 be b0 d9 cc bc 56 3f 80 3e 4f a6 90 bd
       -0.39345294 -0.025006145 0.2504832 -0.07062971
000270 5a ee db be 1e 81 b4 bd 3a 35 88 bd 9b 44 e2 be
       -0.42955285 -0.0881369 -0.06650777 -0.44192967
000280 f6 38 09 bf f6 3a e7 be 0f 7a a3 3e 13 74 dd 3c
       -0.5360254 -0.4516217 0.3192906 0.027032888
000290 25 cb 70 3d 76 10 ad be 6e c9 de bd 04 0f f5 be
       0.058787484 -0.3380162 -0.108782634 -0.4786302
0002a0 b6 c2 c1 3c e2 1b b1 be 8a 2b d4 bd 14 9b 01 3e
       0.023652416 -0.34591585 -0.10359867 0.12656814
0002b0 25 f4 02 3f 03 d8 ba bd 99 47 2a be be f5 28 bf
       0.51153785 -0.09123232 -0.16628875 -0.6599997
0002c0 90 5f 3e be eb 4b cc 3e 6a ea 89 be ca d7 f6 bd
       -0.18591142 0.3990167 -0.26936656 -0.12052877
0002d0 a3 4b 8d be 86 11 ca be ab 7a 49 3e 44 db 1d 3f
       -0.2759677 -0.39466494 0.196757 0.616627
0002e0 b5 b2 27 3e ff 73 1b bf 17 1d 3f 3f c1 2c 85 bd
       0.16376765 -0.6072387 0.7465376 -0.06502677
0002f0 ea d6 66 3e 7a 64 8c 3e 80 2d 68 be c4 db 19 3d
       0.2254292 0.27420408 -0.22673607 0.0375631
000300 be bc d2 3e 51 3f 18 3e f7 36 16 be 9b 8c 6d 3e
       0.41159624 0.14867903 -0.14669405 0.23198168
000310 ea 9e 41 bf 61 41 fb be ee 57 dc 3e 3f 2a 55 bf
       -0.7563311 -0.49073318 0.43035835 -0.8326759
000320 d8 fc b3 be 9a 47 9a be d7 cf a8 be 4c e8 af bd
       -0.35153842 -0.30132753 -0.3297107 -0.08589229
000330 06 80 96 be e8 50 61 3c a5 1b 5c be aa 4d 93 be
       -0.2939455 0.0137522 -0.2149492 -0.2877019
000340 39 29 bf 3e 1e 63 8c 3e a1 77 e7 be 6f 6a 55 be
       0.37336138 0.2741937 -0.45208457 -0.20841382
000350 c9 1a 01 bf bf cf 11 be 5a d0 c8 3d 45 ad e4 3e
       -0.50431496 -0.14239405 0.09805365 0.44663444
000360 b3 47 c8 be 7c 6f b5 3c 7b a0 a3 be 95 b0 b7 3e
       -0.39117202 0.022147886 -0.31958374 0.3587691
000370 3d 10 0c 3e c8 08 be be 53 f7 a7 3d 4c e6 c1 be
       0.1367807 -0.37116075 0.0820147 -0.37871015
000380 89 75 0e be 14 79 d7 be 59 52 37 be 9c d0 0f bf
       -0.13912024 -0.42084563 -0.17902507 -0.5617769
000390 b0 6a 4c be 73 19 6e be 32 ef 66 be 26 ac 4f bd
       -0.19962573 -0.23251896 -0.22552183 -0.050701283
0003a0 28 9b af 3e 9b c8 cc 3e 42 90 f8 be c1 4f 96 3e
       0.34298062 0.399968 -0.4854756 0.29357722
0003b0 e8 e0 4d 3e e6 ea 06 bf 34 86 86 3e e6 3b 8d 3e
       0.20105326 -0.52702177 0.26274264 0.2758476
0003c0 19 77 85 3d 48 bb 9f 3e 26 3f cd 3e 3e 09 3a bb
       0.06516857 0.31197572 0.4008724 -0.0028386856
0003d0 15 1d 5a 3e f6 ec c3 bc cb e0 91 be a6 ba 7a be
       0.21300156 -0.023916703 -0.28491816 -0.24485263
0003e0 24 df 63 bc cd 85 e0 3d ee a5 16 3d c8 11 2d bc
       -0.013908181 0.109630205 0.036779337 -0.010563321
0003f0 75 4a 31 3e 8d af 71 be 86 31 af 3c f6 44 99 bd
       0.1731356 -0.23602124 0.02138592 -0.074838564

linears.2.bias f4 [50]
000000 00 78 16 3d 84 3b e4 3c 84 7c 92 be dd ac b0 be
       0.036735535 0.02786041 -0.28610623 -0.34506884
000010 af ad 19 3e ed 07 de 3d 5d 4c c7 3d 75 67 6f be
       0.15007661 0.108413555 0.09731362 -0.2337931
000020 6c 31 72 bf d8 06 d8 3c 35 1f 0e bd 0b 0c de 3d
       -0.9460666 0.02637045 -0.03469773 0.10842141
000030 cc 0d 89 3e 85 80 d5 3e 1a ed 98 bd 4d b5 94 bb
       0.2676834 0.41699615 -0.074670985 -0.0045382143
000040 a1 c0 12 bf 04 69 83 bd 66 93 7d be b1 97 78 3e
       -0.5732518 -0.064165145 -0.2476326 0.24276616
000050 db d4 90 3e ad b9 32 3f 91 aa 61 be ce da dc 3e
       0.28287396 0.6981457 -0.22037722 0.43135685
000060 03 b5 ba bd 21 df 0d be a5 ab 6c 3e ff d6 d8 bd
       -0.091165565 -0.13854648 0.23112352 -0.10587882
000070 b1 45 b9 bb 4b de 7a 3e 6f c7 87 3e 88 19 88 3e
       -0.00565406 0.2449886 0.26519343 0.2658198
000080 5c 31 d6 be c8 e4 b5 3e 4e 12 61 be ee b4 3b 3f
       -0.41834533 0.3552611 -0.21979639 0.7332295
000090 34 2d 58 bd ec db ea 3b d1 7f 49 be 4e 8c 6f 3f
       -0.052777484 0.00716733 -0.19677664 0.9357346
0000a0 28 44 aa bd ac 77 d5 3e 34 cc 4a 3e 4d 35 7b bd
       -0.08313781 0.41692865 0.1980446 -0.06133013
0000b0 db 92 66 3f 98 99 69 3d af eb 49 3d 33 07 a7 bd
       0.90067834 0.057031244 0.04929703 -0.0815567
0000c0 e3 c5 f1 bd 48 76 b1 3e
       -0.11805322 0.34660554

linears.3.weight f4 [50, 50]
000000 41 b7 98 be f7 47 f1 3e 38 50 b9 bd 60 52 21 bd
       -0.29827312 0.47125217 -0.09048504 -0.0393852
000010 c5 0f 8a be aa 63 8f be 3f 4d 64 3e ac 5f 89 3c
       -0.26965156 -0.28005725 0.22295092 0.016769253
000020 66 c0 b1 3e 83 08 6f 3e c9 c0 30 3f f7 5a f3 3d
       0.347171 0.2334309 0.69044167 0.118825845
000030 32 6d d3 3d 91 7b d7 3d 21 fe 10 3e 74 3d bc be
       0.10323562 0.10521615 0.14159442 -0.36765635
000040 d4 06 d7 3d ff 2c 16 be 45 76 05 be f3 50 34 be
       0.10499349 -0.14665602 -0.13033397 -0.17609005
000050 d1 e9 8e 3d a2 b5 09 bd 3c 96 10 bf c1 f0 77 3f
       0.06978191 -0.033620484 -0.5647924 0.96851736
000060 f6 86 ee bd af bb 11 bf b0 00 12 be ff 87 85 bd
       -0.116468355 -0.5692701 -0.14258075 -0.0652008
000070 14 6b 43 3e 30 8f 07 3d cd 76 45 3f cb 67 50 be
       0.19083816 0.03309554 0.771344 -0.20352094
000080 d9 1b 9e bc d0 6d 50 3e 46 16 ea bd b4 80 e9 be
       -0.019300388 0.2035439 -0.114300296 -0.45606005
000090 70 3d d8 3e 35 77 80 be 65 00 77 3e 3a f9 fa bd
       0.42234373 -0.25090948 0.24121244 -0.122545674
0000a0 26 4f f6 bc 2e cc bd be e0 e1 32 3c a0 a4 8f 3d
       -0.030067038 -0.3706984 0.010918111 0.070138216
0000b0 0b 7d 06 be f9 0d b0 3d 64 02 07 be 58 e8 0e bf
       -0.13133638 0.08596415 -0.13184506 -0.5582328
0000c0 72 2c 78 bf 4b 08 8c bc 16 7d a4 3d 71 c8 f2 bd
       -0.9694282 -0.017093798 0.08031671 -0.118546374
0000d0 05 c5 c4 3b 5e 85 01 3f f1 7c 8b bd 35 f7 94 bd
       0.006004932 0.5059413 -0.0681094 -0.072737135
0000e0 3d ec 79 bd 0b c5 d0 be 0f c3 99 3e 55 87 2e 3c
       -0.06101631 -0.40775332 0.3003163 0.010652383
0000f0 8e 6f 81 3e 1c a7 ec 3e be 6e ff bc 4a 40 52 3f
       0.25280422 0.46221244 -0.031180736 0.8212935
000100 d9 66 33 be 1f 8d 94 bd d6 d0 9a bd 9b 6e 86 3e
       -0.17519702 -0.07253479 -0.075593635 0.2625626
000110 cc 40 5f 3e f4 2d 35 bd 5a e6 86 3e c8 bc 9d 3e
       0.21802062 -0.044233277 0.2634762 0.3080809
000120 c1 a1 94 3e f7 a8 ed be e3 bf 9f 3d d6 1d b4 3e
       0.29029658 -0.46417972 0.07800271 0.35179013
000130 06 d0 d5 be b2 9e 06 be 09 2f 27 3e 5e db 27 3e
       -0.41760272 -0.13146475 0.16326536 0.16392276
000140 ad ab ac be 97 ec 0f bf 15 c1 1b be 8d 44 8d 3d
       -0.33724728 -0.5622038 -0.15210374 0.06897841
000150 64 5d c7 3e dc 67 b0 3e 92 c2 fd be fe c2 f6 bd
       0.3893844 0.34454238 -0.49562508 -0.120489106
000160 6f 00 04 bf 64 3a 28 be d0 56 7f 3d 8f e8 85 3d
       -0.5156316 -0.16428524 0.06233865 0.06538498
000170 65 54 ba 3e 73 ad b9 bc d6 28 47 be 33 31 63 3c
       0.36392513 -0.022665715 -0.19449171 0.0138667105
000180 0d 93 1c 3e ad 30 e6 3d 0e f5 8b 3e ea 7a 8d be
       0.1529047 0.11239753 0.273354 -0.27632838
000190 a3 4a 00 bf 74 75 e6 bd 2c a4 6a 3e 76 4e dd 3c
       -0.50113887 -0.11252871 0.22914189 0.027014952
0001a0 3a 0e 23 be 96 05 05 be 85 fa d1 3e 8e 66 b5 3e
       -0.15923396 -0.12990412 0.41011444 0.35429806
0001b0 1b f4 b1 3e d3 cd d9 3c 5f 7a b0 3c 6d 21 c0 bd
       0.3475655 0.026587402 0.021542726 -0.093813755
0001c0 c5 de af 3d dc 77 91 3e 80 46 86 bc 2e 6a 55 3e
       0.08587412 0.28411758 -0.016391039 0.20841286
0001d0 97 cc 0e be 67 58 bf be 96 70 46 be fe a2 07 3d
       -0.13945232 -0.37372133 -0.19378886 0.033114426
0001e0 d8 eb 85 bd 12 23 0c be 8b fe 1c bf 8a 42 ae be
       -0.06539124 -0.13685253 -0.613259 -0.3403514
0001f0 09 80 a0 3e 86 b8 10 bf c0 ff 84 3d 4e c3 0c bf
       0.31347683 -0.5653156 0.06494093 -0.5498551
000200 05 2c aa 3b 0d 27 7b be 31 5b 9b be f1 85 9f 3e
       0.005193236 -0.24526615 -0.3034301 0.31156877
000210 23 e6 b6 be 3e 3f 51 be e2 3e be be d1 c5 09 bf
       -0.35722455 -0.20434281 -0.3715735 -0.5381747
000220 2c 00 c8 3e ea 78 49 3d de 2f 03 3f 89 24 ad 3e
       0.3906263 0.04918758 0.51244915 0.33816937
000230 69 94 04 3f 2c bf 80 3d 82 c9 e4 be d0 f4 c0 3e
       0.51788956 0.06286463 -0.44684988 0.37686777
000240 6b 8d 63 be 44 fd b6 ba 11 e3 c3 be 8f 21 bd be
       -0.22221915 -0.0013960977 -0.38259175 -0.36939666
000250 ba bb 6f be 34 e5 bf be e5 25 2d be 9e 8d e8 3e
       -0.23411456 -0.37479556 -0.16908987 0.45420545
000260 d3 46 c5 3e 37 8e 95 be cf ea 83 be 57 2a 00 3f
       0.38530597 -0.29210064 -0.25765082 0.50064605
000270 d9 02 b0 3e 04 9b a2 be 78 37 88 be aa 0a 1b 3f
       0.34377173 -0.31758893 -0.2660482 0.6056315
000280 d4 f2 b4 be 4e b7 3e 3f 43 99 19 3e 69 db 52 3e
       -0.35341513 0.7449845 0.14999871 0.20591511
000290 43 d8 f3 3c 1f c5 3e bf 2d 6c 99 3e 42 e7 44 3f
       0.029766208 -0.7451953 0.29965344 0.7691537
0002a0 71 e4 fd be c6 8e 72 3f 43 84 ba be 80 80 5e 3f
       -0.4958835 0.94749105 -0.36429033 0.86914825
0002b0 5c aa d4 bd eb c4 b6 bd 71 8c d9 3e 16 f2 0a bf
       -0.10384056 -0.08924278 0.4248996 -0.54275644
0002c0 cd 75 56 3f 0c c4 ee bc f7 6a 95 be c2 8e a4 3e
       0.837735 -0.029146217 -0.2918317 0.32140166
0002d0 35 d0 f6 3e 89 db 22 bf 38 b5 87 bd c8 23 0b bf
       0.48205724 -0.63616234 -0.066263616 -0.5435147
0002e0 91 73 21 bd 05 06 a2 3e 9a 84 ad bf df 07 b2 be
       -0.039416853 0.31645218 -1.3556092 -0.3477163
0002f0 de e0 3b bf ba a9 17 3e d9 2d a1 3d 7a eb f2 3e
       -0.73389995 0.1481084 0.07870073 0.4744528
000300 1a 31 0e 3e 28 ab 7b 3e 10 30 2a 3e ce ea 61 be
       0.13885918 0.2457701 0.16619897 -0.22062227
000310 c8 ec c0 3f 67 a4 93 be 23 28 f7 bd f7 e5 8a 3e
       1.507226 -0.28836367 -0.12068202 0.27128574
000320 fa e7 f7 bd db d4 72 bf 97 ce c0 3e 3f 0f 94 bd
       -0.12104793 -0.9485604 0.37657616 -0.072294705
000330 69 c2 12 3f 08 73 83 3e 81 2c 03 3e 0a 14 6e be
       0.57327896 0.256737 0.12809946 -0.23249832
000340 24 58 60 be 62 9f 55 bf bc f4 b4 3e 93 2d 21 bf
       -0.21908623 -0.83446324 0.35342968 -0.62960166
000350 76 77 4c be ac 54 c6 be 38 33 99 3d 03 b2 7d 3d
       -0.19967446 -0.38736475 0.07480472 0.061937343
000360 75 44 22 be b2 2b 71 3d da af 5f be 25 76 a7 be
       -0.15846427 0.05887956 -0.21844426 -0.32707325
000370 f3 e9 6c 3e d3 cc 8b 3e 7c 9d e6 bc c0 5b 75 bd
       0.2313612 0.27304706 -0.028151266 -0.059901953
000380 42 59 84 bd 17 06 4d bf fb 0e 07 be 1b e6 a1 be
       -0.06462337 -0.8008742 -0.13189308 -0.3162087
000390 ab dc 3b 3e f9 a6 fc 3d 91 78 dd 3e b8 0d 05 3f
       0.18345897 0.12336535 0.43256047 0.5197406
0003a0 67 f0 bf bd 75 c1 2a 3e da 1d 21 3f 38 8e e1 be
       -0.09372025 0.1667536 0.62936175 -0.44053817
0003b0 af fd aa 3b d7 c2 9b bc 98 2c 0b 3d 23 76 28 3f
       0.0052182297 -0.019013805 0.033978075 0.6580526
0003c0 1e 76 0c bf 69 7a bb be 71 9d e5 be 92 ab 41 be
       -0.5486773 -0.3661683 -0.4484668 -0.18913105
0003d0 4a 81 b9 3d 94 78 ca 3e f1 ad 93 bd d9 1a 5a be
       0.09057863 0.3954512 -0.07210911 -0.21299304
0003e0 ad 71 10 3e dd 01 ad be 77 a2 e6 bd 9d 0c 0a 3f
       0.14105864 -0.33790484 -0.112614565 0.53925496
0003f0 6e 3c c2 be e1 85 dc 3e 1f 8c b7 be 08 df 92 be
       -0.3793673 0.43070891 -0.3584909 -0.28685784

linears.3.bias f4 [50]
000000 bc fc 65 be 4c 84 61 3e 08 85 c2 be 99 73 6c 3f
       -0.22459692 0.22023124 -0.3799212 0.9236389
000010 e5 4a 02 bf ac 67 06 3f aa dd 85 be 95 e2 d6 be
       -0.5089553 0.5250194 -0.2614568 -0.41969743
000020 39 f4 01 bf b6 31 ac be f4 67 08 3b 0e 1b 80 be
       -0.5076328 -0.33631676 0.0020813914 -0.2502064
000030 84 72 60 3f 06 6a b4 3e c8 7c b4 be 09 5e 4c be
       0.87674737 0.3523714 -0.3525145 -0.19957747
000040 17 19 17 3f f1 1b 12 3e e6 8e ae be ee 23 6c bf
       0.5902266 0.14268471 -0.34093398 -0.92242324
000050 9e df 6a 3e 04 54 17 3f 95 f7 f4 be 21 9a ad be
       0.22936866 0.5911257 -0.4784514 -0.33906654
000060 6d a2 03 3e dc aa 92 3d bc 0d c9 3e ca 6e a3 3e
       0.1285493 0.07161495 0.3926829 0.31920463
000070 a2 09 8a 3d 8b e0 98 3e 89 3e 42 3f a2 d6 b2 3c
       0.067401186 0.29858813 0.7587667 0.02183086
000080 8a b5 c0 bd 9c 24 06 3e 6b 90 ac 3e cd 3b 5d 3f
       -0.09409626 0.13099903 0.33703932 0.86419374
000090 a7 fe 14 bf 4c 4f 61 bd f5 dd 29 3f b3 32 8d be
       -0.5820107 -0.055007264 0.66354305 -0.27577743
0000a0 0b e6 ce 3d ec 85 4c bf 58 fa fc be ee 85 36 be
       0.10102471 -0.7989185 -0.49409747 -0.17824528
0000b0 62 09 05 bf f6 b9 ef be c7 20 49 bf 2b 5e 19 3f
       -0.5196744 -0.46821564 -0.7856564 0.59909314
0000c0 e3 16 cf bd 61 6f 9e be
       -0.10111787 -0.3094435

linears.4.weight f4 [5, 50]
000000 37 28 26 3e 7f bb 86 bf e6 4b 74 3f 17 f4 8a be
       0.16226278 -1.0525969 0.9542831 -0.2713935
000010 9d 8c 2e 3e 81 42 64 be a4 db 01 be 4a d5 57 bf
       0.17045827 -0.22290994 -0.12681442 -0.8430983
000020 2f a8 08 bf 30 14 f1 be 23 72 e5 3e 45 c0 4f bc
       -0.5338163 -0.47085714 0.44813642 -0.012680118
000030 51 2c 43 be ee 1a f2 bd f7 60 bf 3e c8 aa ee bd
       -0.19059874 -0.11821543 0.37378666 -0.11653668
000040 90 09 d2 3e 24 ca 91 3e a2 33 a6 bc b0 d6 8a 3d
       0.4102292 0.28474534 -0.020288292 0.0677923
000050 85 f1 e5 bd 3c c1 ba 3e 1a bc af be 41 0f d1 3e
       -0.11227707 0.3647555 -0.34323198 0.4083195
000060 85 b8 7a be 47 aa 3a 3f 77 b4 ae 3d bd 03 5e bf
       -0.24484451 0.7291607 0.08530515 -0.86724454
000070 40 93 04 3f 1f f5 23 3e 43 b5 ec bf 5f 9b 52 bf
       0.51787186 0.16011475 -1.8492817 -0.8226833
000080 31 34 81 3e a5 29 60 be 97 55 4d 3e bf 1b 1d be
       0.2523513 -0.21890886 0.20052181 -0.15342616
000090 2d fb 95 be bd 29 de 3e cd b3 f0 3d b1 41 30 bf
       -0.29293194 0.4339122 0.11753044 -0.6885024
0000a0 a4 1f cc 3d e4 44 17 3f 1b d8 36 be 86 cc 64 bf
       0.099669725 0.59089494 -0.17855875 -0.8937458
0000b0 1c 7a 1a bc 39 01 45 be 9d 92 8e be a9 95 60 bd
       -0.009428527 -0.19238748 -0.27846232 -0.054830227
0000c0 f7 5f 3c 3e 3f 07 34 3f 45 66 73 bd 1d e0 73 3f
       0.18395983 0.70323557 -0.059423704 0.95263845
0000d0 33 8c a1 be 8f ad 12 be 63 ec 69 be 61 00 38 be
       -0.31552276 -0.1432402 -0.2284408 -0.17968895
0000e0 ef 49 1a bd 93 a6 10 bf 72 6f c0 3c a3 64 ad 3d
       -0.037668165 -0.5650417 0.023490641 0.084664606
0000f0 b2 42 b7 bc 67 b0 70 bf 6a 73 37 3d f6 90 a8 3e
       -0.02237067 -0.9401917 0.0447878 0.32923096
000100 c6 65 fc 3e 9a d0 ab 3d de cd 90 3e 22 bb c4 3e
       0.49296397 0.08389397 0.28282064 0.3842402
000110 b9 b6 03 be 24 68 85 3e 28 b4 d4 3e a7 5c cf 3e
       -0.12862672 0.26056015 0.41543698 0.40500376
000120 0b 8e 25 bf 36 f7 33 be bf cd 81 be c1 63 4c be
       -0.64669865 -0.17574772 -0.25352284 -0.19959928
000130 c6 05 a4 bd 46 57 1d 3f fa 14 70 be 78 da 8d 3d
       -0.08008914 0.61461294 -0.23445502 0.06926435
000140 a9 a7 73 3e 17 e1 c8 3e 96 c1 2e bc 20 05 a2 bd
       0.23794426 0.3923423 -0.010666272 -0.07911134
000150 2d b5 36 be 3a ea 34 3f 97 fb a2 bd 5d 56 c0 3e
       -0.1784255 0.706699 -0.07958143 0.3756589
000160 7a 77 ff bc 1b 5c 5d bd 7c 03 a6 3e bd 36 70 bf
       -0.0311849 -0.054042917 0.32424533 -0.93833524
000170 40 32 d2 be 29 52 a6 be 31 0f e1 3c 2a 14 20 3f
       -0.41053963 -0.32484558 0.027473064 0.6253077
000180 36 cd 80 bf 22 a1 1c 3e 77 e4 4c be e6 14 ed bc
       -1.0062625 0.15295842 -0.20009027 -0.02894063
000190 44 c2 2a c0 4b c6 04 40 9e 16 1b c0 f0 72 e1 3f
       -2.668107 2.0746028 -2.4232554 1.7613201
0001a0 d5 5f 1b 40 ed 0f 28 40 9c 9f 5f c0 00 64 4e c0
       2.4277241 2.625972 -3.4941168 -3.2248535
0001b0 8c b4 07 40 25 45 20 40 9f d1 36 40 51 3b 23 c0
       2.1203947 2.5042202 2.8565443 -2.5504954
0001c0 3c 4d 53 3f c4 be 24 40 4d ea be bf c6 1a 72 c0
       0.82539725 2.5741434 -1.4915253 -3.7828841
0001d0 e5 2c 0e 40 7b 91 10 40 a1 65 07 c0 2a 77 1a 40
       2.2214901 2.2588794 -2.115578 2.4135232
0001e0 7e 30 01 40 b9 3f 35 40 a8 f4 2f 40 bf f1 56 40
       2.0185847 2.8320143 2.7493076 3.358505
0001f0 e9 4f ed 3f 43 be 34 40 47 9d 21 c0 09 9c 99 3f
       1.8540012 2.8241127 -2.5252244 1.2000743
000200 eb 34 d4 3f f7 84 0c 40 d6 ac 04 c0 c7 ef e4 3f
       1.6578649 2.1956155 -2.073049 1.7885674
000210 a1 4b eb 3f 11 02 ce bf 46 22 76 3f c6 ac 16 40
       1.8382455 -1.6094381 0.9614605 2.3542953
000220 7e e8 31 40 ee 82 42 c0 81 94 20 40 a7 48 1a c0
       2.7798152 -3.0392413 2.509064 -2.4106843
000230 3e 6a 62 40 e8 fd 02 40 43 2c af 3f 80 0d 17 40
       3.5377345 2.0467472 1.3685383 2.360199
000240 54 d4 29 40 17 84 1b c0 66 33 0c 40 93 fc 09 40
       2.6535845 -2.4299371 2.190637 2.156041
000250 37 94 61 c0 0c 65 b8 3f a2 ab 17 bf 80 d3 f8 bf
       -3.5246713 1.4405837 -0.59246266 -1.9439545
000260 7a 4c c9 3e df 66 91 3f 3a 70 13 40 40 04 a0 bf
       0.3931616 1.1359519 2.3037248 -1.2501297
000270 f9 2c ca 3f bd 53 b1 3f fb 7f d5 3f 3b 32 a7 3f
       1.5794975 1.385368 1.6679682 1.3062204
000280 2b 08 82 be d2 b4 d7 3e 27 56 9f bf 58 bd 12 3c
       -0.25396857 0.42130142 -1.2448167 0.008956276
000290 f7 1e 10 40 b7 76 01 3f e0 ad 24 3f e1 e7 64 3f
       2.25189 0.5057177 0.6432781 0.8941632
0002a0 00 76 03 bd d5 5a aa 3f a5 46 e1 3f 93 6a fd be
       -0.032094955 1.330897 1.7599684 -0.49495372
0002b0 f8 aa b5 bf a9 f7 d7 be 69 61 08 c0 45 93 1e 3f
       -1.41928 -0.42181137 -2.1309454 0.61943465
0002c0 08 5f d3 3f 96 d1 01 40 68 91 f2 3f 8a bd b1 3f
       1.6513376 2.028417 1.8950624 1.3885968
0002d0 22 d4 c8 bf b8 7b 26 3e 5f d0 19 c0 1b f4 01 c0
       -1.5689738 0.16258132 -2.403343 -2.030524
0002e0 d4 eb 19 c0 3d f6 a1 3e ef af 9a 3e e2 7a 18 3f
       -2.4050188 0.31633177 0.30212352 0.59562504
0002f0 08 a9 5f 3f ef 69 d5 3f 6e c8 37 bf 1e 60 f7 3f
       0.87367296 1.6672953 -0.71790206 1.9326208
000300 19 30 00 40 a6 4e e8 3e 94 ce 48 3f 9c bb 81 bf
       2.0029356 0.45372504 0.78440213 -1.0135379
000310 ce c1 d8 3f 3b 4a 1c 3f 79 c2 af 3f 08 66 ad 3f
       1.6934144 0.61050767 1.3731223 1.3546762
000320 aa 66 2e bf 5f a6 33 be 10 cc 9a 3e 10 39 33 3e
       -0.681254 -0.17543934 0.30233812 0.17502236
000330 8c 0d c5 3e 83 5f 25 3e 88 66 61 be ed c0 31 3f
       0.38486898 0.16149716 -0.22011769 0.69435006
000340 d6 e2 9a bf 1a d0 e8 3e 94 b8 6f 3f 30 08 69 bd
       -1.2100475 0.4547127 0.9364102 -0.056892574
000350 76 78 0f be 71 9b 1c bf a3 b0 7a be 65 04 45 bf
       -0.14010796 -0.61174685 -0.24481444 -0.7695983
000360 2a af df be 72 72 c5 bd 9d 13 94 be f4 da 48 bf
       -0.43688327 -0.09640969 -0.28921214 -0.78459096
000370 e4 96 b4 3d a3 56 7b 3f cf f5 5f be a7 19 21 bd
       0.088178426 0.9817907 -0.21871112 -0.039331105
000380 11 5a 8f be 08 af 3f bf 41 af da bd b2 7b 8f 3c
       -0.27998403 -0.7487645 -0.10677958 0.017515037
000390 ad 97 e7 be ec 9d e1 be 33 dd 0a 3f 84 f1 96 3d
       -0.45232907 -0.44065797 0.54243773 0.07370284
0003a0 1c 3c ec be b2 34 1b 3e 1c e3 a0 3d 7c 29 f0 be
       -0.4613961 0.1515682 0.07855818 -0.4690665
0003b0 c2 da 43 3f 90 10 8b 3e 69 2b 4a be 66 30 be bd
       0.7650567 0.27161074 -0.19743122 -0.09286575
0003c0 1c fd e7 3e 16 04 0c 3f a6 18 0a 3e 3c 91 7c 3e
       0.45310295 0.54693735 0.13485965 0.24664778
0003d0 34 5e 64 be 44 5d a1 bd 6c ff 15 3f 1f eb 54 bf
       -0.2230156 -0.07879117 0.5859287 -0.83171266
0003e0 36 76 6c 3e 31 61 37 be
       0.23091969 -0.1790817

linears.4.bias f4 [5]
000000 fb 82 d6 3f 34 dd ac 3f de 42 a4 3e a6 9b e8 bf
       1.6758722 1.3505006 0.32082266 -1.81725
000010 7f 14 c1 3e
       0.3771095
